port_results/Deep/30_2000/9/7_trained_linear.pth (torch, 173439 bytes, 17 tensors)

radius f8 []
0.8601698831692786
00000000: 0ceb a6fd 8286 eb3f

shared.weight f8 [30, 90]
-0.012164550617363455 0.010835406316119563 -0.025502356880007387 0.042311580651195814 0.03267698607631532 -0.027561753421022708 0.0163704059553601 0.0061129057569259595
-0.024187743631871296 0.04385143932203929 0.008792559295746098 -4.682110991374722e-06 0.018766634808382778 0.06595520789506357 -0.026542870052210038 -0.015432345404071852
0.05329320113358998 0.01390302687462946 -0.03469007040775068 0.00796918760869782 -0.008524483969936452 0.03977309393656242 0.007335324098668637 0.026092838204050003
-0.020398075372076788 -0.0023674406101395367 0.014533226192499315 0.03792843118913055 0.04674973255517542 0.022772808478025916 -0.039272373363390144 -0.009206166703293007
0.03097063662162943 -0.04127416667352257 -0.028786065781660108 0.025692264511454257 -0.05224360296091784 0.00011694009185287801 -0.004600961745087624 0.011518431869551551
0.013027799564983643 0.027087158860557854 0.01665119597550266 -0.010852049780238824 -0.06697108470135248 0.016083458238867785 -0.03396426539666684 -0.01570135150181802
-0.022982026858603344 0.015406303051875955 -0.00585467778604726 0.06569654875719257 -0.012190880384017609 -0.004430656711524537 -0.03461225821801353 -0.03465792400823838
0.04940087306050721 -0.023942943482719845 -0.05383090429186503 0.03226139534694901 -0.006969157963388246 -0.016713482453595555 -0.006017944096820636 -0.018102064381006217
-0.01421294729464135 -0.007486633184931263 -0.01199214267498266 -0.021653955546804965 -0.02208454028068378 -0.019262665729288985 -0.01404009208998786 -0.008711447447837696
-0.003077052677408821 -0.0030910298176504945 -0.0140282391237171 -0.010170013338252223 -0.01808566220774568 -0.015644019109986532 -0.008380219736991238 -0.008904143785318527
-0.005301589401930393 -0.019064424623671906 -0.0130179211596083 -0.01713173002367349 -0.014655608920989648 -0.01892079738029758 -0.011800589501070316 -0.011478471516747083
-0.009996475142262252 -0.021048556219419045 -0.015018072578688035 -0.012468819761055428 -0.02240997824948645 -0.01336954045014342 0.019661385856553467 0.016749903254628502
-0.029473519575803873 0.031824555322705804 0.01358029557895439 -0.028373342359048048 -0.005519276878538405 -0.042909478102544724 -0.0033729361719344094 -0.02310399198611955
-0.031878486662783555 -0.023669956116187815 0.037442790717389735 -0.020683427333704568 0.01078012215949695 -0.01697286019284498 0.012013612868831125 -0.005510681440849358
0.007923741494995001 -0.022174309473045873 -0.018825890070903465 -0.0021756418006619806 -0.08024754034928538 0.019414707729332323 -0.002983642734025788 0.025239442684673086
0.03198674307866267 -0.026302410026771934 0.010724164929392712 0.017625268429775843 -0.038186251199117144 -0.013928319114980615 -0.010341243794100275 -0.029245977649074124
0.012268179130281415 -0.03776214030446182 -0.005374167495798943 -0.025994481542408156 -0.01849357614538554 0.011803713321823504 -0.04130976320053824 0.02962945163826421
0.029118790434924113 0.008907390579756721 -0.02419162673214796 0.018536949375405485 -0.007424817997273105 0.01219715293379677 -0.019541121980698985 -0.029637933382520597
-0.025014682589330806 -0.026910398414853934 0.02574945385720071 0.007514326548177732 -0.034978295133513373 0.02734486196348896 0.02543286339235628 0.03661140524578484
0.029835675807298557 0.03122718741321016 0.03097475951676873 0.030153240214863347 0.0314928801756246 0.03494625338257968 0.0292868575856741 0.03851443947314379
0.031565288990161845 0.017716018656677275 0.03258929633679573 0.02741788371904318 0.030291288085812842 0.030435359317086862 0.03833273532194797 0.023320076912140154
0.031122038991441635 0.03653929831739633 0.03326373800688016 0.024513393506508743 0.02937393231649356 0.03112314160860259 0.024974229746422306 0.03285931987118904
0.03628692858865927 0.03084531355379009 0.035056898398422555 0.03675716124685472 -0.0166486235759792 0.017218257347034437 -0.03039375872924221 0.04214309320686742
0.028822040226215505 -0.031090606983905263 0.009915653492466809 0.002753392775800793 -0.019462877088599385 0.0364167422522905 0.015426753137581642 -0.0024967898168871336
0.013397610003583475 0.05376441142818259 -0.034793744443108815 -0.011684378463996914 0.03533561283866729 0.00963415851853393 -0.024567122049808956 6.278471909216751e-05
-0.010405285913352593 0.025962644074993168 0.005961993095055986 0.02192168902865045 -0.010227404467492924 -0.004458980535048486 0.016598438324542917 0.038380379399871746
0.04660276590898352 0.01687558953222372 -0.029438978488403073 -0.008554615387343086 0.03130666496386542 -0.03465045185555133 -0.028225294798507387 0.015310357389315115
-0.05294335003679535 -0.0027292851284448656 -0.004977961583837303 0.01003477049672397 0.011763792211885317 0.023011664490647607 0.016177154456318742 -0.01449001893370335
-0.06512139665112808 0.015769613322705718 -0.029613397028323614 -0.01761040983234431 -0.01985925815840571 0.011381754467969556 -0.005887216179642696 0.058205207334427675
-0.01609881738880465 -0.007231018730894044 -0.039158387982348254 -0.035715756796472264 0.04484640188929715 -0.028319904692418074 -0.04559093003832409 0.027884006727573664
-0.005204787182534228 -0.014576765657036559 -0.004405605062697793 -0.015215283513126222 -0.011621704674469392 -0.006886672174525776 -0.010452953640915785 -0.019022983919923235
-0.019464860606899753 -0.01672883178823933 -0.012596249739477617 -0.008020630791515639 -0.003091360757980964 -0.0037880004985549817 -0.012935434720895646 -0.00983112078933547
00000000: ccaf 9358 bae9 88bf fe01 229e df30 863f
00000010: ab0b 1533 4a1d 9abf c524 470e dda9 a53f
00000020: 922a 0fb5 09bb a03f d73c 41f6 2539 9cbf
00000030: e053 cd58 67c3 903f b6d2 f3a4 d809 793f
00000040: 2aa1 73ff abc4 98bf 8297 8a23 b273 a63f
00000050: 8fa9 fc54 d501 823f 0040 90de 60a3 d3be
00000060: b72b 088b 8f37 933f 7e01 e9c4 70e2 b03f
00000070: 28cf 43db 0d2e 9bbf 640f 7d56 fe9a 8fbf
00000080: 1793 ef17 3f49 ab3f 9d7f efad 3079 8c3f
00000090: 4761 cb9b e5c2 a1bf 8a88 3d41 2652 803f
000000a0: c9e1 edde 4875 81bf 48c1 6f93 235d a43f
000000b0: e5dd bf11 a50b 7e3f 8f1f fcba 14b8 9a3f
000000c0: 1466 7faa 3be3 94bf 655c ddff e164 63bf
000000d0: 8603 9e99 98c3 8d3f 7b80 17f7 5a6b a33f
000000e0: ccaa d7b8 94ef a73f 4cd2 9a4e c151 973f
000000f0: dbd0 762e 821b a4bf 871e 4cc7 aeda 82bf
00000100: 566d b43d c4b6 9f3f 009b 1038 e321 a5bf
00000110: c370 732c 187a 9dbf 67f6 58af 124f 9a3f
00000120: 37e2 486c acbf aabf c052 fb7a b7a7 1e3f
00000130: 88d2 9a43 75d8 72bf 688a 72c1 f996 873f
00000140: ec46 90a8 51ae 8a3f 7265 ca75 bcbc 9b3f
00000150: b8c4 9dd8 020d 913f d29c 3477 9939 86bf
00000160: 8fe8 915a 0425 b1bf 79f0 919c 2e78 903f
00000170: ad02 39a2 c363 a1bf 3430 d0dc 0314 90bf
00000180: 3094 03b7 9988 97bf bea0 14fe 568d 8f3f
00000190: c340 ea19 13fb 77bf 4149 5f30 7dd1 b03f
000001a0: ff6d 7844 88f7 88bf 7e14 d05a e125 72bf
000001b0: 2495 2caa b2b8 a1bf 2b45 53f4 aebe a1bf
000001c0: aea0 603c 124b a93f 7cbc e9bc 7f84 98bf
000001d0: 8634 e56a b98f abbf 7a7f e0cb 9084 a03f
000001e0: 6ed9 8818 b18b 7cbf 116f 29d2 561d 91bf
000001f0: e429 5c91 45a6 78bf 15aa 06fa 5889 92bf
00000200: a467 7b7e ad1b 8dbf 079c fbca 4daa 7ebf
00000210: debc c824 568f 88bf 083a 9c5b 742c 96bf
00000220: 0ccc 0269 549d 96bf 1343 5d9d 97b9 93bf
00000230: 63e6 df42 0dc1 8cbf c141 1daf 4ed7 81bf
00000240: 82e3 c213 0c35 69bf b8e3 49ff 5b52 69bf
00000250: 46fe 0d62 d6ba 8cbf d85c 8015 04d4 84bf
00000260: 07c8 d53e 0c85 92bf 1152 d259 fc04 90bf
00000270: 4f1e a10d a629 81bf ebc6 daf2 553c 82bf
00000280: 17dd 9191 1eb7 75bf 6d58 1ae1 9f85 93bf
00000290: 38af 23cd 23a9 8abf f8ca b3f0 fa8a 91bf
000002a0: 5920 2688 c203 8ebf 36b9 d937 f95f 93bf
000002b0: 3b4e d84f e82a 88bf 8212 2e5e 0682 87bf
000002c0: 5a87 7d2e 0879 84bf a397 5cb2 c08d 95bf
000002d0: 4069 9894 cbc1 8ebf 8d63 bfa8 4089 89bf
000002e0: 0612 be2e a4f2 96bf 57a2 f757 7d61 8bbf
000002f0: 6fe2 fd44 1d22 943f 3259 c2fa e226 913f
00000300: d651 b46a 4e2e 9ebf 333b a4e0 4e4b a03f
00000310: 1890 0d6b fccf 8b3f 1392 0ac6 e60d 9dbf
00000320: 28e4 0d9b 619b 76bf 5c18 472a 3bf8 a5bf
00000330: 8c38 9951 8fa1 6bbf bc20 f3a7 92a8 97bf
00000340: eb43 5383 6052 a0bf dcc8 aadd ef3c 98bf
00000350: 7c4e 3493 b32b a33f 28ac de4f 092e 95bf
00000360: 72b3 f980 e313 863f 0b99 ca5d 5561 91bf
00000370: a008 07d3 979a 883f adee 1249 5e92 76bf
00000380: d0e7 a994 523a 803f dd11 feb7 dcb4 96bf
00000390: b1c3 b018 1847 93bf f181 36cc a6d2 61bf
000003a0: 8876 6251 1a8b b4bf 0918 09fb 72e1 933f
000003b0: 741a e6fe 2671 68bf 2d89 9953 5ed8 993f
000003c0: a058 dbfe 9060 a03f 05df 7bdb 04ef 9abf
000003d0: 6170 300d 8df6 853f ddd8 f4bd 5b0c 923f
000003e0: 8435 1df8 258d a3bf 075e b258 7386 8cbf
000003f0: ba3c 2a3f ca2d 85bf 0556 2b56 a8f2 9dbf
00000400: f010 2b21 0f20 893f d5ed 442b 8f55 a3bf
00000410: c0f2 331a 3903 76bf a78b 6720 4c9e 9abf
00000420: 8e0c ece2 faef 92bf 3f3c 8295 8b2c 883f
00000430: 6e54 e7a3 8d26 a5bf b597 23d7 2e57 9e3f
00000440: f3e2 77f2 50d1 9d3f ebad dcb9 093e 823f
00000450: ec40 9b96 b0c5 98bf 7903 579d 59fb 923f
00000460: e8f4 a167 7c69 7ebf 0bc6 a327 d2fa 883f
00000470: 5745 567f 9602 94bf d653 650a 6859 9ebf
00000480: 5d61 90ee 729d 99bf f1dd 7444 668e 9bbf
00000490: ba7e d398 105e 9a3f 7609 6aac 57c7 7e3f
000004a0: 4228 56d3 ace8 a1bf a224 639f 4a00 9c3f
000004b0: 1e23 0e92 120b 9a3f 5aeb 61e8 babe a23f
000004c0: 2db8 624f 3e8d 9e3f 7b42 be12 05fa 9f3f
000004d0: 9802 81ec d8b7 9f3f e875 5db2 7de0 9e3f
000004e0: d482 d2b4 d51f a03f 99b4 caae 79e4 a13f
000004f0: aadf 21be 5ffd 9d3f 3dfe eb23 2ab8 a33f
00000500: dd95 cd57 5329 a03f 22a7 fbe2 2524 923f
00000510: 7db0 ee53 8baf a03f 9d64 9807 6f13 9c3f
00000520: c4a7 baee ad04 9f3f e3b5 a263 722a 9f3f
00000530: 17e2 2529 59a0 a33f 6d1d b6de 37e1 973f
00000540: a6c0 9cae 74de 9f3f b081 9566 47b5 a23f
00000550: e9b7 c3d5 f107 a13f c79e b2fd 091a 993f
00000560: a4f5 9d3a 3314 9e3f 734f 6ead bede 9f3f
00000570: 2ac3 0330 d892 993f dd5d 6ed0 efd2 a03f
00000580: 3604 1f47 3394 a23f ca27 cbf3 e995 9f3f
00000590: a5a7 3d50 faf2 a13f 85e8 e5aa d5d1 a23f
000005a0: e504 2137 560c 91bf 666a ccb0 a9a1 913f
000005b0: ff7a fa9e 8a1f 9fbf 06cc 268e c793 a53f
000005c0: 66ce b360 8683 9d3f 92ab d550 37d6 9fbf
000005d0: 3db8 bf7b a84e 843f 227a 9a7d 488e 663f
000005e0: 7d8f 5392 13ee 93bf dd3a 001a 37a5 a23f
000005f0: a8ce acc1 0f98 8f3f b0f6 78d3 2574 64bf
00000600: e2c8 7ac6 3470 8b3f a5a3 8b49 0287 ab3f
00000610: 2421 fa54 7cd0 a1bf 2d00 04bb faed 87bf
00000620: 4469 0d6b 8217 a23f d9b8 17de 12bb 833f
00000630: 4707 0ba7 1f28 99bf 0003 c142 6975 103f
00000640: 1b85 a0d5 5d4f 85bf 030f e18c f395 9a3f
00000650: 9cbf cb55 9a6b 783f 84f6 cda5 a372 963f
00000660: 3dd0 affd 1af2 84bf a800 2579 9443 72bf
00000670: e907 1357 2eff 903f 153a a9d4 97a6 a33f
00000680: 94e6 f656 51dc a73f 0c05 91a4 d547 913f
00000690: 0863 5767 4025 9ebf 1e48 8c0a 1585 81bf
000006a0: a950 555c 6d07 a03f 09be 053b b4bd a1bf
000006b0: 1175 5178 17e7 9cbf 56aa 3762 095b 8f3f
000006c0: 29be e509 641b abbf 44b8 c7cb b95b 66bf
000006d0: 52d2 4063 c563 74bf 42b1 d918 1c8d 843f
000006e0: 54ab 9d76 9d17 883f dcc9 a7a9 5e90 973f
000006f0: 0334 5475 be90 903f eb68 826b f1ac 8dbf
00000700: abed e2bc cbab b0bf 9262 f7d5 e825 903f
00000710: 325b 0a6f f952 9ebf e340 3299 7608 92bf
00000720: 9cb0 4041 fc55 94bf 1631 b039 514f 873f
00000730: 67f8 4b8f 311d 78bf dea1 eaab 12cd ad3f
00000740: 92bb c158 357c 90bf 7e8b 74cf 459e 7dbf
00000750: 9d1c 7f77 910c a4bf f814 c9ee 5549 a2bf
00000760: 4565 ea8a 1bf6 a63f 8049 eba1 e4ff 9cbf
00000770: d784 04c3 b157 a7bf 4ace e703 a08d 9c3f
00000780: e2bb b46b 9d51 75bf 7238 3a5e 6cda 8dbf
00000790: 5a33 9d9a 9c0b 72bf dab9 b4c8 3029 8fbf
000007a0: 2743 01cc 1ecd 87bf 0c29 49fc 3235 7cbf
000007b0: b352 46b0 5b68 85bf 4ece 3bd7 c27a 93bf
000007c0: 184d e9ae 98ee 93bf 971c b9e5 5c21 91bf
000007d0: 8d68 7705 10cc 89bf 14f5 8ad7 1e6d 80bf
000007e0: b09d 61ab 0d53 69bf f0d6 4548 0308 6fbf
000007f0: 81b2 afa8 e47d 8abf c88e 2fb2 5622 84bf

shared.bias f8 [30]
-0.01696174387336543 0.04360903991704723 -0.01409375372950657 0.03224926886078613 -0.03513383621046931 0.04170168675203325 0.007700068972728848 -0.004720900863820112
0.04219604658839513 -0.002739575430895031 -0.007803634391517536 -0.006010071046128206 -0.0023897570337178134 0.04400016183516653 -0.04297197783023825 -0.00193220938241522
0.02072480692849131 -0.04307020421151537 -0.012156775570517283 0.010505207276969285 -0.0040716974674325015 0.02007658132537571 -0.03394748182684212 -0.0027674005825468998
0.013401399505469667 -0.0403134537208052 0.005817582159479691 0.040436196895511055 0.035674498340281434 0.0308657745440669
00000000: 967e e05c 6b5e 91bf e0e1 8190 ec53 a63f
00000010: aad4 c49a 2fdd 8cbf eb6a 27e6 f982 a03f
00000020: b493 03eb 0ffd a1bf 4377 9369 ec59 a53f
00000030: c214 a386 1b8a 7f3f 4f91 152d 3956 73bf
00000040: 8d3c 3c60 b89a a53f 7508 2e5c 4e71 66bf
00000050: f62d 0628 b4f6 7fbf 32a5 6f29 049e 78bf
00000060: 223b c409 af93 63bf 3095 3370 3087 a63f
00000070: 46c2 d94e 6c00 a6bf d8db d006 46a8 5fbf
00000080: bc27 e53f e238 953f f97e 0a3d 4c0d a6bf
00000090: 3160 00cc a6e5 88bf 59cc 890d c183 853f
000000a0: 68a6 63f7 7bad 70bf e0f6 d490 f48e 943f
000000b0: 9ba7 7478 9061 a1bf 392e e7df a8ab 66bf
000000c0: 2ce2 c564 3172 8b3f 81ab a30a f7a3 a4bf
000000d0: fb3d de51 2dd4 773f f34e 7b9e 0db4 a43f
000000e0: 1b6e 5887 ed43 a23f 5c0e ee10 479b 9f3f

mean_hidden.weight f8 [30, 30]
0.02742196108635682 0.004782210555998874 0.028020039006672146 -0.009052050476882186 0.0034651125419886703 0.007107242691586877 -0.030247826463910187 0.0420168640977268
0.0038522112005241103 -0.017376265551036656 0.02353529052801232 -0.0522649074176696 -0.056801383207879384 0.004855176645785095 -0.004661920622258535 -0.05263509564944596
-0.018079688240864658 -0.0035875826537628197 0.03411554943333457 -0.030309492230135487 0.013987441033348463 -0.00548003195783014 0.003963942630542871 -0.019284249371257063
-0.032168018780677154 -0.0029324332599584943 -0.016087724199541152 0.0028652131266525783 -0.0029702782560235346 -0.0028351165150730397 0.033275230643586194 -0.05283679788486076
0.023706772056311373 -0.037340558014120756 0.041467580319739086 -0.05018115603002599 -0.013157173880467927 0.017528874326800552 -0.0521931577531583 0.0025750844662887715
0.015258933983909043 0.0003132108663167028 -0.002087101206357099 -0.0531103854860794 0.0536536893810199 -0.0008503796192464166 -0.033121436014321444 0.0525441235696279
0.023638509086030848 -0.021852695333275326 0.007573971471641506 -0.017704866492764888 0.04058295665829443 0.0021679032590632506 -0.02485425263075324 0.04678633798489007
-0.008839756828016531 -0.04853393929173435 -0.04224257480037317 -0.03420685756304154 0.030397495888544797 0.003783494557891581 0.029401780314149147 -0.008179884193721733
0.003292538622492609 0.005834246540031812 -0.027918622250349943 0.03978836869924958 0.003039607079873317 -0.01450955743402438 0.02440730402860088 -0.05101412934972148
-0.0517166359971508 0.0038873933368427306 -0.0037399673974055597 -0.047362779709985266 -0.020705829773289577 -0.0027793567252648475 0.03535241304565314 -0.0317815069517823
0.013623114520273006 -0.012520719817455566 0.003632560309109078 -0.016548373632875705 -0.03282657353910373 -0.0021109008493755545 -0.016163355756142084 0.001996299477054246
-0.0028459759623306502 -0.0030904257495592024 0.03430367050861733 0.004792109341145127 0.033121787975284006 -0.007620094216780597 0.002537978423123414 0.006808989237898917
-0.03052725512822815 0.043568633193967234 0.004102105393739441 -0.014729895635337137 0.028994993723213035 -0.050170859297402226 -0.05727777091654542 0.004883211088461175
-0.004784137766480399 -0.04686732568711195 -0.025169418735010215 -0.0038503783129996234 0.038562703223354866 -0.03633830050582241 0.015127555543946026 -0.013093761560033597
0.0029841064066180147 -0.015885101818742264 -0.03587913499034505 -0.003233236254920115 -0.018609549210220733 0.0030939207904150797 -0.001969769365978016 -0.0019354522955065206
0.0017109935350567182 0.0004237102037197459 0.0014371442443576784 0.00026721826626450345 -0.0003767333364918371 0.000431613344960155 -0.001010268729585068 0.0012136930332993328
0.0004129661840870902 -0.0004339516795223266 0.0015649796755124235 -0.002283375045870826 -0.0018687150304193998 0.00041953533035355014 -0.0003935826522602012 -0.0015213352639639132
-0.0012408804921092678 -0.00041456701763754373 0.0020237987740402983 -0.0017062692132202427 0.0006784695937862991 -0.0009009913608890479 -0.000330994452668448 -0.000675477789032892
-0.0017109483470785134 -0.0004450554573442126 -0.0007759521831214413 0.0005057122737916923 0.00035968344975583736 0.00045842521226461364 0.031170745140609746 0.004406138202370959
0.03094622616609506 -0.005020108931646271 0.0008706707249684941 0.005755997182861744 -0.024497312093007217 0.03482243504309834 0.0039362535454858846 -0.011917908984460969
0.028899381209271335 -0.04469857252210547 -0.04546022718512177 0.004408219921862438 -0.004305310048912253 -0.037902695665990443 -0.02461392251637688 -0.0038548158156558416
0.03614316241439438 -0.03529635172428829 0.013423441683988081 -0.013038985209424182 0.0013561405310291946 -0.014038548239140533 -0.032273463054667786 -0.0036533474280021254
-0.016398831991204798 0.003573056534657006 -0.0004735352071455981 0.0007269352390989585 -0.019487486759112493 -0.0029567484957402127 -0.019326483069384066 0.006055954260813142
-0.002499092259540295 -0.004285181353533544 0.01854715583779606 -0.02611594205457664 -0.0024288983263381454 0.009112888372788694 -0.01532735593580801 0.03157988129297677
0.03504102135788763 -0.003018776213039034 0.002966166406797909 0.03039706157615883 0.015340455913870895 0.002265773917664789 -0.024545801717317548 0.021282802753542794
-0.00868811483014778 0.009615848050588054 -0.002754173304265412 0.009338549110509905 0.02264913828661037 0.001659140955666336 0.009874584239004 -0.0016052507084576455
0.0021535040294623203 0.0023350941943701387 0.03678396463824734 -0.06695036539538764 0.026068126857950243 -0.04396408024749483 0.05029698749450196 -0.06518809153081159
-0.011567519169582074 0.01203798204893772 -0.0652753666554435 0.009496787883095716 0.012256335935866247 0.009091025997428455 0.006504492818638205 -0.0685043627281452
0.06740790223388578 0.007696949851052953 -0.03891079475764959 0.06625420392737283 0.027009211579253223 -0.024005585176926407 0.005000080247344599 -0.03455140295693221
0.04752757330742489 0.009440678342401315 -0.027693482439976682 0.0596856845846632 -0.008522372367165949 -0.061388078403213205 -0.05096550567243939 -0.043219487005880096
-0.020206464632602783 0.04317603092687633 -0.01391991055410476 0.028112493064594474 -0.033009473595977334 0.04187011027083624 0.001631216488714791 -0.0003929636379179177
0.04265077331848441 -0.011597825906405141 -0.0034341437083409082 -0.01966436924050472 -0.01922306311363533 0.043823053432144723 -0.04386252128124876 -0.018232946196898435
00000000: 347b 3ba8 8014 9c3f c8b3 0cdf 8296 733f
00000010: dc4a aafc 48b1 9c3f c460 14a6 e189 82bf
00000020: 0402 6f21 de62 6c3f 5736 cdee 7b1c 7d3f
00000030: 5614 c045 49f9 9ebf e644 5c02 3c83 a53f
00000040: ab01 f423 ac8e 6f3f dec0 1271 15cb 91bf
00000050: 298b 7a9c a219 983f 49ba 2c48 77c2 aabf
00000060: cba5 7d26 1215 adbf b027 8f8e 05e3 733f
00000070: 5e12 bfc9 6018 73bf e855 dfbc fcf2 aabf
00000080: 3495 dd56 7b83 92bf 2e6e 6dc5 b463 6dbf
00000090: 2ad6 33e2 9777 a13f c814 8c97 7309 9fbf
000000a0: 76fb 578e 72a5 8c3f 3a7e a3e0 3a72 76bf
000000b0: e6e6 61bf 7e3c 703f 4284 8211 40bf 93bf
000000c0: 18be 4799 5378 a0bf d90b 601e c205 68bf
000000d0: 3665 37e5 4c79 90bf 36f3 9995 c978 673f
000000e0: 8e4c 07ff 1f55 68bf c385 cd96 ab39 67bf
000000f0: 431a c376 7309 a13f a4b5 e1bd 6c0d abbf
00000100: 4ccc b38a 9646 983f 1457 f836 4d1e a3bf
00000110: a293 a21a 3d3b a53f b982 0c30 58b1 a9bf
00000120: 17f6 31fc 25f2 8abf ce90 e0d7 16f3 913f
00000130: a7e3 3fc3 0fb9 aabf 5413 26f2 5718 653f
00000140: e231 7673 1340 8f3f b004 766d ce86 343f
00000150: b084 97ed f718 61bf 5338 7bd1 4831 abbf
00000160: b206 6712 7f78 ab3f 024d b153 80dd 4bbf
00000170: 39c5 f4f8 4af5 a0bf b035 a838 10e7 aa3f
00000180: a784 cd7d b134 983f efba 248f 8d60 96bf
00000190: 7437 587c e205 7f3f 1511 447a 3921 92bf
000001a0: f9a5 3e0f 4ac7 a43f 1479 2733 6cc2 613f
000001b0: 1ec8 dca8 6473 99bf a0e3 16ff 60f4 a73f
000001c0: 86ee d813 941a 82bf a312 02c4 70d9 a8bf
000001d0: 5d6a 889a d1a0 a5bf b07b 10ad 8f83 a1bf
000001e0: a2e9 e26a 8520 9f3f a6ed 802c 90fe 6e3f
000001f0: d2e3 9213 801b 9e3f 81dd c678 9dc0 80bf
00000200: 5ca1 8a36 f4f8 6a3f e03a 61a1 a6e5 773f
00000210: 69fb 0e06 b396 9cbf 8a20 a61c 245f a43f
00000220: 621c 06a0 84e6 683f 81bf 44d5 2fb7 8dbf
00000230: 5571 5872 3afe 983f 7ec6 6122 861e aabf
00000240: fea6 8858 9a7a aabf f11e f367 74d8 6f3f
00000250: f76a 1eb5 47a3 6ebf 11d8 cd2b ef3f a8bf
00000260: f7ed d9b6 e833 95bf e650 a5c7 bbc4 66bf
00000270: 6b45 bb23 b619 a23f f374 f369 aa45 a0bf
00000280: 8d83 ac7a 6fe6 8b3f a357 1b91 76a4 89bf
00000290: ffd0 4ef7 07c2 6d3f b183 388e 0ef2 90bf
000002a0: b893 9407 a5ce a0bf 9f0f 9f43 e14a 61bf
000002b0: 9008 7771 208d 90bf d66a f11e 8b5a 603f
000002c0: 6983 deb5 7150 67bf 0566 cdb0 1751 69bf
000002d0: 293e ef2d 4090 a13f de9b 620e e4a0 733f
000002e0: b41c 47c8 56f5 a03f 2b95 4177 3f36 7fbf
000002f0: ef99 68ca 86ca 643f 488b 8721 bee3 7b3f
00000300: 1749 a669 8942 9fbf 1526 66bd a04e a63f
00000310: 7377 2c88 5ecd 703f 50d7 3720 b52a 8ebf
00000320: 06dc 2717 ddb0 9d3f c803 caaf feaf a9bf
00000330: d3a9 bf11 8353 adbf 395d cafe 6a00 743f
00000340: 3e0a f233 8898 73bf 227d 277e fefe a7bf
00000350: ff06 4e19 03c6 99bf 1659 cf1d d48a 6fbf
00000360: 801b 619a 7dbe a33f 5d8a 8708 ef9a a2bf
00000370: e72a a322 32fb 8e3f b7aa 74ed e6d0 8abf
00000380: 9a1d 93ed 1f72 683f 8373 3823 2f44 90bf
00000390: b6db c8fe bf5e a2bf 0436 347f 967c 6abf
000003a0: c03a 01b5 610e 93bf 5e56 8f13 6c58 693f
000003b0: d2c0 3de0 e722 60bf 2692 fa13 e0b5 5fbf
000003c0: 0e0b b651 6d08 5c3f 3115 cc77 adc4 3b3f
000003d0: 939b dde1 d18b 573f 8676 e9b6 2d83 313f
000003e0: e62a 0b5c 89b0 38bf 00ab 7c33 4549 3c3f
000003f0: 82dd d6c9 5f8d 50bf 2b74 aaf8 98e2 533f
00000400: c333 4841 6c10 3b3f d118 8745 8070 3cbf
00000410: 9a60 9d21 00a4 593f e245 b0a4 95b4 62bf
00000420: d189 3c7c f59d 5ebf 1a90 fc85 a27e 3b3f
00000430: 8aa8 a69e 38cb 39bf e655 1e4d f1ec 58bf
00000440: 774a 7048 a154 54bf a388 62c8 472b 3bbf
00000450: 82c1 8ab1 3694 603f bd51 039e 9cf4 5bbf
00000460: 82f1 ba5b 6a3b 463f 9e5f e936 1086 4dbf
00000470: 2e35 7059 2ab1 35bf a24c ac81 5122 46bf
00000480: d6c3 88cc 3c08 5cbf a0e9 5aa2 ca2a 3dbf
00000490: 5e58 f89f 286d 49bf 9de7 abd6 3892 403f
000004a0: 943b 53a7 7c92 373f 79c2 594b 190b 3e3f
000004b0: b02b e24b 39eb 9f3f c284 b1b7 2b0c 723f
000004c0: 34a1 4515 5eb0 9f3f 72c1 f03a f78f 74bf
000004d0: 1494 0825 b787 4c3f c609 80ba 9993 773f
000004e0: 8313 1ec9 d215 99bf e0b8 5a07 3fd4 a13f
000004f0: 062e f203 761f 703f f486 99aa 6a68 88bf
00000500: 1380 aca4 cc97 9d3f 6916 5236 bbe2 a6bf
00000510: 90c2 0e1a 9046 a7bf df1a 5e86 5a0e 723f
00000520: ad5b bfdd 71a2 71bf 7c9f a16c fb67 a3bf
00000530: 4bbc ef60 6434 99bf 16f3 877b 2294 6fbf
00000540: 3b72 1649 5b81 a23f 57da a508 5d12 a2bf
00000550: 278b 42d8 bf7d 8b3f 144a 61f8 2eb4 8abf
00000560: 6ef4 b0ce 1038 563f 053c 900c 3ec0 8cbf
00000570: aa69 b2b8 2586 a0bf aa9a 2cf7 9fed 6dbf
00000580: 5319 61fc daca 90bf 04ce d11e 3e45 6d3f
00000590: 9ffb 6a3a 9a08 3fbf 6ac4 038a f9d1 473f
000005a0: a019 3f19 87f4 93bf cb37 ef42 c038 68bf
000005b0: 1237 eb52 52ca 93bf d5b2 f0d7 20ce 783f
000005c0: 54fc c7f0 f978 64bf ab6c 559c 568d 71bf
000005d0: 3752 078f 06fe 923f 3553 1d34 23be 9abf
000005e0: 96d2 0fdc c4e5 63bf 0b0c 442c c7a9 823f
000005f0: f5db d3e3 f263 8fbf d6d3 bafa 3c2b a03f
00000600: 0a4a 8091 e5f0 a13f 057b 7c23 d5ba 68bf
00000610: e42b c676 804c 683f bbd6 7445 6820 9f3f
00000620: 3e7d a523 d16a 8f3f de49 0c1c ac8f 623f
00000630: 5919 85de 8822 99bf c6bb 2cb7 28cb 953f
00000640: d09a 7908 13cb 81bf d663 3447 79b1 833f
00000650: f466 9e88 eb8f 66bf be80 2cd8 1620 833f
00000660: 53f0 e4f0 5531 973f 28f8 3709 f12e 5b3f
00000670: 7ee8 f142 2039 843f 4f78 dcd2 e84c 5abf
00000680: bc66 1bac 39a4 613f bb30 5526 0c21 633f
00000690: 87e8 460a 59d5 a23f a514 d4bd a823 b1bf
000006a0: e29f 4a61 9ab1 9a3f 0a32 b9bd 7582 a6bf
000006b0: 319e c0d8 86c0 a93f 4ea7 36b1 2ab0 b0bf
000006c0: 73d1 3b24 b6b0 87bf 5120 ae99 5ea7 883f
000006d0: 7e00 05ed e2b5 b0bf 41e3 ff4a 0d73 833f
000006e0: 6d4f 1b90 d919 893f 24b1 c4da 509e 823f
000006f0: 160d ee7e 74a4 7a3f 00fb 8c7d 8089 b1bf
00000700: 2d25 96ef a441 b13f 7943 3a3e d686 7f3f
00000710: 1115 e49d 1dec a3bf 5230 1717 09f6 b03f
00000720: edcd b181 4da8 9b3f 1e64 068d eb94 98bf
00000730: b74b 3cd2 f67a 743f f83d 76b3 b8b0 a1bf
00000740: d5fa 06ba 8855 a83f a381 dc65 a255 833f
00000750: 9775 9125 ae5b 9cbf 4537 a93e 1f8f ae3f
00000760: 977c cf74 2d74 81bf b950 361a 426e afbf
00000770: 5ea9 2c98 2618 aabf 33f5 7a56 dd20 a6bf
00000780: 402a 0fe3 00b1 94bf 28a2 9a31 2b1b a63f
00000790: 6ab8 bec4 0a82 8cbf d52c 4979 85c9 9c3f
000007a0: 7815 1b23 9ee6 a0bf 7518 96c4 ff6f a53f
000007b0: 2bc2 305e d1b9 5a3f 9e14 2ff9 d5c0 39bf
000007c0: bc9f 1a79 52d6 a53f 0a1d c8d7 99c0 87bf
000007d0: b2c9 58dd eb21 6cbf 3a43 237b e522 94bf
000007e0: e6a7 9bed 35af 93bf 8a95 9aaa f96f a63f
000007f0: 4c9c d8fc 2575 a6bf 866a 804e a8ab 92bf

mean_hidden.bias f8 [30]
-0.011876640782522634 -0.082996294913374 -0.010125839705174357 -0.008460856235162455 0.0004762744170899654 -0.005335004673848125 0.0068461612643795095 -0.10551039748458457
0.06625381100479244 0.09955330301580255 0.009930292207525311 0.13239605339311203 0.007757420389554007 0.1369242782470024 -0.06736006363638047 -0.010919171664065334
-0.12014151380451629 0.00815638029654582 -0.09096541295057992 0.004456381408447983 0.0913670825837614 -0.009808980885191344 0.1144904456899088 -0.10131288573722189
-0.039405817471653656 0.0021643360771597064 -0.0054199453896754644 -0.07016569234423244 0.008389118668577007 -0.0720074559881571
00000000: 166b fabd c752 88bf af94 57c4 3e3f b5bf
00000010: 4eae 0633 dbbc 84bf 7c04 9ce6 ec53 81bf
00000020: 7e47 9a0b 8f36 3f3f 452a 9269 28da 75bf
00000030: e209 bd6b b80a 7c3f 8091 95ba ba02 bbbf
00000040: 283e 807f 02f6 b03f e761 a944 537c b93f
00000050: 9119 2b42 5556 843f 7db0 b897 5af2 c03f
00000060: b7c7 fdad 3ec6 7f3f 31b5 8c18 bc86 c13f
00000070: 80ee 5f56 823e b1bf 8f93 9269 ca5c 86bf
00000080: 2ead ae20 98c1 bebf e8eb 04d5 4ab4 803f
00000090: b09b b061 8249 b7bf 244b 86c6 da40 723f
000000a0: d3d0 a047 d563 b73f 0734 df20 bb16 84bf
000000b0: b54f f1ef 3e4f bd3f e29d e72a a4ef b9bf
000000c0: 2634 a0d2 ff2c a4bf f311 6815 f1ba 613f
000000d0: dcbe 1d83 3933 76bf e16f ebf9 60f6 b1bf
000000e0: 2425 9772 502e 813f 1b8c 89a4 146f b2bf

mean_linear.weight f8 [30, 30]
8.976434958037451e-05 -0.0005344306048621842 -0.00018214447549447382 0.0001321410041449891 4.0800554692710855e-06 9.480574271899672e-05 6.049263527391617e-05 -0.00019945758471361617
1.3775838296323142e-05 0.0007906544268115141 0.0001885442310573592 0.0002467020547078696 4.462600522758445e-05 0.0012358701557168997 -0.0006477974318900221 -5.238574319081991e-05
-0.0011736491641862624 0.00010029876633529808 -0.00105036447967358 -7.974936436296807e-05 0.00011684567783560088 -0.00025445182666047314 0.001086071771362334 -0.00010363595184281342
-0.000496158173222972 4.060853333856186e-05 0.00019065423669899288 -0.0007790072273655079 -0.00018278547392817216 -0.00026166333309783044 -0.00010141638807149166 -0.00047050622127831234
-4.46075676024338e-05 -3.05634292729157e-05 -1.5323068955251325e-07 -2.4976205029829573e-05 3.320653024643935e-05 -0.0012019119438304035 0.0007833892351470029 0.0006338844934320002
4.3825316982115016e-05 0.002636600281906942 4.887240489283345e-05 -0.00357093338248233 -0.0005241953980953261 -9.008147159171424e-05 -0.004064823804900132 6.083712834684487e-05
-0.0025305371171452304 1.899795131661492e-05 0.000497108727045154 -8.883975240165089e-05 0.001544802219353371 -0.002385187296201316 -0.00028737125118298963 3.067412544777141e-05
-6.827545651177953e-05 -0.0004055918869619471 4.7602361930071324e-05 -0.00035973268451935784 -4.546718687134352e-05 3.764448979168153e-05 -3.645720045793743e-05 5.461326258015626e-05
6.20436876934989e-06 6.765914315425269e-05 3.063480264434285e-05 -0.00019960348057722338 0.00016679954552475758 0.00011458276070331835 2.0635126200805866e-05 0.00018556536031271806
-0.00017111137982673175 0.00031067129352505967 -0.0001127182960812684 -2.1709973996391914e-06 -0.00041854006629169177 0.00010858221471090126 -0.0002770114853052024 2.0098124912246026e-05
0.00010050588779743047 0.0001015613300572746 0.00012115583262982361 -0.0001092535138323931 -3.99232992229626e-05 -4.604748140844055e-05 4.612933337628307e-05 -0.0002464432363086675
-7.095754820739665e-05 -0.00032683084989592194 -7.470004314862298e-05 -0.0005410276425676914 9.920362110094909e-05 0.00026544224246218565 4.9014301791649636e-06 0.00011412745970781207
-6.640580153752403e-05 -0.0008044754151404671 0.0007777522935404957 0.0009855196750371063 -0.00012329857805534354 0.0008786239860910473 -0.00034263693205178 0.0006460740973945326
-0.0006554579511285857 -2.17725933359184e-05 -0.0006413461365420513 -0.0001418361025851709 -0.0006369832184668328 -2.8710819000364443e-05 0.0008648633532437148 0.00012874054496861962
0.0006279041794368203 -0.0007138703878074395 -0.00023054796528510177 -3.2254421248410625e-05 0.0003855785349717264 -0.0004055041167206451 -0.00011797389994556874 -0.0007977593183305196
-8.162696411003923e-05 -0.00016277461749010597 -5.240918957576037e-05 1.767823088280142e-05 -5.191075412325075e-07 -2.6454209539482158e-05 3.467729117975901e-05 -0.00015558189528142328
0.0001294087444594732 0.00010741871258009502 6.231342812900757e-05 0.000169265168416601 6.513402535886806e-05 0.00019250331585951683 -8.54147400047669e-05 -4.31414505991902e-05
-0.00017515169129900227 -2.1639181137599204e-05 -0.00015449379837910278 2.198968550761983e-05 0.00015726780693651123 -4.465151931841763e-05 0.00015017412997899013 -0.00015113029450869965
-8.7732127635959e-05 1.582330532133067e-05 -6.353778921356581e-05 -0.00010610633166312514 6.113412923209937e-05 -0.00010028701425360819 -0.04812332230489768 -0.08223569400052468
-0.044519575530315034 -0.054744688986616906 -0.001234629650362257 -0.04739509636335136 0.032178101134670074 -0.10255611212545637 0.06010364787146008 0.05940435205905564
0.05437198559614673 0.12106376667929603 0.07751397926841365 0.12027302793674682 -0.04592155660888024 -0.039736212252316126 -0.10722917187636312 -0.030782958748786955
-0.09957436922605582 0.029834259587951217 0.09260691708712396 -0.048620647097730646 0.10024411202763775 -0.1009288503137778 -0.05409700432781663 0.0020251818233613015
-0.09168054391645815 -0.06391697220244726 0.07204010631274851 -0.05342913575241744 -8.114084489502613e-05 -0.00023373342089747694 -5.7217233593596104e-05 -5.226245276046516e-05
4.768121368863345e-06 -0.0005895792318910267 3.538941986303178e-05 -0.0033104523976543957 0.0003182230787134888 0.0027397271703961247 6.56610873372408e-05 0.005089646053518677
8.235835649275426e-05 0.01202557749606282 -0.001632094037790363 -0.0007218862732989319 -0.008293540409434126 4.787497481333915e-05 -0.005773263612681222 2.0675136495151808e-05
0.0007563385216448326 -0.00011081813219394173 0.0001899769249456114 -0.004290132885160958 -0.0018400166246417822 1.892518568991519e-05 -0.0006712719136174549 -0.0004427607107167443
0.00027523657262356596 -0.0008343961798513124 0.0554216427371143 -0.08019746341364915 0.04862523707215259 0.05313591168994735 0.0016296403201432432 0.0426105006282227
-0.03117898745148784 -0.13222670266621853 0.0928402967525745 0.15357385335516566 -0.0639233198703049 0.14582294540953447 -0.0813100282007692 0.10562108574252643
-0.09891387149430116 0.02593007548074546 -0.10149536096525791 0.07296440245395176 -0.08124998644723187 -0.0256746962247409 0.062290909752093615 0.06994189655584612
0.12912664820630992 -0.1266047571678125 -0.012607842970075013 -0.011242551615356106 0.0932148503637919 -0.0816979736153114 -0.08085971398226634 -0.10461825272987794
-0.08450531287611338 -0.0972007424810433 -0.06311137870069944 -0.06924420144386252 -0.0030177135330895794 -0.05805940429414967 0.047880831541243604 -0.11672125283384119
0.06590643804283076 0.07054822986101751 0.09011134281449634 0.12354972505792389 0.08593299483916961 0.15429116344271965 -0.04818426880615915 -0.05533815526954024
00000000: 1855 7ec8 fb87 173f c685 24fc 2083 41bf
00000010: 3790 7b21 c1df 27bf 8e77 2095 ea51 213f
00000020: a93d 8c1b ed1c d13e d576 ff41 4eda 183f
00000030: 5422 071f 2fb7 0f3f c00e 489b af24 2abf
00000040: 0013 74cc d8e3 ec3e 5879 ea73 7de8 493f
00000050: f298 cb9c 7eb6 283f 5b5e bf41 f92a 303f
00000060: d7fd 30dd 9965 073f c973 a879 9d3f 543f
00000070: be3b 6764 1e3a 45bf fdd9 246e 1877 0bbf
00000080: c8f3 bc31 a43a 53bf 9c57 59af ef4a 1a3f
00000090: 8f74 b345 8c35 51bf 3406 b3a5 e3e7 14bf
000000a0: f810 be75 61a1 1e3f 953d 1f46 feac 30bf
000000b0: 1694 4daf 50cb 513f cc5e 6d18 e42a 1bbf
000000c0: 6c5e 5690 1342 40bf 06ce bd94 624a 053f
000000d0: 1a46 456c 4bfd 283f cc11 4e48 c986 49bf
000000e0: fbf4 f143 43f5 27bf 94be 4d75 fb25 31bf
000000f0: 0302 ba47 f095 1abf 1f88 3cd5 c8d5 3ebf
00000100: cf1c 205a 2063 07bf 7655 f66e 2706 00bf
00000110: 046a 2f66 f790 84be 3678 91bd 7f30 fabe
00000120: d010 feb0 e768 013f 047b 731f 2fb1 53bf
00000130: cd30 8f92 8bab 493f 5502 9995 68c5 443f
00000140: 0606 e76c 22fa 063f 1922 78ff 5999 653f
00000150: 4908 a80b 8b9f 093f 93b0 0143 ca40 6dbf
00000160: 845b b70b 452d 41bf 885b d9e5 439d 17bf
00000170: f592 e5d4 46a6 70bf 2092 24d0 6be5 0f3f
00000180: f03c 1ac5 ebba 64bf 4e4f 0646 b9eb f33e
00000190: 6bd9 d3dc 0c4a 403f c6f0 1853 ef49 17bf
000001a0: d4c3 b2c0 5e4f 593f 2d1a d3ad 198a 63bf
000001b0: 490b 2a20 4ad5 32bf e53f d0ec 0215 003f
000001c0: 0d40 4e69 e3e5 11bf 24a5 d8e3 b394 3abf
000001d0: c31c 9db3 14f5 083f e425 851d 5093 37bf
000001e0: 06af 2da5 80d6 07bf 482f fbd1 8ebc 033f
000001f0: 54ab 8ede 331d 03bf 49bd e669 11a2 0c3f
00000200: 6dda b6e6 e305 da3e c46c 7e3a 87bc 113f
00000210: c9d0 c6cd bb0f 003f fead add7 9429 2abf
00000220: b9db 9f2f dddc 253f 06a3 f1d6 8409 1e3f
00000230: 45b1 2c13 33a3 f53e 53a7 c04e 8a52 283f
00000240: a850 878f 8b6d 26bf b3a2 a50b 335c 343f
00000250: 025c d194 658c 1dbf 8d4c 4071 2e36 c2be
00000260: 2cee 93e5 ef6d 3bbf 00c5 933e d476 1c3f
00000270: b7dd 1e45 7b27 32bf 0ba3 99a0 0c13 f53e
00000280: 1f43 2c01 d658 1a3f 684c 525d aa9f 1a3f
00000290: e45b ff5a a1c2 1f3f e81e 5613 e1a3 1cbf
000002a0: b4f7 b71d 6aee 04bf 8c33 e869 6324 08bf
000002b0: 9023 6ed3 5f2f 083f 1b7b e8a3 a126 30bf
000002c0: 287d 5465 e199 12bf 4ec7 c6cf 4f6b 35bf
000002d0: b32c 26f8 0895 13bf f1c7 f903 78ba 41bf
000002e0: 7202 ac3b 7101 1a3f 6911 17c0 6165 313f
000002f0: 1ce1 61de de8e d43e 0036 fdd3 f6ea 1d3f
00000300: 78e8 c4fb 6a68 11bf a97a 9acc 6d5c 4abf
00000310: 337c 2355 427c 493f 9ebd 86b1 9125 503f
00000320: 6e2b 85b8 3629 20bf 5d33 93a4 6eca 4c3f
00000330: 437c e56a 7e74 36bf f9bd 3e8f a92b 453f
00000340: d25d 643b 617a 45bf 0d88 a238 89d4 f6be
00000350: 5152 4757 0004 45bf 4bc8 0fd8 3a97 22bf
00000360: e683 b30b 67df 44bf 068b 5775 001b febe
00000370: 5516 aae8 ff56 4c3f cc84 51dc d0df 203f
00000380: 54c0 35f5 3d93 443f 5443 0ffc 6064 47bf
00000390: 55a0 2ef1 e737 2ebf 51b2 ad79 1de9 00bf
000003a0: a94b 9f32 ef44 393f ca04 72eb 3a93 3abf
000003b0: af93 0e2b 18ed 1ebf 5ae5 5517 1724 4abf
000003c0: e256 b790 e465 15bf 1f3a 4651 cf55 25bf
000003d0: 9017 ba0a 3e7a 0bbf a45a a0c6 7689 f23e
000003e0: 6451 288e 196b a1be 9364 e06f 3fbd fbbe
000003f0: c0b0 f9a6 4e2e 023f 6ee0 dd4d 7664 24bf
00000400: 5ac5 89a6 3cf6 203f 6615 176e bf28 1c3f
00000410: 827e 2d8b c855 103f dff9 b3b9 982f 263f
00000420: acd5 fb08 1213 113f 2890 58e4 563b 293f
00000430: a05a 460f 1664 16bf 2a5e 95f4 589e 06bf
00000440: f66f 6a92 1df5 26bf fae4 6b34 b9b0 f6be
00000450: c165 799f f33f 24bf 6f1c 82ae cf0e f73e
00000460: b594 cd2c 089d 243f e0f9 8185 0669 07bf
00000470: 30c2 34f4 01af 233f bd38 3e58 17cf 23bf
00000480: 736e dc79 9aff 16bf 16ea 0c43 8997 f03e
00000490: 3f8a 2ce8 f2a7 10bf d7ec c6e5 acd0 1bbf
000004a0: 5c53 c757 a406 103f 91a9 25c9 254a 1abf
000004b0: efe4 f2be 9ea3 a8bf 51ce 4b00 660d b5bf
000004c0: 6e77 de11 45cb a6bf 3388 a7f1 7e07 acbf
000004d0: 1b80 247e 693a 54bf 3e23 be89 2b44 a8bf
000004e0: c9a4 0ae8 a579 a03f 4270 950b 1e41 babf
000004f0: 64d9 f4c3 e7c5 ae3f 98dc aa4a 3f6a ae3f
00000500: 0c77 e817 a5d6 ab3f 243f 9ef6 08fe be3f
00000510: 01cf f0c5 f4d7 b33f e447 9491 36ca be3f
00000520: 4613 a2bf 0783 a7bf bb64 2e08 4e58 a4bf
00000530: 3dda 62fa 5e73 bbbf 928f 6664 9185 9fbf
00000540: 5382 58b3 b47d b9bf f028 ec44 df8c 9e3f
00000550: dec7 4540 16b5 b73f 84e5 6332 cee4 a8bf
00000560: ba77 c61e 99a9 b93f e40f 521f 79d6 b9bf
00000570: e390 cc40 9ab2 abbf ebae 6436 1d97 603f
00000580: 55f9 cc49 6078 b7bf 7dd3 44d9 dc5c b0bf
00000590: 1216 9d6c 3871 b23f 5b9c 6b4d 105b abbf
000005a0: 1571 cc19 4545 15bf 123d 27cc caa2 2ebf
000005b0: 20a5 292d 91ff 0dbf e1bf 0c34 8c66 0bbf
000005c0: f247 d038 bbff d33e 7dce 7ac2 bf51 43bf
000005d0: 0501 1e35 e38d 023f 3470 0d99 851e 6bbf
000005e0: 2aac 45b7 e5da 343f 9f19 19d3 9f71 663f
000005f0: 502f 14e4 7036 113f 6eba 9175 e1d8 743f
00000600: 55e7 6eca f996 153f c523 7db0 dda0 883f
00000610: 2629 0ba1 7fbd 5abf 9147 b6f7 9ea7 47bf
00000620: d7d2 9c26 34fc 80bf f0dc e49b ab19 093f
00000630: ccbe 85a6 b4a5 77bf 5b66 b78f f0ad f53e
00000640: f6ac 8a9b a0c8 483f f1a1 a903 e10c 1dbf
00000650: 8b41 f95b 91e6 283f cd04 ffc6 8792 71bf
00000660: fe10 86ce 9625 5ebf fd04 95db 30d8 f33e
00000670: ccfe 3575 09ff 45bf 9c63 c1c5 4a04 3dbf
00000680: 9623 fd13 b409 323f e38d f526 6c57 4bbf
00000690: 17cf 17be 3960 ac3f 9572 952a d287 b4bf
000006a0: 8e64 f835 68e5 a83f cf26 e755 a134 ab3f
000006b0: 2fc4 45f8 34b3 5a3f c12c 5425 0bd1 a53f
000006c0: 80c5 b46d 62ed 9fbf 59fe cdf9 cdec c0bf
000006d0: 4da1 4db6 61c4 b73f 7a2f d7da 4ea8 c33f
000006e0: e371 4b58 475d b0bf fd29 c586 53aa c23f
000006f0: 4b8a f5e7 bbd0 b4bf d43b 08c5 fb09 bb3f
00000700: 3d53 3063 6b52 b9bf 86c1 b0e8 698d 9a3f
00000710: 989f 0a98 99fb b9bf 01d9 4f8a cbad b23f
00000720: b55f 9792 cccc b4bf 73e0 7ab2 774a 9abf
00000730: 4058 7218 98e4 af3f e6db 534e b6e7 b13f
00000740: 144a 8bd5 3887 c03f 24e2 c6ad 9534 c0bf
00000750: c72b d609 24d2 89bf aaa5 17bc 5506 87bf
00000760: 9c63 d0ad eddc b73f 91c5 d38c 28ea b4bf
00000770: b924 1ee3 38b3 b4bf eb1b 0a06 43c8 babf
00000780: b622 24e3 23a2 b5bf 225e 1ada 25e2 b8bf
00000790: c464 863b 1128 b0bf 2d97 a3ec fcb9 b1bf
000007a0: 44ba dd9d 9ab8 68bf ae54 5655 f6b9 adbf
000007b0: c65c 261b d683 a83f 0a64 abab 71e1 bdbf
000007c0: 1564 fd8b 3edf b03f e933 0be4 720f b23f
000007d0: 4c0c 6376 8911 b73f 14b7 8d6c f4a0 bf3f
000007e0: 3048 7b6a b4ff b53f c42d 8616 d0bf c33f
000007f0: 4583 68c5 9bab a8bf 0211 355e 4855 acbf

mean_linear.bias f8 [30]
0.0011982915127254632 0.010822878838698459 0.0007218486689765521 0.0005625566522802336 0.0004576143161699338 0.1475635179917876 0.03766677037997876 0.28889476392142455
0.18804296638015727 0.27982972180061516 0.0009031823763293708 0.0010956479272258982 0.001368486426302129 0.001809392412385008 -0.000855814342535786 0.001310949646866086
0.029901150817292832 0.0005305724645312801 0.0005835097318429459 9.834841598366104e-05 -0.00040865054035441685 0.24136786961574475 0.0012584198381421878 -3.558888580623125e-05
0.001000137936652104 0.0008929583341507335 0.014869628957962334 0.23228461164918768 0.0005786040765487241 0.002229476821180651
00000000: 7f3e edb6 ffa1 533f 3447 4935 4e2a 863f
00000010: 8265 8436 4ea7 473f 6e80 3b36 116f 423f
00000020: 1765 aa85 7efd 3d3f 71c0 ed81 5ce3 c23f
00000030: 4c1c db15 0f49 a33f 5ccd c176 407d d23f
00000040: b83c 6cbb ca11 c83f 6046 e5eb bae8 d13f
00000050: 6d64 6362 7198 4d3f 3fbf fb00 7bf3 513f
00000060: 660f 8b1c d96b 563f 8020 284f 24a5 5d3f
00000070: eff3 6a4e 170b 4cbf 5a1e 0a77 857a 553f
00000080: 40fd 7d43 689e 9e3f f3a0 10b1 c362 413f
00000090: 9877 8a9b d51e 433f a41f caeb 0cc8 193f
000000a0: 750e d1b4 04c8 3abf 3404 2771 24e5 ce3f
000000b0: 3053 2a03 329e 543f b2bc 1bce a8a8 02bf
000000c0: 0da6 aeee e162 503f fa54 c26b ad42 4d3f
000000d0: 5af4 9fd0 f773 8e3f 70db 328d 80bb cd3f
000000e0: 129f 05cb aef5 423f add8 1741 8d43 623f
