port_results/Deep/30_2000/9/8_trained_linear.pth (torch, 173439 bytes, 17 tensors)

radius f8 []
000000 ec 61 93 14 c3 e8 e9 3f
       0.8096633340711015

shared.weight f8 [30, 90]
000000 f0 97 1c 76 97 61 a5 3f 85 73 b6 c0 f1 3f a1 bf
       0.04176019017022259 -0.0336909816498752
000010 0d f8 f8 3b 7e 1f 86 3f bc 8c aa 52 b3 26 98 3f
       0.01080225582620289 0.023585130615754166
000020 c0 48 f2 46 68 4e 89 3f b0 47 50 75 fe bd a4 3f
       0.01235658136855411 0.04051203901339251
000030 1c c7 3f 12 9a e6 90 3f e8 c6 b7 bb b0 78 87 bf
       0.016504676212156885 -0.011460667351431877
000040 0d b5 61 ee 8f 81 89 3f d0 65 25 e4 65 5d 86 bf
       0.012454151594477847 -0.010920330071416823
000050 5a e1 59 66 87 72 ac bf 86 7e a2 2b 13 c4 a1 bf
       -0.055561286205320484 -0.034699057652003026
000060 db 47 f6 1d 7a 9d 96 3f f6 23 d7 0a bc 8f a3 3f
       0.022085102156388686 0.038205982516565415
000070 14 44 f3 27 c7 95 a4 bf 00 df 09 c2 70 2d 0b bf
       -0.04020521509813349 -5.183697090144039e-05
000080 de c9 70 69 43 9d 7f bf d1 37 e4 c2 56 d4 93 3f
       -0.007718337371488164 0.01936469616435216
000090 a2 dc f1 bb a1 da 9d bf 31 cb 83 85 7d 3a a0 3f
       -0.029154326530684067 0.03169624571628161
0000a0 ae e3 fd 96 e9 53 63 bf d9 6a a9 b6 c1 82 a7 3f
       -0.0023593485165602423 0.045919469401914
0000b0 45 9c 22 4f e5 43 7b 3f 52 42 4b da f9 bf a1 bf
       0.006656547297246245 -0.034667785546507304
0000c0 2e 85 e8 90 80 9c 7a 3f 8d b6 cd fd df 2c 65 bf
       0.006496908389210616 -0.00258487461399321
0000d0 9e 2a 42 49 15 3d 91 3f 72 98 16 1b af ad 93 3f
       0.016834576221791957 0.019217239406906512
0000e0 7f 3a 5e 77 56 e9 9d 3f fa 2d 91 f0 77 db a2 3f
       0.029210425410890025 0.03683066188440516
0000f0 8d 36 2a 0e 0b aa 77 bf 96 4b 23 fc b1 23 53 3f
       -0.005777400193108695 0.0011681783803864968
000100 b9 a1 84 30 ee c6 5d bf a3 fe 77 98 d8 9b 90 bf
       -0.0018174482411926608 -0.016219505601837835
000110 b6 36 ad d3 ba 0f 71 bf 56 67 45 34 26 83 81 3f
       -0.004165391724041781 0.008550928564250587
000120 40 b5 c2 ac 70 50 7a 3f 70 76 46 72 d1 76 a7 3f
       0.006424369941823216 0.04582838554345592
000130 40 62 7e c6 55 94 78 3f d3 c3 95 51 52 6f 81 bf
       0.006000838336966796 -0.008513110270287704
000140 5d 8e 05 7f 08 5e 96 bf b3 2d 6e 91 95 f1 93 3f
       -0.02184308314589455 0.019476258279196034
000150 14 89 9a 97 0b 39 92 3f ab cb 6a c8 54 e5 8e 3f
       0.01779573548140785 0.015085852018591547
000160 5a 79 4f b4 98 e8 87 bf 53 72 a6 11 1b 42 90 3f
       -0.011674111368787866 0.01587717337825929
000170 10 26 fb fc 72 de 74 bf 78 f6 36 c8 e8 99 8e bf
       -0.005094956562694999 -0.014941996202533434
000180 f3 e9 81 a3 e5 fc 78 3f 5d a1 8d 1a 57 6e 25 3f
       0.006100556398559653 0.00016350568082691255
000190 07 c3 7d 0d 06 1e 72 3f 99 1b 4d 3c 6e 4a 67 bf
       0.004423164027557608 -0.002843108466922439
0001a0 2e ca e9 09 a8 96 8d 3f 53 fa 5f 3e 31 05 75 3f
       0.014447510530975451 0.005131904943481108
0001b0 de 31 24 b3 1f de 88 bf 90 17 38 d8 6e 49 89 bf
       -0.012142417578183403 -0.01234709355686528
0001c0 e8 63 e4 85 dc e3 9e 3f 6a 1c 43 c1 7a c8 75 3f
       0.030166097328308356 0.00531814528603212
0001d0 40 23 cb 86 96 f2 13 3f ca a8 32 9f 17 6c 93 3f
       7.609409085341818e-05 0.018967026797931642
0001e0 ec 26 86 d4 bf 88 7d bf 0a 78 d8 74 16 58 76 bf
       -0.007210492455109945 -0.005455100746557315
0001f0 43 a1 d5 49 10 e2 6e bf aa f3 c6 12 7c 1a 89 bf
       -0.0037699049122929275 -0.012257546732934294
000200 b7 13 0a 75 99 bd 7a bf b7 d8 8a 20 43 21 85 bf
       -0.006528472368363339 -0.010317348890890405
000210 77 ea e4 e9 29 38 8e bf aa 68 30 fd 68 55 88 bf
       -0.014755561304459193 -0.011881656862943697
000220 bc 2b 68 5c 77 4a 78 bf 55 d5 08 f2 fe cd 83 bf
       -0.005930391553657207 -0.009670249711329385
000230 e8 c3 c2 4e df 7e 80 bf 2e 40 12 64 d3 6b 7e bf
       -0.008054489699448511 -0.007427049394337399
000240 56 8c a5 82 bd 11 51 bf 77 8b 78 54 1d 99 68 bf
       -0.001041827267351155 -0.0030026982165209343
000250 3a d5 63 bb e5 ed 75 bf 53 26 6f 33 41 2e 7c bf
       -0.005353829756349621 -0.006880049410889893
000260 8a e3 6f f6 a4 bd 82 bf bf 30 9a 59 6b 3c 50 3f
       -0.009150780459082037 0.000990967592232869
000270 9f 51 e1 f9 4f e2 7d bf 2f a0 eb c0 62 e2 72 bf
       -0.007295906454676176 -0.004610429531318557
000280 84 21 fb 59 ef c8 61 bf 16 13 db c8 27 8c 80 bf
       -0.002171008571029089 -0.008079825226909015
000290 5f 61 d8 5c a4 55 7c bf d1 9e e7 22 a7 b8 70 bf
       -0.006917612115579479 -0.004082348705629805
0002a0 70 6e e1 4d 8d 10 4b bf 7f 1d ea 05 4d e8 78 bf
       -0.0008259477579132934 -0.006080914374826717
0002b0 a1 d3 ba 9a e2 ef 7e bf ea 2b f5 1f c3 83 81 bf
       -0.007552991078843358 -0.008552097714206359
0002c0 8b dc 6d 38 d4 f0 53 bf b2 36 4e 51 d2 58 6e bf
       -0.0012170860734082324 -0.003704462791978746
0002d0 5f 15 f7 b0 55 14 a9 bf 21 54 03 fd 75 ab a4 3f
       -0.048983266689485154 0.04037064279115322
0002e0 9c 40 2f a6 37 55 9e bf 3a bb 9c 2a 64 57 83 3f
       -0.029621953504659446 0.009444029379293551
0002f0 08 d8 f6 80 0e 8e 7c 3f d6 15 42 c3 b0 c3 61 bf
       0.006971413283670465 -0.002168507804585866
000300 9e bb 72 05 ae 5d 84 bf f8 37 72 36 86 e8 99 3f
       -0.009944304982438198 0.025301072190408974
000310 67 7c e4 45 e3 14 81 3f c2 6b 27 c6 99 d4 6a 3f
       0.008340621538591898 0.0032752040290069126
000320 4d ca 7c 80 1d fc a0 3f f7 9a 81 a3 2b f5 91 3f
       0.03317348664713347 0.01753681359732703
000330 61 08 d4 b4 1d 67 74 3f 70 dd 48 26 b6 be 91 bf
       0.0049811516194059055 -0.017329069220264726
000340 ee ec 95 a7 61 fc 90 3f 6f 95 71 6c d5 18 7e 3f
       0.01658775887834179 0.007347901998490654
000350 4e a0 84 18 45 05 94 3f ed 4b 66 12 c3 97 a5 bf
       0.019551353093590067 -0.042173477169079245
000360 08 f1 15 98 dc e3 9c 3f 04 50 e8 04 b9 cd 9b bf
       0.028212973387312906 -0.02715195743992639
000370 e0 38 7b 7a 92 92 87 3f b3 15 cf df 96 31 9d bf
       0.01151003299983383 -0.02850948086758871
000380 b4 87 ef 4e 76 83 6e bf 33 84 09 f3 aa 16 91 3f
       -0.003724795409184767 0.016688033183872086
000390 d8 91 b0 ae 6e 9d 37 3f cf 59 bd 3d 40 9d a2 3f
       0.00036033584791741796 0.036355979477480475
0003a0 2a bb b9 61 4e 53 9f bf d0 a4 87 fb 8a 73 53 bf
       -0.03059122535199347 -0.0011872155429222715
0003b0 1f d4 d1 53 b3 d8 a3 bf 25 a0 cc 0d 99 ed 9e bf
       -0.03876266859234811 -0.030203238932841842
0003c0 46 11 37 62 df 4e 67 3f a4 9e b3 61 8d d4 46 bf
       0.00284522657031708 -0.0006967249240945228
0003d0 7f 8e 12 7f c4 39 8c 3f fa 06 4e 66 6f 54 81 3f
       0.013782057884163422 0.008461828527063887
0003e0 6d 5c 51 03 aa 0b 8b bf 10 bd 9b fb 54 b3 11 bf
       -0.013205841280223585 -6.75221080219566e-05
0003f0 b6 d2 ef 30 3f 7b 89 3f e0 9f 85 99 42 43 a9 bf
       0.012442105942662134 -0.04934127925918097
000400 c7 bd 62 80 bd 41 90 3f 7c 92 8c fb 65 69 42 3f
       0.015875779114763035 0.000561880871008016
000410 76 69 06 ce 23 5c 73 3f 42 a7 27 30 c5 99 74 bf
       0.004726543295328836 -0.005029459253344916
000420 44 24 72 2a f0 00 91 bf 1e 69 e1 21 9c 12 90 bf
       -0.01660514124936109 -0.01569599110403274
000430 0a 27 86 3a d5 16 30 bf a9 2d bb 47 fa bd 97 bf
       -0.000245501573339455 -0.023185644748804943
000440 56 1b 8f 32 46 41 6b 3f c2 c8 f4 40 2e 73 84 3f
       0.0033270236058088693 0.009985314709954788
000450 33 9b f1 9b 47 b9 80 bf ab cc 78 b8 50 4d 9a bf
       -0.008165893026853865 -0.025685559520024864
000460 d0 49 a3 1a c2 30 78 bf fb a7 91 3c 13 42 85 bf
       -0.0059058744611370645 -0.010379934583585984
000470 17 ce c1 f7 76 b8 9c bf be 92 37 ce 71 01 78 3f
       -0.028047427055254284 0.005860752632973641
000480 e0 ad e9 52 d5 79 7a 3f 66 e4 a9 8f 82 00 99 3f
       0.006463845535658902 0.02441600801327972
000490 03 0e 7d 49 40 be 8a bf cf dd 0f 72 a6 85 91 bf
       -0.013058187716189279 -0.01711139746836726
0004a0 ac 40 4d 65 a1 7e 8e bf 19 79 3e e5 00 6e 4e 3f
       -0.014889965919479962 0.000928640782593057
0004b0 ef 88 4e 68 c0 97 a1 3f 08 bc 19 d9 36 d7 a1 3f
       0.034360897763024194 0.034845079423455216
0004c0 f8 3f fa e3 9b 09 9f 3f 11 22 53 80 9f 7a a4 3f
       0.030310092725414933 0.03999803964103788
0004d0 fa 97 37 35 0a c9 9f 3f 32 20 87 0e 8c 38 a3 3f
       0.031040343759649126 0.037540795110146866
0004e0 05 f1 6f b6 91 cc a5 3f 87 06 7f a0 8a 59 a3 3f
       0.04257636405961488 0.03779252251798675
0004f0 72 0f 33 37 61 4d a1 3f e3 35 be 9f 7f aa a3 3f
       0.03379348563024011 0.038410175561789626
000500 c9 98 bf 41 eb 2b a2 3f c3 fa e0 a8 a2 bf a1 3f
       0.03549132516472892 0.03466518699177847
000510 6b 33 4d a9 c5 82 a0 3f 97 fc 21 90 52 3c 9f 3f
       0.03224771205586915 0.030503549620786243
000520 36 67 ef 51 42 5e a2 3f ae 66 45 19 ef 67 a1 3f
       0.03587538957772411 0.03399607833371242
000530 16 24 d8 01 e5 59 a4 3f f0 f2 94 c6 f1 1c 9a 3f
       0.03974834105981288 0.025501039262269154
000540 61 16 20 80 3f 27 a2 3f ee 4e d3 12 b7 f1 a0 3f
       0.03545568884878204 0.03309414009859589
000550 e2 ab 7e 11 25 6a 9e 3f 2c b7 1a 98 d0 38 a2 3f
       0.029701785271452404 0.03558971268408437
000560 af 76 af 41 c7 94 a2 3f 3d c7 e8 72 78 24 a0 3f
       0.03629133869956768 0.031528247859013515
000570 6e 86 4b 78 0b 6b 9d 3f 85 ce 84 5a c2 f8 a0 3f
       0.02872865602228674 0.03314788203206568
000580 d8 72 d9 1f 9b df a1 3f 6d c6 34 47 76 34 a3 3f
       0.034909103048198 0.037509628479153935
000590 bf 81 7a ad 05 b4 9c 3f f3 f2 3c b6 b0 28 9f 3f
       0.028030480111398633 0.030428658602647606
0005a0 14 ba 8f 6b 48 70 a6 3f 34 ef 66 80 8d 13 57 bf
       0.04382540047651076 -0.0014084703303600234
0005b0 ec 79 bb 46 7d 2d 8a bf c8 60 09 74 17 94 b2 3f
       -0.012782076569632893 0.07257219870496379
0005c0 69 f9 58 31 0c cc 54 3f 95 35 47 4c b2 82 b1 3f
       0.001269351870532976 0.06840051996478842
0005d0 7d dc 43 8a f1 64 b0 3f d2 5b e2 56 84 a1 9e bf
       0.06404027581798917 -0.029913013270370055
0005e0 6e 59 6e 0c c9 44 7c bf 82 6f 50 e7 3a 5c a5 bf
       -0.006901536317761232 -0.041719284760090694
0005f0 b7 1d 26 f7 1f 90 ae bf 42 f7 54 37 aa 2e a7 bf
       -0.05969333545641169 -0.045277899984724104
000600 17 0d 70 3f 03 2c b0 3f de e9 05 a6 cb 53 b1 3f
       0.06317158030292479 0.06768486789034209
000610 4a 19 9b 35 2f 78 77 3f 44 a5 8b de 17 2f 6b bf
       0.00572985116168063 -0.0033183542440055353
000620 d3 cc 40 2b 22 d8 67 3f ef b6 08 b7 e7 c3 a8 bf
       0.0029106776583148557 -0.048369637578032136
000630 84 a8 1a c3 77 9f a8 bf cc ad b8 12 9e 32 aa 3f
       -0.04809164291994342 0.05116743067295779
000640 ed 48 7e fd d0 34 85 3f 7a af 0a c4 97 b9 a0 3f
       0.010354645477296443 0.03266596096122405
000650 5e 06 e0 33 d3 97 87 3f 86 aa 39 c4 4f fe 91 bf
       0.011520051975824671 -0.017571684219016358
000660 66 98 e2 da 45 c6 a5 bf 4d c4 35 c9 51 7d b5 3f
       -0.042528326959016025 0.0839434734568993
000670 cd e5 f0 48 5e ab a1 bf a5 bf 58 90 46 53 aa 3f
       -0.03451056137459894 0.05141659271282543
000680 1b 1f 97 89 8b 2c 8f bf 92 78 e3 2e 20 c5 86 3f
       -0.015221681724952021 0.011118174963879821
000690 d6 8c 52 4c 14 63 70 bf 8a a8 25 20 6d b2 51 bf
       -0.0040007393737681776 -0.0010801377944411905
0006a0 9b d4 ac a8 8d 5e 7e 3f 6a 2d 69 4f 70 a1 a3 bf
       0.007414391856220305 -0.03834105462427824
0006b0 b9 e9 80 8f 48 3c a5 3f c3 2a 77 83 eb 9c b3 3f
       0.04147555114510077 0.07661315879446833
0006c0 55 0c be a5 31 4b 99 bf dc a3 84 a5 b7 2e 9e 3f
       -0.024700904599296376 0.029475087621140136
0006d0 3e df 22 cf 6e 32 61 bf 2a 78 bd 6a 23 f1 a2 bf
       -0.0020992435684909208 -0.03699598958949964
0006e0 42 0d c0 b0 97 7e 72 bf 2e af 58 74 c8 da a2 3f
       -0.004515259304756216 0.03682543201679632
0006f0 e8 b4 95 f8 cf 61 83 3f 29 f9 38 0d 03 5c 84 3f
       0.009463906072336006 0.009941123810787449
000700 13 44 13 16 4a a4 a9 bf 91 19 ef 0f 1a 4f 7e bf
       -0.05008155364487989 -0.007399656110413836
000710 32 18 22 c6 dd 8d 7c 3f bb 43 f3 0c 59 91 95 bf
       0.006971231750986505 -0.02106227056066577
000720 96 64 9e 4e b9 c5 4e bf 0c 8f 7d 35 74 46 a9 bf
       -0.0009390978641362787 -0.04936564591369405
000730 5f 5b 81 7b 0f b6 a3 3f db 62 d8 31 ad 71 75 3f
       0.038498386217432616 0.005235363523319515
000740 27 cf 87 0e a0 33 82 3f cd 36 09 a5 94 fb a7 3f
       0.008887529796062289 0.0468412829837753
000750 10 77 65 16 cf ef 1e 3f 2f 49 70 fb 76 24 71 bf
       0.00011801434957222864 -0.004185166143559279
000760 18 c7 5a f9 2a fa 52 bf 5a 97 7f 41 ae fe 8d bf
       -0.0011582774799702763 -0.014645921110012661
000770 0c f9 69 50 e5 98 a3 bf 7a 86 79 71 61 5b ad 3f
       -0.038275877061993396 0.05733780393781003
000780 b3 4f e7 cf f8 c1 70 3f b3 69 4a dd 15 a3 7c 3f
       0.004091236040455404 0.006991467864873635
000790 9e 6b fa 00 90 53 62 bf 94 a1 c9 e1 b3 ec 70 3f
       -0.002237111337149724 0.004131987251277631
0007a0 82 1d ee 43 56 9b 54 bf 08 6b 1f 47 c5 e2 5e bf
       -0.0012577383456305606 -0.0018851210156671256
0007b0 68 43 8c d1 12 34 61 3f 80 bd a9 39 2f d6 40 3f
       0.002100025897000913 0.0005138140289328436
0007c0 b5 96 ff 72 ce a4 82 3f 7d 42 c5 36 83 f4 78 3f
       0.00910340584227796 0.006092560343248563
0007d0 0a 28 ab 3e c6 57 81 3f 48 a7 1e b3 78 29 81 3f
       0.008468197619908597 0.008379881826687488
0007e0 46 7f 00 d4 2c 24 87 3f ba 11 35 9e e1 00 32 bf
       0.011299467296396092 -0.00027471073390852483
0007f0 60 e1 36 a1 17 38 8b 3f f9 63 bd 03 d0 f9 7d bf
       0.013290581328747109 -0.007318317944588587

shared.bias f8 [30]
000000 e3 af 8c 19 a8 9d 85 bf c2 53 df 0e 90 da a7 3f
       -0.010554612426481874 0.04658937627360828
000010 b0 2e 06 24 55 e5 72 3f 46 e6 66 ff f7 83 89 bf
       0.004613239842352776 -0.012458741647480964
000020 48 a7 4d 1e 70 e0 72 3f 40 45 6f bd 95 a0 a7 3f
       0.004608571970359972 0.04614704072413156
000030 3c 4e ba a0 26 31 73 bf 4e 01 51 b3 a5 d1 5e bf
       -0.004685545816431932 -0.0018810384911063962
000040 5e 7d ce 3a 65 13 a6 3f 6a 3a 55 62 43 4f 84 bf
       0.043116725376644224 -0.009916807592756888
000050 85 73 75 d3 d3 9b a3 3f b3 35 64 d9 4b 7d 8b bf
       0.0382982440594111 -0.013422577449570072
000060 d5 c4 75 52 5e c8 71 bf ab c2 de 94 92 e6 a7 3f
       -0.00434147686552074 0.046681004212023446
000070 c4 2c c2 9f fb 06 a7 bf b9 a1 f7 e3 80 00 68 bf
       -0.04497515034844349 -0.002929927577259597
000080 91 b7 f9 e1 ab d7 6b 3f f3 61 85 74 15 7b 9b bf
       0.003398738583022039 -0.026836714970473307
000090 d0 ff 5f 3a f7 34 9d 3f 17 f3 ed 6d ce 9e a5 3f
       0.02852236074249942 0.04222722141182638
0000a0 94 f4 af d1 1e 6b a7 3f 80 77 61 1a 6f 01 7e 3f
       0.04573913869533289 0.007325586315429677
0000b0 5e f1 2f 54 74 64 a6 bf db 03 c5 69 3c 71 9b 3f
       -0.043735156323210886 0.02679914851728769
0000c0 86 8d 3a f5 03 d5 80 3f 89 85 96 c4 26 d9 a6 bf
       0.008218794747626 -0.04462548398738437
0000d0 ad 2d f0 45 c8 11 73 3f f0 1d 83 69 6d 2b 86 bf
       0.004655630414173312 -0.01082501867530447
0000e0 da f7 e5 4d c3 be 5b bf 49 52 bc 21 3b ee 62 3f
       -0.0016934306400737593 0.0023108630101751665

mean_hidden.weight f8 [30, 30]
000000 7c 53 11 d7 e1 10 8c 3f ef 11 42 08 a5 73 86 3f
       0.013704075218052607 0.010962762178913869
000010 f2 b5 d1 8d a9 50 9f 3f cf 80 5e 71 0e 6d 93 3f
       0.030581139832454647 0.018970704717163053
000020 f8 4d a5 4e 60 e6 95 3f ee f7 7e 35 52 36 85 3f
       0.021386627960351817 0.010357515580718481
000030 26 75 1c b0 36 57 89 3f 9f 01 33 27 c9 a5 86 3f
       0.012373378037916338 0.01105839873196218
000040 20 50 79 dc cf a6 89 3f 0c 97 c9 06 72 db 97 3f
       0.012525199809864829 0.023298055328630204
000050 71 2c 60 cb 96 ea 72 3f 09 18 76 ea 5c 4d 9d bf
       0.004618252793089459 -0.028615428743727054
000060 e9 0e 82 75 95 82 9a 3f b2 6c 57 bc 67 6a 87 3f
       0.02588876275741728 0.01143342059633876
000070 10 c0 3d e3 0b a1 83 bf df cf 38 6f 87 57 89 3f
       -0.009584515449859082 0.01237397964641923
000080 c3 05 85 09 b2 08 9f 3f 72 4f 6e 78 b7 14 a2 bf
       0.03030660803893227 -0.0353143057356239
000090 fa 08 14 40 b5 fe 7f bf 45 b9 79 e8 48 55 80 3f
       -0.007811267861372645 0.00797516784151909
0000a0 de 75 8a 8a 13 b8 84 3f 7c 1b eb b8 c4 73 96 bf
       0.010116722741538572 -0.021925996576807702
0000b0 9a 9b f9 70 bf cc 83 bf 3f d3 26 b3 c1 8f a5 3f
       -0.009667869219993897 0.04211240112218783
0000c0 e4 b4 b8 f3 2d 74 9c 3f 5a d6 10 2c 3f 5a 84 bf
       0.027786939621525245 -0.009937757046013452
0000d0 58 0a 8f ab 97 c6 9f bf 5c 61 e5 33 da 6d 97 3f
       -0.03103100761996766 0.022879990975839135
0000e0 ac 99 57 29 cd 37 9c bf 47 be 06 39 20 2e 9d bf
       -0.02755661549408621 -0.028496268730746867
0000f0 70 48 64 18 0d 2a 76 3f 9c 64 f9 ab ad fe 8d bf
       0.005411196855009334 -0.014645916758285353
000100 60 01 04 d5 d7 9d 66 3f 20 d9 1b 24 5e 19 80 3f
       0.0027608123274377866 0.007860885121300287
000110 df 4e 9a 54 64 1d 7f 3f 80 cb 41 a3 70 fc 8d bf
       0.007596389690337906 -0.014641647321899987
000120 19 b8 d4 88 78 1c 37 3f d2 7b 61 f3 2f 25 90 3f
       0.000352649142615459 0.01576685832003106
000130 9c d6 c0 12 d7 91 86 bf 1a c7 e1 0e 43 4b 85 3f
       -0.011020355472378278 0.010397457019482515
000140 cc a4 e7 ff 7a 99 86 bf 40 66 3e 58 32 b9 69 bf
       -0.011034928259464748 -0.0031400664610828077
000150 7f 4e 05 9d c2 c4 82 3f 18 05 c2 f2 d2 38 8e bf
       0.009164352814571728 -0.014756820710547333
000160 74 09 7e 83 31 37 8c 3f 6c cc 22 1d a6 45 62 bf
       0.013777148080184466 -0.0022304768000025923
000170 d7 a9 d2 89 31 c3 7f 3f 2a 21 02 cd d0 95 54 bf
       0.00775451041151106 -0.001256421954197571
000180 41 33 b1 9a fd 05 92 bf fc 8e 04 20 54 d2 89 bf
       -0.017600977484380612 -0.012608201243501586
000190 66 48 93 1e ba 3d 8d bf 63 e6 be e9 8f f8 7a bf
       -0.01427789121445162 -0.006584703598429084
0001a0 4a 52 9e c3 4e 6b 8a 3f 9c 11 a7 18 08 47 68 3f
       0.0128999856422435 0.002963558018764979
0001b0 fe c8 98 25 27 24 75 3f 0e 65 9b 76 66 a6 8b 3f
       0.005161431233817957 0.013500977034186092
0001c0 2e b4 48 44 12 82 8f bf a1 c3 1b e7 a5 9e 87 3f
       -0.015384810170042309 0.011533065905924124
0001d0 c7 8b fe 0f 76 7d 79 bf f8 7d c8 3d 80 12 78 bf
       -0.006223164731553993 -0.005877018873916999
0001e0 24 fe 06 dc 90 84 6a 3f d9 36 34 5d 8c c3 60 3f
       0.0032370404516937224 0.002046369694318578
0001f0 72 0f 3f ed 6b 43 62 3f 5c ea ba d8 4a 0a 61 3f
       0.002229414743824814 0.002080103096742376
000200 cb f2 fc 57 a0 8e 48 3f b9 0d 36 16 63 7a 60 3f
       0.0007494242599715648 0.0020114836967779185
000210 51 aa 1a 72 21 b3 53 3f 13 1b 55 ce 07 3b 5c bf
       0.0012023760431626627 -0.0017230583410580743
000220 2a a8 70 43 6c 96 53 3f 09 29 c5 ee 43 f7 4e 3f
       0.0011955315837988236 0.0009450036718956788
000230 e0 f8 1b 55 a1 d8 4b 3f 8b 2a 7e ce 0e 21 67 bf
       0.0008497989421980788 -0.0028233803931859195
000240 9a 37 67 3b d1 cf 50 3f ae 25 be 91 a6 0e 62 3f
       0.0010261100083996722 0.0022042516047277782
000250 92 96 b2 02 0c 32 5f bf eb f9 f0 ef a9 42 60 3f
       -0.0019040219583898216 0.001984912785274453
000260 f8 b7 b6 a2 01 5d 6a 3f cf de bf 64 1d d1 64 bf
       0.003218177027256349 -0.0025411199658228255
000270 c8 63 41 0b e6 51 51 3f fe 11 ba 09 3f 70 5b 3f
       0.0010571238062963995 0.0016747108083176028
000280 51 23 90 ec 0b f8 5f 3f 36 07 af 4f 03 39 5c bf
       0.0019512287565268303 -0.0017225773178641385
000290 e0 11 8a fc fc b7 5d bf 4a ff db 28 69 34 64 3f
       -0.0018138857432471386 0.0024663976572582335
0002a0 ab 51 a9 b3 28 34 60 3f 0a a2 9e da 81 62 5e bf
       0.0019779963452412805 -0.0018545406441977685
0002b0 3d 84 f1 85 f8 f9 3a 3f f2 fd 7d b3 63 f4 46 3f
       0.00041162793599453293 0.0007005202123621641
0002c0 02 74 d0 8c 6c 18 62 bf c7 61 96 f7 90 d6 65 bf
       -0.002208911907031653 -0.0026657897366926006
0002d0 5d f3 94 ce 3b 70 6e 3f 2f c9 b1 0e 73 73 78 3f
       0.003715626535863255 0.005969476168603812
0002e0 87 21 be 6a 85 86 84 bf cd f7 6e 9e 67 72 79 3f
       -0.010022203750637683 0.006212620507481459
0002f0 6d 5d e5 1d 6a 9e 99 bf 86 3c 20 db 3c b8 76 3f
       -0.025018365931229015 0.005546796530338521
000300 c8 2a ca 09 56 99 81 3f 49 4f 60 00 22 f4 8e bf
       0.008593246625669862 -0.015114083897095692
000310 b8 58 62 4a 4b 0e 7b 3f 93 8e 50 a4 28 34 71 3f
       0.006605428794634154 0.004200133092158292
000320 23 68 7c 96 93 1b 75 3f ed 26 e4 70 f4 46 9a 3f
       0.005153252139075834 0.025661296263058842
000330 4a e0 22 8c 49 b2 7f bf f4 c9 40 8c b9 e9 79 3f
       -0.007738387388762711 0.006326412960378825
000340 b5 b5 77 1e 54 38 77 bf 80 ad 6a ac 4d 7c 64 3f
       -0.0056689535044659916 0.0025006787357903515
000350 a4 a0 8b b7 e7 e9 95 bf 0a 84 b4 10 5f cb 8f bf
       -0.02140008981487597 -0.0155246188138012
000360 8b 31 37 22 af b5 8c bf cf 62 39 78 0c d8 78 3f
       -0.014018409949948537 0.006065415105319174
000370 eb e2 d5 68 db 93 77 3f 64 32 3a 7e 3b 0d 77 3f
       0.0057562418636443 0.0056278537700903165
000380 03 78 8d bc 7a e0 7c bf ce f0 33 bb 20 19 7b 3f
       -0.007050017776093045 0.0066157606663603385
000390 c7 4c 3f ea 65 58 95 bf fa 29 01 76 33 1d 7a bf
       -0.020845024511640966 -0.006375504512173164
0003a0 08 fd db 5c 53 8a 7c bf 62 ff fe 95 45 94 6e 3f
       -0.006967855106039929 0.0037328108882945113
0003b0 70 15 ad 8d 39 28 93 3f a1 08 57 24 d4 e6 90 3f
       0.018708133003447924 0.016505541532531812
0003c0 16 94 86 59 53 fb 89 bf f4 ec 0b cf 8e 25 93 bf
       -0.012686396760566192 -0.018697959315415028
0003d0 f5 6a 9d 2c 9e c4 a9 bf 43 67 2d 61 4d 1e 9a bf
       -0.050328200288921744 -0.025506218963847315
0003e0 33 cc b3 40 7b 42 a2 bf 4b 65 4d 9f a9 1a 92 bf
       -0.03566346325705929 -0.017679834697763835
0003f0 e8 e5 7e cc 70 e1 8d bf 88 13 ff a1 4d f5 94 bf
       -0.014590150109017722 -0.020467007648921093
000400 c6 e5 42 26 70 cd 94 bf eb 5a b0 f5 a0 13 a3 bf
       -0.020314934096608693 -0.037259130469626665
000410 3a 85 cc 64 05 a3 7e bf 02 44 43 c1 80 56 a6 3f
       -0.007479687756842874 0.043628715125699116
000420 c1 50 f3 53 d4 a6 a2 bf b8 62 47 7a 27 20 94 bf
       -0.03642905735765246 -0.019653908575352402
000430 5a 69 cf fb af 1e 91 3f ee cb 62 32 cc 8b 92 bf
       0.016718625778460484 -0.018111410689652212
000440 c3 e7 9d ce 6b e2 a6 bf 5e 94 be 1f 30 83 ad 3f
       -0.044696206065921305 0.057641509890608886
000450 a3 86 95 df bb a4 92 3f f5 36 91 0f 4a 09 8c bf
       0.018206534883012392 -0.013689592933725939
000460 67 11 c0 5a 32 cb 91 bf 72 c0 c6 15 6b ae 9e 3f
       -0.01737669638534225 0.029962228016018284
000470 03 78 ae a9 c6 50 91 3f 2d 03 43 19 22 fc b1 bf
       0.016909698587930688 -0.07025349728338588
000480 fe 66 45 18 b1 27 a7 bf 79 4e 4e e8 74 93 91 3f
       -0.045224699223309614 0.017164065054727538
000490 6b 6a 0d 93 c4 df ab 3f b9 7b c0 6d de ed a2 bf
       0.0544415883548098 -0.036971045396277664
0004a0 1f ab 30 67 8e cd a4 3f f6 8b 6c 11 f5 02 a4 3f
       0.040630769821595296 0.03908506238646929
0004b0 88 a2 a6 59 eb e2 62 bf ee 24 50 18 22 37 68 bf
       -0.0023054691966602515 -0.0029559770505370652
0004c0 cb 2b d6 0a 7c 2c 83 bf bd b8 00 f8 67 cc 67 bf
       -0.009362191277224504 -0.0029050856246818067
0004d0 84 e6 cb bb ee 49 6a bf 63 36 21 a5 43 19 66 bf
       -0.0032090819134936183 -0.0026975938026570375
0004e0 a6 b8 a0 cc 31 83 55 bf 36 33 28 62 44 d8 78 bf
       -0.0013130174943501243 -0.006065623400456846
0004f0 bb fc c3 e7 2b ce 74 bf fe 79 60 7e 22 5a 82 bf
       -0.005079432969295523 -0.00896098087474417
000500 22 3a 8e 71 9f 98 62 bf 0d ff 21 a4 54 c5 72 3f
       -0.00227004185985115 0.004582720403163665
000510 f3 fa 6f 7b db fb 78 bf b8 74 03 71 1c bc 68 bf
       -0.006099564888244246 -0.0030193858620878
000520 aa 0f 55 64 c2 bf 66 3f 7a 19 4b dc 1c c1 51 bf
       0.0027769848553890935 -0.0010836393204712567
000530 04 4e bd 4c 74 22 6b bf b4 66 ad 17 67 6d 96 3f
       -0.0033123275260693603 0.021901713199759157
000540 b9 01 a1 87 4d d9 7a 3f ba 5b 02 8e a1 d3 65 bf
       0.006554892397673867 -0.002664390122002894
000550 4c 88 db 07 7e a5 66 bf 44 9b 85 d6 36 52 6d 3f
       -0.0027644597565635084 0.0035792418531629695
000560 e2 30 2d fd 38 ff 6b 3f 24 f5 75 83 c4 94 98 bf
       0.003417598063071834 -0.024005003474930522
000570 7f 3c bf 25 56 60 79 bf bc e5 7d dc 08 cb 69 3f
       -0.006195389283632057 0.0031485722610653227
000580 98 b7 62 74 2b e1 8c 3f a4 8e 66 ee 21 ce 83 bf
       0.014101352204615655 -0.009670510375890125
000590 a9 a6 60 4c c6 86 73 3f b6 60 81 2f 4a 47 6c 3f
       0.0047672029523170645 0.0034519623696206104
0005a0 96 d1 37 3c e6 0e 57 3f 30 6a a7 96 9b 8a 78 bf
       0.0014073608771215432 -0.005991561667964038
0005b0 f4 d6 83 ee 17 34 67 3f f0 43 be e6 73 b3 69 3f
       0.0028324572959900155 0.0031373275468884396
0005c0 20 74 9a 44 dc 2d 72 3f f7 f9 63 db 0e 87 78 bf
       0.00443826715641385 -0.005988176379331459
0005d0 36 89 7d cc 66 36 39 bf 60 ba 08 66 3a 78 84 3f
       -0.00038471231208893634 0.00999494193919509
0005e0 f7 f9 24 70 3f 79 6c bf c6 38 65 b8 62 c5 79 3f
       -0.0034757842087451657 0.006291757227087474
0005f0 a1 74 0a f9 e8 08 6e bf 82 10 0e 23 77 33 67 bf
       -0.003666358017950858 -0.002832157792399371
000600 8b 0e b0 ec c0 f1 77 3f 02 1c 5a e5 74 22 79 bf
       0.005845788585250876 -0.006136376022943148
000610 62 f9 a1 48 a3 4e 76 3f 20 c1 bf ab 2c 85 63 bf
       0.005446088625943398 -0.0023828384855663215
000620 2b b1 da 6e a9 bc 70 3f 64 da 6b f3 9e 97 75 bf
       0.004086171958686695 -0.0052715500848906395
000630 ff 56 18 dc da 50 82 bf 0b c5 ff e1 48 74 73 bf
       -0.008943281022804948 -0.004749569605324365
000640 78 27 01 0a 86 d8 77 bf 7b c7 fb 21 d6 82 69 bf
       -0.005821727361828503 -0.003114145496390939
000650 2a 97 e1 54 9e fd 73 3f 01 d8 bf 35 6d 31 7a 3f
       0.004880541308102152 0.006394793130303001
000660 cc e8 09 23 fc 42 71 3f b8 a1 2c 4b 2d 98 75 3f
       0.00421427241291834 0.005272080353087842
000670 ee 0c 78 45 87 31 87 bf 57 27 ad 78 6d 14 7c 3f
       -0.011324936683200861 0.006855418799043131
000680 4a 4d 4a 5a b3 d0 6e bf 8a 74 4a 13 fc 84 6a bf
       -0.003761625574335935 -0.0032372401568197583
000690 02 fa 37 3c 7c 92 97 3f cd 24 3d d3 8d 6b b0 bf
       0.023019734549956546 -0.06414114386747656
0006a0 41 85 b7 1e 88 0e 8a 3f 15 39 fd 01 fe c6 9b 3f
       0.012723029553799338 0.027126282569320887
0006b0 de 99 1a 8c 3f fb 93 3f 81 ae f4 52 8f 59 b0 bf
       0.019513123441947992 -0.06386657500541483
0006c0 36 1d 94 44 88 03 71 3f 5c ae 16 ad 2c f2 96 3f
       0.004153759285379357 0.0224081974644562
0006d0 fc 7f 4d 64 c6 77 ad bf 9b ff 82 25 ad 37 9e 3f
       -0.05755443548582659 0.029509263433964966
0006e0 79 e3 04 5f 70 6f ab bf 1b 9a be da 8c b1 88 bf
       -0.05358458671475481 -0.012057400155595357
0006f0 88 8f 50 49 b0 b9 92 3f c1 c0 a1 40 1f 63 b0 bf
       0.018286470865987364 -0.06401248290945018
000700 41 91 3e 91 65 69 af 3f ea 6b dc f9 f3 d2 79 3f
       0.06135098836901643 0.0063046961129442445
000710 b5 38 ed 93 70 4c 97 3f c3 e3 e4 b7 c4 82 a0 3f
       0.022752532032705292 0.032247683952341365
000720 c7 61 c1 c9 70 1b ad bf 71 c1 7e 5d b4 e1 ad bf
       -0.056849979999870785 -0.05836261407182775
000730 57 5c 42 41 a3 1a b0 bf ad 9e 9f b2 2a 15 93 bf
       -0.06290645926706993 -0.018635432388605256
000740 e7 20 e7 e4 c8 2b ae 3f 9f cb 1f 04 5f cd 9a bf
       0.05892780107711975 -0.02617405378982662
000750 e1 24 f8 d1 2d 56 8e 3f 22 a4 af fa d0 1b af 3f
       0.014812810869460015 0.06075909671910319
000760 ec 1a c6 56 70 f0 9b bf b4 c9 6d ad 46 87 a0 3f
       -0.02728438882470645 0.03228207461406232
000770 ce 10 34 f3 25 d6 90 bf 8a bd fb 15 70 80 90 bf
       -0.01644191071410788 -0.016114951459653727
000780 41 a7 76 bf 8c 49 6b 3f 61 a0 03 74 d5 37 ad 3f
       0.0033309697134499554 0.05706660309971379
000790 e5 36 d7 7b 6c 57 a8 3f 82 cf 1b d3 2e 9b 8a 3f
       0.0475419903919894 0.012991300408863319
0007a0 e5 23 65 35 fd d0 98 3f 50 46 2c 63 66 ed ac 3f
       0.024234730133034694 0.05649871788604044
0007b0 03 fa c0 80 70 9d 7b 3f 53 e5 25 1d 46 48 68 3f
       0.006741942848803808 0.0029641503726309053
0007c0 15 f3 4a 3a f7 38 ab 3f 6a 50 89 a8 06 c6 98 3f
       0.05316898905355153 0.024192909275669562
0007d0 c3 9b 34 f8 04 18 a5 3f ea 29 97 df 17 56 a4 bf
       0.041198878572962915 -0.03971933941246049
0007e0 1a 21 a8 68 25 ac 9a 3f 2d a4 7b f5 b5 08 ae 3f
       0.026047310364476585 0.05866020795458158
0007f0 ec 2a f4 32 ea e2 ab bf 08 94 cd f4 23 da 6b 3f
       -0.05446559783930191 0.0033999159117450474

mean_hidden.bias f8 [30]
000000 bf e2 f9 14 d0 bc 83 3f 61 e2 0a 51 f2 8c a0 bf
       0.009637475624218237 -0.032325336830983493
000010 0e 14 e8 3f 54 80 6d 3f 95 5f 43 04 92 91 91 bf
       0.003601231145923928 -0.0171568694211995
000020 07 21 97 1d 59 71 86 bf 53 6b 04 09 ec fd 6d 3f
       -0.010958381858373402 0.00366111851338983
000030 fd d0 d1 c7 6b ff 90 bf e6 fe ee 0b 1f b4 bd bf
       -0.016599353858013356 -0.11602968255374044
000040 40 fb e5 8b 4e a0 b2 3f 26 5c 3f 94 e1 d8 a0 3f
       0.07275858798491885 0.03290467199956763
000050 20 30 11 99 1a 5b 62 3f dc 45 75 18 dc 90 c1 3f
       0.0022407073488803914 0.1372332686828902
000060 39 4b ca 67 39 54 81 bf e8 5f 3c a1 c9 99 c2 3f
       -0.008461426238942958 0.14531822560161278
000070 58 b3 c4 e8 85 bc 71 bf 98 6c 03 45 17 95 b3 bf
       -0.004330180247319536 -0.07649369654557103
000080 cc 6a a5 f0 bb 6c c2 bf 86 f4 77 9e 86 8c bb 3f
       -0.14394330263424704 0.10761300438749019
000090 c4 ab 8c 87 e4 80 c1 bf 6a a3 39 81 38 b1 80 bf
       -0.13674599283817035 -0.00815052170146809
0000a0 9a 73 34 58 b9 09 a3 3f 94 47 6d 60 3f 63 82 3f
       0.037183563248823506 0.00897836220761742
0000b0 6d 34 7d c6 47 2a b5 3f ec b1 d2 11 e0 6b bd bf
       0.08267639728474459 -0.11492729601986412
0000c0 eb de 22 2d ad 51 bd bf d2 b9 a2 7b 40 77 86 3f
       -0.11452753402670239 0.010969642422733825
0000d0 c1 77 90 3e 17 3a ad bf d6 1a bb dd bc 20 a3 bf
       -0.057083822619673714 -0.037359144274480435
0000e0 f7 88 2a 96 8f 55 79 3f f3 6e ed 10 e6 4f a1 bf
       0.0061851128436123315 -0.03381270367273528

mean_linear.weight f8 [30, 30]
000000 71 88 77 1b f6 16 0d 3f c9 33 2a e4 cb be ef be
       5.54841857896151e-05 -1.5137337986881581e-05
000010 93 a3 13 87 95 b1 fa 3e ee b3 6b 1e da 8e 0c 3f
       2.5457084522981557e-05 5.447009225698756e-05
000020 b4 18 b2 c2 eb 2b 13 bf 0e e0 7c bd 7a bb 07 bf
       -7.313372104719961e-05 -4.526584933589604e-05
000030 1a 63 2e 5e 9b 42 da be 49 7e 6b be ae 6c 26 bf
       -6.260915571675691e-06 -0.0001710856733643121
000040 96 7e 55 44 7d 17 23 3f 72 e1 6b 0a 95 7f 34 3f
       0.00014565853249858392 0.0003127802723805951
000050 0c 4d 39 25 71 6c fa 3e af 66 8d 55 5b 31 2a 3f
       2.519951006114706e-05 0.00019983520430848697
000060 6e 4d 80 7c 53 44 19 bf 4d e7 6a a3 83 6a 3d 3f
       -9.638557014595369e-05 0.00044885362460044405
000070 70 38 ea 94 87 9f e8 3e 0e 39 73 36 e6 00 21 bf
       1.1741238862297327e-05 -0.00012972650731630408
000080 2b 29 27 63 69 cb 2f bf 08 24 fb d3 32 36 29 3f
       -0.0002425733706117953 0.00019235010585408351
000090 e2 87 e9 9b c5 87 3b bf 29 ec 77 34 b5 c2 d6 3e
       -0.00042007994117032436 5.426544539495343e-06
0000a0 94 db 64 4c 68 03 fb 3e 5f 83 f8 0b c7 e6 2d 3f
       2.5761900155542633e-05 0.0002281301476481324
0000b0 62 d0 07 0a 93 e5 32 3f 2e 68 0e 02 0c 89 29 bf
       0.0002883419020058895 -0.00019481917936731277
0000c0 75 55 b4 8a 38 9e 35 bf ae ae 10 b0 8c b7 18 bf
       -0.0003298652688539996 -9.428783597858578e-05
0000d0 5b d5 6f 29 91 83 21 bf 03 b4 15 07 7a 27 1a bf
       -0.00013362071032900044 -9.977037713833352e-05
0000e0 d2 79 24 54 85 9c f7 3e 04 7b 17 91 01 29 21 bf
       2.2517594751575634e-05 -0.000130921784644543
0000f0 0f 3e 3f ab 25 9d 9d bf ad c2 dd 99 bc 2c ab bf
       -0.028919781281556974 -0.053075689108373104
000100 77 8e 2a 6f 7d 12 31 3f 49 f9 a5 3d 59 59 b1 3f
       0.00026050150260401673 0.06776960139356904
000110 4c e4 0b 1d 51 1b a8 3f 46 ea 69 13 8a 33 89 3f
       0.047083411021909244 0.012305334775409748
000120 ac 68 46 c5 63 10 9b bf e5 a8 80 79 8a 34 c2 bf
       -0.026429709354126515 -0.14222842152350448
000130 91 ce 6f be a5 7e b6 3f d0 6d 87 84 ed 01 71 3f
       0.08786998652777302 0.004152229121668197
000140 3f fb f3 70 1b c6 5f 3f 45 5f 87 fb 62 c0 c3 3f
       0.001939322279042435 0.1543086746375996
000150 87 54 d7 92 88 40 ac 3f dd b8 b6 21 46 4d c0 3f
       0.055179851460402544 0.12735821386508564
000160 cc 13 91 82 45 6e 93 bf 61 39 16 ed 8a da b8 bf
       -0.01897533997932381 -0.09708469665767928
000170 46 e2 52 6a 96 db c3 bf 7d 5f e5 47 02 75 be 3f
       -0.15513878051366897 0.11897291426919128
000180 a1 2e ee 17 ec df c3 bf e5 03 6d 38 dd 98 a4 3f
       -0.1552710644576694 0.04022876085083008
000190 47 f6 1b 68 de 29 af 3f bf 02 9a d8 6c 8a 9e bf
       0.06086630841126044 -0.029824925155937928
0001a0 95 7d 37 6b 86 b1 bc 3f f1 ab 78 06 4a 68 c2 bf
       0.11208381764980964 -0.14380765262589493
0001b0 b4 dc 94 12 30 d2 c2 bf 7e 90 86 19 6b 0d a9 bf
       -0.14703942210483023 -0.048930498948977594
0001c0 a2 d6 a3 17 cb 57 b4 bf ca 4d 17 48 1c 0e ab bf
       -0.07946461989544187 -0.0528420293809649
0001d0 c9 e0 c9 3a 40 a9 82 3f 7d 86 2a c0 01 39 93 bf
       0.009111882967076561 -0.018772151330841858
0001e0 7f 33 33 55 2a 09 2b 3f c0 5d 95 f3 51 a1 3a bf
       0.00020626680143323234 -0.00040634394425384177
0001f0 7c 4b f6 3f 86 f9 03 3f 6a 48 fe c9 36 d1 1e 3f
       3.80987257770004e-05 0.00011755844979991081
000200 34 5e e8 24 ea 1b 35 bf 44 50 4c b6 e9 ae 1d bf
       -0.0003220984116593967 -0.0001132326265856363
000210 92 75 1d 8d a4 72 07 bf 6b e4 7b d1 a4 33 49 bf
       -4.472317381385838e-05 -0.0007690958763923011
000220 4f 73 eb 90 4d 21 4b 3f 7b 8a 39 40 29 b7 44 3f
       0.0008279446354567485 0.0006321860714247474
000230 b7 82 83 b8 37 2d 12 3f f0 0f dd 52 ad 2f 4f 3f
       6.933834640988455e-05 0.0009517284686144638
000240 dc 6c a8 e1 5a db 26 bf 0d bd 10 96 80 cc 4d 3f
       -0.00017438396828670696 0.0009093883383054793
000250 97 f8 f0 55 da 47 ee be e9 1d 1f e3 e2 b6 44 bf
       -1.4438951153047503e-05 -0.0006321533057808668
000260 ee cf ec 4c 90 c1 54 bf bd 50 81 c5 9a 91 4c 3f
       -0.0012668523010690397 0.0008718496055828622
000270 92 78 60 69 c0 a7 51 bf 5f ed a5 95 71 f6 1d bf
       -0.001077592756252997 -0.00011429851784854537
000280 8f 74 9a e2 00 d9 24 3f 9f 42 4c 6f c7 fc 3f 3f
       0.00015905509763039892 0.00048808926594382825
000290 97 4e 08 c2 33 2d 43 3f 3d 4e 90 ea ee 5e 4e bf
       0.0005852225040734069 -0.0009268442710230262
0002a0 ed 71 3b 0f 38 88 46 bf d6 ed 62 e1 43 c5 33 bf
       -0.0006876252868682188 -0.00030167491184915124
0002b0 d7 72 80 38 78 c3 46 bf 76 bc 84 71 20 51 34 bf
       -0.000694688512342968 -0.0003100113113018785
0002c0 00 9a f1 79 f9 88 0a 3f fb 9d 11 91 d5 a4 44 bf
       5.061160413149038e-05 -0.0006300013357191653
0002d0 d2 c3 3f c1 56 fb 1b 3f bb f5 79 50 cc db 14 bf
       0.00010674206743012331 -7.956919227499516e-05
0002e0 5a 76 4e bd e9 c3 fd 3e ff b9 21 cc e0 44 de be
       2.838638814105783e-05 -7.2167051162600774e-06
0002f0 bb a5 db e6 c3 53 28 bf fe 78 dc bc 8a 4b 0a bf
       -0.0001856018674779978 -5.015389579753232e-05
000300 83 78 1e 87 a2 ad fe be 17 f0 68 6f ee 68 44 bf
       -2.9257069804715818e-05 -0.0006228603586531126
000310 f4 93 e4 56 4d cc 3d 3f 29 4d 27 bf 34 d5 37 3f
       0.00045468223733485737 0.0003636602188212429
000320 ce b9 e9 90 44 2a e7 3e 64 d9 a1 5f ae 42 48 3f
       1.1045984618732274e-05 0.000740370887128344
000330 73 cc 07 57 f9 cf e9 3e da fe f1 af c7 1d 48 3f
       1.2308310687969407e-05 0.0007359719310357741
000340 b5 56 54 06 2e 79 01 bf 74 dd dc e5 22 5f 3a bf
       -3.3327786505816226e-05 -0.00040239908217950334
000350 12 c1 7f 71 97 66 48 bf 95 97 3f 4b 71 45 42 3f
       -0.0007446517438421138 0.0005575946038305241
000360 0f 01 3e c6 5e fa 46 bf cf b4 1b d5 74 d5 12 bf
       -0.00070123317389917 -7.18452986594065e-05
000370 a4 c2 57 a4 d7 00 16 3f 3f 61 d2 33 58 39 2c 3f
       8.393589185807599e-05 0.00021533204736524401
000380 16 80 32 92 90 72 39 3f b2 9b 30 9f 13 09 47 bf
       0.0003882983166452204 -0.000702986317610113
000390 7c 82 b1 04 2b 57 42 bf 08 90 f7 68 31 e3 14 bf
       -0.0005597076464135121 -7.96793849456302e-05
0003a0 7f dc 3b 02 ff 51 33 bf 05 b9 34 33 63 81 26 bf
       -0.0002948043422600979 -0.00017170272767814284
0003b0 fd 98 90 b3 3c 09 ff 3e 5a 65 67 26 ae 9b 32 bf
       2.9598314743272705e-05 -0.00028393747052531603
0003c0 8d f8 66 a3 e9 2e 11 3f fa 84 16 b0 c7 16 0f bf
       6.554890646890046e-05 -5.9297532071464793e-05
0003d0 d6 ac 05 02 bb 7e b6 3e df 72 20 37 41 af 23 3f
       1.3408089288523986e-06 0.00015018149457626023
0003e0 e4 0b 46 da 74 f1 27 bf 4e e7 fc 27 e9 b8 eb be
       -0.00018267203735086647 -1.3219026413591576e-05
0003f0 9f 44 1e 79 a5 7f e4 be a7 5b 5b 2b 5d de 40 bf
       -9.774503073408442e-06 -0.0005147890976456752
000400 46 c8 60 32 5b e9 36 3f 67 25 7d e0 eb 53 27 3f
       0.00034960247501481347 0.00017797712666326878
000410 e7 fc f5 bb e1 c8 f7 3e d1 e8 db 25 f9 e7 25 3f
       2.268285220230213e-05 0.00016713062625923214
000420 fc a3 f3 c1 7a 23 e7 3e 9d 2a 02 46 7e ac 55 3f
       1.1033340398163345e-05 0.001322863878189174
000430 35 67 7c c8 b3 f5 f2 be 70 9f 14 dd 42 89 28 bf
       -1.8081450007568368e-05 -0.00018719617086415284
000440 9f 89 30 16 05 32 2b bf fa 87 79 bb e6 02 33 3f
       -0.00020748436063040569 0.0002900899230323658
000450 07 b5 df 39 46 65 34 bf dc 51 97 ba a4 80 04 bf
       -0.00031121220115333563 -3.9105441213802445e-05
000460 e1 c2 db ce a2 47 0a 3f 2f 6a ce 30 55 ca 27 3f
       5.012479401312275e-05 0.0001815060608379589
000470 8e 28 08 b5 9b 92 27 3f 45 33 8d a0 ed 83 39 bf
       0.00017984533998599946 -0.00038933326191141856
000480 7c db a9 dc 95 84 31 bf 2d 0b e2 0b fc ea 22 bf
       -0.00026730211963104495 -0.00014433218706607614
000490 be 05 7d 80 75 a6 26 bf 36 6f d1 f1 97 f9 14 bf
       -0.00017280754422625654 -8.001317878963691e-05
0004a0 62 43 f2 97 ee 13 f3 3e 7c 36 dd 97 88 38 2b bf
       1.8194064520363365e-05 -0.0002076784839410323
0004b0 07 ce 97 3e 67 86 a9 bf f1 9d 3b 46 50 16 24 3f
       -0.049853540793176214 0.000153252886881491
0004c0 b9 a9 28 f9 dd e8 84 bf a9 5d 89 ed c3 c2 a8 bf
       -0.01020978371260105 -0.048360941644826135
0004d0 5c a3 20 3d 59 65 b2 3f 66 97 ac 14 e4 50 70 3f
       0.07185895674105097 0.003983393612349539
0004e0 aa 1d 66 1a 44 a8 88 3f 25 5b bd 21 30 0e af bf
       0.012039691978101914 -0.060655120962726884
0004f0 bd 0b 15 b3 f1 10 93 bf 21 9b 4a 2f ec b3 b1 bf
       -0.018619324260054294 -0.06915165094924848
000500 7d ce 8a a6 6c 54 7e 3f d9 bc 95 58 78 a1 b3 3f
       0.007404732147438528 0.07668258822171782
000510 29 5c 34 f3 c9 08 80 3f 97 4c 79 07 0b 00 b0 3f
       0.007829263433945926 0.062500657391228
000520 2c 8a c2 ea 8a d1 75 3f 99 06 e3 a7 15 7f 86 bf
       0.005326788563396561 -0.010984582124709251
000530 fb f8 6c 91 c5 27 a9 bf 10 76 6f 7b 07 6a a2 3f
       -0.04913155937400578 0.035965188806340476
000540 44 da 88 c7 b8 bb ac bf 26 66 09 5b c4 18 9d 3f
       -0.05611970363354549 0.028414791161003226
000550 20 d5 6e ac 6d c1 80 3f 42 54 dd 76 1a e9 b9 bf
       0.008181435417876914 -0.10121312524764028
000560 6c 99 09 37 89 ad 9b 3f c6 7a ed 88 a3 56 aa bf
       0.02702917478964066 -0.051442251648713674
000570 49 3e 1f 6a 17 d4 b2 bf d4 a2 1c bd 1c 56 bc 3f
       -0.07354875889654368 0.1106889688204647
000580 c0 8c e8 d3 89 ee 62 3f 19 97 92 ba 83 5b 70 3f
       0.002311009592874308 0.003993525090810989
000590 94 14 b3 7a c1 85 74 3f df 73 89 a3 c2 41 a6 3f
       0.0050103719506228335 0.043470461333278136
0005a0 aa e5 43 08 a1 1a 14 3f d8 33 3c d3 14 d9 12 bf
       7.669074881624127e-05 -7.18993149428493e-05
0005b0 04 9c 63 ae c1 f5 b3 3e 54 cc 2e dd 18 14 27 3f
       1.1897079104596008e-06 0.00017607501521652252
0005c0 07 f0 a8 36 3c d4 26 bf 4c b9 98 27 2b 36 fc be
       -0.00017417178180945144 -2.6904674518651598e-05
0005d0 dc dd 98 f9 e0 35 f3 be 2c da 2b f0 2d af 3f bf
       -1.8320526214502894e-05 -0.00048346396958668064
0005e0 1d 31 5a 89 f0 63 35 3f 6d 23 28 bc 51 ec 27 3f
       0.00032639143442094056 0.00018251893750711613
0005f0 cc d6 46 a8 a1 07 00 3f 27 d3 d2 b3 34 47 3f 3f
       3.0574437036729596e-05 0.00047726666145857455
000600 62 20 4f b8 39 51 f6 3e 3a 1e 5b 60 4e 51 4f 3f
       2.1283423411039614e-05 0.0009557373711794389
000610 9a 23 29 21 e1 ae fb be 30 d0 3a 73 15 27 2e bf
       -2.6400683120795036e-05 -0.00023004662363279712
000620 81 16 50 f5 70 60 43 bf d8 67 e0 87 78 bc 32 3f
       -0.0005913306764575161 0.0002858919395990456
000630 3e cf 7a 99 39 8b 3e bf 15 30 6f d2 62 5a fc be
       -0.00046606212843446407 -2.703959503573557e-05
000640 cf 48 e8 e9 da f4 10 3f a4 f7 68 54 a6 34 2e 3f
       6.468378203575434e-05 0.00023045092003032037
000650 68 7c 6a 46 a8 5a 2d 3f 7b de 3d e8 8a a1 3f bf
       0.00022395424021668113 -0.000482651150597736
000660 4b 33 a8 1c 99 53 3b bf ff c7 4a d6 82 2f 25 bf
       -0.00041697013935575584 -0.00016163322574908043
000670 92 d0 73 c9 71 5c 29 bf 84 c1 9d 3e d8 e8 19 bf
       -0.00019348992348223022 -9.883708812963825e-05
000680 ce bd 2b fb 8d 79 f9 3e 41 a9 c3 2c c5 ae 28 bf
       2.4294684133728023e-05 -0.00018831402702030635
000690 5d 86 d0 8f ed 05 9d 3f 8e e6 fa b2 96 1f 8c bf
       0.02834292593263964 -0.013732125603712644
0006a0 29 c5 b3 9d 19 83 6d 3f 0a 57 1b 02 a3 d8 8e 3f
       0.0036025524437880607 0.015061639310640657
0006b0 f5 90 ac 6b 5e f4 ab bf 14 af c6 64 80 40 96 bf
       -0.05459876121884292 -0.021730428839574392
0006c0 a3 3e 2c f3 de e3 60 bf bc 1c 19 22 b6 11 bb bf
       -0.002061782311450448 -0.10573900539849296
0006d0 fd 9b dc 83 3d 73 c6 3f 5e 8b dd 28 54 e9 c7 3f
       0.17539185465395227 0.18680812831288568
0006e0 ef 72 f0 69 df 00 8a 3f 3d d5 ab 01 8a 3e c0 3f
       0.012696977062711194 0.12690854150393163
0006f0 30 02 91 d4 69 57 8c bf d9 95 0b 7d 79 79 ba 3f
       -0.013838602828514984 0.10341605475294759
000700 e4 0b 46 61 1a 91 75 bf c0 85 02 2b bf 3a b5 bf
       -0.005265334173944123 -0.08292765426678894
000710 b9 f8 ca d8 d1 b9 b9 bf 3a 40 b6 c5 be 50 b6 3f
       -0.10049163382334116 0.08716957404090034
000720 6b df 74 82 1b 01 bb bf 6e 4c 1e 5a f4 50 95 bf
       -0.10548564848875024 -0.020816629410159875
000730 1e 88 2a e4 33 c0 88 3f 7b bf 43 68 9f b6 ad 3f
       0.012085347557619083 0.058033925511948824
000740 32 3c 35 15 4e c1 b0 3f 70 aa e2 50 e7 7f c1 bf
       0.06544960038921557 -0.13671580743296685
000750 ca 72 a6 4e 19 ff b1 bf cf e1 73 4f 50 a9 a2 bf
       -0.07029874963923102 -0.03644801111107975
000760 dc 5c 89 3e bc 4b b6 bf e3 38 7a 47 25 fb a4 bf
       -0.08709312941333586 -0.04097858903434017
000770 55 12 ac cd ad 03 87 3f f6 89 52 3a bd eb c0 bf
       0.011237485732189226 -0.13219418857359216
000780 c3 53 44 d5 31 df a3 bf 93 0e 1a 85 fd 70 a6 bf
       -0.03881221512180091 -0.04383079767015121
000790 3c de b3 20 ca f3 61 bf a0 4a f9 ba 55 a6 7f bf
       -0.0021914432342063066 -0.007726988682025621
0007a0 e1 69 0c f7 b0 88 aa 3f 27 45 97 11 fb 3b 97 3f
       0.05182412162521977 0.02268974585405661
0007b0 36 7a d4 12 ed 98 94 bf 46 e6 1f b0 68 55 c1 bf
       -0.020114616655627603 -0.1354189739211497
0007c0 91 fc d4 5e d4 81 a4 3f 8e af c6 d0 c8 d8 9e bf
       0.04005302102677278 -0.03012384199398315
0007d0 32 58 74 5b 7d be 65 bf 29 79 16 01 16 d9 c1 3f
       -0.0026543091186211005 0.13943743756403507
0007e0 02 b4 32 7b 21 29 a6 3f 2e ca 42 11 8d 5a c4 3f
       0.043282552994561754 0.15901339857880842
0007f0 cb f3 5f 04 8b 21 74 bf cb 3a 38 23 2b 21 b4 bf
       -0.004914801631454811 -0.07863111123900095

mean_linear.bias f8 [30]
000000 f4 f2 b7 fe df 9b 45 3f 5b ca 55 d1 74 0e c9 3f
       0.0006594508863027857 0.19575367185059886
000010 ba 46 bb e2 84 c4 59 3f de 82 ac b4 2c 03 4f 3f
       0.0015727327071783218 0.0009464233674841523
000020 0d f6 5b 24 fd 13 69 3f 2d 87 9c 18 b0 ee c4 3f
       0.0030612892322767816 0.16353417588930466
000030 fb 59 64 52 a2 7d 76 3f 20 42 95 db 13 47 c8 3f
       0.005490907735540502 0.18966911527469765
000040 3e 84 ea 13 89 5e d1 3f 94 93 94 22 56 5e 4e 3f
       0.27139498658113215 0.000926773126739821
000050 15 94 a4 3b 97 cd 50 3f de 7e 35 ad 87 1f 49 3f
       0.0010255791554041372 0.0007666981204401365
000060 1e 86 81 98 46 87 44 3f 4c ae f2 57 cc aa 51 3f
       0.000626477690286179 0.0010783191244553457
000070 04 04 a1 93 fe 6c 56 3f e1 d9 9c b1 ea 5b 35 3f
       0.0013687597370479762 0.0003259132368954848
000080 b7 ad 5e bf 8c 55 ce 3f f7 00 8d 1a ae 14 51 3f
       0.2369857725546873 0.0010425281745512474
000090 f3 fd 83 78 8c 99 4f 3f c8 84 1e 87 e5 66 10 3f
       0.0009643493549730805 6.256843496867386e-05
0000a0 67 2b c0 b3 ff 49 43 3f 06 a7 99 22 9c b2 48 3f
       0.0005886553331050204 0.000753713834638265
0000b0 15 1f a7 7a bf 60 54 3f 78 f6 b7 c6 35 5b 49 3f
       0.0012437696374138542 0.0007738125399893844
0000c0 3a 9b 25 6d 2d 61 23 3f 96 57 7c 5b 1c 30 13 3f
       0.0001478546096891022 7.319615440012773e-05
0000d0 33 1f 96 00 35 96 49 3f d0 1a 2a 93 7a 41 d4 3f
       0.0007808455276725246 0.316496509280495
0000e0 82 35 6d 4d 87 40 48 3f 6a eb d8 11 6b 7c 52 3f
       0.0007401142746431973 0.00112829643275233
