port_results/Delage/10_2000/14/5_trained_linear.pth (torch, 17023 bytes, 17 tensors)

radius f8 []
0.45583451107088435
00000000: 9c01 5c83 642c dd3f

shared.weight f8 [10, 30]
4.806550264662408e-09 7.041554242963238e-09 -3.5144333838947704e-09 -2.8375772029574012e-08 -1.5307864826995946e-08 1.4716166401482532e-09 5.70077399847654e-09 -1.2172095681464921e-08
1.7811823669140895e-08 6.904237539192458e-09 -1.2245638502345092e-11 -3.014284462972365e-08 -8.880961229397132e-09 2.255656203678745e-08 -1.1126520666212877e-08 1.8092248646417383e-09
1.5494171771894657e-08 -1.2760871831234373e-08 -2.7443517561519044e-08 9.630310963125644e-09 4.6705030283329035e-09 6.352405675904152e-09 -1.7748826480518257e-08 -1.3664470121839522e-08
-9.211548326699079e-09 -1.3606369064707052e-08 1.5263686918116213e-08 -7.52835702493336e-09 -1.3748854794032217e-08 1.89128555351296e-08 -8.47842493610319e-09 9.244429816213752e-09
6.0251997323428754e-09 -4.037594022994263e-09 1.0402387098501078e-08 -9.351260083403525e-09 -2.337169407964462e-08 1.4299077235518764e-08 -2.455339686864574e-08 -1.5618738856295238e-08
-3.718941924427531e-09 -3.708477545827421e-08 4.160784448284197e-09 4.449866076933363e-09 1.1783504608621302e-08 9.221561850165795e-09 2.272433292501772e-10 1.6861357042069224e-08
3.426669807571526e-08 2.5627217917096917e-08 -4.214266894365364e-09 -1.4930742657404705e-09 2.421807358915825e-09 -1.0599649815466454e-08 -5.096860872868822e-09 5.637664347831155e-09
-1.8857867066781993e-08 9.571749983839314e-09 2.2570744654948952e-08 -4.01137020227309e-09 1.0391249605439934e-08 -4.962657456751862e-09 5.827560136876243e-09 7.398610520120276e-09
-7.46380051054176e-09 -1.988140307269701e-09 -1.4010684294910641e-08 1.9147626167617866e-10 2.9255469561246706e-09 -2.6065667470051957e-08 9.216812268729255e-09 -1.514746651008724e-08
-5.155526970726453e-09 3.285744614750102e-09 9.262209677063267e-09 4.711708966619632e-09 -3.966894853670343e-09 2.323817575599323e-09 -2.6062639470427468e-08 -5.394634081903929e-09
-4.888327977863287e-09 1.4468045498677397e-08 -8.660196058702379e-10 -1.6242639635488192e-08 -3.703582583230514e-10 -1.4856250924236453e-08 -5.285798828429191e-09 1.9524029480060224e-08
-1.52494520692824e-08 3.2635730608445073e-09 -7.54736919401285e-09 -2.015026963296527e-09 1.2985681057620782e-08 -5.073625803467749e-09 -1.2096787152111843e-08 4.5044905233389616e-09
2.915366307225426e-08 3.561780264092706e-09 9.730058014829552e-09 3.926872040419163e-09 1.432033794733277e-08 -1.4566361771453634e-08 -3.1067680356997936e-09 4.051441209758625e-08
-8.436566579059336e-09 -8.919790055962036e-09 3.661667055012034e-08 -1.3555868851838466e-09 -1.593792899134535e-08 6.287300335111178e-09 2.6471049106889693e-09 2.1525357213072224e-08
-4.289774846949539e-09 -5.478454548268241e-09 -2.4317249586901807e-09 -9.832482277010897e-09 -1.998242871253641e-09 -1.719440403485082e-08 -3.666239674937951e-09 -8.251990059543147e-09
-3.2296948252284563e-09 1.062179394434486e-09 -1.1529331778596225e-08 -9.953101568952129e-09 1.5378240046968398e-08 -1.3878185920575923e-09 1.638513615975458e-08 -4.678371301447355e-09
4.441450339911433e-09 -2.8830472980396907e-08 -1.392902897403122e-09 2.2641049079626093e-08 1.1338710479585297e-08 1.2124102693083962e-08 1.2740337694777528e-08 5.8712314255017775e-09
-1.5614374104817412e-08 1.5655416857200976e-08 -1.6489300776465427e-08 -3.951247000234793e-08 -1.2137491914841084e-08 -1.1877786101785718e-09 1.318205363394537e-08 -1.315345920291924e-08
7.007303257530379e-09 1.6030249215892147e-08 1.5066882542954678e-08 -7.66761075017749e-09 4.033939218045496e-09 -6.106956269047564e-09 6.3080124662413695e-09 7.868498642543747e-09
-2.896886735064481e-09 -2.3235140398024753e-08 9.607450042879302e-09 6.21817929202105e-09 1.1018774826623814e-09 1.949802180684258e-08 -7.629675139834596e-09 1.8218040307842103e-09
-2.027085890006785e-08 -1.5611241367919134e-08 1.4956510148103696e-09 -3.3862937403288096e-08 -4.34219747594645e-09 1.9777219681161343e-08 -5.1829891002086404e-09 4.3689443765171925e-09
-2.372629626199601e-08 6.540290402474975e-09 -1.5942560790134457e-08 -1.729461198719284e-08 1.203671383295987e-08 8.086825470314608e-09 -9.94640955627971e-09 -3.3711645525129834e-09
3.164718088386778e-09 -6.186510029100145e-09 1.0014847545169045e-09 -1.6134423527895096e-08 -7.978817615918012e-09 -1.489205624356763e-08 -5.6601987545653376e-08 -9.391587898999171e-09
-1.0095124005003674e-08 4.196411041101429e-09 -1.1971167489392068e-08 6.046850869367687e-09 8.668818894657915e-09 6.604369976831054e-09 -9.637212766031516e-09 3.597412179028742e-09
-1.5686792906356825e-08 1.4365558334242434e-08 1.7631639393500458e-08 -2.980744340088987e-08 -2.1233248480852402e-09 1.0885982535089548e-08 5.1392766923605456e-09 -4.485610412946424e-09
1.1404227961017013e-08 -3.106967244307565e-08 -2.987651473750177e-08 1.695041071728071e-08 -5.85116328346713e-09 1.6149994884347826e-08 -4.944060790922327e-09 -1.4881617230808187e-08
-1.3793505680957998e-08 2.3713417771497652e-08 8.211902602253183e-09 -3.8810528424072554e-10 -5.237009065334671e-09 2.7944744367591627e-10 -1.0542246098514926e-08 -7.745743062591476e-09
2.4496776920705338e-08 -9.174346566700274e-09 -5.074797388797648e-09 -8.527624817409963e-09 -8.636488565823154e-09 -1.9161195696366933e-08 -8.787962777960208e-09 7.132955221481061e-10
2.1143591553461442e-08 2.7926741351096837e-08 2.1739301811521502e-09 -2.0737433489620822e-08 1.4656436682429976e-09 -1.4431102996241829e-08 2.193872985385982e-08 -2.3760369326600596e-08
1.87464552449466e-08 2.2498993506198324e-08 4.313817931588621e-09 1.2308536507479252e-08 -9.1536044593978e-09 -8.385970306177201e-09 -1.5209746464465233e-08 -5.0078103820548005e-09
1.3246240245342247e-08 -2.521960215373482e-08 3.073064714547976e-08 -3.180294911039785e-08 1.3751986104501305e-08 2.1332841291458967e-08 9.857392770070633e-09 -3.187492098744934e-08
-2.842828244479755e-08 2.003757440926336e-08 -2.8903263427195854e-08 -2.406250230532507e-08 2.5873577403390155e-08 1.1712999967053005e-08 -1.6925767791736407e-08 1.5195397718770658e-08
00000000: faa5 b19f dba4 343e 2216 0951 453e 3e3e
00000010: a09d 191c 5230 2ebe 92de 5a71 df77 5ebe
00000020: 33a2 5239 cb6f 50be 67b5 bd09 3d48 193e
00000030: 62f4 7b3a 117c 383e 2658 9a2c ae23 4abe
00000040: ccab c1a9 1320 533e dd94 bd19 4aa7 3d3e
00000050: 00a0 f17e aeed aabd 4843 af0f cd2e 60be
00000060: e89c 772d 5c12 43be bad7 88f1 4c38 583e
00000070: 103c 9c92 dee4 47be 105a 471b 0e15 1f3e
00000080: 148f df68 01a3 503e 4c18 fe0c 5d67 4bbe
00000090: 82ec dadd 9d77 5dbe 5182 ebc6 51ae 443e
000000a0: 7b24 2bbb 450f 343e a9c8 5b3d 8b48 3b3e
000000b0: 28b3 4ba1 c20e 53be 5436 6434 1f58 4dbe
000000c0: d99c e42c 1ac8 43be 7e8b 3235 2e38 4dbe
000000d0: f8ed dd7a a663 503e c53a 230f c22a 40be
000000e0: b10d 9e4a 8386 4dbe ebe4 8fe4 b94e 543e
000000f0: f539 103b 1035 42be 4f88 67d5 2dda 433e
00000100: 2783 4ff4 c6e0 393e ebb6 ffae 6157 31be
00000110: 8eda 48d5 c556 463e ce9e 6adb e814 44be
00000120: 2b0f fec2 5c18 59be 14e9 4637 00b5 4e3e
00000130: 4908 f4b3 2f5d 5abe 9a0b f909 3fc5 50be
00000140: 9ece e12e 0af2 2fbe 9db8 de89 e4e8 63be
00000150: 905e a7b4 d4de 313e c078 4bf3 ad1c 333e
00000160: 9e4e b7d7 0c4e 493e 2cf2 1874 9bcd 433e
00000170: f057 24f2 693b ef3d 719f 2a85 d01a 523e
00000180: 70b9 5e41 9465 623e bb77 3f24 5b84 5b3e
00000190: 26aa 0aad a219 32be 04a0 3c2d 9ca6 19be
000001a0: 4c7e 0357 9ccd 243e 1a6d ac17 38c3 46be
000001b0: 731d a5cb 0ee4 35be 01eb e570 ad36 383e
000001c0: a63d 616c 9c3f 54be 6cb5 480d 208e 443e
000001d0: 08b9 def4 323c 583e 783c 9255 8c3a 31be
000001e0: fcca ce5e a650 463e 1c30 5ee4 7f50 35be
000001f0: 9d1b 935a 7807 393e bfb6 4db9 dbc6 3f3e
00000200: e097 9589 4407 40be 30a9 4d7e f713 21be
00000210: 12e1 8e84 7416 4ebe 7098 6ad7 f850 ea3d
00000220: ea80 ce85 5821 293e bf9d 3849 e0fc 5bbe
00000230: 6256 6402 ffca 433e 9b2a 1f32 b443 50be
00000240: 1419 82d5 8f24 36be a2ba 1fc7 6d39 2c3e
00000250: 3ae9 6620 f4e3 433e ec08 f12b 943c 343e
00000260: eaf8 f4a2 a509 31be 4823 f6fe 20f6 233e
00000270: 8a15 a135 0bfc 5bbe 6031 a880 762b 37be
00000280: 89ff f300 c6fe 34be 9771 8862 e411 4f3e
00000290: bc6c 82c9 96c1 0dbe de55 3d27 be70 51be
000002a0: 18ec 6d50 6973 f9bd b519 0371 4fe7 4fbe
000002b0: a625 251a ccb3 36be d18e 906f b9f6 543e
000002c0: 9796 a0ca bc5f 50be cc80 764d ac08 2c3e
000002d0: 96e0 b7c8 3535 40be 3e1c cb55 174f 21be
000002e0: d05f fa22 f4e2 4b3e ac56 72b4 82ca 35be
000002f0: 8f92 e270 47fa 49be dc7b 7a5d bd58 333e
00000300: 0042 98a8 b24d 5f3e fa03 a508 7098 2e3e
00000310: 1ef4 32ed 27e5 443e 64d1 5337 a4dd 303e
00000320: 49bd 2565 b0c0 4e3e 2d89 912b f147 4fbe
00000330: f1de c5eb daaf 2abe 399f 7326 42c0 653e
00000340: 045c d030 0d1e 42be 8ac6 60d9 b427 43be
00000350: 0aad b08f 8ea8 633e 70a7 d225 ef49 17be
00000360: 6c13 440c fc1c 51be 1e58 24b7 f500 3b3e
00000370: 787a 0f96 0bbd 263e 282e e55a d81c 573e
00000380: c483 6f46 a86c 32be b45a cbdd 9f87 37be
00000390: 2a38 c573 6be3 24be 09a7 26dc 761d 45be
000003a0: cc42 36bb 2e2a 21be 87b6 6a9e 5c76 52be
000003b0: c4eb 4874 257e 2fbe 0698 db5a 94b8 41be
000003c0: cc58 2a8d 2cbe 2bbe c600 66ae 833f 123e
000003d0: 5853 6a32 51c2 48be 680c 2384 c65f 45be
000003e0: d29f 9470 2383 503e 76b0 d1d2 b0d7 17be
000003f0: 1ff8 6974 e997 513e 3b96 ff73 ec17 34be
00000400: be6f 8821 6d13 333e 5258 7c2d dcf4 5ebe
00000410: 14b2 0f3e 0dee 17be 390a cb30 864f 583e
00000420: 3466 53a2 8559 483e a758 f7c2 4b09 4a3e
00000430: 0f19 c220 135c 4b3e 90c0 8fba 7c37 393e
00000440: 5eae 99e5 0bc4 50be 9501 1906 54cf 503e
00000450: 3078 5463 8bb4 51be 05ae 5b72 8d36 65be
00000460: 6ce5 8420 a810 4abe 1cc3 98d3 e767 14be
00000470: d0a6 ab1e e94e 4c3e 8d1d b8cf 303f 4cbe
00000480: be88 6e85 9c18 3e3e 1fd6 9481 5c36 513e
00000490: bca1 6c9a 8d2d 503e 94ac 5647 5077 40be
000004a0: 702f 8cf2 5c53 313e e074 a45f ab3a 3abe
000004b0: 2286 7aa9 bb17 3b3e f2aa 6fbc c0e5 403e
000004c0: 5e84 a840 52e2 28be a4c4 8da6 d3f2 58be
000004d0: e0f8 7663 c0a1 443e 4e5a 14df f5b4 3a3e
000004e0: 6f06 4dc1 1bee 123e b69b f94e 93ef 543e
000004f0: 5609 ef50 7562 40be b250 11fd 604c 1f3e
00000500: 10f5 5ae2 02c4 55be 59ba 3a73 2fc3 50be
00000510: d829 9756 f1b1 193e 12d0 8a30 162e 62be
00000520: b04a f4ee 4ba6 32be 8efa be1c 523c 553e
00000530: fc5f 7cbc c142 36be 9ce2 4184 b4c3 323e
00000540: 5483 04ac d579 59be d831 b616 2017 3c3e
00000550: b1ca 55fb 411e 51be c476 6720 e891 52be
00000560: 8e8b 76df 40d9 493e 21d3 6581 c75d 413e
00000570: d27e f8b2 185c 45be 1e23 85ed 44f5 2cbe
00000580: 08d2 83e6 492f 2b3e 703f 30c4 2392 3abe
00000590: 422e 8197 9334 113e cefa 261f ff52 51be
000005a0: 8ed2 55c0 6622 41be b430 9897 fefa 4fbe
000005b0: d3be 0964 5163 6ebe eb4a 197e 142b 44be
000005c0: 1055 a865 daad 45be 8049 37b3 0006 323e
000005d0: ee29 8e0b 38b5 49be 241d 2735 95f8 393e
000005e0: d08b 59cc bb9d 423e 8bb1 aae2 945d 3c3e
000005f0: 596f 931e 1db2 44be c660 c404 cbe6 2e3e
00000600: 3236 c0ea f3d7 50be 95db 4999 8cd9 4e3e
00000610: a9f5 6852 8cee 523e 8a79 fc2d b400 60be
00000620: 0af4 d39f 3d3d 22be 9bd5 1bd7 a160 473e
00000630: 9df4 8bc9 b112 363e 43fd 2516 fb43 33be
00000640: ca8f 5d66 8a7d 483e e36c 79ea 2eae 60be
00000650: 6b23 4769 320a 60be 367c 8f1d 4b33 523e
00000660: ad9a 870c 6c21 39be 1ad2 c5db 4657 513e
00000670: 9601 5f65 0d3c 35be fccf 856e 41f5 4fbe
00000680: 0cf2 5b58 0f9f 4dbe 7af1 c16d 4b76 593e
00000690: 3aff fe8b 8aa2 413e fcaf 40d0 9eab fabd
000006a0: f0ec 3301 277e 36be 00ac 3867 1734 f33d
000006b0: 16af ce3c a9a3 46be 082b 906c 44a2 40be
000006c0: 64c0 a56d 9f4d 5a3e cab7 3b7e a6b3 43be
000006d0: 6914 117a cccb 35be 18b0 997f 1c50 42be
000006e0: 19a1 7eb5 f58b 42be 5349 3147 fd92 54be
000006f0: a728 23cf 3bdf 42be c0e9 4fb9 3682 083e
00000700: 0370 2afc e7b3 563e 5d17 c5b7 71fc 5d3e
00000710: 4da7 ebe4 85ac 223e f826 f226 4344 56be
00000720: 6653 cd11 f82d 193e 1082 9c30 95fd 4ebe
00000730: d219 61de 788e 573e aa27 c859 3383 59be
00000740: ec31 6c83 fc20 543e 3139 15eb 7928 583e
00000750: 2a98 44cd 1787 323e b6b0 6d83 b06e 4a3e
00000760: 253d 0f4d 3fa8 43be a8e3 f765 3c02 42be
00000770: edff 09c2 d254 50be 396e 874f 2582 35be
00000780: 9b59 1095 3272 4c3e 1cae 72bb 4f14 5bbe
00000790: 6b04 1186 967f 603e fa96 86cb f612 61be
000007a0: 0879 f7fb 3b88 4d3e db26 5d40 ede7 563e
000007b0: 90c3 3fb3 282b 453e 1f26 9014 db1c 61be
000007c0: df93 e688 4e86 5ebe f565 92f2 e283 553e
000007d0: 6f1f 9a59 de08 5fbe 2cd8 a911 40d6 59be
000007e0: c6e9 3526 13c8 5b3e 2fcc 4b32 4a27 493e
000007f0: a54c 1406 852c 52be 1b19 040e e150 503e

shared.bias f8 [10]
8.056409790601016e-09 3.9485527947441035e-09 1.3780516172767068e-08 -7.1200658910027115e-09 -4.385240208403259e-09 1.9897323697678066e-08 -1.5347641644464508e-09 -1.2337596115232868e-09
-4.396486270257197e-09 -2.5160982905232042e-09
00000000: 8c12 0ce1 0e4d 413e d22c 52ce 7af5 303e
00000010: 2453 013c eb97 4d3e 9a46 7f61 9894 3ebe
00000020: d927 b262 9fd5 32be b4b4 5cae 555d 553e
00000030: 6c2d 6cd4 f65d 1abe 60ff e8d4 2132 15be
00000040: 2a03 dbde fce1 32be c828 5b6a f59c 25be

mean_hidden.weight f8 [10, 10]
-9.170726750112104e-09 5.495893592735695e-08 -1.2129636473540605e-08 3.7215121112868035e-08 1.2749275447671918e-08 -6.01295046171686e-09 -8.352609818964775e-09 1.54772742173019e-08
1.3691280983130164e-08 -9.616363723614015e-09 3.019857225230219e-08 -7.30367590913093e-09 -3.902625044540564e-08 2.4820555227470213e-08 -9.662325077875116e-09 -2.4195103223565414e-09
4.915554608135329e-09 1.177808416664184e-09 -9.593092586602905e-09 1.991695831107372e-08 3.202172658537207e-08 9.228047337456115e-10 -3.007258366111012e-08 2.4510780429231345e-08
-1.853631859293332e-08 -3.2149087847159845e-09 -1.0843354880091267e-08 3.982394999246252e-09 -1.4942196201428844e-08 1.981642580169993e-08 3.326726812587642e-08 1.0760280089306305e-10
-1.2574242859743587e-09 -2.513348884974622e-08 -6.225055745607148e-08 -1.271951795714793e-08 5.539979112292534e-09 8.389387144436886e-09 -5.033569125770354e-08 -8.845069995674203e-09
-5.152233560101644e-08 -1.3603590396410424e-08 3.144946218507186e-09 -3.804620143286612e-10 -4.582261131316689e-09 -1.6737324947477913e-08 6.54634106959305e-09 -5.326406672690359e-09
-3.0262194536723445e-08 9.105855576165774e-09 1.4525576212827402e-08 -2.147052195155123e-08 4.174846161305649e-10 3.6577150261878644e-08 -3.957056882274219e-09 -5.258793463794915e-08
7.246227341192547e-09 2.3657369250690493e-09 2.6579113812932257e-08 1.8244077658747405e-08 -3.9136477508966954e-08 -4.4518010679142615e-09 -4.719850472853052e-08 6.983213385186993e-09
1.6673812969169954e-09 8.098118194567118e-09 -2.916497206911774e-08 -9.76742801858386e-09 -1.860251950642549e-08 4.341211237869171e-09 -2.1533038613194266e-08 -9.415567210093287e-09
-8.73252559202811e-09 2.780893603509055e-09 -9.667663924480168e-10 1.3476804856152191e-08 -1.2884848994495997e-08 1.639054835379094e-08 3.0618744869011956e-10 -5.524664846124688e-10
-6.610281677111395e-09 5.158013380008275e-09 2.0611971188499894e-08 -5.947134448462222e-08 2.397674157815813e-08 1.4378203384434688e-08 3.6538965802721623e-09 1.1689266105081965e-08
3.066263558828414e-08 1.4742865797365094e-09 3.25441578379278e-08 9.74660048116026e-09 4.449613877686598e-09 -5.0635602094934554e-09 4.99670083416272e-09 6.815306339197365e-09
-1.697666118578242e-08 -2.9459836189792387e-08 -1.862503905103711e-08 -2.376741647952913e-08
00000000: bc9e 980c a9b1 43be 5aeb b9a6 7f81 6d3e
00000010: a844 6b92 560c 4abe d025 27ab cefa 633e
00000020: 6137 3e01 fd60 4b3e 422f 5717 4fd3 39be
00000030: 93ff be53 e5ef 41be 414c 9759 5c9e 503e
00000040: 3a86 787f dc66 4d3e 2e9b a8e0 a6a6 44be
00000050: a534 7ccd 7536 603e 630e a501 7a5e 3fbe
00000060: 855c ed1d baf3 64be 1321 184d 9fa6 5a3e
00000070: 2446 f65c ebbf 44be 536b 2839 8fc8 24be
00000080: b69d 6c9e b51c 353e d542 f862 0e3c 143e
00000090: 6a3b 96c1 db99 44be a3c7 1c58 bb62 553e
000000a0: 1dd5 d557 0831 613e c84d 0b87 13b5 0f3e
000000b0: f8f6 23f9 2425 60be d73a 6ed6 7851 5a3e
000000c0: 6f25 0876 39e7 53be e6f3 27c0 a89d 2bbe
000000d0: 00ba fa87 3249 47be 3084 278a b01a 313e
000000e0: 6dba fa94 470b 50be 3fe7 6cff 1847 553e
000000f0: 8fb0 abf0 37dc 613e 0013 6cbc df93 dd3d
00000100: 6ebe ede2 359a 15be e0ac 120c a4fc 5abe
00000110: 71de 5c63 d3b5 70be fc3a a802 a150 4bbe
00000120: 3128 da7d 45cb 373e 1e59 8a46 1d04 423e
00000130: ba83 c8b0 1506 6bbe e81f 7eef a0fe 42be
00000140: 30f7 d306 2da9 6bbe fd13 1f25 a736 4dbe
00000150: f1c3 c453 cf03 2b3e d86b 0196 2825 fabd
00000160: 464e 60d8 3fae 33be e928 9689 b8f8 51be
00000170: 3eff 3933 c71d 3c3e 2e9e b331 72e0 36be
00000180: f6f7 1350 343f 60be 75d8 3c3e ff8d 433e
00000190: 5c98 f41c 8531 4f3e a04e a4aa c50d 57be
000001a0: e08a c78f 77b0 fc3d cc4f 9410 20a3 633e
000001b0: 6d6c 687e d4fe 30be d7e6 ad75 a13b 6cbe
000001c0: 4fe5 0eac 4f1f 3f3e 5af2 e47d 4f52 243e
000001d0: 3a4a 41dc 028a 5c3e eaf2 61d5 e496 533e
000001e0: e84c 0d63 e002 65be 9ae1 169a ce1e 33be
000001f0: 209f 9dc0 e956 69be bba5 30d3 1ffe 3d3e
00000200: 2812 6672 38a5 1c3e 4dea aad0 fc63 413e
00000210: bff9 5e75 ce50 5fbe 2599 7a49 b3f9 44be
00000220: 214e abef 6bf9 53be 6ae2 0255 36a5 323e
00000230: 9eb9 b2e2 f41e 57be 7fb3 d447 4338 44be
00000240: 7aa1 04b8 c1c0 42be 804b b0ec 3fe3 273e
00000250: 4435 f230 e29b 10be fd61 a0aa f3f0 4c3e
00000260: 46ee 0a49 85ab 4bbe 2589 d54d 6699 513e
00000270: 7019 09ae 810a f53d ee95 57ed 8bfb 02be
00000280: 33ce 90e1 1464 3cbe 40c8 2db2 4b27 363e
00000290: ad3b 0e87 c621 563e d067 b8e9 aded 6fbe
000002a0: 4070 bf31 adbe 593e a234 3c3b 80e0 4e3e
000002b0: 8d2a e0e8 0063 2f3e a3f7 ccf3 3d1a 493e
000002c0: e04f 6b94 3d76 603e e0d0 6e1f fb53 193e
000002d0: 3655 39c2 d578 613e 2f54 5c12 40ee 443e
000002e0: d382 6cf6 661c 333e 4b58 f67d 71bf 35be
000002f0: d4b0 3c40 ee75 353e a81a 6f31 8245 3d3e
00000300: 3d0d f653 823a 52be 71a0 25ad dba1 5fbe
00000310: fa54 b89b 9cff 53be 01c9 0040 2385 59be

mean_hidden.bias f8 [10]
8.510420132869055e-05 7.323293185943209e-06 -2.180339674884858e-06 2.5577795597897625e-06 1.4709370883115802e-05 4.67499003379063e-05 4.145930513998789e-06 -4.295648092411292e-05
-9.716500364302299e-05 -8.197200628937847e-06
00000000: 7ce3 bb0b 3f4f 163f dc5a bd80 53b7 de3e
00000010: 08d2 9a69 3e4a c2be 9deb 022f ca74 c53e
00000020: 081c 588a 08d9 ee3e 8ab3 2658 aa82 083f
00000030: b0cb b7b3 a863 d13e cb7d 1d72 8585 06bf
00000040: f50a 460d a278 19bf 6eee 03ad d630 e1be

mean_linear.weight f8 [10, 10]
-5.069491095016123e-06 -2.380567209246331e-06 -1.1741992415526979e-07 4.1223728337624746e-07 4.35125541354681e-06 3.656931142789094e-06 -2.738677149860614e-06 -1.5585273934516872e-05
4.0542400326772303e-07 1.8895423582788509e-06 -1.6693608216530906e-05 1.0482631437437494e-06 -2.350479123984627e-07 5.94625341604179e-07 -9.615358275749067e-07 7.962738279034116e-07
-1.0545500618673035e-06 7.748733542433556e-07 1.0607499399252656e-06 -9.542407845766535e-07 -3.299590904709917e-05 -8.951815247587272e-06 -1.3569501973159915e-07 -2.243128997573913e-07
1.2600691491190205e-05 1.356150958461669e-05 9.696544886739426e-06 2.357373277286674e-07 -4.8967689646518936e-05 2.9358270837999167e-06 -5.8121240143391746e-05 8.909154098309e-06
2.046944071989239e-06 1.424383699331615e-06 -3.3689354577854043e-06 -3.151092770379132e-05 -4.4784030505118044e-06 9.081270056796019e-06 2.8878698731136553e-05 -2.3594578450867763e-06
2.5479305066913298e-05 1.0148633347945936e-06 -1.6341142962573637e-06 3.660924957628471e-07 3.865786548672442e-06 1.6241750143561928e-05 8.92277564719077e-08 -3.5524022239528204e-06
-1.004699754907703e-05 -4.354289809232784e-06 3.765256799884748e-05 6.8513591494639616e-06 5.14577060963602e-07 -1.0675518029953065e-06 9.390150945448527e-06 1.1076798231061775e-06
3.694071914602395e-06 -1.0772796773869298e-05 -1.912596470075248e-05 4.608899474313339e-06 -3.480593219776412e-05 1.0870844944306366e-05 -9.40320980876222e-07 7.430660838886801e-07
3.879636475700411e-07 8.109027316224642e-06 -7.529378168022125e-06 2.749752193242083e-05 -8.310089995965293e-05 -1.161235164764194e-06 7.778291540986174e-05 -1.2479957284574791e-05
1.947975493808283e-06 -2.5605215768389944e-06 2.106820505486719e-05 -2.9407451273660165e-05 1.8915167156372648e-05 3.593069862504e-05 8.512248754193647e-05 1.3130318139936736e-05
8.50139985375577e-08 -1.2601040778797817e-06 7.955059161518316e-08 8.360248716122521e-07 -8.146050255854441e-07 3.033783001919779e-06 1.2929908132849725e-07 -2.7630435729125337e-06
-2.6383833548601014e-06 7.05774950575718e-07 -4.774008786923783e-06 2.8601777758600596e-06 -4.441307373929411e-07 9.861556743969964e-07 -3.7034975666480307e-08 1.314275851671053e-05
-1.3804940188559862e-06 -2.7694287992299937e-06 -6.944275901759233e-06 -1.583097876720089e-06
00000000: 01e4 f919 5343 d5be 05f0 e3a9 3af8 c3be
00000010: 5eea ab26 0985 7fbe ac4b f3be 2eaa 9b3e
00000020: 4e2c 0cfb 1f40 d23e 4fe0 1f28 33ad ce3e
00000030: 86cd 7caf 43f9 c6be 11f5 9bde a357 f0be
00000040: e3c9 829f 2135 9b3e 9053 4acb 85b3 bf3e
00000050: 0970 7f05 2881 f1be 27cf f883 4196 b13e
00000060: 2691 584d 2f8c 8fbe d0f4 5bf4 caf3 a33e
00000070: d250 acd2 c321 b0be 8e2e 54aa f0b7 aa3e
00000080: b9b4 1a0e 42b1 b1be 20c0 ad86 1c00 aa3e
00000090: 28e4 a2e4 e2cb b13e 5675 9dd6 6e02 b0be
000000a0: 20a2 54cd a24c 01bf aaa5 8a1e f8c5 e2be
000000b0: 384e 2604 7236 82be 1a82 e121 551b 8ebe
000000c0: 69ab 00da f16c ea3e e7b8 4faf c770 ec3e
000000d0: e566 45fb ca55 e43e 6077 a876 dfa3 8f3e
000000e0: dea0 3601 55ac 09bf 0e01 0502 a4a0 c83e
000000f0: 8b0b de9a e678 0ebf 57a9 cad0 10af e23e
00000100: 32df 7e67 c72b c13e f5ad 9870 aee5 b73e
00000110: 718a c2da bb42 ccbe 5572 4c3b 5385 00bf
00000120: daff 950e a6c8 d2be bfac b740 780b e33e
00000130: cc7d cc10 1148 fe3e 006f ffaa e5ca c3be
00000140: 8a02 0583 8cb7 fa3e 489b 8609 ce06 b13e
00000150: 9449 7bab 776a bbbe 5b0b e0d2 6b91 983e
00000160: 5e61 b050 db36 d03e e463 3692 dc07 f13e
00000170: 0049 cc4a aff3 773e 2983 a0c6 b9cc cdbe
00000180: 636e 24d4 f011 e5be b04b a911 6243 d2be
00000190: 6d93 a462 a4bd 033f 8307 4243 97bc dc3e
000001a0: 684a 80ec 2e44 a13e 9eb1 e29e 19e9 b1be
000001b0: d8bf d584 4cb1 e33e 8663 69d8 7295 b23e
000001c0: 50aa 1083 f5fc ce3e 5b12 21ea 9997 e6be
000001d0: fe68 4b49 160e f4be 2a6c 0ca4 c454 d33e
000001e0: 0e11 56b9 923f 02bf ddc2 708d 3dcc e63e
000001f0: 67a6 62b4 4b8d afbe 2668 5099 e3ee a83e
00000200: 964d a82a 2a09 9a3e 795f 5f3a 8001 e13e
00000210: 0e58 1fb6 9b94 dfbe 6676 9851 4fd5 fc3e
00000220: 881c 2397 cec8 15bf 0825 f590 777b b3be
00000230: 3ae9 bd4f ec63 143f 4cd2 c044 202c eabe
00000240: b155 60da 3e57 c03e 149c 9a9f ad7a c5be
00000250: 0f77 f206 7417 f63e d1f8 e5a9 00d6 febe
00000260: 2b17 ad63 80d5 f33e 2472 7567 89d6 023f
00000270: bfad 5933 7950 163f e08c 142f 4989 eb3e
00000280: b890 2214 1ed2 763e 1a66 f915 1b24 b5be
00000290: 8057 c1ce ac5a 753e 337e 8822 660d ac3e
000002a0: 9ec8 3565 6755 abbe 3ac0 e7d7 ff72 c93e
000002b0: 5ec4 3ebf ae5a 813e c604 ab44 972d c7be
000002c0: c077 ae96 e221 c6be 8e72 8d87 8fae a73e
000002d0: e869 078b 0d06 d4be 299d 6c5c 2ffe c73e
000002e0: f54d dba3 1bce 9dbe d7e5 7ba1 818b b03e
000002f0: f0f3 385d 0ce2 63be b7f4 ecf9 f68f eb3e
00000300: 2583 ce39 2d29 b7be 39ee 6195 4d3b c7be
00000310: 4c15 6e06 5c20 ddbe 7a00 fb85 5a8f babe

mean_linear.bias f8 [10]
0.029326110014203603 -0.011534910864995633 0.07161187838874544 0.07760224396662242 -0.040672632943550786 0.08930642970685168 0.08544850034127693 0.027242640084270707
-0.06408858923073416 -0.02571247967457673
00000000: 6138 b8ed a907 9e3f 1c61 6b87 9d9f 87bf
00000010: 744e aff3 2755 b23f b1cf ee9b bddd b33f
00000020: 0966 ab18 0bd3 a4bf ead7 e942 c9dc b63f
00000030: 6841 75f2 f3df b53f 86e3 dfa0 7ee5 9b3f
00000040: b2f3 ca1a 1c68 b0bf ce9a 344d 5f54 9abf

cho_hidden.weight f8 [10, 10]
2.0664413058730924e-08 -3.476523962809815e-08 -2.9456172935864347e-08 1.1933258126880216e-08 1.976753943284055e-08 -6.5913627554370465e-09 1.065575025549375e-08 1.496911296641634e-08
1.640128190819714e-08 9.472891333838917e-09 -3.342484358838697e-08 2.3890901756941236e-08 1.3898407831119503e-08 1.782669967307325e-08 5.2649779788225055e-08 -3.6773701576549347e-09
5.067511342137406e-08 8.327386563019021e-09 9.14740730077989e-09 -2.7978446360412376e-09 8.925914497647122e-09 4.0765147868665764e-08 -1.5056836035484858e-08 1.340773894208701e-08
2.2704002413580198e-08 5.713070298951326e-09 -1.7654495733370384e-09 1.4339097176072118e-08 -2.255297092646935e-09 -2.202066365935662e-08 9.654376266738337e-09 -2.834442488314248e-08
-8.098444563975628e-09 -1.6807558521102046e-08 2.6282861319388937e-09 1.2200704904134472e-08 6.046607659290851e-09 -5.7485321280641254e-08 8.155464216501611e-09 -9.688352879579128e-09
1.2085809083186358e-08 1.0194247216052956e-08 -7.301885302184487e-09 -1.49628763647096e-08 -1.5596539023156093e-09 -1.734196165930664e-08 3.7161886271060405e-08 -2.0388075928306206e-08
-6.026819110203817e-09 -2.5767619405553185e-08 1.7058638677827926e-08 6.653168341703038e-09 1.9722012661856613e-10 2.4358868386935388e-08 5.76959761750356e-09 1.670121558797168e-08
2.8857754004140466e-08 1.584503580658278e-08 -4.5729875801511156e-08 -9.096574108516715e-09 3.013243948801823e-08 5.1144312592964055e-09 -3.027490826603245e-08 2.7991978665944546e-08
-2.2319696439667084e-09 4.9012297754504777e-08 8.939479380224556e-09 1.6391197342470338e-09 -3.0749034718335725e-08 1.4159608228171575e-08 1.6522648358527052e-08 1.1846521405139518e-08
2.2539305114145967e-08 -4.945471032882324e-08 -1.780437851522506e-08 -1.431049541438794e-08 -3.1331063130171396e-08 -3.2662618332538774e-10 2.9164576039906598e-08 1.003116232508981e-08
-3.0556498911509154e-08 1.550114134939195e-08 -3.406890767493584e-08 2.3999575150414185e-08 -3.329078526340914e-09 3.4041916677694717e-12 -1.831627320044602e-09 8.277310850705654e-09
-3.2216155536183875e-08 2.8653826733006828e-08 -1.5785062802261802e-08 -1.0987767515797412e-08 4.8006577894994846e-08 6.546148655196117e-09 -2.3446819536977884e-08 5.507578195775556e-10
2.889254058084351e-08 3.1670919223541746e-08 -1.537144337745208e-08 -2.5048646234705945e-09
00000000: 2ef5 cdcb 3030 563e c916 7820 19aa 62be
00000010: 70b4 d4e5 d9a0 5fbe 7809 d4c6 60a0 493e
00000020: 9024 e5ec a839 553e 3887 96ad 474f 3cbe
00000030: ac3a 0a87 0fe2 463e 7c7b 4fae ad12 503e
00000040: 9e51 5c9c 599c 513e 9db1 0cef c657 443e
00000050: e057 4222 e0f1 61be b41b 00c1 14a7 593e
00000060: df59 a202 bbd8 4d3e 1804 0578 2a24 533e
00000070: b651 4571 2144 6c3e 741d e55b 9f96 2fbe
00000080: 52c9 d70b bc34 6b3e 0a6e 2d78 07e2 413e
00000090: 06bc e320 d7a4 433e 861b ee81 8608 28be
000000a0: 82f4 a4c9 122b 433e 8586 8021 b8e2 653e
000000b0: 6499 a2a4 ca2a 50be e8e4 d380 fbca 4c3e
000000c0: aa0c 3d23 d460 583e cedd 4f54 9689 383e
000000d0: 628d 9982 8754 1ebe e086 9785 00cb 4e3e
000000e0: 7c7a ac64 735f 23be d558 9a72 fea4 57be
000000f0: a6e8 dbaa 8cbb 443e 1af4 5d95 416f 5ebe
00000100: 3164 5dbf 2a64 41be 9aaa 2bc9 060c 52be
00000110: adb6 388e a993 263e f8b5 7a90 6833 4a3e
00000120: fe11 05c0 50f8 393e ad5e ffee b8dc 6ebe
00000130: fb0c da8c 8383 413e 0bb1 5873 3ace 44be
00000140: 63a0 446a 3ef4 493e d653 b5bf 58e4 453e
00000150: 83fa d0fe 815c 3fbe c196 aed1 f610 50be
00000160: 5350 ee2e 6ecb 1abe 0954 4410 ec9e 52be
00000170: a951 53a2 7df3 633e aa34 9d4c 3be4 55be
00000180: c478 c8c4 8ee2 39be 74bf 9c04 f3aa 5bbe
00000190: 97f1 2bfb 0a51 523e d8b3 6e67 3c93 3c3e
000001a0: 605a 3dfa 101b eb3d 2abe 5cfa b627 5a3e
000001b0: 5f5f e25a bdc7 383e 61ca 3191 cbee 513e
000001c0: 8f1c b8e8 5bfc 5e3e fbb2 6a45 7303 513e
000001d0: fe1f 3df7 108d 68be 94ab 1ffe e488 43be
000001e0: 6200 80f6 5e2d 603e 23d2 6a6b 60f7 353e
000001f0: 1ad1 2ba3 f340 60be acda c162 600e 5e3e
00000200: c215 0535 272c 23be 91b9 ceeb 3250 6a3e
00000210: 609a 0be0 8732 433e 9249 8fc1 ec28 1c3e
00000220: f657 997a 1d82 60be 5889 b8b2 5368 4e3e
00000230: 5469 f603 b6bd 513e 562a 16ab b170 493e
00000240: d3f9 7398 8e33 583e c467 04ee 008d 6abe
00000250: d073 c9c1 071e 53be ae9a 862e 47bb 4ebe
00000260: 4af0 79c8 1bd2 60be 2837 b98e 1172 f6bd
00000270: 8399 2497 b250 5f3e 6e62 4697 b08a 453e
00000280: 3426 393a a767 60be 53a8 9ed9 eba4 503e
00000290: 2ecc d11f 654a 62be cb5c d1f6 f3c4 593e
000002a0: cf62 f199 b898 2cbe 001c c9e3 8ef1 8d3d
000002b0: ed1b 6d07 9577 1fbe cec0 80f0 7fc6 413e
000002c0: c3d9 2234 c14b 61be 6b0c 97cd 4dc4 5e3e
000002d0: 6230 d10b f7f2 50be c8aa 84cd 9698 47be
000002e0: 4f72 a34c f9c5 693e 58dc 4e0a 911d 3c3e
000002f0: 6245 eb3e 032d 59be 54bb 025b 84ec 023e
00000300: 9e85 f9cb eb05 5f3e aff9 0668 d100 613e
00000310: 12d8 aa2a 4581 50be dce6 506c 4184 25be

cho_hidden.bias f8 [10]
-1.917847786212185e-08 4.63027300687163e-08 8.400605338398088e-08 5.065406544570067e-08 -7.334000135235634e-09 1.4743041936340437e-08 3.783359880964637e-08 1.098758642821061e-07
-2.572290675296968e-08 -6.13189992906921e-08
00000000: 6e77 0367 bd97 54be 4c75 c47b ccdb 683e
00000010: d78a b71e da8c 763e ca38 887c d731 6b3e
00000020: 343e 6b84 d17f 3fbe d6d1 5db1 12a9 4f3e
00000030: 5e9e 006b cf4f 643e 7e1a 70a5 9c7e 7d3e
00000040: 52fb 11a5 a89e 5bbe ff35 5b3e cf75 70be

cho_elements_module.weight f8 [45, 10]
-3.927742059286234e-08 1.0578479572990523e-08 2.4551263016192163e-08 1.1127106330557706e-08 3.8095456779859414e-08 1.083416158281883e-08 4.3603229924265976e-09 2.139212809796034e-08
-3.5226468902211775e-08 2.8912359540645046e-08 2.9273147574368595e-08 -2.9577680506804488e-08 2.4754429294772567e-08 -1.4517644746689044e-08 -6.100138791955627e-08 -3.5612996670445967e-09
4.4385429359868854e-08 3.059538726304717e-08 -1.789048807469795e-08 -1.0166058628807518e-08 -4.486279411945504e-09 1.2881080302571416e-09 6.22284653914602e-08 -5.291561914536177e-08
8.56516013694853e-09 9.234556471598504e-09 4.4272001022876125e-09 4.9583700565009264e-08 1.0139140340512685e-08 -4.384816427091254e-08 -1.7960858728859647e-08 -7.352481902936021e-09
-2.04357775694467e-08 -1.9340295918697842e-08 3.7167586497113075e-08 -9.865987430067203e-09 1.186933996560114e-08 -4.3816316761276924e-08 -5.355950981551074e-10 -4.8477119089647386e-08
6.873649614203908e-09 6.258414803049377e-09 -3.0915212602290636e-08 -4.435377239898304e-09 -1.6271887035683598e-09 2.9466143099812594e-09 -3.321906479858094e-08 -1.2294009002375532e-09
1.1508663719878944e-08 -1.8849852843718695e-08 -1.333794279568318e-08 -1.8648336772267e-08 1.6737071763565344e-08 4.0607015858071854e-08 4.897328435896263e-09 1.016259704197517e-08
1.1694051979956728e-08 -1.1248873784463632e-08 -7.288030841807663e-10 -1.0233817203601669e-09 -1.7445283043484643e-09 1.0890230592902288e-08 4.417598942142086e-08 -2.1859348047705163e-08
5.782969705567744e-08 -6.694778652090551e-09 -2.6599302672814915e-08 -1.9106195711157724e-08 -1.8022542699246983e-09 -1.7938783849058596e-08 -3.082489936869196e-08 -4.109918291649853e-09
-6.009631688334435e-09 1.6804756784830145e-08 9.395739380654128e-09 -3.058236305282275e-08 2.6273768483771313e-08 -4.774827621759681e-08 -7.427326914791242e-09 -7.277754106619745e-08
-4.01525130671932e-09 -2.1910139712046362e-08 1.4069405224121902e-08 -1.50382371795531e-08 1.2444314017779334e-09 7.744681554530471e-09 1.7367910823984216e-08 9.18759878118507e-09
1.8678517619494205e-08 -2.250631762610499e-08 1.3606173223433969e-08 1.656553324427776e-08 -1.918887246475602e-08 -3.141395485499852e-08 3.931999822931901e-08 -3.608236560899178e-08
5.2656604060060855e-08 -5.882549026449681e-10 -3.2129750289163625e-08 -1.0241947339358645e-09 5.157759011759812e-08 -2.8706320275845238e-08 2.451016499624236e-08 2.839566620815542e-09
3.510527494148308e-08 -2.1622062967261942e-08 2.475683284799549e-08 2.7009170387598093e-08 -8.128676312290531e-09 -3.2356905553798184e-08 -3.988852915675105e-08 2.6082438931484118e-09
-3.6362962874303504e-08 -3.993623237164493e-08 -2.2703606710863924e-08 -1.3542977899819579e-08 -9.818315137332721e-09 3.7488111335683786e-08 1.739234901607869e-08 1.3718474947293886e-08
3.4645600620305184e-09 1.7217644968700435e-09 2.474531094518356e-08 6.885834874775159e-08 1.266766959988982e-08 4.0803090171022934e-08 1.928740549949116e-08 -3.613203465110123e-08
-3.165350359768327e-09 2.394202482598327e-08 1.0430389635310059e-08 4.124527526858588e-08 -1.6186318481943406e-08 -2.3346404012869237e-09 -1.2450406581903065e-08 -4.205565260037753e-09
2.530679056272627e-08 -8.394623718265636e-09 5.014979254214462e-10 -1.526039318969496e-08 1.985054739525794e-08 -1.902790548712506e-08 -3.7304426291427116e-08 3.5946629685089534e-08
-3.4775111308233865e-09 6.539244586860817e-08 -5.160085071060172e-08 -7.694011679325696e-09 1.5476811119539685e-09 4.78451121543383e-09 -3.3023028075509764e-08 -3.5994032956244354e-08
-5.286678915716092e-09 -2.9770684480822406e-08 -1.357969846680567e-08 -9.610068254909324e-09 -1.546237655321741e-08 1.002530416746111e-08 2.8566084712792525e-08 2.9274976437916164e-08
-3.6100123317052785e-08 -3.351151322697656e-08 1.2894154438484073e-08 6.504971310715165e-10 -3.090939167956456e-08 -1.6759762279070168e-08 -4.1746326174570446e-08 4.30095392185669e-08
1.0040274902980905e-08 -9.896544536801083e-09 -3.262550105462795e-08 -1.1987523777689011e-08 4.460964453793234e-08 -4.181647250164254e-09 -5.164127281030399e-09 7.89452176786436e-09
-3.931843516320046e-09 2.2254187662073627e-08 4.6010307303511455e-08 3.2701200947228357e-09 2.780535508351255e-08 -2.0640117115494232e-08 -5.1489813916960166e-08 -1.6659032315318253e-08
-2.0655914034898967e-08 -1.328332132079777e-08 -1.1231921183857948e-08 6.256305768659759e-09 -1.582332010767432e-08 1.507672833160541e-08 4.599209558975284e-09 4.957863255220964e-08
-8.002468551607087e-09 3.72918130971065e-09 2.371035401629341e-08 -1.1312033738362908e-08 -1.7992385553116677e-08 7.966897806142096e-09 2.29065013989826e-08 5.866052500923696e-09
7.340746488950571e-09 -3.3089998905105136e-08 1.4563643857652185e-08 4.482398830949698e-08 2.0655104560093478e-08 -2.5881517325465364e-09 7.582158020939447e-09 -3.4073409336217153e-08
-4.772616808693231e-09 2.391903992050604e-10 -1.8543218383112518e-08 -5.67517450589665e-08 1.2314681953303614e-08 -4.2156608174219595e-10 5.424231320775407e-09 -3.1058823784113557e-09
1.98193685854772e-08 1.6518754361960185e-08 -2.6313320626580038e-09 1.3226261410781108e-08 8.607902854892713e-09 1.8831029995325792e-09 -3.6262029067549197e-09 2.8725022878804026e-08
8.32045833356362e-09 6.464188670882782e-09 1.5753929859081548e-08 5.718216933108246e-08 -3.083923620189348e-08 -1.687430707582249e-08 -7.277436509300162e-09 -1.4027290850640358e-08
-7.774782661546404e-09 1.4386484913701497e-08 -3.566607487624164e-09 -8.48690023978117e-09 2.484598405814567e-09 -3.144590761918381e-08 4.11413432369421e-09 1.313511493042509e-08
-3.882788121839782e-08 -5.8154474222678203e-08 3.0401721636986243e-08 -1.8836066418979817e-08 -8.007259982363367e-09 1.6722450195707713e-09 -3.5639083488889294e-08 -6.899219282722583e-08
-1.5717115536889903e-08 1.871852044682749e-08 -2.6521070763810196e-09 -1.9061302063113945e-08 -3.2750483348026226e-09 -9.531347459013256e-09 5.894737971185921e-09 -6.472019698825298e-09
00000000: 63ff 7d61 3f16 65be d2f5 4da5 94b7 463e
00000010: bf81 e28b 995c 5a3e 2e60 64ff 30e5 473e
00000020: 29a4 eab9 cc73 643e cbbc 89b0 2444 473e
00000030: 3d01 10d0 39ba 323e 79c5 8530 39f8 563e
00000040: d872 7130 7de9 62be a556 9d6e 5e0b 5f3e
00000050: c713 08a2 8a6e 5f3e 18be a23b 40c2 5fbe
00000060: 1cda 301a 7294 5a3e 769a c5db 282d 4fbe
00000070: 1d52 e7c3 fb5f 70be 7684 4f7b 6197 2ebe
00000080: df66 4076 49d4 673e daae 5a7d ff6c 603e
00000090: 2ced b42d b335 53be 2ff8 d18e d9d4 45be
000000a0: 974f 9b64 b744 33be 42c6 15b6 2821 163e
000000b0: 567f 8cbd 4eb4 703e f78b 54d5 aa68 6cbe
000000c0: 7650 0220 bf64 423e e0e5 ac48 c0d4 433e
000000d0: 1600 b20b c203 333e 8ec5 c65e bb9e 6a3e
000000e0: 506e 4625 0dc6 453e f6ef 8a20 728a 67be
000000f0: e0d4 b612 0b49 53be b20a 22ac 2394 3fbe
00000100: 9ab5 fc00 58f1 55be d281 f855 38c4 54be
00000110: a6b6 6531 46f4 633e 4b71 824a e22f 45be
00000120: fca5 5e18 3d7d 493e b37b ad97 1186 67be
00000130: a867 36f1 2467 02be e2ae effe a406 6abe
00000140: 6792 755d a885 3d3e 9cf7 3229 33e1 3a3e
00000150: d258 e957 f498 60be a1c2 8eb4 bf0c 33be
00000160: 556d 199c 73f4 1bbe 224f 7863 ac4f 293e
00000170: b06c b2ef 97d5 61be 5cae ea5b f61e 15be
00000180: 1c7f 1f6d f4b6 483e 8fca f878 683d 54be
00000190: 73df a291 9ca4 4cbe cc96 270a 0406 54be
000001a0: 3b73 a1b8 a6f8 513e 565d f95a fccc 653e
000001b0: f0e0 4d68 ab08 353e dfc6 0262 f2d2 453e
000001c0: 8875 1d81 df1c 493e 0abb 453e 2228 48be
000001d0: 341a 30a6 9e0a 09be 50c9 3462 e194 11be
000001e0: 6aa2 5e41 84f8 1dbe b279 85b3 f762 473e
000001f0: 3c7b fe72 80b7 673e 388a e3de a678 57be
00000200: 92c7 3894 0d0c 6f3e a43f 49aa fcc0 3cbe
00000210: 8823 6c86 8f8f 5cbe c07b 8aff de83 54be
00000220: 6434 24ea 65f6 1ebe 694b 08b1 f942 53be
00000230: 9303 9fba 8a8c 60be 23ec c927 e7a6 31be
00000240: dbf5 83f0 a8cf 39be 89ac 93a1 410b 523e
00000250: ba19 fdc2 5c2d 443e 2596 b23d 356b 60be
00000260: 9e01 d017 1436 5c3e 9f59 f61d 79a2 69be
00000270: c5ed 9cab 6ee6 3fbe 80a0 d30a 3c89 73be
00000280: ddad 9ec4 d03e 31be bbd5 2b04 9d86 57be
00000290: 2e58 ffc0 bc36 4e3e 6dbd 6edd ad25 50be
000002a0: 688a 0733 1161 153e bd66 b407 afa1 403e
000002b0: ff42 dc12 0ea6 523e 3039 9493 efba 433e
000002c0: 63c5 f6d3 4f0e 543e 2298 b24e 7d2a 58be
000002d0: 829f 45a5 1238 4d3e 0a6e 62c5 7fc9 513e
000002e0: 041a 87db 989a 54be 2627 c246 80dd 60be
000002f0: bd5e bf72 191c 653e e562 9f60 1f5f 63be
00000300: 22d3 d88c 1145 6c3e c092 b947 5836 04be
00000310: b30c dc16 e13f 61be 4839 6ac1 7498 11be
00000320: c0c0 441f c5b0 6b3e 379d 30b5 bbd2 5ebe
00000330: ee84 c687 4d51 5a3e 78dd 9ce5 4564 283e
00000340: eb57 4a0e d5d8 623e b2ad e36a 6d37 57be
00000350: 0aa5 c13c 1b95 5a3e 25cf c566 3900 5d3e
00000360: 9e6c e37c c974 41be 6703 9767 195f 61be
00000370: 38e9 17da 3c6a 65be fe72 35c7 9667 263e
00000380: 8402 1a04 b085 63be b87d 7442 cb70 65be
00000390: 895d e44a b860 58be 29f0 c8b1 5415 4dbe
000003a0: dcb3 2603 ad15 45be d702 7ca8 5320 643e
000003b0: 370f 31c2 c5ac 523e c929 49b5 cf75 4d3e
000003c0: 668b f0ec a5c2 2d3e 0cd8 937c 6694 1d3e
000003d0: 8e8a 9b74 f091 5a3e 3200 c3e1 e87b 723e
000003e0: 35bd b700 2034 4b3e 522b 611b efe7 653e
000003f0: 2ebe e180 aeb5 543e a2e8 94f3 f265 63be
00000400: a48a 6cd6 ad30 2bbe 16d4 5638 22b5 593e
00000410: 95d1 ffd6 2a66 463e c829 a91c b524 663e
00000420: c1fd 88e7 4261 51be 6a5d 85b4 ed0d 24be
00000430: 54ff 8af3 aebc 4abe 4033 3562 1110 32be
00000440: 1965 3112 472c 5b3e 19f8 fe41 fe06 42be
00000450: 30f7 5def 383b 013e eb9e 54b4 be62 50be
00000460: 5cd7 6817 7a50 553e b3ee 3ed0 596e 54be
00000470: 93d0 b0d0 1407 64be 3b28 1c98 774c 633e
00000480: f58c a7ba 20df 2dbe edc1 d812 bc8d 713e
00000490: 3c85 1088 f7b3 6bbe a153 0ee1 d385 40be
000004a0: 60b7 0f05 c696 1a3e a1e6 d42e a08c 343e
000004b0: 53fb de81 a6ba 61be 3890 d172 fb52 63be
000004c0: 5017 1ed3 c3b4 36be cf38 23ae 4df7 5fbe
000004d0: b4a7 a3a7 8429 4dbe b098 7ede 30a3 44be
000004e0: d821 2205 449a 50be dc1f e720 7887 453e
000004f0: 9832 df81 2fac 5e3e 7987 e853 0b6f 5f3e
00000500: e160 d62b 9061 63be 9d98 f68c c9fd 61be
00000510: 07cd fee8 a2b0 4b3e f077 8c51 d559 063e
00000520: 325f b389 2798 60be fc8d 9e6c e3fe 51be
00000530: e8fc 0146 9269 66be 7ba2 98a1 2f17 673e
00000540: 277d 7e12 b38f 453e 1138 4ed2 ae40 45be
00000550: 69e8 c8c4 0384 61be c044 f2fc 35be 49be
00000560: 944c 0955 1af3 673e b14f f60f c5f5 31be
00000570: b63a 2d9b 042e 36be bc0f 562a 0ff4 403e
00000580: 1d6e eb8f 1be3 30be eca4 0c3d 2fe5 573e
00000590: 5e93 a7c5 9bb3 683e 424b 7bf4 1117 2c3e
000005a0: 310b 2ceb 13db 5d3e 843a 001f 8329 56be
000005b0: f622 8ac5 b4a4 6bbe 4e15 e92e 33e3 51be
000005c0: e594 00bb da2d 56be 91cd 9a47 9586 4cbe
000005d0: 295a 7760 d01e 48be dc56 4185 e1de 3a3e
000005e0: a1a9 292a 7bfd 50be 257e 6270 4230 503e
000005f0: 90c6 4b67 e2c0 333e 18e3 2c0e 099e 6a3e
00000600: dab3 1853 672f 41be 80b1 e838 4704 303e
00000610: 6be7 0cd6 7375 593e ce5f 6e37 db4a 48be
00000620: 8e76 7d93 b551 53be 92a6 ed2f d91b 413e
00000630: 84c6 a8bc 7d98 583e b87b b7fd ca31 393e
00000640: 34a7 6f72 3c87 3f3e b839 7ad5 dac3 61be
00000650: 8861 67a8 7246 4f3e ab87 18e2 8f10 683e
00000660: 5af0 ccc4 a12d 563e 886d b4e5 673b 26be
00000670: d858 4de0 5548 403e 31fe 2d83 034b 62be
00000680: 34d9 7f34 8c7f 34be 0063 f0ca e16f f03d
00000690: b40b 9afd 1ee9 53be 4de5 cc83 e677 6ebe
000006a0: 57dc 7268 1172 4a3e 80e0 40d9 44f8 fcbd
000006b0: 87f1 7a62 014c 373e 7c32 1b57 e8ad 2abe
000006c0: 46b4 e713 e847 553e 62e3 f4ff a3bc 513e
000006d0: d098 1943 5c9a 26be 7254 b0cf 3667 4c3e
000006e0: a4c7 b7a0 3e7c 423e e49f f1be fc2c 203e
000006f0: d47f e8c1 1a26 2fbe f72f 55c9 dfd7 5e3e
00000700: 219b 6768 38de 413e 88f2 075b 73c3 3b3e
00000710: 8169 9242 68ea 503e 0cc0 fbb8 0eb3 6e3e
00000720: 3ea0 5529 838e 60be 8e38 3ccc 5f1e 52be
00000730: f4ba 9f45 a041 3fbe 08a0 c8ae 951f 4ebe
00000740: 6521 6162 3bb2 40be e0aa c5c0 0de5 4e3e
00000750: 8828 df84 0da3 2ebe 7a2c 0f06 b939 42be
00000760: 2104 8c8e b057 253e 1a13 ac83 e4e1 60be
00000770: 1d0d eadc 89ab 313e 0c28 a615 1b35 4c3e
00000780: b505 c69e 76d8 64be 4adc e0a8 b038 6fbe
00000790: 97b4 787c 6152 603e 3094 d256 9e39 54be
000007a0: 1328 95a8 0932 41be d13a 0283 9cba 1c3e
000007b0: 79a3 3dc6 3222 63be ad7d e87d 1b85 72be
000007c0: a87b b3ae 49e0 50be 1248 d6c6 4e19 543e
000007d0: 4426 1c8e 0bc8 26be d47b 79e3 8777 54be
000007e0: e643 ba4e e821 2cbe 7b02 ebe6 e977 44be
000007f0: 680b b03b 5551 393e af3c 1098 0fcc 3bbe

cho_elements_module.bias f8 [45]
-0.0025753784202170197 -0.00767090145609381 -0.0015645723037918968 -0.006424513499610698 -0.0012650302416076292 -0.0008551749932335279 -0.0001935323351616415 -0.00039299077878955885
-0.00039852732033163375 -0.010047090550939868 -0.00023877368516294275 -9.799135799150069e-05 -0.0022647627709523367 0.005998981153514445 -0.0019012061245612631 -0.0018047171981910655
-0.00035201464328063676 -0.01399759003221175 -0.02129583198049664 -0.0007520215990056151 -0.0015582533694724226 -0.052447727062794616 -0.00778065402096384 -0.004780475626187627
-0.0011034924370435053 -0.003198668077516548 -0.008823636157472272 -0.000936239172117598 0.0008751083957099836 0.00019676159619739104 -0.004285272117519234 -0.00016564350606218105
-0.0008114400343728566 0.00029146402140372836 0.0005165053495267041 1.347688622131963e-05 -0.00030051796552719876 -0.001351239299148689 -0.0001704104611491026 -0.0004259898111394775
-0.0005211651848006335 -0.00527970316920994 -0.0006185235282564994 -0.00011343406968732767 -1.6851644771503372e-05
00000000: c676 dec2 f518 65bf e1fb 27ee 856b 7fbf
00000010: 8afd 20b8 4aa2 59bf 7603 fa35 9750 7abf
00000020: 1cb2 08e1 ebb9 54bf a9f8 6b50 ba05 4cbf
00000030: 8ac3 b819 de5d 29bf 2c4b e38a 4ac1 39bf
00000040: 21e8 b0ce 2d1e 3abf 369d b0aa 9193 84bf
00000050: b1b6 7c56 ea4b 2fbf 4a03 22b6 16b0 19bf
00000060: 081f 1a41 8d8d 62bf 4892 d13d 6392 783f
00000070: 7042 3088 3c26 5fbf a289 1056 8891 5dbf
00000080: 243a 6f61 d311 37bf e710 4abb c4aa 8cbf
00000090: 57e1 9617 93ce 95bf 0602 3916 6aa4 48bf
000000a0: 4a63 b0d0 c987 59bf eaed f7b0 6dda aabf
000000b0: 8007 fc68 9bde 7fbf 56b0 9427 b194 73bf
000000c0: 2a4d 6cfb 6114 52bf da02 14d9 1734 6abf
000000d0: 7b3e d365 2012 82bf cfb3 0f50 bead 4ebf
000000e0: 33e2 52f8 f0ac 4c3f 9e6c d63d 39ca 293f
000000f0: cc58 96f9 6e8d 71bf 653f f6e1 12b6 25bf
00000100: cc98 8434 da96 4abf cc9b 9c70 f419 333f
00000110: a97a ceca c2ec 403f 3ae6 6823 5943 ec3e
00000120: e9e6 73d5 dab1 33bf a099 5426 8223 56bf
00000130: 4064 0eb7 0656 26bf 1076 a94e ecea 3bbf
00000140: df14 57b6 d913 41bf b608 1c87 2ba0 75bf
00000150: d77e af29 8d44 44bf f0bd 6d7a 6ebc 1dbf
00000160: c685 f935 94ab f1be

cho_diag_hidden.weight f8 [10, 10]
1.256744340081472e-08 -3.5979871146107695e-08 -1.6411391729683947e-08 2.7941296177945923e-09 -7.114521205169577e-09 2.0205297274775344e-08 1.8480916284045843e-08 4.270310337680826e-08
-1.2571492946953138e-08 3.0398258086781186e-09 2.5805520943449545e-09 -2.0287305490020693e-08 5.570392738391372e-09 -4.795198807274688e-08 -3.044170199152608e-09 -3.4084255021060368e-09
-1.0484095736919531e-08 2.236141809639506e-10 -1.7660414404681115e-09 -2.4181580581273607e-08 2.973054531637128e-08 -1.0346568823700167e-08 -8.765907256623164e-09 -9.811450499672387e-09
1.1622941282942664e-09 -1.2352982295546265e-08 4.473273245833009e-09 -2.0718919265877924e-09 -1.776912046402761e-08 1.1225029977223538e-08 5.812024059710948e-09 1.2642611927143713e-10
3.978940067957204e-08 2.03792120170521e-08 -3.2623145607869856e-08 5.251231501685687e-08 -1.9437448218718738e-08 3.7473897749242284e-08 3.57690205263417e-08 -4.707319894979141e-08
3.023876572085229e-08 2.97979571719786e-08 1.266031571633642e-08 -2.8859260549567745e-08 2.273584166894222e-08 -1.0277889900056127e-08 -1.0244956097576196e-09 -6.941934979602488e-09
-7.336727151793185e-09 -2.3375614613726592e-08 4.472460136296631e-08 4.788987692157985e-10 -6.932831029374693e-09 3.1473941680741836e-08 1.9347634403400027e-09 -2.8623826147969214e-08
5.242693661577733e-10 -1.157905922153372e-08 4.575497956590228e-08 -2.9271084714273432e-08 -5.3329105412037615e-09 -1.759680874175465e-08 3.588188322961052e-08 2.245045248793997e-09
-5.768217906056355e-09 3.254652604278342e-08 -2.578765226258992e-08 -3.142082795763201e-08 6.2882855410872e-08 2.852570267020623e-08 5.1315265065800505e-08 -5.065885085632838e-10
1.7123428570077266e-08 -6.150172108289435e-09 -3.693026619434139e-10 -2.4064246552372005e-08 -1.410841486453832e-09 6.387250717115151e-09 -6.145141133214013e-08 3.3509271932170005e-08
-2.716886838216615e-08 -2.206772116906927e-08 -1.6917473206679964e-08 7.286470721054535e-09 -2.524109149775294e-08 -1.3943435934913693e-08 -7.3829260911477044e-09 2.43777606307471e-08
-3.757181110193615e-08 -4.5533053407870816e-09 2.2292194547172455e-08 -6.44983742503364e-09 1.915883479644245e-09 1.5334606303583707e-08 4.2793039632339815e-09 -1.129006503904785e-08
-2.2614001732024587e-08 2.2395758491580734e-09 -2.9866653449971225e-09 1.325529602367671e-08
00000000: 5fd4 556b 06fd 4a3e 74a9 922c 0951 63be
00000010: e4b7 b606 219f 51be 1c75 6023 5b00 283e
00000020: 2abe c6b0 7f8e 3ebe 1e40 1c65 fdb1 553e
00000030: 7bdc c2de fed7 533e 9d24 e9e0 11ed 663e
00000040: d271 9c57 40ff 4abe 53af 22cc a51c 2a3e
00000050: 5c83 6aae b12a 263e c4e4 c735 88c8 55be
00000060: e027 932a b6ec 373e 1c71 3b97 78be 69be
00000070: c729 c978 3326 2abe 614f 47fa 3447 2dbe
00000080: aa9c 3b4d b183 46be 40d0 ef7b b9bb ee3d
00000090: c085 afe4 2157 1ebe 7d22 2e75 fbf6 59be
000000a0: 36bb 3b23 45ec 5f3e d7e8 fd1b 1638 46be
000000b0: 8466 3cc5 1bd3 42be c2a9 83e6 e611 45be
000000c0: 2414 ccd9 d2f7 133e e880 b4b3 1f87 4abe
000000d0: 4fa7 917b 6a36 333e d04c ac76 23cc 21be
000000e0: 47b5 33b1 5614 53be bac7 9486 061b 483e
000000f0: f2ba 3b56 63f6 383e e0d6 4d3f 3960 e13d
00000100: 36cb 2514 9d5c 653e 499b 958e cbe1 553e
00000110: 9677 cee4 b083 61be 273f afd4 3c31 6c3e
00000120: ea2b 38d2 ecde 54be 4014 e18f 5f1e 643e
00000130: 0d16 0787 0e34 633e b1b3 7ff2 b045 69be
00000140: 8dad 10fc fb3b 603e 3ab6 43d3 ccfe 5f3e
00000150: 75cf 2309 1530 4b3e 3c98 3aec c5fc 5ebe
00000160: f3d6 45a0 9469 583e c00c fe68 5412 46be
00000170: ee59 f782 c799 11be 2a0f 99fc bcd0 3dbe
00000180: d0c3 ab1a d182 3fbe 1545 0ea5 7019 59be
00000190: 45aa 1004 e702 683e b381 c728 7074 003e
000001a0: b625 d973 bac6 3dbe 25f0 0ce0 bee5 603e
000001b0: 633e 16fd 969e 203e 647c 18b3 0ebc 5ebe
000001c0: 4296 39a9 8503 023e c3fa 5cb6 a7dd 48be
000001d0: 4ec0 d839 8490 683e b704 d978 f96d 5fbe
000001e0: dd92 d1de 98e7 36be 6f4a 2b55 f9e4 52be
000001f0: 646b e287 9143 633e 08cd 441e e848 233e
00000200: 0f69 3200 39c6 38be 8ef1 1d15 2979 613e
00000210: 0d74 7bb4 74b0 5bbe ddcf 291a 72de 60be
00000220: 0147 32e4 46e1 703e c301 aadf 15a1 5e3e
00000230: 7dec 4161 b78c 6b3e 6431 c1e8 ff67 01be
00000240: 582a 1c2a da62 523e c5e1 0a8d 2f6a 3abe
00000250: e0c1 a954 d760 f9bd 3e90 39cf bad6 59be
00000260: 42be 544c f23c 18be b23d 313f db6e 3b3e
00000270: e743 2da9 e87e 70be 86a2 2cb1 7afd 613e
00000280: 9187 1626 1f2c 5dbe 6af3 55d3 edb1 57be
00000290: ae5d 1e58 3d2a 52be f4de 2f2d 8f4b 3f3e
000002a0: 9d08 0ee9 371a 5bbe 4dc2 0b27 7cf1 4dbe
000002b0: b983 16f3 9cb5 3fbe d262 c566 e82c 5a3e
000002c0: 9de5 f494 d42b 64be 43f4 c683 698e 33be
000002d0: 2b42 39bc a1ef 573e 1fa1 c8d6 abb3 3bbe
000002e0: 4d17 0084 1275 203e 5253 f0fc 2477 503e
000002f0: 6463 bffb 2461 323e f86c 9f65 c73e 48be
00000300: 4145 18e7 1648 58be d228 b61e e13c 233e
00000310: 6ff5 e91d bfa7 29be 1703 dd11 2d77 4c3e

cho_diag_hidden.bias f8 [10]
9.2976181807867e-08 -2.3376081356959728e-08 1.5194500011792804e-08 7.800671596747591e-08 -2.9552293118825563e-08 2.2452141045139795e-08 8.773903882036644e-08 -1.0575743790651307e-08
-5.207047939171698e-08 3.299496219424603e-08
00000000: 9986 be49 46f5 783e 2683 277d 9119 59be
00000010: 3161 5de2 a150 503e 4aa9 f6a8 94f0 743e
00000020: 468e 1cc1 45bb 5fbe 81a1 2df8 981b 583e
00000030: 1289 897e 618d 773e 40a2 5b9e 13b6 46be
00000040: dbcb 2b1f 83f4 6bbe 51df e206 cbb6 613e
