port_results/2025-05-04/2/20/6_trained_linear.pth (torch, 679543 bytes, 4 tensors)

linear_mean.weight f8 [30, 90]
000000 6b 44 43 ea 37 2e 52 3f 0a 98 c4 0d 47 eb 80 bf
       0.0011096521421232418 -0.008261256320633254
000010 0b d1 45 84 38 8c 4b 3f 64 28 a9 c0 f9 68 7a 3f
       0.0008406902275468765 0.006447768779773797
000020 17 ad 34 a7 68 58 83 3f 58 b2 b0 57 36 7f 60 3f
       0.00944597015639785 0.0020137845399601888
000030 26 eb af a7 f5 70 89 3f 22 cc e4 37 63 2e 96 3f
       0.012422484569460556 0.021661329542620796
000040 01 7f 3c 7e 4c c2 95 3f d1 d5 68 c8 90 af 92 3f
       0.02124900360570248 0.01824785445406524
000050 00 f1 ba fa 8b 58 95 bf c9 c9 34 e2 c4 ea 74 3f
       -0.020845591715201728 0.005106705738671066
000060 2d d2 c2 7d d0 e6 8c bf 3a 7f 0e 78 32 f5 6f bf
       -0.014112118566438426 -0.00390109879704417
000070 7c 6e 0c 2b 12 2f 9a bf 97 fe 00 64 6a 7e 88 3f
       -0.025570186498141897 0.011959868599773755
000080 c4 89 77 fa 9b 25 7e 3f 8a 8f d4 ca c0 ad 81 3f
       0.007360085764477057 0.008632188978090278
000090 d2 c7 56 ee 71 7a 49 bf 83 e0 81 83 85 35 85 3f
       -0.000777536039711752 0.010355990482125548
0000a0 77 d5 97 72 c7 ed 82 bf c2 8a 45 95 25 b9 77 3f
       -0.009242590126613532 0.005791804131464575
0000b0 64 f0 59 ce ca 92 7e 3f ba 63 4e 42 30 23 8e bf
       0.007464210711642581 -0.01471555425978176
0000c0 78 44 33 53 1f b4 6f bf e0 56 38 96 cc 1d 78 3f
       -0.0038700687233377794 0.005887793700386473
0000d0 f9 77 81 52 36 cb 83 bf 9c 71 18 a8 94 e4 9f bf
       -0.00966494025504615 -0.031145403632864097
0000e0 4d 93 7c 99 d2 37 95 3f 64 d9 b6 bf d5 8f 81 bf
       0.020720759027557368 -0.008575124657778495
0000f0 30 11 4b 18 63 2a 52 3f 88 5d dc 20 cd d1 6e bf
       0.0011087386821354121 -0.0037621504224138493
000100 71 39 d3 00 8d 47 80 bf 0b 3c 60 73 41 5f 93 3f
       -0.007948972308807286 0.018918059031474182
000110 8b 5e e1 a3 44 61 78 3f 7c b1 38 f4 3a a6 8d 3f
       0.005952137113204646 0.01447721536450141
000120 ea 17 0f b8 57 b9 92 3f 6a 68 3e e9 b4 55 72 bf
       0.018285151108805943 -0.004476267513291979
000130 af f4 16 7e 3f 10 4b 3f 4f 5e 93 aa ad 0f 77 3f
       0.0008259115240246885 0.00563018644717024
000140 46 b7 6a f6 02 f7 64 bf 20 2c 50 dc bc e3 7f bf
       -0.002559190546285092 -0.007785547005378951
000150 04 7a c1 91 57 82 81 3f 97 c2 b7 09 9c 84 99 3f
       0.008549389014828719 0.0249199276858599
000160 73 87 38 16 bc e9 86 3f 9c 2f 3f 21 8a 39 96 bf
       0.011188001087308419 -0.021703871039605013
000170 be c4 66 40 e7 7a 51 bf b1 bd 61 d6 ae 2d 93 3f
       -0.001066900092706199 0.018728954157664016
000180 89 1a cc 8d 54 20 7c 3f 32 4c 14 60 c3 bb 79 bf
       0.0068667700659320674 -0.006282580551913818
000190 a7 c0 43 d6 f3 29 80 bf 13 bc 71 9d 70 00 83 bf
       -0.007892518020952656 -0.009278182797258372
0001a0 6d 89 f5 48 28 a6 92 3f be 42 a1 d4 0b b0 67 bf
       0.0182119650393217 -0.002891562563526711
0001b0 69 01 65 50 64 54 44 bf 1b 3b fa 99 78 60 87 3f
       -0.000620411855187836 0.011414472769755648
0001c0 15 00 1d ad 74 0f 4c 3f 9f e1 aa 9c 89 a2 87 bf
       0.0008563346584438159 -0.011540484517681913
0001d0 0d 86 be 7c 42 b6 a0 3f cd 54 ec 41 71 40 69 bf
       0.03264053128010511 -0.0030824863491810462
0001e0 dc 9f 63 9e 13 01 96 3f f7 5f 27 df 3d c7 97 3f
       0.02148848203879071 0.02322098421595339
0001f0 4d b2 da b4 f0 ab 93 3f f4 42 66 76 45 50 92 3f
       0.019210587538213187 0.017884335853127944
000200 dd 29 8b 5f 70 b3 96 3f c4 65 d0 4c 30 cf 95 3f
       0.022168880301970496 0.02129817456088802
000210 04 87 3f 2b d9 fc 93 3f ba 46 26 02 12 9e 93 3f
       0.019519227280290444 0.01915767801398858
000220 73 9d 20 6a 09 c7 9a 3f 4f 87 3e 1a 9e 46 96 3f
       0.026149890043737977 0.021753759719678908
000230 ca a2 fc 66 cf 9a 95 3f d8 58 a7 e5 29 9e 93 3f
       0.02109836641389754 0.01915803398318236
000240 87 38 73 ef 25 80 96 3f a1 e4 41 05 fb bf 93 3f
       0.02197322153079331 0.019287035175214687
000250 a4 03 75 71 d9 af 95 3f 33 95 21 a4 f9 90 97 3f
       0.021178624677535077 0.023013973849079505
000260 07 17 e2 ea de a8 94 3f 87 6c a9 1f 9a 52 95 3f
       0.02017544087040959 0.020822914297565134
000270 43 07 b1 0c 4d 10 96 3f 95 dd b4 ac 55 e7 91 3f
       0.021546558284405447 0.017484034219902595
000280 ad 8c 50 d0 12 ab 97 3f 46 0b 3d e9 e0 8e 99 3f
       0.023113531078831673 0.024959100948090972
000290 90 86 19 f5 01 53 99 3f 5c 31 43 42 75 f3 96 3f
       0.02473071154088885 0.02241309372839005
0002a0 69 33 dc 97 cb f3 9c 3f 75 da 10 10 84 fa 94 3f
       0.028273755210693894 0.02048689220483842
0002b0 a7 5e ab 52 e0 48 95 3f e4 68 33 47 24 e3 96 3f
       0.020785813375225583 0.022350851865532997
0002c0 20 a3 2f 81 77 35 92 3f 03 a0 d2 11 a7 46 9a 3f
       0.017782084712879898 0.02566014333993395
0002d0 f9 69 80 d9 02 88 90 bf 1a 76 7a 17 49 24 84 bf
       -0.01614384129070776 -0.009834834126475168
0002e0 80 83 16 4e d8 32 8c 3f 99 d4 b7 27 30 80 93 3f
       0.013768854029707844 0.019043686317634288
0002f0 ca b2 03 25 73 6b 90 3f e3 82 77 7f 22 8a 7f 3f
       0.01603488839548354 0.007700094945420874
000300 4a 0e c2 2c dc 70 49 3f 41 70 7b d2 70 4d 7f bf
       0.0007763934204522785 -0.007642212592795573
000310 1a 21 80 7b 46 ae 96 3f ff 03 2b 57 81 70 a7 bf
       0.022149182594177842 -0.045780221834782246
000320 50 ad 7f 38 b6 99 5b bf 90 32 f4 12 a2 25 9c bf
       -0.0016845969676023316 -0.02748730889020351
000330 0f ee e6 14 fb 4f 60 bf 81 2a 16 67 00 c4 a1 bf
       -0.001991262811513079 -0.03469849832898309
000340 97 ed 15 91 c7 40 a9 bf a9 f4 ea b4 e7 09 99 3f
       -0.049322353802348555 0.02445184747442811
000350 70 8a e7 32 c7 df 8a bf 52 47 62 81 7f be 71 bf
       -0.013122135392170636 -0.004332063739768648
000360 b5 4f 0a ff ea fa 95 3f 69 d1 b2 e8 eb dd 8b 3f
       0.021464988533423674 0.01360687545670976
000370 a2 e0 9e fd 63 5b 61 bf d2 b3 05 6e 1d 48 95 bf
       -0.002118773741099104 -0.020782909240938903
000380 3c 49 f0 5b e7 51 94 3f 36 ad 8e a7 74 23 9e bf
       0.019843687998283274 -0.029432127692115638
000390 52 eb b7 c1 a8 af 7d bf 09 44 92 fd a8 31 88 3f
       -0.007247599798115472 0.011813469160445693
0003a0 3a a1 84 83 1d 3b a4 bf ae b3 ec c7 e3 6b 91 bf
       -0.0395135138554132 -0.017013129308157175
0003b0 27 ef 69 31 2b e3 81 3f 98 f3 56 48 de d5 73 bf
       0.00873407120274512 -0.004842632571521309
0003c0 8e 4c 13 39 e7 23 a3 3f 6a 44 11 d5 e6 b2 38 3f
       0.03738329478951484 0.00037687430910177697
0003d0 3f bd 67 8e 21 9e 8a bf c5 63 8c bf 58 21 65 3f
       -0.012996923597681785 0.0025793774951918557
0003e0 e8 51 8b 69 e1 ab 93 3f 89 02 39 e5 1d fa 7f bf
       0.019210359637172575 -0.007806889323149443
0003f0 20 75 41 45 75 78 8e 3f 2d 3b 44 bf b3 d2 88 3f
       0.0148781930694733 0.012120632433406076
000400 39 1e ea 21 96 a8 a2 3f cb 9d 01 e2 1c 6b 7a bf
       0.03644246257777834 -0.006449806998808548
000410 41 26 f9 3a 50 1e 5a bf 1e ca b1 72 ce 9f 7c 3f
       -0.0015941413402224133 0.006988340795134577
000420 4b 3f 85 01 e4 89 8e bf 59 18 2c e9 14 6d 92 3f
       -0.014911443039323699 0.01799423859758806
000430 ab 42 97 a9 3e 76 7a 3f 9f 1b 0c d1 ee 24 9a bf
       0.006460423255206275 -0.025531512746080783
000440 59 d1 e2 70 cf 50 a1 3f 57 6a e9 f9 0d 76 95 3f
       0.033819658784895075 0.020958155039219353
000450 06 9b 40 53 2a e0 90 3f f8 41 0d cc d7 33 9b bf
       0.0164801228821956 -0.02656495268758083
000460 13 3f d2 03 0a f2 7e bf 45 4d 9c d8 9f bc a3 bf
       -0.007555045243080166 -0.038548464957922
000470 2f 61 eb a4 22 dc 8e 3f ee 5f 79 7c 07 65 0a 3f
       0.015068312318746805 5.034379097129659e-05
000480 0d d2 08 5a 2f 37 89 3f 51 89 6a a2 a0 0b 91 3f
       0.01231228822244026 0.01664591780957753
000490 29 7e bf 69 43 38 68 3f 36 a8 76 40 a2 a4 82 bf
       0.002956515947502476 -0.009103076545972848
0004a0 42 a0 e8 42 9e 77 91 3f 6e d1 5c 11 72 ea 60 bf
       0.017057869752676653 -0.0020649173628958717
0004b0 ee e8 ee 92 23 98 94 3f 67 5d 21 fb 91 a3 a1 3f
       0.020111614077657096 0.03445106688075832
0004c0 34 53 26 a2 38 e3 95 3f 5e 22 55 2f 04 8d 9a 3f
       0.021374592682678897 0.02592855967421525
0004d0 60 cd 00 a3 2a 55 9c 3f 37 34 36 a3 1b 3b 92 3f
       0.027668634604379405 0.017803603970197392
0004e0 9b 09 79 de e8 b6 96 3f 07 93 99 04 bd 49 9c 3f
       0.02218211992136219 0.027625039487605665
0004f0 b0 3f bf 8a 7d 5f a2 3f cf 61 3e d5 7c 2f a0 3f
       0.0358847839230515 0.03161230185577645
000500 10 3f bd 1a b4 36 9c 3f cf 6d 71 a4 d5 83 94 3f
       0.027552427417787462 0.02003415886097831
000510 ca b7 0e 25 a6 07 93 3f 5f 6c c9 7f 7c cd 86 3f
       0.018583866130647476 0.01113412156080623
000520 c2 a8 e5 9e ca ef 9b 3f 2e 1a 85 1d db 7c 91 3f
       0.027281919430074415 0.01707785003352507
000530 7a db bd b2 f1 a1 a0 3f 0c a6 8c 4d f6 09 9f 3f
       0.03248553568749109 0.030311439975013996
000540 8f 1c 32 f3 bb c6 96 3f 2c 84 ca cd 12 42 97 3f
       0.02224248573159265 0.0227129877190501
000550 33 32 86 53 2c 8a 95 3f 01 95 86 d4 ac 88 a1 3f
       0.021034901235497293 0.03424587339694974
000560 97 a1 86 02 ff df 9a 3f 34 d8 c7 3e bc a1 9a 3f
       0.02624510243336572 0.026007596332384433
000570 43 11 16 63 c3 a1 9f 3f 3a ff b3 90 2e 43 a0 3f
       0.030890515253774408 0.031762557186083076
000580 2f 8f f8 87 55 1d 9a 3f a3 83 5f 4b 88 9c 9d 3f
       0.02550252573395467 0.028917436218651848
000590 3e e7 39 69 df 99 9a 3f 4e 38 b5 53 1c 22 a2 3f
       0.025977602765556933 0.035416493623970355
0005a0 8e 53 42 0f 95 47 57 bf e8 03 f5 00 02 d4 68 3f
       -0.0014208751354420654 0.0030307807097931135
0005b0 df d8 05 5c c7 41 97 bf 3b bd 1e 16 5b 0c 72 3f
       -0.022711863509777493 0.00440631466510349
0005c0 f8 23 03 08 d6 eb 80 bf 17 7b 71 77 d5 a6 85 3f
       -0.008262321586146357 0.01057211657297112
0005d0 04 8e 70 2f df 3b 42 3f 97 e6 97 b3 f3 1d 8b 3f
       0.0005564536830928173 0.013240722578291382
0005e0 23 13 7e 5b a6 7f 8e 3f 8e 50 95 0e a6 51 6f bf
       0.014891910235527888 -0.00382311280251641
0005f0 58 c3 f7 75 1b 2e 66 bf 6f dc b5 41 c4 72 84 3f
       -0.0027075325340252636 0.009984524970361812
000600 00 52 d0 d3 be 8b 3c 3f e6 d6 f2 8c d4 93 62 bf
       0.00043557556983955803 -0.0022677565935634745
000610 58 4b eb bb a4 5a 88 bf aa 6c 42 4b f9 54 83 3f
       -0.011891638741337182 0.009439418420063756
000620 0c 77 86 20 e8 11 86 3f 8c dd 62 41 1a 7c a0 bf
       0.010776341908065777 -0.032196827394211786
000630 50 70 b9 18 42 17 88 3f 52 e7 03 36 90 8f 79 3f
       0.011763111476447957 0.006240428280074388
000640 d6 83 57 26 06 fa 74 3f dd 9a cc 79 60 17 54 3f
       0.005121253988790783 0.0012262766023895457
000650 2d c4 f9 f5 da d4 64 bf 39 ca 0e 71 32 47 8b bf
       -0.002542903573889996 -0.013319391322373796
000660 7f 2d d7 65 f0 cf 8e 3f 64 a0 05 43 5d cb 75 3f
       0.0150450497702852 0.005320896438526377
000670 a4 a4 28 dc 6a bc 82 bf 9b f4 06 75 b0 68 45 3f
       -0.009148440211975313 0.0006533490759960294
000680 d5 7e 45 68 2f 99 56 bf 86 5d 0b 2f 1d f1 88 3f
       -0.0013792956316009315 0.012178638456517243
000690 c5 55 d3 fc 61 1a 54 3f 33 55 53 65 73 01 7c bf
       0.0012269932661202892 -0.006837321057181089
0006a0 3e 3e 9a 9b 5e f0 61 3f a2 73 aa 7f ff c5 82 3f
       0.0021898124512700614 0.00916671379428086
0006b0 c5 87 67 bb ea 70 86 bf 9d d7 a2 15 f3 a4 67 bf
       -0.010957559436921014 -0.0028862712616399403
0006c0 50 9d 3d 6a e4 15 67 3f dd 71 91 84 0e fc 89 bf
       0.002818056223918987 -0.012687791271837884
0006d0 c6 cb 4f cf aa d7 30 3f d5 4f 44 f2 0b 36 8f bf
       0.0002569953933850257 -0.01523980458345157
0006e0 80 60 08 00 40 b2 86 bf d7 c4 c9 6a cf bb 8a bf
       -0.011082172394751177 -0.013053532072463998
0006f0 dd 7c c3 48 eb a2 5f 3f 8a de 59 63 b9 a5 74 bf
       0.0019309327790820098 -0.005040859386660332
000700 84 7a 3c 6a 60 31 7d bf 60 68 75 d4 ec 21 72 3f
       -0.007127167340313382 0.004426884762631728
000710 08 3b 0d 46 8b 5b 80 3f 53 11 98 12 13 98 70 3f
       0.007987106395061186 0.004051279547187941
000720 d6 a0 58 1d 70 63 3b 3f 3d 43 34 3c dd 55 77 3f
       0.0004179142682425701 0.005697120857136193
000730 8f de 14 b0 59 d7 91 bf 87 f6 1d ba b8 54 67 3f
       -0.017423058864749093 0.002848015589676237
000740 fa 04 52 73 bf a6 6e 3f a4 b5 50 69 06 c5 6d 3f
       0.00374162094755148 0.0036339879248063634
000750 a8 15 2b 57 5a cb 60 bf 81 e1 39 69 df 19 8d bf
       -0.0020500912154115154 -0.014209504507775918
000760 4f d2 f6 ff 7f 73 96 3f 0f 57 88 fc 23 ad 5a bf
       0.021924972532092742 -0.0016281939916828502
000770 d1 f8 2a ad 89 0c 66 3f 5a 3f c6 91 4f 21 70 3f
       0.0026915253632458854 0.003938017671671757
000780 05 84 b7 5e 4e 55 90 3f 76 e6 29 c7 09 a9 8f 3f
       0.01595041707139801 0.015459133520596451
000790 0c e1 49 3f b8 80 91 3f da 9d 49 42 38 e5 91 3f
       0.017092589247540466 0.01747596649729908
0007a0 ae dd ba 76 4f 53 89 3f 5e 04 ab c9 00 2a 91 3f
       0.012365933237886786 0.01676179152378087
0007b0 db 01 d4 12 bb 76 8c 3f 9a 68 fd c3 5e 2e 8d 3f
       0.013898335945214882 0.014248600345741647
0007c0 d4 4d 13 8b b9 ed 8b 3f c2 16 ed 86 b8 9b 8e 3f
       0.01363701778101404 0.01494545137178294
0007d0 0a 74 4b 8c b7 9d 92 3f 4a 6a 70 8d b3 6a 88 3f
       0.018179767549430216 0.011922266725425196
0007e0 8c fe ec 84 2f a0 92 3f e5 b1 47 f7 cd 86 93 3f
       0.018189184654373622 0.019068926065232267
0007f0 61 d3 af e5 28 96 89 3f 32 4e 92 3e b4 ea 90 3f
       0.012493438252911994 0.016520325011312127

linear_mean.bias f8 [30]
000000 e5 af 1c 8a a9 69 9c 3f 62 99 11 a9 66 dd a1 3f
       0.02774681954831228 0.03489228071048235
000010 ff 8a ce e7 5f 80 95 3f 4f aa 9b 4c e6 07 9a 3f
       0.020997522853245517 0.025420759607110373
000020 2c 82 4c 12 fa e5 97 3f 38 33 8d 3f d5 f0 a0 3f
       0.0233382295292605 0.03308740998054421
000030 ef 89 29 77 41 15 80 3f 0b 65 26 b5 39 6f 9d 3f
       0.007853042077106102 0.028744603806988994
000040 75 5d a3 e7 5a ae a5 3f 7f 27 ac 9d 27 f8 9f 3f
       0.042345848823681566 0.031220072744907675
000050 61 c6 ff 53 49 17 a3 3f ec 39 75 ef 55 09 a3 3f
       0.03728703642253773 0.03718060062475445
000060 13 9f 8a e0 3f 96 9d 3f 21 85 b4 8d b3 35 9f 3f
       0.02889346893303386 0.030478292011257516
000070 f6 96 8f 7d 59 08 9c 3f 14 3e 8c 17 32 24 9e 3f
       0.027375601090077382 0.029434950530285844
000080 d8 4b ac c4 d7 91 9b 3f 83 b0 68 9f aa 26 9f 3f
       0.026923533801049476 0.030420938472318425
000090 35 7e a9 e1 eb e6 93 3f 6b 6c e5 12 f5 8e 9e 3f
       0.019435582779236255 0.029842213896114005
0000a0 33 2d 6d 36 46 d8 a3 3f 4f bd 01 26 3b b7 a3 3f
       0.03875941671739227 0.03850731696081288
0000b0 0e a6 59 24 bd 2b 96 3f f1 5b 7e f2 94 1a a3 3f
       0.02165122541774705 0.03731217823149525
0000c0 d4 58 a6 43 3b a0 99 3f 10 fd aa ea f3 c9 a1 3f
       0.025025297168746644 0.034743902584063346
0000d0 65 bd 4e 9b 73 fe 98 3f e6 60 6d fb 64 0c a4 3f
       0.024408155779096847 0.039157062236599136
0000e0 99 0e 0d 79 bc cb 9c 3f 4a 57 76 fb 73 ff a0 3f
       0.028120942009322112 0.03319895214660436

linear_cov.weight f8 [900, 90]
000000 01 3b b0 a2 80 10 43 bf b2 44 26 f2 2c c1 46 bf
       -0.0005818012335810642 -0.0006944150411972909
000010 6e ce 12 52 cc 7c 64 bf 15 63 04 05 3d 25 75 3f
       -0.002500914634390664 0.005162466390424188
000020 b7 bc 6b 4c 0f a7 6f bf ab b8 9b 82 ed 13 71 3f
       -0.0038638399886320135 0.004169395231413168
000030 d3 fd e6 e7 13 b2 5f 3f f9 54 b1 4b 6e eb 62 3f
       0.001934546889614687 0.0023095277988810473
000040 91 66 2d 6e 84 07 6d 3f c6 e4 20 c0 bb af 7f bf
       0.003543623593412822 -0.007735951805494417
000050 20 22 1b 06 b5 d4 24 3f a1 9e c3 94 bf 3c 80 bf
       0.0001589270569211246 -0.007928368308469049
000060 3e 84 d9 da 3b 2a 6f 3f df f7 2a 14 52 31 56 3f
       0.0038043183365492885 0.0013545323896972867
000070 98 bf 22 25 77 5b 2e bf 4a 00 f2 04 c0 43 64 bf
       -0.00023160771758545524 -0.002473712003450178
000080 13 e5 58 36 18 c3 7d 3f f5 f3 a3 01 01 10 71 bf
       0.00726613481452289 -0.00416565316322436
000090 43 1c be 02 37 44 3b bf 88 e2 dc cc 4a ed 71 3f
       -0.00041605322871202474 0.004376690090616926
0000a0 9d 47 f3 56 4f a9 63 3f c1 51 91 03 5c 88 73 3f
       0.0024000691988498983 0.004768714360654903
0000b0 75 1f 79 38 f9 ad 7d bf 7a 55 9d ae 30 41 44 bf
       -0.00724599220081489 -0.0006181228356846723
0000c0 08 06 2e 48 c4 8d 76 bf 3e 16 09 23 07 7b 68 3f
       -0.005506293035865813 0.0029883517638918103
0000d0 05 1b b8 fe be 15 84 bf 70 d7 2b 5c 2c 1e 6e 3f
       -0.009807102344905791 0.0036764971167668123
0000e0 8a 37 b2 8c d0 0e 69 3f 8a 61 97 2b dc a1 51 bf
       0.00305882198660518 -0.0010761880970361092
0000f0 be df d4 cd 43 ed 19 3f f6 3c 61 ac da ee 76 bf
       9.890295355752165e-05 -0.005598882859046519
000100 2e 9a 45 63 3e df 71 3f e9 f8 23 ea 85 db 6f bf
       0.004363292410153137 -0.0038888564605478082
000110 7b 38 fc ae 8b 9b 6f bf 8c 70 27 73 5c d3 5a bf
       -0.0038583496278823937 -0.001637306483295328
000120 a7 4e 90 2f c2 47 6f bf ae a3 c0 91 38 e5 80 bf
       -0.003818396824962839 -0.008249704311383468
000130 25 4b ad 75 0d 21 54 bf ea c9 db bf 31 61 81 bf
       -0.0012285834734099912 -0.008486164729650764
000140 e1 f7 a8 92 cb 96 61 bf 90 81 5c 89 27 c3 6d bf
       -0.0021471000702879416 -0.003633095950945804
000150 70 f1 c2 aa 28 74 69 3f 77 d2 d0 c4 13 15 5e bf
       0.0031071466711109427 -0.0018360798888014376
000160 d4 06 30 b6 56 b2 84 bf e0 94 5e 46 14 82 71 3f
       -0.010105779108929104 0.004274443815949186
000170 58 68 6d 14 2f 32 6a 3f a4 54 6a 2e 67 20 74 bf
       0.003197757675860873 -0.0049137144584580385
000180 bc 75 2f 76 ed f9 51 bf a9 76 68 40 4c b8 46 3f
       -0.001097185035852418 0.0006933567354427589
000190 d6 1d ed ac cd 7d 58 bf 8c 16 27 37 32 e8 41 bf
       -0.001494837622617475 -0.0005464787666873013
0001a0 5c 0d 55 dd f3 d3 6e bf 33 18 2a c8 ff 50 3b bf
       -0.0037631762485560837 -0.00041681523013215315
0001b0 8f b9 f7 d9 a1 8d 60 bf b6 a1 16 e9 2e b2 5b bf
       -0.0020206605110992325 -0.001690431414639188
0001c0 de d9 0b eb da a7 87 3f f8 ad cf 04 a9 35 67 3f
       0.011550627038997282 0.0028332043789214244
0001d0 70 16 22 e3 bc 1c 82 bf 71 c5 f9 67 b6 3b 3a 3f
       -0.008843875581315802 0.0004002876594092131
0001e0 e7 8b d3 40 e8 01 63 3f 0e 32 37 cd 5d a0 6b 3f
       0.002320245380006625 0.0033723671019514406
0001f0 cb fc c8 5a 41 1e 68 3f 30 f9 0e 41 20 46 6d 3f
       0.0029441143472293866 0.0035734777415818084
000200 b3 77 df 88 01 15 63 3f 89 64 b1 88 e6 d1 64 3f
       0.002329352376348981 0.002541494619020816
000210 22 1a 52 19 1f 25 65 3f 97 b2 93 9c 69 d8 63 3f
       0.0025811774635855636 0.002422529480659751
000220 ca d3 78 37 0b 56 60 3f 60 b8 c9 1a 88 a8 6d 3f
       0.0019941538883138975 0.0036204012197265517
000230 37 34 4b a2 b0 f6 70 3f 6c 21 75 c7 ed 90 65 3f
       0.004141511894613584 0.0026325840114262335
000240 8f 82 02 34 71 94 6f 3f 09 04 66 e2 85 72 68 3f
       0.00385496244423706 0.002984296315105887
000250 f8 64 0d 0e b9 84 5f 3f 18 be 0c 34 2a 88 65 3f
       0.0019237334419897594 0.002628405025823854
000260 62 b5 e2 54 47 eb 66 3f d7 8e 68 57 68 48 68 3f
       0.0027977364726072132 0.0029642141264661736
000270 46 80 13 f6 fb 3a 67 3f 86 82 ed b8 a3 83 67 3f
       0.002835743057048065 0.002870387811910571
000280 3e 01 e7 6d f8 5a 6d 3f 96 ec 0b 44 00 d2 5f 3f
       0.0035834171423802233 0.0019421579929133396
000290 3f 03 61 0f 8b d1 62 3f 76 eb 1b 4a 2d 46 6b 3f
       0.0022971836106368266 0.003329361396820325
0002a0 ce c1 03 ec 21 18 5f 3f b5 17 55 b3 21 18 66 3f
       0.0018978434819097892 0.00269705373890169
0002b0 86 a6 ec 0d 55 86 67 3f 95 65 85 7f ca 3c 6b 3f
       0.0028716717928503636 0.0033248858491503144
0002c0 d0 d9 a6 45 d9 ac 6a 3f 76 ce 4e a2 dc c0 63 3f
       0.003256248816991582 0.0024112996347527794
0002d0 33 a4 a9 da c6 b8 6b 3f 5a ea aa 19 10 ec 69 3f
       0.0033840068693291813 0.0031643213709149744
0002e0 24 91 c6 4c ed 20 52 3f 6a 4b bd a0 cb 37 5b 3f
       0.0011064832097896294 0.0016612518838498799
0002f0 a3 96 2b 3e 93 b8 6a bf ec a7 71 a2 0f fa 6c 3f
       -0.0032618404232945416 0.0035372071611634495
000300 77 bb bd 58 b5 3d 14 3f f2 f7 d1 0c 0e 20 6d 3f
       7.72134719093496e-05 0.0035553240218737453
000310 ec 8f b6 e0 db 9d 5f 3f 2f 16 92 12 6b 38 41 bf
       0.0019297263378144037 -0.0005255244078774031
000320 d6 70 65 01 02 3c 5f 3f 60 91 02 56 50 c4 6c bf
       0.0019063968262207818 -0.003511578470425089
000330 2f ce f9 03 8b a5 61 bf 7e 8f 24 c5 f2 a0 48 bf
       -0.002154132380207028 -0.0007516084099603441
000340 8c bd e5 18 74 3d 39 bf 16 0d 1f 53 ca c4 7d bf
       -0.00038513264089253744 -0.00726775200922993
000350 b8 9c a9 cb 28 ee 57 bf 83 44 c4 cd 8b 25 7b 3f
       -0.0014605902093991884 0.006627603634357662
000360 4c 73 c6 64 73 9d 56 bf 84 4b e0 5a f4 f6 44 3f
       -0.0013803126231330563 0.0006397908343863533
000370 05 d7 0d f4 d0 ab 5f 3f 82 3e bc 72 c4 e7 61 3f
       0.0019330540237353932 0.0021857106093035603
000380 a1 a0 da 42 3f 3b 62 3f a7 44 da 18 b6 a8 50 3f
       0.0022255168504053545 0.0010167864124109112
000390 e2 49 f8 0c d1 cd 50 3f ce ce ee 44 38 23 7a bf
       0.001025633002318054 -0.006381244470435822
0003a0 19 e8 15 e1 ef 22 63 3f 85 20 1d be 5d 06 40 3f
       0.0023359952107826596 0.000489040158051971
0003b0 cf a2 b4 0c 45 a1 71 3f c6 92 81 85 e0 a4 55 bf
       0.004304189419862949 -0.0013210480301718993
0003c0 76 12 f0 cc b8 bf 79 3f e1 16 52 ea d3 64 1e bf
       0.006286355855085737 -0.00011594336918293757
0003d0 4f ae cb 5d 8e 7c 62 3f a5 0f 1d fa 44 c3 67 3f
       0.0022566586106813956 0.002900728913035127
0003e0 96 8b 4c 42 f7 13 67 bf 55 d0 b6 5a 78 24 6e bf
       -0.002817137649246469 -0.003679499690145286
0003f0 c3 de d7 24 df c8 71 bf 84 5a 4d a5 e7 43 71 3f
       -0.004341956764157553 0.004215149751721218
000400 a2 ee 9f bc f4 fa 74 bf 05 65 91 ae 6f 84 61 bf
       -0.005122142794785541 -0.0021383458411433653
000410 cf 3d ed f6 9f 68 68 bf 9b 6d 80 52 9d 3d 56 bf
       -0.002979576521660233 -0.0013574634886087459
000420 9a f6 6d 27 53 35 6b 3f 95 ae c8 08 5f 89 3d 3f
       0.0033213256933198433 0.0004506928460467988
000430 1c 7c 2c 0d c8 7d 51 bf 62 62 d0 0f d2 5f 81 3f
       -0.00106758629107851 0.008483544452290551
000440 42 48 8d 48 20 85 74 bf d8 98 f3 de c2 49 6b bf
       -0.005009771449140445 -0.0033310705253938137
000450 aa df fb 48 08 72 52 bf f0 b4 87 c2 20 91 66 bf
       -0.0011258202466119895 -0.0027547492829770245
000460 5f a3 8b c1 13 42 7d 3f 8a 75 e0 f9 ba 25 1d 3f
       0.007143094226855633 0.00011118844710763222
000470 95 63 d9 0d 95 a8 71 bf 2e 33 03 7e 8b 60 70 bf
       -0.004311163179942752 -0.003998322383449699
000480 9c 23 b3 9c 81 08 89 bf 4b cd bb 8c 56 59 66 3f
       -0.012223255724522812 0.0027281465935346297
000490 65 66 a9 a8 17 3d 5d bf 77 b0 9d 68 5d 9a 3d 3f
       -0.0017845850985821695 0.00045170574650544394
0004a0 94 b6 c0 a9 bc c7 78 3f 04 64 4a 60 1d 57 60 3f
       0.006049859013769105 0.001994664550079241
0004b0 34 fc 24 87 ed 33 60 bf b9 9e ba 84 81 28 65 bf
       -0.0019778861252741867 -0.0025827912957828406
0004c0 7a d5 c5 73 27 d4 64 bf 1e 97 43 51 20 ed 64 bf
       -0.0025425692130577856 -0.0025544768524125147
0004d0 fa ab 2d 28 39 0b 56 bf b8 db d2 87 ea 57 5f bf
       -0.0013454492734250576 -0.0019130506837379112
0004e0 da 2c 1f c3 f8 b0 5d bf 14 60 fe 43 d5 55 60 bf
       -0.0018122128790192733 -0.001994053396582993
0004f0 73 17 09 7e ab 2c 60 bf ff 14 bf c9 10 db 5e bf
       -0.001974425264310514 -0.001883283991433615
000500 fa 77 3c ad bb 8d 65 bf 64 8d fe 47 9a a2 60 bf
       -0.0026310601769088367 -0.00203065999080969
000510 d1 6b e5 66 6e a8 5c bf 61 d0 27 fb a2 78 64 bf
       -0.0017491415161063793 -0.002498930284895493
000520 3c e0 a8 f9 4b 79 60 bf 3f 4a c8 63 a2 5c 58 bf
       -0.0020109638110419586 -0.0014869294965406258
000530 09 ad b1 af 20 09 64 bf 78 29 1c c6 03 0e 63 bf
       -0.0024457586674110393 -0.002326018687090311
000540 12 c4 7e dd 71 53 66 bf 82 61 66 fc b6 44 63 bf
       -0.0027253364496222588 -0.002352101702126131
000550 bd df 26 5b d4 f8 58 bf 37 5c 74 56 13 72 56 bf
       -0.0015241693296115099 -0.0013699711651662513
000560 e9 be fd 2f 3d 3c 5b bf 44 26 08 32 9a e9 5d bf
       -0.0016623113187640931 -0.0018257146658719062
000570 69 98 a0 0e e8 e1 52 bf 63 5b 49 e3 6e ba 60 bf
       -0.0011524931128490629 -0.002042023256119506
000580 da 77 c7 a1 0e 40 5b bf 5f f9 bb 24 5c f2 63 bf
       -0.0016632216348777457 -0.002434902160415905
000590 d9 f3 24 13 1f af 63 bf 07 0e 90 52 cb 33 60 bf
       -0.0024028403214786218 -0.001977822412756461
0005a0 d9 8b 5c 94 cf 64 5e 3f 9b 3c 8e e6 95 1d 61 3f
       0.0018550898689191268 0.0020893028017279886
0005b0 bc 41 bd 3e 3a 9d 4f bf 9b 89 01 9d 37 f9 69 3f
       -0.0009647879028112298 0.0031705938527448302
0005c0 a9 75 29 77 b7 93 54 bf 59 26 e1 04 7f 1e 74 3f
       -0.0012559215216677389 0.004911895912366037
0005d0 39 d2 4c a2 6a d8 6f 3f 8d 6a e0 c4 8d 4c 56 bf
       0.0038873751349462163 -0.001361025282227732
0005e0 cf cf ae 08 3f 84 60 bf 02 10 a1 3e a3 d7 75 bf
       -0.002016184914703324 -0.005332601236720082
0005f0 d2 93 20 1d bb 10 67 bf b8 08 60 c7 04 36 5c bf
       -0.002815595108602833 -0.0017218634288842915
000600 42 de 2e 96 6c c6 71 3f fa e1 d9 27 76 41 6a 3f
       0.004339622656452104 0.0032050426223657587
000610 4c cb c7 4a 90 09 4d 3f a5 a5 77 f7 a6 6f 2e 3f
       0.0008861498404811679 0.00023220933120108897
000620 cd 4f ff 4a fe cd 47 3f 36 30 60 f6 21 3a 5c bf
       0.0007264606156192011 -0.0017228442825425578
000630 c1 37 07 ca 0e 20 3b bf 10 8f 81 d2 2f 0e 68 3f
       -0.00041389809669289615 0.0029364522961702402
000640 88 32 b2 7f 7e 97 72 3f 34 4f 9b dc d4 f7 4e 3f
       0.004539007316577533 0.0009450711597431606
000650 bb d2 89 9c ee aa 1c 3f 64 bc 7d 57 1b 1b 43 3f
       0.00010935860985645644 0.0005830653671931138
000660 01 bd 7a f3 9c 7b 65 bf ba 1a 55 5a 4e 87 6d 3f
       -0.002622419877148397 0.0036045580224340597
000670 16 da fc f1 98 60 5d bf c3 80 43 8b ec 73 67 3f
       -0.0017930501562212257 0.002862894058225236
000680 1c 61 33 e7 64 e2 6c bf b8 44 c9 3c 10 df 4e bf
       -0.0035259218944753267 -0.0009421185764698836
000690 7b ef 87 b7 50 b1 5d bf c7 4d db 9e 8f f2 49 3f
       -0.0018122947932388267 0.0007918549797189472
0006a0 e1 65 a2 c0 3b d3 61 3f e1 61 51 59 c9 be 5c bf
       0.0021759192505441537 -0.001754471425803421
0006b0 52 cc b9 17 30 c4 69 3f 25 2f ea 89 6f 46 6f 3f
       0.003145307475102701 0.0038177660456478906
0006c0 80 b9 b6 ba 69 f1 31 3f db c7 5b b2 ff 29 6c 3f
       0.00027378875048613555 0.0034379953457284013
0006d0 fb 2a 11 88 c6 b2 41 3f eb 50 19 81 58 7b 64 bf
       0.0005401105301044701 -0.0025002220725501754
0006e0 d7 73 49 d7 47 aa 22 bf 6d 8a 67 e7 bf dc 57 3f
       -0.0001424038597574162 0.001456439405608602
0006f0 78 a1 57 0f c0 55 2d 3f 43 86 c1 b9 a7 09 65 bf
       0.0002238079975278686 -0.0025680805102162043
000700 32 ad ee 4a fe ac 32 bf 6d 2f fb 17 61 c6 13 3f
       -0.0002849694091604126 7.54353295590573e-05
000710 2b f6 d6 64 ad 94 59 3f 45 dd 30 16 d9 e2 66 bf
       0.0015613263416151084 -0.002793716428211165
000720 24 be bc bd 0a 35 40 bf 51 98 15 29 1e 4a 71 bf
       -0.0004946043440891596 -0.0042210748809790736
000730 66 a9 21 35 9d 62 66 3f bb de 5c e2 71 2d 36 3f
       0.0027325697383748125 0.00033840208412836873
000740 b3 10 7d 43 df fc 25 bf 82 17 f7 24 74 a4 6f 3f
       -0.00016775346170494961 0.0038625973172398695
000750 2d 84 ff 4f dd c1 56 3f ac 86 10 b0 f1 36 70 3f
       0.0013889943365870225 0.003958648770124345
000760 31 dd 05 16 47 5a 5c bf 7b db dd f3 0e 6f 38 3f
       -0.001730508251140805 0.00037283053449448767
000770 02 c6 25 65 df 6a 68 bf d2 35 76 21 2b d5 24 3f
       -0.0029806483445831153 0.0001589408063690638
000780 6e 17 83 1e e8 eb 3b bf d2 d7 95 ef d5 b5 ff 3e
       -0.0004260484406696162 3.0241294529407947e-05
000790 85 69 98 04 fb 25 41 bf 13 7e 46 e7 07 18 1d bf
       -0.0005233264611804045 -0.00011098430861133266
0007a0 53 3a d0 ab f1 4a 36 bf 58 e5 4c 07 d2 7c 42 bf
       -0.00034016037153686735 -0.0005641961603039354
0007b0 6d 97 8a 8e ec a2 1d 3f 5d 8a 57 62 65 2d 0a bf
       0.0001130539782346598 -4.992929124704858e-05
0007c0 72 fd 04 50 3e bd 44 3f cd a3 5f 02 33 5b f8 3e
       0.0006329111347795192 2.322792729350983e-05
0007d0 f0 6e 97 65 e7 d4 26 3f 3c 94 48 ba 4d 0a 29 3f
       0.00017419171017151553 0.00019104193519684117
0007e0 fb 97 d9 a1 b5 b4 34 bf 46 62 c6 a4 67 74 4a bf
       -0.00031594690685776667 -0.0008073335716743478
0007f0 3b 83 ba 88 83 e4 32 3f 5e 77 bd b3 01 e5 40 bf
       0.0002882786873020131 -0.0005155809699137583

linear_cov.bias f8 [900]
000000 14 f8 35 69 5f 2e e0 3f a3 7a b7 79 89 e6 a0 3f
       0.5056607298754465 0.03300885783004517
000010 d0 cf 8f 98 28 1f 99 bf 3b 6a c4 ee 61 46 a6 3f
       -0.024532923041945598 0.043505726238624885
000020 0b 4e e6 4a 1c 89 74 bf a6 ad 9f dd 9a 2a 96 bf
       -0.0050135712794090554 -0.02164689996417981
000030 56 e8 36 db c5 e2 7d bf a3 85 19 62 1f 12 4d 3f
       -0.007296345592687178 0.000887170146779127
000040 07 20 fe c9 1e 3d 8c bf ec 08 45 68 7f 46 ab bf
       -0.013788452662780072 -0.05327222965071762
000050 44 ba 10 39 e3 82 a3 bf 8b c4 17 b3 5b 7f 83 bf
       -0.03810796805952468 -0.00952026024148924
000060 31 75 10 0d d4 3a 8a bf db de e9 b2 ed e1 a5 3f
       -0.012807518624010502 0.04273932274821642
000070 4e 04 54 3f 31 ff 78 3f 8e a8 44 fa be 2b b0 3f
       0.006102745411454681 0.0631675110823002
000080 ee 1b fc f0 1d b9 a2 bf 66 29 c8 99 29 ba 98 bf
       -0.03656858030995368 -0.024147653590298822
000090 ec 03 39 7a 33 58 86 3f ba 7d a5 17 f5 c0 ad bf
       0.01091041771644715 -0.058112773071794036
0000a0 25 02 c5 6e 38 17 a0 bf 4a 8c 95 fe f4 e3 a8 bf
       -0.0314271578995469 -0.04861417396275465
0000b0 7c 98 41 23 a8 37 8a 3f 57 75 04 65 47 e8 8a bf
       0.012801469398436398 -0.013138349314028614
0000c0 03 61 4d 5d 9c 7c 80 bf f8 44 26 bc 1c 36 af 3f
       -0.008050176236495071 0.06095971867319777
0000d0 78 9c 13 23 72 dc 87 bf 84 f1 53 ad 03 3a 99 3f
       -0.011650935836270401 0.024635369733901694
0000e0 c1 a0 32 b3 7c f3 9d bf 51 a5 59 31 8e 9c a0 bf
       -0.029249142110217678 -0.032444423221771
0000f0 f0 6a ff 14 c8 45 a3 3f a6 f1 bf ff 50 f8 e1 3f
       0.03764176613159076 0.5615620608437453
000100 7f 7a e0 18 0c b1 9a 3f 73 14 5d a7 26 1f 9f 3f
       0.026066006677974315 0.030392269101203028
000110 3b 25 00 ba a7 42 8c bf cc e8 db 81 16 e0 8b 3f
       -0.01379900967005431 0.013611007535918061
000120 18 4f 37 b9 b7 5a 90 3f a3 3a 26 05 b6 15 a7 3f
       0.015971060447397795 0.04508751690729198
000130 e8 f8 a1 4b 68 f8 a9 bf af 03 b9 21 e3 5b 99 3f
       -0.05072332309008393 0.02476458447768309
000140 24 63 51 7e 92 f7 a6 bf 47 c6 9c 06 4e 12 5d 3f
       -0.04485757629362855 0.001774383732890421
000150 ea 81 a7 aa 58 76 9f 3f 55 14 51 14 4c 47 98 3f
       0.030724893012917955 0.023709477176698652
000160 87 39 e8 aa 1b 16 91 3f 3a 2f 94 bf 77 d6 96 bf
       0.016685898119300126 -0.022302504604382302
000170 52 e2 8f ca 21 a4 9f bf 8f 09 18 4a 92 c5 61 3f
       -0.03089955138054485 0.002169404717961849
000180 a3 0b 79 46 a7 da 7d 3f c4 1d c0 c7 be 4f 84 3f
       0.007288602274971109 0.009917726965808955
000190 9a 60 33 95 fd a4 97 3f 6c 4f fa e0 ba 49 65 bf
       0.023090326529967876 -0.0025986337639753356
0001a0 1a 36 d4 99 24 36 51 3f 12 95 04 f7 15 7b aa bf
       0.0010505063467606325 -0.051720320132782174
0001b0 af a7 5e 99 0c e3 86 bf 7f f1 75 4e 9a 92 b4 3f
       -0.01117524951026269 0.08036198058647946
0001c0 98 4e 49 f9 b4 3b a4 3f 58 55 58 9e 26 f4 9a bf
       0.03951802771612484 -0.026321986593832974
0001d0 09 a7 ab c0 c7 c4 92 bf 79 97 25 a2 6c 83 6c 3f
       -0.018328782210040227 0.00348063676317428
0001e0 7c 77 7c db eb 00 97 bf 72 d6 c3 4e 33 44 a1 3f
       -0.022464452048658753 0.03372345291601854
0001f0 e3 3b 8e 56 d6 85 de 3f 19 4c f5 eb 68 97 a7 3f
       0.4769187779683632 0.04607704048489598
000200 53 ea d2 96 cf cd 82 bf ed 6a 1d 94 f7 18 98 bf
       -0.009181615629462991 -0.0235327419426125
000210 3e a3 b1 e1 17 af 62 3f 2d 18 6c e1 3c 13 aa bf
       0.0022807566106632085 -0.05092802287804008
000220 a0 6e 47 d3 60 2e a4 bf 60 97 60 4f 2d 3f 92 3f
       -0.039416337767503196 0.01781912610035563
000230 7d e3 64 6a 56 f0 a3 bf 0a 95 02 1c 22 05 9e 3f
       -0.03894300507312829 0.029316456756210342
000240 b0 ea ab 6a ac bf ab 3f 86 40 85 ff d3 e2 90 bf
       0.05419672777312223 -0.016490280600294692
000250 e7 f6 0b 4a 8a 8e 74 bf 3e e5 a2 15 5e cb 96 bf
       -0.005018749420512703 -0.02226016051347312
000260 93 af 11 26 c7 5f 9a 3f 42 2d bd 26 10 ec 73 3f
       0.02575598878722436 0.0048637991820428845
000270 e1 3b b5 87 8f f4 96 3f e4 31 38 39 ee 9e a2 3f
       0.022417299898105262 0.03636879394989359
000280 c5 86 65 40 96 07 41 bf 3a c1 43 a7 ce 1a 87 bf
       -0.0005197032594816622 -0.011281599502098606
000290 0f bf 48 c1 99 aa 93 3f 98 be 6f 47 86 f6 85 bf
       0.019205477163438064 -0.010724114470547705
0002a0 0b 5f ad da fb 77 95 bf 84 67 15 bc e9 13 92 3f
       -0.02096551439475917 0.01765408716651208
0002b0 a2 66 70 dd 6b af 6e 3f 1c 64 f4 01 f5 5d 6b bf
       0.0037457567918977733 -0.0033407006554964213
0002c0 36 a8 02 3d c6 cd 7c bf f5 fa 43 7d a7 97 94 3f
       -0.007032179230160243 0.020109765072443293
0002d0 f7 24 60 d2 b0 3e a6 3f e8 e4 4a 37 f1 81 a3 3f
       0.043447042160616726 0.03810075569112731
0002e0 05 bf 9e bc a5 9c a3 3f 8c 95 19 47 74 59 e2 3f
       0.038304499888338873 0.5734197033568065
0002f0 a2 78 f3 f9 4b 83 53 bf e6 bd 26 36 cc 68 a3 3f
       -0.001190971561122058 0.037908918009062195
000300 dd 30 b3 7c 61 b7 85 3f 83 8e f9 a6 ca a7 71 bf
       0.01060367738536921 -0.004310409174283716
000310 4a 82 18 72 cf 6f 95 bf 45 06 73 e7 d8 61 9a bf
       -0.020934335078097534 -0.025763882757706708
000320 64 69 40 e2 32 39 86 3f 80 0e 97 98 89 40 94 bf
       0.010851285485888602 -0.01977744096599432
000330 d7 ba fb a3 58 cf 92 bf ec a7 e7 f8 e2 c7 b4 bf
       -0.018369088181254902 -0.08117502762584622
000340 d9 3b 0a 1e 0b ce 90 3f 93 d8 bf e1 26 6b 90 bf
       0.016410993298048602 -0.016033751991891675
000350 a2 c9 d9 52 24 06 9b 3f 85 f5 a6 98 3d ac a5 3f
       0.026390616947944097 0.04232971657209376
000360 35 8e 72 ec 89 e2 90 3f 21 c8 87 59 24 6d 93 bf
       0.016489176804169687 -0.01897103115511112
000370 b8 55 7b 9e 88 ec a2 bf 3c 01 1c 70 06 4a 86 3f
       -0.036960858674926766 0.010883379265124497
000380 96 1f 0d 2b c6 e7 88 3f bd 10 fc 9a 21 bb 88 bf
       0.012160824002094544 -0.012075674574142043
000390 46 04 ea da 00 dc 9f 3f 9c 86 f5 6e 54 9c 6f bf
       0.031112683640916815 -0.003858723553705824
0003a0 34 7a be dc 55 8b 91 3f 62 7e 77 36 0f 0e 85 3f
       0.01713308486761829 0.010280722474760032
0003b0 a8 ec dc 7f 15 2b 98 bf 75 58 c7 32 f5 a3 a8 3f
       -0.023601852349412283 0.04812589878899668
0003c0 ac 44 ed fc e8 a9 73 bf cc d1 f5 46 13 6e 92 bf
       -0.0048007107823916755 -0.017998028951710585
0003d0 57 59 f7 36 3e 84 86 bf da 18 7a ba e3 b9 82 bf
       -0.010994421055255428 -0.00914361870605911
0003e0 4e d4 44 f4 96 13 dd 3f a2 5b ed e0 37 9d 85 3f
       0.45432065824872303 0.01055377631352689
0003f0 5d f4 7d dc eb 53 62 bf d0 40 66 ba a3 b3 67 bf
       -0.0022372824350314472 -0.0028932760062120103
000400 bf 96 0f 6e b1 e1 aa 3f 88 d3 32 6c c6 d8 9e bf
       0.05250315159336826 -0.030123806337275322
000410 31 3b bf 75 81 2e 9b 3f 64 11 20 bd 7c 83 9a bf
       0.026544592677790028 -0.02589220909432423
000420 08 30 c6 a5 44 05 a3 3f 10 8d 07 9a b5 2e 94 bf
       0.03714956782923201 -0.01970943215009152
000430 77 de 29 e7 7b cb 9a 3f ee 83 5a 45 05 a3 a5 3f
       0.0261668548432383 0.04225937339402451
000440 6f 6f 27 b0 7b ec 80 3f 21 f0 da f4 96 7e 91 3f
       0.008263555825514605 0.01708446378209783
000450 84 c2 fd 07 09 8c 77 bf 87 38 69 07 ab 29 a9 3f
       -0.005748782423197544 0.04914602723566568
000460 bf f0 02 26 e4 a0 9a bf 8a 2c 99 a6 1b 59 7a 3f
       -0.026004376239811885 0.006432636271323075
000470 a0 2a ec 4f d6 ac 4a 3f 8b 76 de f7 01 75 6b bf
       0.000814060825946445 -0.003351692051139226
000480 e6 07 db 1e d5 6d 74 3f 64 29 02 62 a4 42 8c 3f
       0.004987556936329773 0.01379898475740466
000490 ab 30 6c 05 c2 8f a3 bf 06 32 f6 9f e9 79 1f 3f
       -0.03820616069978774 0.00012007225449490324
0004a0 29 7d b1 12 69 cb 55 3f 22 64 e1 f0 94 87 92 3f
       0.0013302351096838394 0.018095328523802696
0004b0 15 13 65 aa f0 bd 8d bf 87 bf ed fb 70 a6 87 3f
       -0.014522438240086847 0.011547930420164011
0004c0 53 58 cc f8 e6 41 9b bf 32 1b ec d4 5a b8 a3 3f
       -0.026618584571302794 0.0385158905901818
0004d0 a3 eb e6 26 f9 1c 7e 3f be 5f 0b 89 9a 04 e2 3f
       0.007351849794242779 0.5630619694375054
0004e0 7d a5 b7 03 11 75 9d bf e8 43 e3 1c 6c 66 8e bf
       -0.02876688561619777 -0.014843792563995664
0004f0 39 64 61 5b a1 ca 8a 3f 22 1f 13 bc 81 47 97 3f
       0.013081799126824932 0.022733714203041384
000500 85 ca 09 cc c3 38 93 bf bb 4c e5 3b f1 87 87 3f
       -0.018771228149896863 0.011489758148547904
000510 3e b5 0d 2d 4b 8b 67 bf e1 c8 cf 23 f6 ed 9e bf
       -0.0028740375786841235 -0.03020462602211971
000520 be b8 1d d4 71 f3 a3 3f 38 d2 08 4b 60 a9 a5 3f
       0.03896671022708763 0.04230786243389101
000530 9e 4e 2f fa 11 b1 85 bf 1a 51 5a 64 28 fa 7b bf
       -0.010591640899213769 -0.00683036592603894
000540 25 34 db 02 9a 69 9d 3f 1e d5 c6 55 e2 77 99 3f
       0.028723150657970948 0.024871384129899636
000550 91 a4 5f bb 85 89 98 bf 29 c4 c0 88 94 6e a9 bf
       -0.02396210628640866 -0.04967178506229459
000560 52 44 42 9a 7e 35 94 3f 7e 2c 69 45 86 35 91 bf
       0.019735315480435674 -0.016805742250920457
000570 75 69 15 cd 17 f7 93 3f f3 b4 c8 11 d3 3b 86 3f
       0.019497272388755833 0.010856293659424731
000580 73 fe bc 9a c5 d2 9b 3f 3b 34 61 66 a5 14 73 bf
       0.027171218461488466 -0.004658361524048134
000590 b7 72 09 48 1f c3 9b 3f 7e 38 51 98 4f 49 81 bf
       0.02711151959589372 -0.00844061072907842
0005a0 00 ed c7 ee ad 4d 74 bf f2 3f 37 d7 01 dc 95 3f
       -0.0049568933723052044 0.021347073326808137
0005b0 c5 e9 91 ac a4 41 2d 3f f1 ef 75 f8 89 1c 65 3f
       0.000223208762949968 0.0025770849931045993
0005c0 8c 29 32 26 e7 88 62 3f 8d 56 22 92 cb 43 a0 bf
       0.002262546027457185 -0.031767236317290594
0005d0 ad 31 90 10 44 e3 dd 3f 23 61 27 bb 71 cd 8c bf
       0.466996208357865 -0.014063728832227234
0005e0 2a 0b e3 f1 bb 80 96 3f 65 ea 32 8f a3 c2 9b 3f
       0.02197545684681327 0.027109675994078226
0005f0 76 ba 77 19 b8 a2 b0 3f 1d fe bc 93 65 b6 7c bf
       0.06498289701242208 -0.007009884629780608
000600 d6 71 a3 36 df ff 80 3f 04 91 2e cc 31 3c 54 bf
       0.008300536971028654 -0.0012350546173616759
000610 88 b4 68 05 5c a0 a7 3f 9c ff 39 e8 66 e9 91 bf
       0.04614532056835069 -0.017491920398697056
000620 cb bf 2e e2 f4 7b 8e bf 91 b6 aa 78 86 a0 af 3f
       -0.014884865906282038 0.06177158568366992
000630 d5 a4 1d 73 1e ed 83 3f 08 8a 30 c9 92 ea a2 3f
       0.009729612243705091 0.036945902880933856
000640 25 aa 0a 82 88 75 73 3f 4a 2f f8 80 01 42 58 bf
       0.004750760301855316 -0.001480580776731482
000650 d6 0b 22 1f c4 a9 a3 bf 76 6e b9 a5 ec bb 77 3f
       -0.03840458755532665 0.005794453052284978
000660 2d 03 1a 80 87 6b 97 bf 74 6b f2 10 ef 50 91 3f
       -0.022871129220678178 0.01691030064521777
000670 39 48 14 ac 9d 07 91 3f 19 4b 24 35 55 5b 9d 3f
       0.016630614879496106 0.028668719643131533
000680 5a 41 69 85 72 43 90 3f 3f 7c dd a0 2e b8 a9 bf
       0.015882291214724155 -0.050233323227751196
000690 a0 d5 93 69 fc 74 54 bf de ed 8a 7b 68 65 a9 3f
       -0.0012485947575532133 0.049601807671446826
0006a0 13 04 1d e0 4c 44 aa bf 6f 4c bc 6f d5 a7 91 3f
       -0.051302339894853465 0.017241797394558164
0006b0 69 6f 4b 8e 11 46 79 bf e7 f4 2d f3 3c f0 7b bf
       -0.006170338227743468 -0.006820905767083141
0006c0 87 18 c1 9d 92 06 93 bf 5e 34 f6 ca 3d 30 e2 3f
       -0.01857976043563572 0.5683888401123445
0006d0 a5 03 35 73 60 a6 a3 bf c2 fe 47 7a 8a b4 aa bf
       -0.03837872892700681 -0.05215866797152337
0006e0 dc fa 1d e6 b0 af 91 3f 80 3a 86 23 44 9b b0 bf
       0.017271770520433147 -0.06486917369168488
0006f0 5f 2e 08 84 84 86 9d 3f 59 a1 9b 30 e4 62 70 bf
       0.028833456572142754 -0.004000560156534349
000700 fd c1 23 74 ef 4b ad bf 47 a8 b0 fd be 21 7c bf
       -0.05721996586533249 -0.006868120249274474
000710 29 90 44 6a d6 b7 47 3f ba 2e 59 ef ee 71 70 3f
       0.0007238194416783239 0.004014905299822119
000720 f9 df 06 2e 3d ee 91 bf 96 90 69 56 85 29 5d bf
       -0.017510372099167146 -0.0017799188732619312
000730 f9 cc de 70 36 94 94 bf d8 a1 53 23 d6 3b 95 bf
       -0.020096636427934 -0.02073607054345125
000740 d7 ed 2f f2 37 f8 a7 bf 87 53 e9 e4 3c 44 56 bf
       -0.04681563216578482 -0.001359042613008317
000750 63 9e bc 63 01 f2 97 3f f7 20 53 33 15 d8 a1 3f
       0.0233841149448878 0.03485170604250414
000760 13 7e 07 b6 3e b3 99 bf 86 96 06 be 83 aa 88 3f
       -0.025097827778038772 0.012043980824113076
000770 7a 62 d8 c4 24 15 ae bf ab 1e ac e5 12 43 94 bf
       -0.05875506308456564 -0.019787116306388224
000780 67 f0 50 38 82 10 95 bf 3a a5 27 cc 06 24 ac bf
       -0.020570788085237626 -0.05496236078381363
000790 77 a8 09 22 a8 c4 a4 bf 09 a1 d9 bf 0f e9 98 bf
       -0.040562872080799055 -0.024326559147454883
0007a0 95 f8 a0 18 7d 14 ad 3f 38 35 7a f4 97 ca 89 3f
       0.05679694104809233 0.01259344782672632
0007b0 9e 01 4a 7b f6 3f 99 3f 21 2e 2b 29 5f 0e 90 bf
       0.024658061289757442 -0.0156798237683643
0007c0 8c 6a 4d db e4 de e0 3f e8 2a 92 cc 54 49 9a bf
       0.527208736729635 -0.0256703615055284
0007d0 de d2 5c e0 5f de b1 3f 1f 59 2c 50 32 e3 85 3f
       0.0697994158516155 0.010687249252026519
0007e0 b5 61 f9 e9 28 78 b9 bf a5 0d ba b3 2d 53 a4 bf
       -0.09948974334964229 -0.03969710177355105
0007f0 22 73 ad d7 48 df a3 3f fd b5 9a ef 2b 2a 9b 3f
       0.038812900855850666 0.026528059481895728
