port_results/Adam/10_2000/1/7_trained_linear.pth (torch, 29815 bytes, 4 tensors)

linear_mean.weight f8 [10, 30]
0	0xbf7cd809f7d1ea25	-0.007041968286211763
1	0x3f64166e1fc89d0e	0.0024521017897033487
2	0xbfb20700404419da	-0.07041932648653618
3	0x3f9c6016e08ca010	0.027710301833536788
4	0x3fa7b97139e39905	0.04633668738988387
5	0x3f944f50e99fa859	0.019833816775566813
6	0x3fab7c37f19d8e0b	0.05368208717734654
7	0xbfa11bffffa8d91f	-0.03341674800724292
8	0x3f9cfc26ae025bad	0.028305630083732037
9	0xbf7f17fb5548e19d	-0.0075912301731978745
10	0x3f5263b6fbaed09e	0.0011224066681565846
11	0xbf7a0227afc6b928	-0.006349711442835727
12	0x3f81bf1decf4904c	0.008665307802012155
13	0xbfadcc4ae4c265ec	-0.0581992534873271
14	0xbf943204ddd9c7ea	-0.019722057381336734
15	0xbfa85183907c37b6	-0.047496901881558015
16	0x3f8fcf222fbb1b63	0.015531794625884115
17	0x3fa0e7aa5836817b	0.03301746680085934
18	0xbf992f2d3b985574	-0.02459402729262679
19	0x3f9d4c682a4fedc5	0.02861178167584712
20	0x3fb4dfa28eb532b3	0.08153739914014117
21	0x3fb4fc226c68fb95	0.08197226664286313
22	0x3fb2d8ef3f96aa85	0.07362265875296188
23	0x3fabdfeaef5a08ce	0.05444273158811229
24	0x3fb17e0e478fa91c	0.0683297085485361
25	0x3fb08c5a32392916	0.06464160658029913
26	0x3fb0f1ff37d7dde5	0.06619258035049531
27	0x3fa02aa7721c8b16	0.031575424842477925
28	0x3fabee98c1273185	0.05455472333742065
29	0x3fae8a535a45a770	0.05964909054712464
30	0xbfb10a69896ed215	-0.06656512837691538
31	0x3f9a699c18534f68	0.02579349420996327
32	0xbfb9884907d95556	-0.09973579827904663
33	0xbf7cca0b84bf0f27	-0.007028622621820613
34	0xbf88aebb67db3c76	-0.012052024943299804
35	0x3f9a369efef1af05	0.025598987875510754
36	0x3f982d8cab6a32c1	0.023611257517176968
37	0xbfb477c3b8ace69c	-0.07995246180225951
38	0xbfb2489e641ff2ec	-0.07142057365849624
39	0xbfacc76112cf4b41	-0.05620864252673253
40	0x3f85bc8bc2f2e713	0.010613529097429663
41	0xbf9345da9dbbd52e	-0.018821159245779366
42	0xbf8787270e19abf3	-0.011488251798445126
43	0x3f9bb56884244e7e	0.027059205117508693
44	0xbfb0eae26fcea1b5	-0.06608405332247609
45	0xbfb8da27a93fcd42	-0.0970787800031774
46	0xbfafa975828d7a02	-0.061839744745828554
47	0xbfa6fb4214289787	-0.044885697327386835
48	0x3f991d83200037fe	0.0245266426355144
49	0xbf94975bfae6e109	-0.02010863989718906
50	0x3fa3fc07f189d193	0.03903221915689694
51	0x3fa1dd682903eb9e	0.03489232540774555
52	0x3f9b32a70d704adb	0.02656041163943255
53	0x3f7bc9633eea6716	0.006783855131880198
54	0x3f9c36e17a012cdd	0.027553103515214217
55	0x3f865da169b79e8f	0.01092077354310497
56	0x3f9b54e2cc905365	0.026691001639921014
57	0x3f6919d5c5a0530f	0.003064076922792209
58	0x3f825ce17f3b60cd	0.008966218657790037
59	0x3fa03882b8981677	0.03168114188524112
60	0xbfa0cdeac9b38622	-0.0328210231034627
61	0xbf90e55bca2ca3df	-0.016499933447594258
62	0xbf999097f0975161	-0.024965642985834594
63	0xbf919e52b76246ae	-0.01720551723753399
64	0x3f6f99c2304f0da9	0.003857497477356826
65	0x3f97352c78ea7a0b	0.0226637791444038
66	0xbfa05f8bd5d263ba	-0.03197895989541828
67	0x3fa27fcbb723da8b	0.036131254297221714
68	0x3f937bb2aa3a51bb	0.019026557578927
69	0xbf7c980c6d05502d	-0.006980942286038111
70	0x3f6660c45b16bada	0.0027316889833949145
71	0xbf912eb9739d3b89	-0.016779802018671162
72	0xbfa63226871d8839	-0.04335136794431133
73	0xbfa20b27ea847b05	-0.035241362931847355
74	0xbfa6f6a15f0e79be	-0.04485039029463021
75	0xbfa3b400808f0b90	-0.038482680981835604
76	0xbf9d5d5c18729b10	-0.028676451675575143
77	0xbf935a142e19bb8e	-0.018898310960533453
78	0xbf89c94c0933873c	-0.012590974837113238
79	0xbfa4288327e4c2b0	-0.03937158452970857
80	0x3f9c8a3dc8cc0abe	0.027871098881415028
81	0x3f96f2f665aff8da	0.022411203342920107
82	0x3f95812f80b91ff7	0.021000616294514853
83	0x3fa0041ef3fb815b	0.0312814400510912
84	0x3f88ab7f44b743f7	0.012045854839842092
85	0x3f9d20f1dd9c5fc9	0.028445986891796147
86	0x3fa655a3d39c7c13	0.04362213094849934
87	0x3f9fe7659288ed0a	0.0311561461150918
88	0x3f9d7149413eb686	0.028752464873540017
89	0x3f98e9123a8b636d	0.024326596091529696
90	0x3fa1f94f7d53626c	0.03510521321158397
91	0xbfab72c8bbeec907	-0.053610108319292187
92	0xbfa21d947ddfd187	-0.03538192783881571
93	0xbfbb71e63e439c55	-0.1072067167293523
94	0x3f61eee1d0e50d22	0.002189103171220134
95	0xbf95fea8b4da0b7d	-0.021479259527505946
96	0x3f818df78d22f989	0.008571561808250265
97	0x3faf4da1ed46a029	0.06113916417535876
98	0x3f9cc3760dcc6910	0.028089375106994885
99	0x3f907f60882e583f	0.016110904990988436
100	0x3f6c8dc50be9a9da	0.0034855698170776885
101	0xbfbf778bc076b59b	-0.12291787575551043
102	0x3fb0c268a6b36d0c	0.06546644277425545
103	0xbf5899f6e16988b0	-0.0015015517180008535
104	0x3f74eee201ca221b	0.005110628928953999
105	0xbf9d6a7d3e9339fc	-0.02872653669765589
106	0xbfc27bbbd67923cb	-0.14440105411838852
107	0x3f61f9b6f5d5d63f	0.002194268554996964
108	0xbfaa84854b622cd5	-0.05179230256279658
109	0xbfa1596703f2d55e	-0.03388521121216102
110	0x3f9a7dce067a018a	0.02587053217439598
111	0x3f95224415b86a74	0.020638526750284616
112	0x3f9e7c29b677ed8b	0.029770519029609182
113	0x3fa58198bfea5e98	0.04200436918943956
114	0x3fa764b09a911689	0.04569007765580319
115	0x3fa6dd6d16256f8c	0.04465809722270739
116	0x3f99b20cda5c99cc	0.025093270137540633
117	0x3f76a3e7b3ee9a0a	0.0055274058239889266
118	0x3fa229b9beb86cab	0.035474590808200666
119	0x3f91697eae6e4268	0.017003993412404134
120	0xbf9aab598eff90fa	-0.02604427275936503
121	0xbf916d1da82b8a04	-0.01701780642441443
122	0xbf93267331531cda	-0.018701362500704068
123	0xbfafb8c669ab91db	-0.061956596755212444
124	0x3f900567da9c7402	0.0156456210307745
125	0xbf9bdfeef25a3edc	-0.027221425573371913
126	0xbfac0d04b90694db	-0.05478682287802324
127	0x3fa11213410ebb5b	0.03334102791938306
128	0x3fa32b8c716d4627	0.03744162449460147
129	0x3fabedde320ae58f	0.05454916344519766
130	0xbf9aae6ab99fc133	-0.026055972652046577
131	0xbfa48e117c4c8c2c	-0.04014639513322779
132	0x3f8eb718c37a6ac3	0.014997666802903159
133	0xbf62c80b891baca0	-0.002292654543330011
134	0xbf9a92b8d876730c	-0.02595032521422795
135	0xbf8c55421272b80c	-0.01383449190901944
136	0xbf9ab3f302c0da72	-0.026077076952982066
137	0x3faeef1cfa10bae2	0.06041803886943399
138	0xbf99021e6bce51a2	-0.024422145204498265
139	0x3f8d19e2d44a3b93	0.014209529975486556
140	0x3f81084b990d0cdd	0.00831660328697697
141	0x3f940763b5090528	0.019559438633455134
142	0x3f7eba7504f45df3	0.007502038103914799
143	0x3f86933f29891e59	0.011023038344446666
144	0x3f963f8a7dbdd5cb	0.02172676460710025
145	0x3f9660d90e2c105e	0.021853820314405296
146	0x3f910f48488ae11f	0.016659860065119433
147	0xbf99001893bde9e8	-0.024414428727576182
148	0x3fa43b5991725ed4	0.039515303616267566
149	0xbf87edadebefe89b	-0.01168380619309444
150	0xbfb1e97d32a12082	-0.06996901022023574
151	0xbf57bf6105f83363	-0.0014494369023651747
152	0xbf9559e4c6cd3918	-0.020850729593171996
153	0x3f9e4a187a777dd4	0.02957952735402876
154	0xbf86b938b75a2d8a	-0.011095469565836753
155	0xbf944fe0d039d5a0	-0.019835961064435303
156	0x3f7a1d08cf1dd088	0.006375345621439384
157	0xbf9039a0e38439ed	-0.01584483517313544
158	0x3f850e04111746dd	0.010280639430593147
159	0xbfb4c1dbbd2bab75	-0.08108304375097737
160	0xbf9b8e095b00f960	-0.026909013919288127
161	0x3fa98a42ffd66eef	0.049882978182010144
162	0xbfaeb099ae99e255	-0.059941103519069706
163	0xbfac2a7abc5c1ca7	-0.055011592381611955
164	0x3fa7ed1f15404e61	0.046730967849865086
165	0x3fa6c2285241753b	0.04445005420778122
166	0xbf734e425e57de1f	-0.004713305713714116
167	0xbfb24e591bb2d561	-0.07150799680933552
168	0xbf545fd0f07dd4eb	-0.0012435474800132583
169	0xbfa406e3be445187	-0.039115063644348295
170	0x3fa76772ed389bff	0.04571112771764518
171	0x3fa1a79ca570d901	0.03448190230885651
172	0x3fa9f29bc32cb935	0.050679080557858226
173	0x3fa1f70916d9dc18	0.03508785633032846
174	0x3fa6394538f65741	0.043405688479806866
175	0x3fa5eb607e8478ae	0.04281140846636454
176	0x3fa1b7117ade00e0	0.03459982514232407
177	0x3f91348642df5240	0.016801927405895478
178	0x3f9538bb0dc3ac47	0.02072422286520872
179	0x3fa29661660a91d7	0.03630356188412847
180	0x3f65b11a67968ff4	0.002647925921978706
181	0x3fb3d53de5fc46f9	0.077472561501306
182	0xbf76cc54a534b01b	-0.0055659586389929195
183	0xbfb1836522b269fb	-0.06841117951481827
184	0x3f9a7722d3a4582f	0.025845092933274024
185	0xbfa649e26a086c8c	-0.04353244346949578
186	0x3fb5fb3cfdb6e2cf	0.08586484140586069
187	0xbf7d240b77454f90	-0.007114453114201683
188	0xbf9c7a96781c0e19	-0.02781138523188362
189	0xbf96b50a8a5266eb	-0.02217499226808332
190	0xbf97595b3fd7fc67	-0.02280180527850142
191	0x3fac1c183bec7b0c	0.05490184527865524
192	0xbfad0a9682fe9aab	-0.056721404543443064
193	0x3f941ce7adcb923e	0.019641513807885362
194	0xbfb6f36d0eb65ed6	-0.08965188607396199
195	0x3faedb9376dfb51f	0.06026898218247311
196	0x3fac7e343e7a7b7b	0.055650360705150136
197	0xbfa41c4bdf6618ca	-0.03927838422809911
198	0xbf9c85093dd22aa2	-0.027851242445232523
199	0x3f9509f70b48afe1	0.020545826019016892
200	0x3fab9909a4abb431	0.0539019597543774
201	0x3fa4c56dff1cdcd4	0.04056876887482877
202	0x3fa3acae81295ac1	0.03842683149985283
203	0x3faa3358bf21c922	0.05117299397615428
204	0x3fa03256cc8bbe5c	0.03163405653856152
205	0x3fab272c598834f7	0.053033243111807175
206	0x3fb0b498db2fed64	0.06525569297075645
207	0x3fa8f43eac767776	0.048738440086920784
208	0x3faa0e2ce0a35a9c	0.05088939897693942
209	0x3fab0b32a2ed0c6e	0.05281980742304247
210	0x3fb0e9e65a483fa3	0.06606902794032847
211	0xbf9f6f3f1131f2a0	-0.030697808670526627
212	0xbfae54e9ac5df620	-0.0592415831479054
213	0xbf77759e27c549a8	-0.005727403444625891
214	0xbfab31d93c23c8a0	-0.05311468943718123
215	0x3fb129d36dabea24	0.0670444624665057
216	0xbf75a5e99911ca6f	-0.00528517960730089
217	0x3f890f5708ba6d18	0.012236289934028963
218	0x3faabb0de74a98b7	0.05220836113339671
219	0x3fb28581dc3af1dc	0.07234965922084008
220	0x3f8c812a897c0c2a	0.013918239899345226
221	0x3f85a1274636fc8e	0.01056128199604547
222	0xbfa58abd104e8034	-0.04207411598258695
223	0xbf8a720c916a2419	-0.01291284388323004
224	0xbf85e45eb0b58f15	-0.01068948723577238
225	0xbfae35769a33201d	-0.05900164253540672
226	0x3fa32cd3e3e6bd71	0.037451383180605265
227	0xbf9ccbf26a8a3666	-0.028121745827368726
228	0x3f9193ecb45fe337	0.017165850171269894
229	0x3f865ae3b2731b6a	0.010915545352316609
230	0x3fb2689ba0730e2d	0.07190869013998542
231	0x3fb2b0b9b82dc07b	0.07300911661673297
232	0x3fae306ba10d1f06	0.05896316853482912
233	0x3fb244ff12b92db7	0.07136530120003824
234	0x3faada39b022e159	0.05244617724514695
235	0x3fb372bcda94b070	0.07596950851865514
236	0x3fb702c5580b441c	0.08988603019248881
237	0x3fb160da5cd46c5a	0.06788410917617807
238	0x3fb4e40a82450a20	0.08160463028347253
239	0x3fada49307adaaeb	0.05789622753839815
240	0x3f96a427e3e4ce60	0.022110579762012583
241	0xbf7a709d2f81d7ea	-0.006455053335335118
242	0x3f858d8bcfae01ac	0.010523884082204692
243	0x3fc33c370ba04b92	0.15027511661227472
244	0xbf893a8d78fa277c	-0.01231871152346619
245	0x3fa0b57b8ff8272c	0.032634602856047884
246	0x3fb2e43c3be2204d	0.07379509412760506
247	0x3f8d807ab1ed0dc0	0.014405211024160702
248	0xbfa57f3daeb918fa	-0.041986396387573025
249	0x3fc34822b2cb39ca	0.15063890199821933
250	0xbf851d4b0e8cc947	-0.0103097785773555
251	0x3fc0341ab15199e0	0.12659009607450766
252	0x3f2bbef8a4817cd0	0.00021168503940580683
253	0xbfb2a5ad0367f4c9	-0.07284051259189818
254	0x3fa4d89a4438cd08	0.04071504671846965
255	0x3fab42d18f091818	0.053244160375968075

linear_mean.bias f8 [10]
0	0x3fba187e6c9ef139	0.10193624641300837
1	0x3fa772a23c53da7a	0.04579646097584074
2	0x3faa8720ca82d6e5	0.05181219551142905
3	0x3fa202933a5ad6ec	0.0351758965238512
4	0x3f972a6b1f73912a	0.022622751040118384
5	0x3faeeb4a94459a1d	0.0603888803478194
6	0x3fb2360c5f896631	0.07113721210898728
7	0x3fb8e9257d388053	0.09730753237863725
8	0x3fb66be416a9a2dd	0.08758378556525366
9	0x3fb6de26906bfe7c	0.0893272497742092

linear_cov.weight f8 [100, 30]
0	0xbf76698a40eb310f	-0.005471744587975515
1	0xbfb8eae161bd62cc	-0.09733399044251739
2	0x3f9061cbf75ff8ee	0.015998064969601815
3	0x3fbeb62c8a6eb346	0.11996725444505527
4	0x3f749311fc2ef652	0.0050230696241989215
5	0x3f9892f300645d1f	0.02399806680577143
6	0xbf8379a76d230e6d	-0.009509380357832964
7	0x3f8adc8b38567d4f	0.013115966469568944
8	0x3f90ce774c5eb710	0.016412605320218765
9	0x3f92a016e23b6927	0.018188817556486072
10	0x3f76f941191bf94b	0.0056088011640425635
11	0x3fa5768198cc67c6	0.04191975584235723
12	0xbfa043ce95b98461	-0.03176732614225198
13	0x3fb1faec6323a88a	0.0702350370444568
14	0x3f9579e1581113a8	0.020972748756566212
15	0xbfa03c253d7a4731	-0.031708873514743614
16	0xbf83fdd1e9273f64	-0.009761466911100754
17	0xbfa403067f4793ec	-0.03908558181482377
18	0x3f7e4e7086ea50bf	0.007399024542469045
19	0xbfa90494b5632c65	-0.04886307443811048
20	0x3f8389803fbda265	0.009539606042111968
21	0x3f6ae58eb9c529a5	0.0032832896814955653
22	0x3f83fc67a6c76fab	0.00975876786917936
23	0x3f6fd9ffb75bdb5e	0.0038881296594541056
24	0xbf45f39be75e5e6f	-0.000669909596342456
25	0x3f822c66c3938c4f	0.00887375149108585
26	0xbf6abd55b41f0085	-0.0032641099832915765
27	0x3f82ffb128334faf	0.009276756324119477
28	0xbf5455735ada650a	-0.0012410761368413814
29	0xbf61e10eb349d39f	-0.0021825110546224847
30	0x3f8d480ddb461db1	0.014297588590820394
31	0x3fa05f92fd45fb47	0.0319791731044377
32	0xbfae7e7b4ad1bcd9	-0.05955872810670266
33	0xbf98434bd950979f	-0.023694214953273392
34	0xbfa7af8e8ea6a980	-0.046261267579512655
35	0xbf58781e74855532	-0.0014934823430697406
36	0x3f7298638fb3b2c9	0.004539860640971846
37	0x3f961b47117be253	0.021588430826314852
38	0xbf7fbb2a6d5eae21	-0.00774685452590121
39	0xbfb27a7efa8c09f4	-0.07218164078589223
40	0xbfa42a4cb2a28828	-0.03938522034265218
41	0xbfa49a86b15cd479	-0.0402414409167386
42	0x3f58ec83855ee537	0.001521233023124969
43	0xbfb5ace0076de2b9	-0.0846691148889346
44	0x3fa2be2fc579a6fd	0.03660725865922918
45	0x3f79aa559ddc4184	0.006265959205635222
46	0x3f78ca6f9140ecf6	0.006052432832855495
47	0xbf9c8df95833d5d0	-0.027885337837650515
48	0xbf6f3ad911bae48b	-0.003812240565676255
49	0x3fa3b7c30ca4fa0a	0.03851136712409094
50	0x3fa29f0db2746adc	0.03636973193552759
51	0x3fa005f6af3281ab	0.03129549873961265
52	0x3fa0e4cd41852420	0.032995619056755965
53	0x3fa049063549e2bf	0.03180713081832697
54	0x3fa25040590d1fda	0.03576851927806475
55	0x3fa13e9578000070	0.03368060197681266
56	0x3fa7f7242c53d094	0.04680741349321341
57	0x3fa5879439d0d00d	0.042050010736062494
58	0x3fa00e4f97199310	0.03135918349724964
59	0x3f9ff046f4023f6d	0.031190022128213913
60	0xbf7676e89316b76c	-0.005484493727108002
61	0x3fa821f7ead141ac	0.04713415852950517
62	0x3fb037fb3ad25fb9	0.06335420785978742
63	0x3facbab4fee93ba7	0.056111961476396126
64	0x3fb274ccbe69a743	0.07209472321269765
65	0xbf8ab6743ec6175d	-0.013043316045478976
66	0x3fbf6665f1b5f4b4	0.12265622283117034
67	0xbfab008a6296b9ae	-0.05273849919773298
68	0xbfa2bbe0a59baae6	-0.03658964177687611
69	0x3f917fe6d784a11b	0.017089468864612472
70	0xbf83201dfb61f156	-0.009338602289283553
71	0x3f9516ef6ee74863	0.02059530367279939
72	0xbfa1a5bfc13e20e2	-0.03446768983764216
73	0x3faf4296fb0127c4	0.06105491460819182
74	0xbf9c133487b58de4	-0.027417012007743838
75	0x3f9da3823b1dbb27	0.02894404874626413
76	0x3fb56f8bb3aa8bc4	0.08373330246335714
77	0xbf58a3934b39944b	-0.0015038431564786843
78	0x3f948e60aba06338	0.020074377513171288
79	0xbfa591cc32d48d8b	-0.0421279727982223
80	0xbf90d6f772eb1c12	-0.01644503249078972
81	0xbf9ec443562a4fe9	-0.030045559057341995
82	0xbf9c60c29319d667	-0.02771286032517253
83	0xbfa40ac1e50f557e	-0.0391445724596151
84	0xbfa6e2393f840953	-0.04469469929064709
85	0xbfa0e65f16813c3e	-0.03300759458272083
86	0xbf98e905f782e80d	-0.02432641337575352
87	0xbfa4a50373c54fda	-0.040321452982112496
88	0xbfa3c54cd6d154ba	-0.03861465570722929
89	0xbf9c489813174565	-0.02762067429086325
90	0x3f7c36e724182712	0.006888296980386748
91	0xbfaeba99cc84a19d	-0.0600174009471772
92	0xbf9709f39e6879c4	-0.022498899978126166
93	0xbfb03c9416b347ab	-0.06342435411650509
94	0xbfa09214c5c5b8bf	-0.03236451067174206
95	0xbfb2553098c31684	-0.07161239366095101
96	0xbfb5c5e085816c50	-0.08505061396992741
97	0xbf9f3529ca1c10ac	-0.030476239167015848
98	0x3fa286c6ec71b082	0.036184517252736206
99	0x3f9e245af50e103d	0.029435559470144524
100	0x3f68fa3bb8a5d684	0.003049008029104185
101	0xbf96350ba8594b5c	-0.02168672766704148
102	0xbf9fe8e2cb5109f1	-0.031161826762636072
103	0xbfab3f2d539d6460	-0.053216377694021544
104	0xbfadd1bc45ab3f37	-0.05824077940417143
105	0x3fc44c24350dc839	0.15857365217704159
106	0xbf922698dc3c986b	-0.01772536129205841
107	0xbfb1726d9b0f65f2	-0.06815228496215989
108	0xbfb4944adc273376	-0.0803877627833581
109	0xbf91ceafc528c999	-0.017390009316110875
110	0x3f9d4032aa989e50	0.028565208113063456
111	0x3fa3165fc40998be	0.03728007572208146
112	0x3fa5b2c988074959	0.04237966332915972
113	0x3fa323091d55cb0d	0.03737667544455379
114	0x3f9d58b5075004e6	0.028658703395198958
115	0x3fa780a582731ea6	0.045903370069536195
116	0x3fa91cb5f22ce112	0.049047170460143744
117	0x3f98a8caf3611935	0.024081393341725394
118	0x3faa36435727ed4e	0.05119524420657716
119	0x3fa06c742a1fd252	0.03207743658268626
120	0x3f9b04ad2b905764	0.026385026725697883
121	0x3fa7eab4faaca511	0.0467125469206825
122	0x3f8e5b31d04d27d8	0.014822377366403502
123	0x3fa09d6f1fd49f27	0.03245112670475541
124	0x3fa1146f15553a07	0.033359023431888395
125	0xbfa6253635e5453c	-0.04325265319733737
126	0x3fb085b9fa4fd739	0.06454050408487157
127	0xbf9c156d3e17228f	-0.02742548648328352
128	0xbfc2b0ecac83035c	-0.14602430747438688
129	0xbf871380251b5d4d	-0.01126766312829255
130	0xbfbad62776750301	-0.10483023302095874
131	0x3f980f749f811d99	0.02349645827805844
132	0x3fb41f7c71e1ffe7	0.07860543995229784
133	0xbf9ea56f03143d88	-0.02992795425694575
134	0xbf906a17061d170c	-0.01602970099272398
135	0xbfb2b46f239a1ca9	-0.0730657064360566
136	0xbfa479f6af469be4	-0.039993008514379175
137	0x3fa5a20e9c117d8e	0.04225202231531987
138	0xbfa4250fa674ad63	-0.03934525401049418
139	0xbfa7f475ae3a2069	-0.04678695442004328
140	0x3fa937d33ef5e442	0.049254037318811075
141	0x3fa13799e3e01564	0.033627327982723526
142	0x3fa0e88af06cc90c	0.033024160240886585
143	0x3fa165eb89f8882e	0.033980713455335695
144	0x3fa221169cc0a395	0.035408693919016056
145	0x3fa54f5037df97f7	0.04162073785828107
146	0x3f9c0ab815ab8464	0.027384640047675282
147	0x3fa50f640e7fba4e	0.04113304783810588
148	0x3fa5c5d01cf4767b	0.04252481797651072
149	0x3fa4f7a5065bee91	0.04095187857271044
150	0x3facd6bbdeb42401	0.056325789390093924
151	0x3faea19e8903932e	0.05982680723699328
152	0x3fa82749e41af4f4	0.047174748511204984
153	0x3f8a9cbe86a26548	0.012994278415407692
154	0x3fa22ca95a79ef27	0.035496990484686734
155	0x3f901112fbfd3515	0.01569013274211269
156	0x3fb4353d37ae33a8	0.0789373646677648
157	0xbfa4f9cc5cf9f3ae	-0.0409683097359229
158	0xbf954e146b44c8c2	-0.020805663153802063
159	0x3fadf3d38e853120	0.058500872752661914
160	0xbfb2ee80ad2b45dd	-0.07395176151046408
161	0xbfaf31bc15d21220	-0.060926320708891035
162	0x3fb1d021750c279c	0.06958207233051755
163	0xbfa67a8174dd3195	-0.043903394237165085
164	0x3fb46e9b2b69fb03	0.07981271562492158
165	0xbf9ab7cded72c7fa	-0.026091783158967964
166	0x3fa2e609b329e7a3	0.03691129982048771
167	0x3fbc7c12aaf79609	0.1112682025337436
168	0x3f75f29c076f3610	0.005358323563041903
169	0x3f94d6ed2413f5aa	0.020351128890060778
170	0xbf8eafd04b5de1a3	-0.01498377542496671
171	0xbf924e63a4c31d79	-0.017877156192097374
172	0xbf912c9f20b2b60a	-0.01677178036759667
173	0xbf9cbdf3eb014d2f	-0.02806836244446947
174	0xbf8b3ea5d67930de	-0.013303084953030394
175	0xbfa27abf54402521	-0.03609273818444537
176	0xbf951791247d8c20	-0.02059771332950444
177	0xbf9de6f2c2dc0a7f	-0.02920131029442041
178	0xbf9583396116d215	-0.021008392859316844
179	0xbf9c1bc9abae9ffb	-0.027449751952786965
180	0xbf76065b937a91b2	-0.005377156943414384
181	0x3f5a0fbb5919b304	0.001590664822653299
182	0x3fb5ad8834e16f69	0.08467913905172754
183	0x3f87397a38276d4e	0.01134009822719997
184	0x3f97d8c562c8015c	0.0232878533879569
185	0x3f89e7cef4410ff1	0.012649170712514009
186	0x3f7012d49837a273	0.00392420811429216
187	0x3fb5e282a5b5ca4f	0.08548752351433929
188	0xbf9cb0831317d4c3	-0.028017089882230516
189	0x3fad9eb97fa87b9e	0.05785159762694224
190	0xbf925fd7136e5a4b	-0.01794372612092791
191	0x3f92559a6ef1ca07	0.01790467550422117
192	0x3f83d426e3dbd6a4	0.009681991413781184
193	0xbfb4fb18705edbda	-0.08195641272946777
194	0x3fbe7f440b680eb6	0.11912942198255902
195	0x3fa0add766d26a67	0.03257630472326838
196	0x3f91a67189bf12c1	0.01723649409520323
197	0x3fa1b067c2c23385	0.03454899074959087
198	0xbf9ec87e3a9c66fc	-0.03006169541104152
199	0xbf92421487e7d6c1	-0.01783020095350341
200	0xbfa7e7f1ada0aa13	-0.04669146770932655
201	0xbfaceb8edebbd427	-0.05648466557423886
202	0xbfa80518c2318620	-0.04691388483548686
203	0xbfa838d3b097b687	-0.04730855494186153
204	0xbfa3008efe452f92	-0.037113636530732866
205	0xbfab0f1d2d08555c	-0.05284968542779708
206	0xbfa92a121bdcebe9	-0.049149099255792646
207	0xbfa832973129e7eb	-0.04726097560065042
208	0xbfa4efe3e6ba6a7f	-0.04089271728044696
209	0xbfaaf2d47cc345ae	-0.05263389609320811
210	0x3f8a30b593b5df2b	0.012788218088402544
211	0x3f8060e00cd6e4bb	0.007997274772480236
212	0x3f9efb33e7918f3c	0.030255137451958833
213	0x3fa4420792e4d6fe	0.0395662657560205
214	0xbf9079d769a88eef	-0.016089788268927426
215	0x3f92e2e8e38d797e	0.018443716896734845
216	0x3fac47b8d29474d6	0.05523469515376582
217	0xbf85799f3ec4909c	-0.010485881903669551
218	0x3fa04049feaeefc2	0.03174048646857798
219	0x3f941245691d90ad	0.019600948849430356
220	0x3fa044c32cfaf6fb	0.031774615517390324
221	0x3f93bd019d7dc18e	0.019275689351560703
222	0xbfa2cf7ff931acfa	-0.03673934857291701
223	0x3fa7c017ec55a6f9	0.046387431716380996
224	0x3f9b1592d53d06c4	0.026449484124220005
225	0x3faa96457ccad3ee	0.051927730067667585
226	0x3fa62e3977695af3	0.043321414782146926
227	0x3f90f61e26e9483d	0.016563864827112907
228	0x3f8be5a184683b7b	0.013621579983945633
229	0xbf925a4aa0cebcc1	-0.017922559800066965
230	0xbfa81c8ebfc2f698	-0.047092877300639546
231	0xbfa5dd02402c92db	-0.042701788266901373
232	0xbfa2b29292325dd5	-0.03651865038517214
233	0xbfa68bbd63cfb711	-0.04403488009834978
234	0xbfa44934e8c1b4b4	-0.039621022617987306
235	0xbfa719250ffa0b07	-0.04511371440914585
236	0xbfa83b4489d288d0	-0.047327176879905175
237	0xbfa8f6999324cbe3	-0.048756407939798206
238	0xbfa89411c4d9cff4	-0.04800467994655824
239	0xbfa7388c40a1bf40	-0.045353300943018926
240	0x3f9f71e559e3203d	0.030707915889053295
241	0x3f92f4017722119c	0.018508932968431688
242	0x3f85893997a72ab0	0.010515642109472395
243	0xbf5232ada9ee3039	-0.0011107154784637653
244	0x3f80555e5dddfc28	0.007975327720258177
245	0x3f7e35c1869e29b4	0.007375484428744295
246	0x3fa8fe897579065b	0.04881696280473299
247	0xbf938816fef16724	-0.0190738289933058
248	0x3f72ed921b499008	0.004621096352455119
249	0x3f9bb9c254ca63b2	0.027075802254873778
250	0x3f896e65652d8c8b	0.012417595052914862
251	0x3f856c4a19e7f526	0.010460451999274211
252	0x3f8ed00f5bfbf776	0.015045280451427816
253	0x3fa3531d2aabbc48	0.03774348398098276
254	0xbf7c85bed6dae77c	-0.006963487115791863
255	0xbf884ab84cc827bf	-0.011861266940304092

linear_cov.bias f8 [100]
0	0x3f9a771278e3b635	0.02584484923220583
1	0x3fa57520f6bd8060	0.041909246558817115
2	0xbf9d466da4301976	-0.02858897509215682
3	0x3faaa2a37cd25c85	0.05202208422377289
4	0x3fa6e6817294a664	0.04472736858072038
5	0xbfa165e003d58f80	-0.03398037001423315
6	0xbfae089dd1b9bbe7	-0.05865948853612917
7	0xbfae5854e0ead51a	-0.05926766629765208
8	0x3f787c39a95b7f2e	0.005977845421256052
9	0xbf671206b663c884	-0.0028162127592788484
10	0xbf957ea0e7e22850	-0.020990862038651692
11	0x3faeffb310acd8ab	0.06054458216242272
12	0xbfa8ada252222434	-0.048199722791715166
13	0xbfa65a3a3c070eaa	-0.043657131030639576
14	0x3f8d6029aaeb796c	0.01434357216697598
15	0xbf95939465c02dbc	-0.021070784292573683
16	0x3fb4c5ac73ce9711	0.08114126040763049
17	0x3fb95090239496b1	0.09888554447806076
18	0x3f6826d76e565597	0.0029482085835279104
19	0xbfa895869d97e5ed	-0.04801579164263701
20	0xbf9936d76f4f1898	-0.024623266381035153
21	0x3fad0283c02b900f	0.056659810264847114
22	0x3fa8f52828bf9dcf	0.0487453984968017
23	0xbfa76567edacdf03	-0.04569554115590615
24	0xbfa2fd49b96a0654	-0.03708868397098955
25	0xbfa11562d2493ad9	-0.03336628739326892
26	0x3fa53ebdbe8ac6a4	0.04149430228188791
27	0xbf838cea231c410b	-0.009546117016299612
28	0x3f817e6df6599edd	0.00854192646075041
29	0xbf9a55598c205ab5	-0.025716208627353427
30	0x3f74cc312fc2a74a	0.005077545294776284
31	0x3f8b26bdec3374b5	0.013257488032133538
32	0x3f92a06dc7864880	0.018190112402927117
33	0xbf83066fe097baf6	-0.009289621392750896
34	0x3f9c4e4f664a60a5	0.027642479532545967
35	0x3f8631b70c0e3bd0	0.010837011390121193
36	0xbf97d758e9255db6	-0.023282422285175484
37	0x3f8c16bfdd06c108	0.013715266163530263
38	0x3f7548c30ceda04e	0.005196344295519918
39	0x3f7d7c508d212bd0	0.00719863381716386
40	0x3f9bdf6cb50c5ed2	0.027219484854042637
41	0xbf9a9b821d64d521	-0.025983841938075906
42	0xbf6783d2d953511f	-0.0028704755919567583
43	0xbf8509563cc8176b	-0.010271714906604243
44	0x3fa9aa05697011ae	0.05012528335649634
45	0x3f8298cbfe5d9c20	0.009080499363063821
46	0x3f889713e48e326f	0.012006907856425301
47	0x3f92fdaab3648da8	0.018545787047640566
48	0xbf935a2d83620fac	-0.018898688453660092
49	0xbf6b14901e21a63f	-0.0033057036208006536
50	0x3fbc70aa40ea3190	0.11109413227877085
51	0x3fa3a4cf8745a493	0.03836678053159761
52	0x3f964cd5ca1e9aca	0.021777477704427985
53	0xbf97cc7dd7092ff6	-0.02324101090407279
54	0x3fbd9fae99058359	0.11571780429723101
55	0x3fc1d865b057952e	0.13941641912894326
56	0xbf886a21f8ad355e	-0.0119211820616793
57	0xbfb0b1a2d511d960	-0.06521051122567689
58	0x3fb32ab875a20232	0.07487061378379492
59	0xbf902af1eb6f20d6	-0.015788822169071924
60	0xbf82e32db74383d8	-0.009222371249451841
61	0x3f8351ec78c6e89c	0.009433600841351635
62	0xbfaa7f5f3e3be750	-0.05175302157108652
63	0xbfabd65490527c01	-0.05436958562608397
64	0xbf5cc413d71f885e	-0.0017557328942463739
65	0x3fa35bca6edf45b5	0.03780968287868395
66	0x3fa264ff58893afe	0.03592679935228736
67	0xbfb5386869866824	-0.0828919656400165
68	0x3f7fdd9249712cda	0.007779666360032434
69	0xbfb0c0194bf63510	-0.06543119530234187
70	0xbf9d2a24305139e4	-0.028481069039395637
71	0xbfa427a7ca27c90d	-0.03936504690854479
72	0x3f8c7b4a05f03a94	0.013907030397630117
73	0x3fafdd3c24a41961	0.062234763596324745
74	0xbf989bf085a24443	-0.024032362133372464
75	0x3fa158f50251204f	0.033881813557457556
76	0x3f986e54b165a33b	0.023858378722624734
77	0x3faa81ae92015b8f	0.051770644495881084
78	0xbf86eeda4375d056	-0.011197762664530025
79	0xbf84197e080f3580	-0.00981424772353523
80	0x3f93635418bb152f	0.018933595666358712
81	0x3f83c5fffe9cf312	0.009654998738932306
82	0xbf886f91c660ed28	-0.011931551806006427
83	0x3f6cf5db7acbc21a	0.0035352026665054328
84	0xbf94d2b5e6f8a302	-0.020335046980252798
85	0xbfa95a01380d6707	-0.04951480683548764
86	0xbfa2c75574ff1084	-0.03667704632928895
87	0x3f90143487a1a05f	0.015702076700478403
88	0x3f95d2c59a0af6a4	0.021311843421009016
89	0x3f9e6963e4744dfa	0.029698906725640108
90	0x3f916a06e63468d0	0.017006023216801947
91	0xbfa91704e3f7b2a0	-0.04900374682242625
92	0x3fa2f947ffe24144	0.03705811499196668
93	0xbfa5e038eb7d9655	-0.0427263057197648
94	0x3f75b12e2bd7b95e	0.005295925480352485
95	0x3f9e708cd444019b	0.029726219611804088
96	0x3f84d4dc1295ff02	0.010171622578809107
97	0xbf9b5833894eb5ba	-0.026703648810941984
98	0xbfa5f683e0655cee	-0.042896386282046936
99	0x3fd22fc97a183c69	0.2841666881876735
