inv_results/Expected/SGD/2/5/2_trained_linear.pth (torch, 47415 bytes, 4 tensors)

linear_mean.weight f8 [10, 50]
-0.06800676715268292 0.015922110255234014 0.03572466389953924 0.028813418611018313 -0.019067400191638165 -0.0035157939714957924 -0.012564128551391317 0.06093881264394573
0.025365433844399106 0.05123302124216342 0.0038230252495947557 0.04268533558589102 0.04108974521703675 -0.028147097731379543 -0.06470844448597425 0.06530636336683499
-0.03264614686547229 0.03576606591838399 0.026664732783635302 -0.013201572055810603 -0.03862045871589235 -0.04797903451446862 -0.03886901966467301 0.005495322477280249
-0.006358920149929487 0.06585999889391185 -0.06181582327653989 0.03241065529280327 -0.05700257231530787 0.033733441409579255 -0.029354427712811024 0.035215755165827624
-0.023723393483321586 0.02128809592551808 -0.03904929522471951 0.010373508997725002 0.09071623701534778 -0.10367039574861 -0.023327422567277822 0.07576856879249005
0.3479476878795128 0.4331653125130532 0.411040402298814 0.44809010229036667 0.32436151406522395 0.46117118411781344 0.4541784517109639 0.27658852482291363
0.41608668801441884 0.38796365294458335 -0.04391018748209186 0.010468841961844966 0.11802563954441994 -0.02207846013456351 -0.010334167430186374 0.037010891625684945
-0.0004719570676290628 0.06893717348615735 0.012172123836711202 0.1022698011885551 0.039719814577396505 0.03459824013487848 0.06180155584662913 -0.0244915750770143
-0.1694402661464828 0.0652367998288439 -0.04576638879259412 0.06756469037175683 0.07080953862248482 0.036509381287578926 0.016162747317417788 -0.07517908797704159
-0.08759451221007751 -0.021036129339397597 0.029875877321023047 0.03800032082063063 -0.07548733472700377 0.014612564454225973 0.03920455388248513 0.0817294121762953
-0.04310185516832584 0.056004305520987945 -0.05544648017494537 -0.019861727032237965 -0.058532523460096124 0.007319122768373052 0.07128803283563356 -0.08126175922501291
0.05468844517325225 0.06682438204735507 0.43361834625073237 0.5345267069903948 0.495314386467265 0.5508107763572279 0.39731049190498735 0.5687918189963329
0.5657539816560406 0.34628329833079335 0.5164572292340054 0.48588744005498397 -0.014748991319940143 0.009633292946439987 0.0825004492318595 0.04464762768358404
0.033218566660147816 -0.03975753447028086 0.0351502440625067 0.044472666258671356 0.008013812615242989 0.03564122591956351 0.026175893318579224 0.058400172003073
0.0484919664207618 -0.011113589047374327 -0.05699205801537879 0.05525440390823772 0.001825932479379761 0.016115670723234495 0.04596699642140514 -0.011887200739569441
-0.08325644303503005 -0.0398036833873221 -0.03707987479405359 0.005101400930308944 0.013808772529641057 0.028083277005936866 -0.034289588702076115 0.019395598257020714
0.00739718189145304 0.062113105786928816 -0.021184219127394405 0.010155834792705766 -0.03423800563047423 -0.014400719749592958 -0.05828570792850721 0.014129078206891393
0.11765016776730088 -0.06621065702562819 -0.02408966135478472 0.07507381445226159 0.37687020316950987 0.47103494032112236 0.445232545112827 0.48637159449024636
0.35320348674102797 0.5050986843243787 0.493541790132444 0.306666095280612 0.45295409349257143 0.4249494785266902 -0.04182827832254259 0.036489843971139815
0.07882150483112481 0.030307645862993005 -0.038837670315000176 -0.016230593636136173 -0.022907479643144064 0.10571997953768711 0.06483467059728912 0.1118494065954373
0.044563593277488496 0.016266310593359014 0.10262910319346323 -0.06402781649057551 -0.161020260764576 0.07722820842202613 -0.07049501974344502 0.04742528037726897
0.034552563017318766 0.02053926001739568 -0.041367935456115994 -0.027390912068579083 -0.009162625814229991 -0.03658280198687032 0.04192556426369748 0.01780066076847471
-0.05867558967298237 0.03214465670987244 -0.03268463261627929 0.05396502212499715 -0.10385515721599957 0.02169429961559206 -0.030953078697578858 -0.031586296639538256
-0.06183880354095241 0.009852195966465383 0.053355294945839536 -0.09949575612429025 -0.017473940271013493 0.06578803993781515 0.40209023480589573 0.49996936857088287
0.4736408969639582 0.5153841529899766 0.3683762921612516 0.5359956553335063 0.5217351558740747 0.31493880475808733 0.484692571613518 0.4499775000036621
-0.03024488690046836 0.03623623351736977 0.07802745189072732 -0.014419857206247031 -0.028552166662365257 -0.0008618810736679155 0.007033533759403227 0.075095785110618
0.05899936081084735 0.06789270579142523 0.03612264337537866 0.00802676345284616 0.06605841311185746 -0.022455748304361853 -0.10336576167958325 0.06005487641123444
-0.05168300832146608 0.0205713712398628 0.022736473471361856 0.0180115835014359 -0.02277413861759849 -0.028341659867204372 -0.017374430755325534 0.009479166165012287
0.01457850841626654 0.04086553969049411 -0.028211510441644355 0.020483213845095355 -0.02000623996962679 0.03614926091180968 -0.06389085576170328 0.012799016673427133
-0.03016775881449086 0.008257565390907443 -0.050073871535526726 0.00903885397261204 0.06829214252663966 -0.07161657260248659 -0.01882362678661014 0.06595416172136451
0.28596987558249803 0.356821500056787 0.33677650263939984 0.36580483999618835 0.26061539663368866 0.38446546669788406 0.3731797122688693 0.22536917904296536
0.34572469513859777 0.32059115640633845 0.00777791000872739 0.01795613204971342 0.11010705283697507 -0.0014787592959533986 -0.014702950639024073 0.03218737450684187
00000000: 6ed4 d338 e468 b1bf f771 51bb e24d 903f
00000010: a4dd 37ce 804a a23f 0c2b 7bca 4381 9d3f
00000020: 71a8 f890 6786 93bf c6c7 1084 27cd 6cbf
00000030: 7904 d9c9 38bb 89bf 4fc3 b93e 5f33 af3f
00000040: b2ff 3d73 65f9 993f fcb4 6bed 363b aa3f
00000050: e1bd 660d 7751 6f3f 6c6a b830 dada a53f
00000060: 6af8 d00f b709 a53f 7632 efc0 97d2 9cbf
00000070: 61a0 d78c bb90 b0bf 8499 e1f6 eab7 b03f
00000080: f056 41ea feb6 a0bf d721 da06 ee4f a23f
00000090: 7396 0ced ff4d 9b3f b14a e201 6d09 8bbf
000000a0: 4d55 488e 0fc6 a3bf a13f 4440 b590 a8bf
000000b0: bb1f 93e0 a3e6 a3bf 0a60 2265 4382 763f
000000c0: 2d25 4fa1 cf0b 7abf ab2b 5d6d 33dc b03f
000000d0: 2f34 b2d6 52a6 afbf cd8d 0c21 2198 a03f
000000e0: 89a5 c3ef 702f adbf 3377 4577 8245 a13f
000000f0: 79c8 134c 160f 9ebf fd7a 7ba9 cc07 a23f
00000100: b0de a4fc f14a 98bf a645 2def 8bcc 953f
00000110: e912 d8eb 44fe a3bf 67b3 1ecf b43e 853f
00000120: 5e75 32e7 2d39 b73f 7ebc 4d9f 248a babf
00000130: a010 1bd4 24e3 97bf e049 07a5 9165 b33f
00000140: 1e53 0a61 c644 d63f eb54 c000 fbb8 db3f
00000150: 5651 4d67 7c4e da3f 1be6 bf1b 82ad dc3f
00000160: 826f bfcb 56c2 d43f cc30 6924 d483 dd3f
00000170: 5760 297f 4211 dd3f 140d 245b a0b3 d13f
00000180: 22aa 540f 2aa1 da3f 68c1 5b80 65d4 d83f
00000190: b1c4 6466 657b a6bf cd2e d32e b070 853f
000001a0: e2c9 eea5 ed36 be3f a55d e560 bc9b 96bf
000001b0: d6fd 2679 142a 85bf 9198 4172 17f3 a23f
000001c0: e851 ab2b 20ee 3ebf 980a 9ad9 dda5 b13f
000001d0: 0d8c 69ce b2ed 883f f727 798b 5a2e ba3f
000001e0: 83e8 39d1 2756 a43f 35c5 c14b dcb6 a13f
000001f0: 7b08 681a 74a4 af3f 88e7 eec7 5114 99bf
00000200: 4dc2 dcf8 37b0 c5bf 90b5 c2e1 5bb3 b03f
00000210: 848c 3d2e b16e a7bf f0d4 8267 eb4b b13f
00000220: 36e0 a0ec 9220 b23f 7a33 418d 5bb1 a23f
00000230: 8f39 919c f78c 903f 245a 34cc ef3e b3bf
00000240: d758 400d 986c b6bf 2545 30be 7e8a 95bf
00000250: 83e5 2130 c897 9e3f ed00 532e c774 a33f
00000260: e128 ea51 2353 b3bf b961 8833 31ed 8d3f
00000270: 5220 8f89 9e12 a43f 5322 6b00 38ec b43f
00000280: 2b95 b044 7211 a6bf 17b1 4ba9 98ac ac3f
00000290: 3235 0f26 7b63 acbf 5aa2 2ef0 a156 94bf
000002a0: f7e4 0694 f9f7 adbf ca23 cf0e a8fa 7d3f
000002b0: 700e a0b9 ee3f b23f 726f 4916 92cd b4bf
000002c0: 54f6 f9b6 1f00 ac3f 3f03 7817 671b b13f
000002d0: 84eb 052a 67c0 db3f 2198 abc0 d71a e13f
000002e0: 925f c71c 3bb3 df3f 22a3 d7eb 3da0 e13f
000002f0: e6bb 45fc 886d d93f 8f4a 9ae6 8a33 e23f
00000300: 5e6c 1918 a81a e23f 4dd5 5e6c 8129 d63f
00000310: 73f8 aa4f d186 e03f 38b1 24a2 c718 df3f
00000320: 8eee f11a b834 8ebf fa10 43b1 9eba 833f
00000330: 4f2c 5bdb bf1e b53f b76d 7dc9 0ddc a63f
00000340: f6c4 d922 0602 a13f d18e a37c 195b a4bf
00000350: e5c7 6379 36ff a13f 9838 4b0e 1fc5 a63f
00000360: a738 cab8 8b69 803f bc80 6d17 913f a23f
00000370: d0ce fc76 dacd 9a3f 8efe aa99 a0e6 ad3f
00000380: aeb3 ca63 f0d3 a83f ec4b ffab b8c2 86bf
00000390: 3396 9d22 102e adbf c9e0 7d23 4e4a ac3f
000003a0: 8329 2712 84ea 5d3f 1f6c d65a a080 903f
000003b0: a48b a674 fc88 a73f 9ce9 5613 5158 88bf
000003c0: 2449 0454 4b50 b5bf a059 d1fc 2561 a4bf
000003d0: 8d14 2923 22fc a2bf dd26 8de2 34e5 743f
000003e0: b43b 4d13 c647 8c3f ec53 38d1 dcc1 9c3f
000003f0: b22d 23ac 678e a1bf 9510 cd90 70dc 933f
00000400: b1d3 e6e4 814c 7e3f 9a04 04fc 49cd af3f
00000410: 18b3 5fe1 50b1 95bf 01d1 6212 95cc 843f
00000420: 1622 edd4 a487 a1bf e52a e8e2 1f7e 8dbf
00000430: 5419 c1d2 9fd7 adbf 56de 91c6 b4ef 8c3f
00000440: c9f1 ed46 521e be3f ed5d 927e 2ef3 b0bf
00000450: 7a16 c3ce f5aa 98bf 71c2 db99 0938 b33f
00000460: 7fcb 5c33 a41e d83f 4af6 fcbb 6f25 de3f
00000470: c5f6 17a5 b07e dc3f ae7e 0253 b620 df3f
00000480: 56b2 18cc e29a d63f 6fa0 4db7 c429 e03f
00000490: 4900 f54d 3096 df3f 856c 81d4 6aa0 d33f
000004a0: 76f4 882a 33fd dc3f 625c 2e4c 5f32 db3f
000004b0: 07f9 e21e 846a a5bf 1a00 fcfc cbae a23f
000004c0: b79f 7869 a52d b43f 1083 33af f708 9f3f
000004d0: 9f25 b6f7 87e2 a3bf 348e 72b3 c09e 90bf
000004e0: 35b7 9aef 0e75 97bf 82ed a5ee 7610 bb3f
000004f0: 02bf dc45 0199 b03f 6887 67a7 29a2 bc3f
00000500: 7128 700f 0ad1 a63f 1aa8 19a0 1da8 903f
00000510: 936f d5a1 e645 ba3f e67e dc81 2064 b0bf
00000520: 6516 fdd8 4f9c c4bf 7e53 8055 3ac5 b33f
00000530: 6c37 542c f60b b2bf 3bb0 7258 2048 a83f
00000540: 8c02 4ea0 dfb0 a13f 3a2a 3c68 3e08 953f
00000550: 572c c693 2d2e a5bf b22b 2bfe 5c0c 9cbf
00000560: bda6 bdd1 dac3 82bf ba61 4224 fbba a2bf
00000570: b802 c27e 4477 a53f d422 641f 563a 923f
00000580: 711d 7015 ba0a aebf c1be 9eb2 4375 a03f
00000590: 1f5f 5648 0abc a0bf 383f 4faa 4da1 ab3f
000005a0: ff7e c367 4096 babf 1333 6fcd 0737 963f
000005b0: 72d0 ddf2 29b2 9fbf ce1b 233e 142c a0bf
000005c0: d310 aaed 55a9 afbf 4d0d c25b 632d 843f
000005d0: bbbc b89d 6251 ab3f b505 a5ca 8d78 b9bf
000005e0: ab2b fc47 b0e4 91bf 3a38 0028 7cd7 b03f
000005f0: ed10 22ae d8bb d93f a9e0 c085 7fff df3f
00000600: 1788 a0e8 2150 de3f dbfe 3ee8 067e e03f
00000610: 8713 dd27 7a93 d73f 7093 4e5c e026 e13f
00000620: 35e2 f4ec 0db2 e03f 1e59 ab16 f527 d43f
00000630: bc6d ecfd 3305 df3f 80e6 9c6d 6ecc dc3f
00000640: 0757 6f00 84f8 9ebf 194f c63b 8e8d a23f
00000650: 4e96 0f6a 9bf9 b33f f21a e978 2888 8dbf
00000660: 1ee0 2d78 c73c 9dbf 0f04 2183 fb3d 4cbf
00000670: 2d1a 8dd7 31cf 7c3f a117 1e35 7a39 b33f
00000680: b2c1 550a 2a35 ae3f d6d8 0297 6a61 b13f
00000690: 1578 e2c7 aa7e a23f 8a7e 2ef4 5570 803f
000006a0: f9ea f043 34e9 b03f 6c3a 4cc2 a3fe 96bf
000006b0: ea9f f0b5 2d76 babf 149b 4d44 83bf ae3f
000006c0: 9cca fffc 3176 aabf 901a d65a a910 953f
000006d0: 1b88 f1e7 3a48 973f d3f2 59e8 a071 923f
000006e0: 2587 3a92 1a52 97bf bdda f998 9805 9dbf
000006f0: a4e0 854f 9aca 91bf 2d6a 6025 d069 833f
00000700: d185 fa46 56db 8d3f 7014 02f9 53ec a43f
00000710: 18d9 de6a 7ae3 9cbf 689e 5336 8df9 943f
00000720: fcb9 8a09 847c 94bf 1d16 c8ea 2782 a23f
00000730: 508d 02b0 265b b0bf 9a41 44f0 5e36 8a3f
00000740: 02e6 0106 4ce4 9ebf 2263 63aa 57e9 803f
00000750: 8825 4251 48a3 a9bf f53f a571 f682 823f
00000760: b3c6 b906 987b b13f ebe5 2db5 7655 b2bf
00000770: ae2c c335 8046 93bf eadb a037 5fe2 b03f
00000780: 3527 d197 544d d23f 5d3a 50d8 29d6 d63f
00000790: 5070 3908 bf8d d53f 1723 20b4 5869 d73f
000007a0: 790c 5833 ecad d03f 9a29 7a0b 159b d83f
000007b0: 536e ee28 2de2 d73f 2b09 c2b2 e5d8 cc3f
000007c0: dd8c c278 5a20 d63f 19bb 09c5 9084 d43f
000007d0: ed41 e6d1 badb 7f3f 322a aa9f 1763 923f
000007e0: 8766 fece f92f bc3f 8849 25b4 5d3a 58bf
000007f0: cec9 31a1 941c 8ebf f5b4 b311 dd7a a03f

linear_mean.bias f8 [10]
0.11947643320040008 0.1475966718290569 0.12997659811692544 0.13808128066295627 0.0987520435561109 0.11427737525721647 0.12542280035607314 0.15567013150049616
0.1110840232815583 0.11225900373595118
00000000: dc0a 3ded 0196 be3f 108b 409f 72e4 c23f
00000010: f129 14bb 12a3 c03f 968f 51bc a5ac c13f
00000020: 0196 7c5d d047 b93f e707 6735 4841 bd3f
00000030: 79dd d9b4 da0d c03f 751b e1b5 ffec c33f
00000040: 9736 1aa7 0070 bc3f 4e3a ba8d 01bd bc3f

linear_cov.weight f8 [100, 50]
0.00846707875798489 0.0013833399262709628 0.008627186082556276 0.006298648435082078 0.01250492420422854 -0.005975103230455966 0.0126326069920862 0.003265577123387974
-0.004197988232221258 0.0003222643619318865 0.0018740085447656273 0.008083391698017308 0.0035030596215313674 0.003682204118045081 0.0037830650517765158 0.004376773898238865
0.007069257567627943 -0.002232953300728579 -0.0013060658183902158 -0.0018976560370548513 -0.012948982948003776 0.0004265085678262151 0.0011009915694747945 0.0002146584361763793
0.007473345517444757 -0.0029304495837101023 0.002639233568889584 -0.0018127652403138184 0.013314347675114269 0.010651089837257068 0.005795754151481156 -0.0031005741512244024
-0.002388865756010865 -0.0064275894352999 -0.004709792564866745 0.0007474635657523758 0.010161309591936533 0.00704469210067983 -0.007072467633365921 0.004177785785922409
0.025957264343072384 0.03247002812992102 0.03142006653496501 0.03346404222308674 0.024874231132358617 0.03587380563490855 0.034301405655169016 0.02165574241418718
0.031470968366052884 0.030009841561374446 0.004596533905484085 0.002975844381283626 0.00918818353570324 0.0020088752253096765 0.0059730978707518475 -0.0060967232462075804
0.009882767230744261 -0.005841174606043263 0.0012851378138339902 -0.005957856954740766 0.0034235254058810195 0.008472321420737826 -0.0029470465714599636 0.005987003561034973
0.006495643635012506 0.0011229951111550484 0.005272310105446063 -0.0067278897196166 0.0013064719988190865 -0.0058818171202874 -0.010780355060582088 -0.005280492490157922
0.0008693955970483113 0.0037696263683841924 0.0020356142577043776 0.00031906144202548716 0.004383198754402442 0.003258995013332607 0.00012328452277736643 0.006921432172130264
0.0016400413756741826 -0.003033260170477882 -0.0011620098460735021 -5.226849524837623e-05 -0.001839038405372562 0.001182260540174267 0.015700484480207545 0.0031004558699812444
-0.0033571947072699054 0.00716106614557786 0.014498026514245529 0.018281043698705722 0.017707387430279893 0.018696368879439144 0.014322478239135784 0.01998988598089627
0.018838764054799773 0.01256740638884665 0.017075506127967637 0.016411378457966173 -0.005327287775163608 -0.0009673425435256809 -0.0032652336641985713 -0.0019066337843323346
-0.007694346470378018 -0.0024295050374861567 -0.00419271969336901 0.0022889884189502465 0.0007849921657129823 -0.003581568648452088 0.0015385451590367368 -0.006500324727517037
0.0015248889484851043 -0.004607559802770376 -0.0021386052769802595 0.0011486405052631501 -0.00584879675837139 -0.003829646914774748 -0.0038536708629667697 0.0035944099032496827
4.181047147308406e-05 -0.0008349880521285026 -0.0034362352514252913 -0.002990298434467696 -0.007673373784792276 -0.0008703977950272574 -0.0015865641941846063 0.0001226514154099201
-0.006593216055827293 -0.0041044360247438 -0.0034828528972977602 -0.006417215511866616 0.0061481312780767745 0.0010329680520638302 -0.00036904185425573247 -0.002118378263458458
-0.0030001371919819836 -0.00349271816649705 -0.0010572844997301697 0.00480816456553187 0.002399321692563309 0.0030765998313203773 0.0032922058458439217 0.002924100030355123
0.0019229770654270134 0.0037131590495018403 0.0027939910834541785 0.0017916920638090395 0.0029981779171357674 0.0025723515553492805 0.006623152122086781 -0.008729769968883465
0.01654780635424154 -0.01416652254394529 0.008303275317474372 0.0016744740568998822 0.01481716413831756 -0.0029243591311370228 -0.00978219007821423 0.000925537209298512
0.005441911425020799 0.007891561983172675 -0.012630678303170823 0.011501571146154323 -0.008614210156108103 -0.005769727647316862 0.0031845734204024568 0.004597958021570467
0.010105597199057889 0.0015697378658094242 0.013251558471527496 -0.012432048176121863 -0.004324791999764522 0.007119248451766668 0.0039051904755619316 0.004941731489009146
0.007836279327195748 0.005428812538876606 0.015199962331990793 0.009999760049810694 0.006061678183492576 -0.0002818160342212886 -0.001397257329717253 0.0013900301136962694
-0.002270551622747603 0.0009100051535596081 0.0024914169820166856 0.004640756081010275 0.005119573660420592 -0.0021346048860832792 0.0008009285196082473 -0.0007931996648617573
-0.0021228294280756224 0.000520690339675202 0.0010474947855914974 -0.001519424948047006 0.0003337923593458663 0.001005672681785603 -0.0007966566748728134 0.0007641539268122803
0.0034959079248048754 -0.003611388056423065 0.008554432312369069 -0.0011217927064744078 0.0016753963986459474 -0.008076783519365088 0.009104077639177005 -0.0004939578389263336
-0.004768140786900978 -0.002649031802134864 0.006291082816133626 0.006433189758220371 -0.0059593999293734885 0.0023157226085890577 -0.0042144482097474165 -0.0006801037225998363
-0.0006582420408109884 -0.003509381620415906 -0.00047945285183223317 -0.0015903008568607328 -0.0021989109175706532 -0.009389391813724588 0.001831134977049238 -0.0034595514440966257
0.0035012616450645993 -0.003102348968192238 0.005108456805319012 0.007605214859818642 0.0015026844149492364 0.00946280811620876 -0.0011891295563403541 -0.008768828357981623
0.006937419258047388 -0.005038400127686423 -0.0012878803623736226 -0.001197661823576338 0.0030993264554470606 0.00414018520013229 -0.0037964412564868827 0.004755393752725659
0.013080432390515274 0.01503182256095808 0.015111375826174047 0.016445887851742183 0.012950088254918161 0.016402216088350317 0.015567443311720736 0.01030765657982053
0.014316439417837829 0.014374678820264955 0.004180214965926856 -0.0014590879696701855 0.008437994961474635 0.0007203045532840539 -0.005866232322177291 -0.003682556109421918
00000000: b298 dd12 3057 813f 8d82 86ef 25aa 563f
00000010: 3010 a650 21ab 813f 6755 9a90 9ccc 793f
00000020: f90d f883 2e9c 893f bcc5 708f 5979 78bf
00000030: ab62 27cf 1fdf 893f 640f 525e 69c0 6a3f
00000040: 6281 a9e2 e831 71bf c173 29e5 b21e 353f
00000050: 6b5e 615a 29b4 5e3f 41b4 de77 068e 803f
00000060: 9852 55d0 72b2 6c3f de53 7448 242a 6e3f
00000070: 20f6 a195 a9fd 6e3f 7729 144c 61ed 713f
00000080: 439b f560 a7f4 7c3f e5d1 cdac d74a 62bf
00000090: 127e 7d7e 0966 55bf 67b6 90a7 5817 5fbf
000000a0: 5ba0 3912 ff84 8abf 76c7 ab59 a0f3 3b3f
000000b0: f822 2eb2 e409 523f 02fc 26ed bd22 2c3f
000000c0: 2d17 6de9 5e9c 7e3f afd1 fc23 9901 68bf
000000d0: ab25 adbb df9e 653f 00ce 09db 49b3 5dbf
000000e0: ed52 a87e 8d44 8b3f 4e68 2414 3dd0 853f
000000f0: 8a8d 94e8 49bd 773f 9fb1 8112 6066 69bf
00000100: 57c1 7d89 d091 63bf 2beb aae6 d053 7abf
00000110: 35be 9750 934a 73bf 601b f1c8 2d7e 483f
00000120: cf20 0ee3 73cf 843f 8fc9 ec22 e5da 7c3f
00000130: a848 ff12 05f8 7cbf eaa9 1fd5 b91c 713f
00000140: 90da c985 8a94 9a3f bb1f d659 e99f a03f
00000150: 1461 697c 4a16 a03f 8057 e1ed 3222 a13f
00000160: 7710 e864 a178 993f f850 f82b 0d5e a23f
00000170: edd6 fd2e f48f a13f 3515 c245 ec2c 963f
00000180: 0eb1 cf77 f61c a03f 65c9 4160 e6ba 9e3f
00000190: fabd c8ac d0d3 723f 0b8b 7549 cc60 683f
000001a0: 6b2a 5d1e 41d1 823f f654 9fac ea74 603f
000001b0: 86c5 2b40 3f77 783f 8099 48af e0f8 78bf
000001c0: 9a74 6690 6a3d 843f 716e 735e eaec 77bf
000001d0: f8b9 6638 420e 553f 3bd1 650c 4467 78bf
000001e0: 5f16 f834 a70b 6c3f f9da 62bb ef59 813f
000001f0: 2e5d 9d94 6724 68bf f04e ee07 d485 783f
00000200: db5d a90f 2d9b 7a3f 0fa3 a9d1 2e66 523f
00000210: 97dc a2f7 6a98 753f 1ccf 1125 b48e 7bbf
00000220: 802e 84a0 bd67 553f bd53 c342 8817 78bf
00000230: 914f 65c3 0214 86bf ecff d468 ffa0 75bf
00000240: 99c2 0bd4 047d 4c3f 171a 0dbf 7ae1 6e3f
00000250: 0267 4015 feac 603f 6f64 7b75 f6e8 343f
00000260: a919 d5f4 1df4 713f 11be 00a0 9bb2 6a3f
00000270: 4d16 a3fc bd28 203f 05ec 21cd a559 7c3f
00000280: c799 a504 d5de 5a3f ea53 7027 35d9 68bf
00000290: e345 5692 d209 53bf e1e6 55d2 5b67 0bbf
000002a0: 9b8f a873 7c21 5ebf aede be96 c25e 533f
000002b0: bdd1 7ead c913 903f 666c 0e92 2066 693f
000002c0: e53d 2b2f 8c80 6bbf ed5f 650e ec54 7d3f
000002d0: debd e12d 24b1 8d3f b66e 4a13 44b8 923f
000002e0: 6282 a4a7 e221 923f de87 9013 2425 933f
000002f0: fafc 137d 1a55 8d3f c9a5 278a 3a78 943f
00000300: 3db9 0c0e 784a 933f af2f 7cbb f0bc 893f
00000310: 6b71 87d1 3d7c 913f 2977 09f7 24ce 903f
00000320: 39d2 54ec 10d2 75bf 130f 534b a8b2 4fbf
00000330: 9224 a6f9 b0bf 6abf 672c f26f 003d 5fbf
00000340: ef15 4567 1b84 7fbf cc9a ce95 0ae7 63bf
00000350: 9dd5 6d9f 622c 71bf 6c5f cf4c 5bc0 623f
00000360: f70d f5d6 fdb8 493f 59d5 d406 1857 6dbf
00000370: 1d0a 0e49 2035 593f f398 e3a1 15a0 7abf
00000380: 9d4b 7b0a d9fb 583f f11b ad6a 60df 72bf
00000390: bf69 28f7 fa84 61bf 20f7 ea59 bfd1 523f
000003a0: 283f c56c e8f4 77bf 4048 2208 5a5f 6fbf
000003b0: 5d83 6eca bb91 6fbf 2fb8 731f 0672 6d3f
000003c0: dd2e 61dc b4eb 053f ed45 2f30 635c 4bbf
000003d0: 9ce8 d6c0 4e26 6cbf 96f6 663f 1c7f 68bf
000003e0: 0769 4a97 1d6e 7fbf dd26 3608 6d85 4cbf
000003f0: a804 ee54 88fe 59bf 9012 d0a2 7f13 203f
00000400: f824 5df5 7c01 7bbf 38b2 ea27 d0cf 70bf
00000410: e430 4d69 1288 6cbf a9de 132c f048 7abf
00000420: 746b 556c c82e 793f 2c61 1700 95ec 503f
00000430: bde3 e3b1 7e2f 38bf 8a6a 96ab 8f5a 61bf
00000440: db3c f063 be93 68bf 8e74 93c9 c29c 6cbf
00000450: 9385 5496 9252 51bf 5a01 01d9 b9b1 733f
00000460: 22f4 7706 bea7 633f 2a9d 11f5 1834 693f
00000470: 4f33 118e 41f8 6a3f c7fa 0440 48f4 673f
00000480: 6e8c d8e6 8c81 5f3f bfaf d615 0f6b 6e3f
00000490: 7421 858a 6ce3 663f 4354 63b4 e65a 5d3f
000004a0: 2f06 4183 a28f 683f dfb1 bab9 9c12 653f
000004b0: 2338 2cdc e020 7b3f dcc6 24e4 e9e0 81bf
000004c0: 55b2 727c e8f1 903f dfbf 3178 5603 8dbf
000004d0: 1c82 81bf 4e01 813f 7d1f fed3 406f 5b3f
000004e0: 38f7 251b 7658 8e3f 684c 8f5a d3f4 67bf
000004f0: 7ce4 c053 af08 84bf 7612 c805 f853 4e3f
00000500: ea32 92f9 414a 763f d181 0e85 7329 803f
00000510: 5d46 e8f1 1cde 89bf ee1d 67bf 228e 873f
00000520: ccf9 35b7 53a4 81bf 7835 d578 ffa1 77bf
00000530: fba4 27d6 8816 6a3f f0e1 4bf5 4ed5 723f
00000540: b8e0 cf4b 3eb2 843f b922 0133 f5b7 593f
00000550: c9c8 0c12 a223 8b3f 3dbd b542 f975 89bf
00000560: 6742 3783 dfb6 71bf 59e6 5bb4 1229 7d3f
00000570: 0def 112c c7fd 6f3f a332 18f2 c73d 743f
00000580: f204 769b 770c 803f f62c f8c4 853c 763f
00000590: a83f ee68 2821 8f3f e8e4 0d13 c17a 843f
000005a0: 0861 e958 21d4 783f 6c20 85a6 1678 32bf
000005b0: 423d 41a2 85e4 56bf 26f1 3d78 35c6 563f
000005c0: 29a7 d51e b199 62bf 4262 d62f add1 4d3f
000005d0: beb5 ab4e e168 643f 3de3 8b79 2f02 733f
000005e0: fc35 0e17 43f8 743f cb97 9e45 977c 61bf
000005f0: d8d0 29e6 ac3e 4a3f 80ee 544f d7fd 49bf
00000600: fe88 fe5e e563 61bf 41c5 78fd dd0f 413f
00000610: 9fb9 32f6 8229 513f ba47 7a1d eee4 58bf
00000620: 9812 5d44 1be0 353f 5109 d7d1 187a 503f
00000630: 5e1b af2e d71a 4abf e56b f80f 300a 493f
00000640: 9aa1 9e46 73a3 6c3f 5a5a 0e33 a195 6dbf
00000650: bcc7 2378 fc84 813f 5544 2ebf 2361 52bf
00000660: 0a7f 5c2f 1f73 5b3f 6392 9488 8f8a 80bf
00000670: d09a c39d 28a5 823f f9ea c361 9e2f 40bf
00000680: 4f21 e10b c287 73bf 5676 991e 6cb3 65bf
00000690: 5440 3aaf adc4 793f f4a4 ed39 b059 7a3f
000006a0: 349e ce3c e268 78bf 3a1e db1b 6cf8 623f
000006b0: b86e b453 2b43 71bf 48cf 8b9f 1f49 46bf
000006c0: b39f e104 bc91 45bf e26b 3ee9 b4bf 6cbf
000006d0: df55 8f51 e26b 3fbf e8f3 f18a 340e 5abf
000006e0: 3800 4a4f 7303 62bf d27a 27d6 be3a 83bf
000006f0: 1fc0 d235 5600 5e3f 408d f589 3457 6cbf
00000700: 144f 5488 adae 6c3f 9d47 7eeb 186a 69bf
00000710: fa08 97ee 9aec 743f ccaf a151 a526 7f3f
00000720: 5553 c71a b79e 583f 237a 199b 3c61 833f
00000730: a636 8823 927b 53bf f094 2c38 64f5 81bf
00000740: 1faf 4f4d 696a 7c3f 0978 5c3c 25a3 74bf
00000750: 814e 6702 c319 55bf 0f99 4a97 5b9f 53bf
00000760: ce35 8138 c263 693f a010 8b80 4cf5 703f
00000770: 9ba0 35e1 b619 6fbf 4367 5c4a 647a 733f
00000780: c7ac adea e9c9 8a3f 1d83 6312 01c9 8e3f
00000790: 7b92 c487 b6f2 8e3f c45c e8d9 30d7 903f
000007a0: 3c10 486c 9385 8a3f 36be b916 becb 903f
000007b0: 6ad8 3fdf d2e1 8f3f 6413 453f 2e1c 853f
000007c0: 5d1b c2f8 ef51 8d3f e869 63bb 7870 8d3f
000007d0: c23c 1ae9 451f 713f af6d 26c7 dbe7 57bf
000007e0: a50d 3a83 f047 813f b21a f03f 5a9a 473f
000007f0: 6882 97bf 3007 78bf fde6 c741 e12a 6ebf

linear_cov.bias f8 [100]
1.079674987729676 0.19636568481497807 0.234589445215941 0.021069648854138184 0.016415485183075618 -0.18313071622995597 0.11515035088520277 0.18981129003874733
-0.128729079026574 0.17163752953551337 0.19170681725991465 1.126320247775947 0.017262019729897517 0.13588596509203507 0.220930237841463 -0.01242478951937007
0.2010187740024448 0.15079422288305058 -0.19504799412830218 0.08341649339852279 0.2248003270520836 0.00043590576099095677 0.8104109110304818 -0.06346465469631941
0.05704773677910167 -0.007165701849893039 0.08350016971062725 0.009131736390356448 -0.0688917539530762 0.02616301505601712 0.014831134218345445 0.14557586327235839
-0.07609747695615458 0.8910404105163052 -0.010873223114817662 -0.09702674217212019 0.11581410929822995 0.1937262683522451 0.10936603900049935 0.0493201567016322
0.012965455656054765 0.22337754734585866 0.059658502191745406 -0.012645243888140987 1.0023351836446655 -0.20517519663627298 0.23754774301092157 -0.10557036601624793
-0.062327346800536136 0.16005373968847472 -0.19026016573839616 -0.014165437290320902 -0.016147872371416884 -0.08718591452889607 -0.20478955556192033 1.3170845023881428
-0.09683362032688363 -0.1459542280115939 0.04271502584219028 -0.2605584288366404 0.10067333913209657 0.19746239343450037 0.09665792171148568 0.10878525680439656
0.23526029339910237 -0.0903545527990821 1.114947967303912 -0.037968337298558856 0.07415891139691673 -0.09200042221321006 0.20070192376539617 0.1503989400580604
0.015554933492475784 0.20717544195403756 -0.11019398375125986 -0.14838382421520543 -0.03450462289832415 1.1726804666114823 -0.04621840947637831 -0.05848701809740446
-0.13523000053122136 -0.18892089928411063 -0.05117574846427952 0.08941946011736351 -0.0659142303976072 0.042667379987975304 0.059039243746768014 -0.04607994248762029
1.031516486242266 -0.1820589563413594 0.1693586885626201 0.0856116853977222 0.03193304752462589 0.039682330365707716 0.1559909505029704 -0.2586247605481183
-0.09441077004181438 -0.054884518590175284 -0.18461623781064865 1.071686628355074
00000000: 06bb a947 5946 f13f fc21 2bc1 8222 c93f
00000010: 5a39 98e5 0607 ce3f fb20 1133 4893 953f
00000020: 5081 0990 38cf 903f 4ee4 8cca d370 c7bf
00000030: 51c4 2c4f 7e7a bd3f fd61 9081 bc4b c83f
00000040: 8e4e 3bc8 317a c0bf 9485 0ff4 37f8 c53f
00000050: 3b9a 4657 d989 c83f 3053 5061 6805 f23f
00000060: 27af cf88 22ad 913f cb20 0718 b664 c13f
00000070: bf00 1d29 7147 cc3f f2bb 2905 2b72 89bf
00000080: 637b 1cb2 fbba c93f 11ae da9f 394d c33f
00000090: 033a f729 55f7 c8bf cbf9 1787 c85a b53f
000000a0: 8bce 68d2 41c6 cc3f 68f8 d2fc 4891 3c3f
000000b0: cc51 e6dc e2ee e93f 5564 5f38 383f b0bf
000000c0: 8dda 8d67 5c35 ad3f 5d22 9271 c859 7dbf
000000d0: a11a 1e62 4460 b53f 73db 37e9 a8b3 823f
000000e0: 5e4a 31d6 e3a2 b1bf d813 1f38 7aca 9a3f
000000f0: 2e6b 7123 c95f 8e3f 5cbe ebd9 3aa2 c23f
00000100: 4bb5 d5ce 1f7b b3bf 4c9f d22d 6783 ec3f
00000110: 8b28 714d b344 86bf 5b78 779c bed6 b8bf
00000120: a5ec d953 fea5 bd3f 3e79 79b9 05cc c83f
00000130: 40da cca8 69ff bb3f a85b 22d8 7d40 a93f
00000140: 77f8 2900 a28d 8a3f 836d 41ae a297 cc3f
00000150: 510c af27 8f8b ae3f 6598 98e7 bfe5 89bf
00000160: d524 169e 9009 f03f 9a67 c04b 2e43 cabf
00000170: 063a bce5 f667 ce3f d16e 77d5 a806 bbbf
00000180: c73b 4fb8 5ee9 afbf 6941 c814 a47c c43f
00000190: 4efa c9f2 715a c8bf acea 29cf c402 8dbf
000001a0: dadc f05e 1189 90bf 44ce 92eb d051 b6bf
000001b0: 8fb4 d94d 8b36 cabf 4735 fd32 c712 f53f
000001c0: 130e 7590 16ca b8bf 96e8 02ce a0ae c2bf
000001d0: 287b 146e bede a53f 9e3b a342 fdac d0bf
000001e0: dbc6 265b bac5 b93f 31db fe9c 7246 c93f
000001f0: d870 a6d4 92be b83f 4108 43c0 59d9 bb3f
00000200: 3827 1961 021d ce3f 5f17 51d9 7921 b7bf
00000210: defd 04ae d3d6 f13f 5f2c f6fd 9570 a3bf
00000220: bd1e 2813 14fc b23f d2b9 9ff4 568d b7bf
00000230: 5f88 68c3 99b0 c93f f382 73c0 4540 c33f
00000240: 6513 22d5 43db 8f3f 4b0c dd91 b984 ca3f
00000250: 4678 6d44 ac35 bcbf 833e 21bc 3dfe c2bf
00000260: 8477 d105 97aa a1bf c311 cc97 4cc3 f23f
00000270: 4b2e 597a f0a9 a7bf 4615 f0ab 02f2 adbf
00000280: c41d dc76 374f c1bf 9d63 fa5d 8f2e c8bf
00000290: ef3a 012c b533 aabf 547e d498 31e4 b63f
000002a0: 4d13 e647 c1df b0bf 1e08 4fb3 7fd8 a53f
000002b0: 8a58 254a 643a ae3f 94c6 f84b ca97 a7bf
000002c0: 3920 5b6e 1781 f03f 3d0b b737 b54d c7bf
000002d0: 5ebf 55a6 8bad c53f dd4b f0bc a5ea b53f
000002e0: b04c 8f45 8759 a03f 46b0 4c0e 3e51 a43f
000002f0: 58ec 70ef 82f7 c33f 255c 1fde 4e8d d0bf
00000300: cd42 b8e1 4d2b b8bf 4f92 cdd8 d219 acbf
00000310: a188 da3f 81a1 c7bf 5e87 c5e0 a025 f13f
