port_results/2025-05-04/1.2/37/1_trained_linear.pth (torch, 679543 bytes, 4 tensors)

linear_mean.weight f8 [30, 90]
-0.0028132047592608956 0.0023955071447656164 0.004559183133263595 0.013972226400469285 0.005815711117061299 0.006908548555633865 0.011513808252395785 0.026347023131173947
0.01282862903927284 -0.0027600147824655566 -0.006926014804029242 -0.0034883904383008948 -0.003943408724425586 6.414551183868148e-05 -0.011886822062891973 0.005994005255205191
0.0016741428772918214 -0.009717462218984686 0.007467337600186826 0.006629681323006489 -0.007699447087591611 -0.0013381436730756763 0.0008692038326024025 -0.006763861021097535
-0.006255181775328157 0.022858112298040908 -0.01763487539179761 -0.016499569453000778 0.003073874417116784 -0.01353296809110241 0.00010827178070342487 -0.007516295526078814
0.004597257219213947 0.014430202630414318 0.001389364509063404 0.012333804139990173 0.013257368266186686 -0.018262198816678923 0.0031149792053968405 -0.005342421887231977
-0.003723450683391158 -0.005699095229283796 0.0013129014358424108 0.005080172384069857 0.0003790347773102311 -0.016234029322085276 0.0016353409647014226 0.0034398203341591844
0.0009997520838110092 -0.009893180517756882 -0.00019534481044052103 -0.020641150573012745 0.007128086191541391 0.005422160013827512 -0.01110195799830842 0.014606654206127143
-0.0013485918774209067 -0.013605604643066533 0.004502827186704876 -0.0009955441875095427 0.025185347296647793 0.02701263566275506 0.0213014274020011 0.024081163369944713
0.024839212708025367 0.025080821832169205 0.025028488460381408 0.023526411633182826 0.028561261245716278 0.027009415776567215 0.024883494541403848 0.024238996726172607
0.02442096302226909 0.020820470251273815 0.024886200967636034 0.02513272311421725 0.02576525227745937 0.022953951766840106 0.024533044484413888 0.021211901077278057
0.024132260668845756 0.027601620343274767 0.02763808833381804 0.024698862311290558 0.0259718931397129 0.023379781422947457 0.024157215517872838 0.02576394003746287
0.02023521153837458 0.025734730606578212 0.003273209803740664 -0.01359560686758596 0.009527787640596001 0.015231180326383539 0.0023579932426000304 0.002716496750052774
0.0038908937716858926 0.008445272634347141 0.012630298805614601 -0.016062361689098997 -0.011712161065186823 -0.0021909571020546185 -0.008453051949065208 -0.015852162638256166
-0.013644845664125634 0.01194436318355628 -0.0030864478712379997 -0.014598680342951578 0.014176483703294024 0.014594929260767737 -0.00994220983070896 -0.00790777092694525
0.0037186856751146523 -0.006683332723853219 -0.011825436555752125 0.020767994006874478 -0.03176413471127403 -0.02466028299438512 0.007003258954950778 -0.012981329597286472
0.009650107080917633 -0.02036375116317062 0.001375266359301855 0.012937635974647019 0.01415359945223122 0.01238981290389632 -0.008937679807337513 -0.009527324851098699
0.005975978077019002 -0.005078690878681211 -0.008042930841617564 -0.010527535243039154 -0.003616892936754555 0.0039718267259763775 0.00036403892751949357 -0.015204057565668897
0.016995768814753447 0.00038402600851982394 0.010187922513168505 -0.008677182387702403 0.0015867635823123998 -0.01413692159315068 0.010180237278112153 0.008553358825230303
-0.0035822075362907887 -0.0007327492464748376 -0.0033023010613187215 -0.017237289120931917 0.003221772095113962 -0.0032290298674740067 0.021832712083539534 0.029311022194355336
0.021124291659579898 0.02421464747940802 0.024495793837983896 0.022126107375514282 0.02252888108688048 0.02408546914177247 0.029862088165049115 0.027308625274071057
0.026163770477666517 0.022415896871191773 0.02137752520021741 0.016892087163074936 0.022371068960660927 0.020937343698347727 0.026052330462322196 0.02509931232329124
0.023749986525846915 0.019680808599420896 0.023223281495197857 0.027383934883737852 0.026729759809039414 0.025571053461255527 0.025584376248805947 0.026589943535783693
0.02386771376450054 0.025860308076132984 0.02217119216073217 0.028876183498716228 -0.008351957918379137 -0.007562110159448757 -0.0056006408177729505 0.011678657171690861
0.009940858734773338 0.005540545556528017 -0.006974847044901785 -0.0009182680431853452 0.014838539009530744 -0.012778226523534773 -0.008205578498941535 -0.007132009816548285
0.0044167383115447986 -0.007994491149368944 -0.007196981126774791 0.023925059925713952 0.0019174369170129413 -0.01940823112879288 0.014491400789431478 -0.004258404138050492
0.0011334223457147346 0.01195977715812489 -0.00429674032535913 -0.013726393192396696 0.008475424544035062 0.01679403487982357 -0.026770298005547245 0.006723942224730278
-0.008921989134834668 0.0049584317515424465 0.004928340927854522 -0.011247184431314578 0.004021297087455193 -0.0021547333775425712 -0.005495710767775791 0.0017897291604759876
-0.0008235340150867956 -0.01060996429338751 0.02139302926807949 -0.0011124814788573897 -0.015156356559345127 -0.008894506524581354 -0.009298230398619945 -0.012540485193600452
-0.0058463954817346625 0.003479457997498336 0.013754857799540079 -0.002652309377662495 0.016148119006047817 -0.010359909961970889 -0.014746538150666703 -0.009690135801413176
-0.005217217071248795 0.0062934395555610395 0.004108908394581014 0.00134177794705325 0.01726501182822845 -0.007996913988682002 -0.01423155319738634 -0.0026019610592908876
0.02152891873080584 0.028099695556853387 0.02582286225161698 0.02674221362067166 0.021571986334409512 0.023546290654930253 0.022760761834201126 0.027185721614373128
0.024878039222853802 0.026362193916029345 0.026706929420808365 0.022181508908571783 0.0238381379995112 0.021953183399511335 0.023624715555226456 0.021604045208510413
00000000: 8de8 03ce b70b 67bf 95e3 021b be9f 633f
00000010: c7ef 4267 a6ac 723f d7e0 897b 789d 8c3f
00000020: b8eb cf10 37d2 773f a797 bf61 234c 7c3f
00000030: 80f0 2b2f 8d94 873f 3509 c8ca b6fa 9a3f
00000040: bed7 6871 e545 8a3f e2f1 44a7 2b9c 66bf
00000050: a2dc 32f1 735e 7cbf 6c4d 245b af93 6cbf
00000060: a244 19b8 f626 70bf 3e8b 8b80 bbd0 103f
00000070: d7a1 1b40 1e58 88bf e5c6 b088 2b8d 783f
00000080: ab01 093a dd6d 5b3f 27fb 71b3 bfe6 83bf
00000090: 15f3 7e2c 1296 7e3f 2985 7187 b927 7b3f
000000a0: 6e0c 0497 7489 7fbf 369f 0bd4 94ec 55bf
000000b0: 7f49 6d04 697b 4c3f aeb8 151e 6cb4 7bbf
000000c0: 9b36 7d92 089f 79bf 7fd2 12f3 1d68 973f
000000d0: 36a6 4e74 e00e 92bf fb7c cb5c 43e5 90bf
000000e0: b32d fec2 612e 693f d0e8 f33a 2cb7 8bbf
000000f0: ccab 5f07 ff61 1c3f 1397 8b37 68c9 7ebf
00000100: 4172 86d6 92d4 723f 566f fa02 958d 8d3f
00000110: f4ce 3bc8 6ac3 563f 360c 552b 7742 893f
00000120: e60b 13d9 ad26 8b3f 47c8 ae6a 53b3 92bf
00000130: 1ca8 13ba 9584 693f eaf1 9774 efe1 75bf
00000140: add9 3a5d a480 6ebf 7a67 063a ef57 77bf
00000150: 4848 b52e b582 553f e442 f663 f2ce 743f
00000160: 0ded fbf8 25d7 383f 3d28 1544 a79f 90bf
00000170: 2354 84fd 1dcb 5a3f 84c9 db7a d32d 6c3f
00000180: 8dc8 42a0 4361 503f 79af 3736 e042 84bf
00000190: 1a96 0225 af9a 29bf a0cf a62a f422 95bf
000001a0: 963a 3611 5732 7d3f c9d8 edfe 8b35 763f
000001b0: 59c4 3194 9fbc 86bf f251 f4f0 17ea 8d3f
000001c0: b14e 9680 6718 56bf 5dcc df57 41dd 8bbf
000001d0: d25d 1a78 8e71 723f 5c6b 886e 9d4f 50bf
000001e0: e2f6 e80b 30ca 993f aa4d 004b 33a9 9b3f
000001f0: f5e7 3298 0ad0 953f c382 7e84 bba8 983f
00000200: e219 f558 736f 993f c297 1a76 c9ae 993f
00000210: 1e63 9f6d 11a1 993f c51d 3ac2 4e17 983f
00000220: ce73 eecb 293f 9d3f ba16 c735 5ba8 9b3f
00000230: 89e5 0f0d 0f7b 993f 6834 e888 1bd2 983f
00000240: efe3 1116 cf01 993f d028 441b f651 953f
00000250: 3b58 1cad c47b 993f aa06 577f 64bc 993f
00000260: 3698 9ecf 3462 9a3f 5c33 9ca0 3d81 973f
00000270: 8c6f edbe 301f 993f 52ce a695 92b8 953f
00000280: 5bab 6799 20b6 983f 898e c362 9943 9c3f
00000290: f221 12b6 284d 9c3f d668 8097 a84a 993f
000002a0: 57e1 993e 6098 9a3f 7491 6592 def0 973f
000002b0: 385e 724a abbc 983f 650e 82bf dc61 9a3f
000002c0: bbcc 230f 8ab8 943f 6f76 4e89 345a 9a3f
000002d0: d19f eb21 6bd0 6a3f f1a7 ec76 03d8 8bbf
000002e0: af86 8e02 4e83 833f dee4 0c6b 8631 8f3f
000002f0: 4a97 8efb 1151 633f acf5 6f16 e840 663f
00000300: 8a1d 0db0 cbdf 6f3f 04a0 294e c14b 813f
00000310: f877 7802 eadd 893f 18d5 9ad8 a672 90bf
00000320: 4e77 eca5 8bfc 87bf d85b 3523 c5f2 61bf
00000330: c288 616d d54f 81bf bea2 68a0 8c3b 90bf
00000340: 1152 172f d4f1 8bbf f898 f549 4976 883f
00000350: d56b 5e15 c048 69bf db14 1ab5 e9e5 8dbf
00000360: 70fd 056f 8f08 8d3f 2a42 e63e f2e3 8d3f
00000370: 143a 95d0 945c 84bf efb8 1f0c f331 80bf
00000380: b3a4 7a2b a676 6e3f 66c2 a277 fb5f 7bbf
00000390: 5b9d 243a ef37 88bf 2690 407c 3444 953f
000003a0: ff93 8a7f 6343 a0bf f44a e293 8b40 99bf
000003b0: 6ab7 d402 73af 7c3f 79ac a190 f495 8abf
000003c0: 0505 8672 6fc3 833f 2d2c 1435 3cda 94bf
000003d0: 0ddc 5502 4988 563f b875 301b 0c7f 8a3f
000003e0: e4e5 24f6 8ffc 8c3f d16c ce89 d45f 893f
000003f0: 040d cc13 eb4d 82bf e20e 3be5 0f83 83bf
00000400: 0845 7066 447a 783f a4d6 afb3 64cd 74bf
00000410: c40d 6ee7 cf78 80bf 7358 9cdc 758f 85bf
00000420: 963d 0c9c 2ca1 6dbf 648f 4b1e c344 703f
00000430: 5752 c549 8fdb 373f 02a1 1610 4e23 8fbf
00000440: ae41 ebbc 5667 913f 5467 bc25 e32a 393f
00000450: 95e0 10d0 67dd 843f 30e5 9cb4 57c5 81bf
00000460: ca2c 526c 5eff 593f a903 457f d1f3 8cbf
00000470: 906c 6651 60d9 843f ab0c 6763 6c84 813f
00000480: f545 e806 6f58 6dbf b920 5f06 bf02 48bf
00000490: 60c8 ea61 6d0d 6bbf 9f34 2fe4 a6a6 91bf
000004a0: cee7 13b9 8b64 6a3f 4728 b735 c473 6abf
000004b0: fef2 8681 505b 963f c2c6 f266 b503 9e3f
000004c0: 6df5 5037 9ba1 953f 786c 087c b9cb 983f
000004d0: 31de b1e5 6c15 993f 6d31 43ee 39a8 963f
000004e0: 493b ef9d cf11 973f 8546 1779 dca9 983f
000004f0: 0693 3cd0 2a94 9e3f bbac cdd1 caf6 9b3f
00000500: 87a0 2aea acca 9a3f af9c e35f 31f4 963f
00000510: a1da 6a6e fde3 953f 8ed3 b4c7 284c 913f
00000520: 0e1a 4006 71e8 963f b54d cc59 9970 953f
00000530: d1f1 474d 76ad 9a3f 888f 5256 a2b3 993f
00000540: 9ec4 a29d ea51 983f 8063 2cb5 3427 943f
00000550: 4d57 1c0a d8c7 973f eeb8 0bc3 880a 9c3f
00000560: 31cb d6d0 0b5f 9b3f 5b87 5c59 4c2f 9a3f
00000570: 42d5 1b6d ca32 9a3f 7e01 8ee7 643a 9b3f
00000580: 93fd 3128 c770 983f af4f cee5 1f7b 9a3f
00000590: 4486 f984 0bb4 963f 1e87 0adf b791 9d3f
000005a0: 2ca1 efd0 d41a 81bf 1064 2d7d 72f9 7ebf
000005b0: 4036 6292 b2f0 76bf 5eab e8d4 faea 873f
000005c0: f9b1 4779 df5b 843f d600 7adf aeb1 763f
000005d0: e241 3d3f a891 7cbf 0bde 729b fd16 4ebf
000005e0: 9d7e 21fe aa63 8e3f 7fdb 2788 782b 8abf
000005f0: 3ab8 611a 16ce 80bf 9351 ab4e 7436 7dbf
00000600: 2632 a629 4917 723f 5a11 4770 6a5f 80bf
00000610: 715f 1ce9 947a 7dbf 893d be97 cf7f 983f
00000620: a917 7236 506a 5f3f 05b0 e257 c0df 93bf
00000630: 0ff0 b5e3 aaad 8d3f 2de5 18a8 4271 71bf
00000640: 17d9 12fa ea91 523f b6be 171e 5e7e 883f
00000650: 2943 d472 7599 71bf 56b9 d34e 951c 8cbf
00000660: 8809 e439 905b 813f 2391 4e9a 7432 913f
00000670: ed82 c049 ac69 9bbf 065c 497f 908a 7b3f
00000680: 8322 651c b145 82bf 99ac 65e3 4a4f 743f
00000690: 6420 bd71 bd2f 743f cac5 6f8a c308 87bf
000006a0: 4561 a6b7 a278 703f fdae 6bac cda6 61bf
000006b0: 1303 41a0 ab82 76bf 13d7 a00d ab52 5d3f
000006c0: 927e bad4 4dfc 4abf 21f1 364d adba 85bf
000006d0: 3a6c 46e4 0de8 953f e01a 6ce4 153a 52bf
000006e0: 8bc0 fdbd 4b0a 8fbf 84da 1875 4837 82bf
000006f0: e72e c85b f30a 83bf 1c88 426e d3ae 89bf
00000700: c7e8 4bd6 63f2 77bf 9971 d3c9 f380 6c3f
00000710: 6eff 47c3 812b 8c3f 2b60 26c1 4bba 65bf
00000720: d870 17ec 2189 903f fe31 cf93 9337 85bf
00000730: afcd b0d8 6e33 8ebf f10e e302 6cd8 83bf
00000740: 1083 270b a65e 75bf 70b7 2051 26c7 793f
00000750: 8fee d4b2 80d4 703f dd6b ab19 d3fb 553f
00000760: 374f ab54 ebad 913f 160b 67a0 af60 80bf
00000770: 42b6 6ebc 6e25 8dbf f7bd f634 b550 65bf
00000780: b8dc 7747 ad0b 963f 53e7 c6a5 2ac6 9c3f
00000790: 7871 70f3 4e71 9a3f c697 b193 4f62 9b3f
000007a0: 07a2 437f f716 963f 525b 38d1 841c 983f
000007b0: 33fa d6de 984e 973f 37f0 01e5 92d6 9b3f
000007c0: 3e2e 67f3 a079 993f a170 e1e2 b0fe 9a3f
000007d0: ac7c c1b1 0f59 9b3f ce5d 5add bfb6 963f
000007e0: 46f7 6b5c 0669 983f dad8 f932 e57a 963f
000007f0: f57c bfd2 1331 983f b605 87ee 5e1f 963f

linear_mean.bias f8 [30]
0.03211187166274752 0.031718343668395446 0.03298465773894259 0.032218107862820804 0.032720675719631595 0.03323141421546167 0.03153155125275087 0.04085083855314133
0.04633470871377367 0.032840537521877024 0.038129139866778336 0.03188061098588382 0.03369107574043014 0.043622763346938986 0.02631987634797866 0.028727867055338866
0.026777912497447112 0.0349409658614441 0.0292155478167123 0.042102914288947406 0.049021234260040125 0.035415472922177116 0.033721217086863896 0.03876851011112441
0.029266069224967498 0.035020628114479785 0.02904280787051213 0.037689947446999786 0.033098721181348885 0.03357041500389136
00000000: ddae 359d f770 a03f 6264 7a01 633d a03f
00000010: a65b 8474 5de3 a03f c739 384f e47e a03f
00000020: 76d8 3cb0 c3c0 a03f 79ae 823a b503 a13f
00000030: d06d d84a e724 a03f 7328 33af 66ea a43f
00000040: f2d0 30d5 2eb9 a73f 856f 4795 79d0 a03f
00000050: 8e3d 81a1 a985 a33f 442a 1fcb a752 a03f
00000060: 0bc5 f1e8 f43f a13f 385c df0b b955 a63f
00000070: 8eea 9800 99f3 9a3f 5131 f285 d66a 9d3f
00000080: a40b ba49 ab6b 9b3f 9cc3 5443 c8e3 a13f
00000090: 9b48 a139 aeea 9d3f 6fe8 df5f 838e a53f
000000a0: d0b0 e9ab 4f19 a93f 583d f213 fa21 a23f
000000b0: fb87 2349 e843 a13f 2677 1556 77d9 a33f
000000c0: b198 d0a8 ecf7 9d3f 7cc7 df48 39ee a13f
000000d0: d691 f3d7 65bd 9d3f 3a7c 58c7 184c a33f
000000e0: 59d1 06ca 50f2 a03f c116 1c35 2430 a13f

linear_cov.weight f8 [900, 90]
-0.0016677729327854403 0.00034447812947106056 0.00035060571095677363 0.00042810895696687403 0.00047839161510744284 -0.000466293970332186 0.001288764547964574 0.000594242324650165
0.0006542876328005144 3.751245532371838e-05 0.0007855468202689817 -0.0003600974522691311 0.0004287690490798054 -0.0006192149782116406 0.0019936426506022864 0.00019085612922812195
0.000646259734320182 -0.0013016283667133424 0.000433633394634479 -0.00019763524662960738 0.00045108293588190165 0.00020278008759828573 -0.0005298034290504378 0.0004200998619379369
-0.000522796589764438 0.0011026790784179918 -0.002107799195327622 0.00018519903061353846 -0.0003252186486155638 -0.0014476037371240836 -0.00011001094463535133 -0.0011333905429851921
0.001256326333969176 -0.00014159902561222576 -0.0005680263608563677 0.0004583738776121037 -0.0009097770852552725 -0.0016584452402679103 0.0007052722767039842 -0.0006794562196032577
-0.0005885416474598852 4.138869185306514e-05 0.0005505383520998205 -0.0006878620722499379 -0.0013812477874858183 -0.00014311177189077392 -0.0002896037319297252 -0.0001327076464444226
0.0001582574381971153 -0.0007286395765933457 0.0008761681886604777 -0.000986644184134428 -0.000595980693162828 -0.00012225707610568704 -0.0014938283426081057 0.0007747188527219503
0.00019570011349160846 -0.0008760994047985001 0.0005281599103373516 0.0005719793645028712 0.0015143608330486624 0.0016181910848356677 0.0012504248890973916 0.0016506904297805892
0.0012916172699838893 0.0016398468189056804 0.0016665622837743902 0.0014675933592181393 0.0014045407511961202 0.0016791223778775852 0.0015237682527548652 0.0014528603354763297
0.0015024227169801094 0.0012638030348069652 0.0014621793480894848 0.0013880764369418477 0.0015898117741285952 0.0013121714127177482 0.0014517330967172464 0.0013332450951062992
0.0014809919324710995 0.0016162276895552664 0.0015368551240040427 0.0012744140387277697 0.0014111708363311348 0.001438731501936305 0.0015286668593438954 0.0016567548403098827
0.001334128737449317 0.001279855127947262 0.0014762138916087578 0.0003722177965787014 -0.0005049698547863312 0.001082801711033467 9.830928235858547e-05 0.00016299302807274156
0.0009332431412724861 -0.0011953209611930186 -0.00010633397365760219 -0.00014430016353793234 -0.001169377562750711 -0.0016670641070034647 0.00011695071374766105 0.0018799097124811957
0.0009978169359317489 -0.0002150273847910018 -0.00044617066092860955 0.000147993710755256 -0.0008642252955468945 -0.00032764764845327846 0.00015213134546673544 0.0014579230768748184
-0.0009100803123440922 0.0009537429339234526 6.105235452360497e-05 0.0009475668251401466 -0.0006417612228975787 0.001007475307734749 -5.5583218086993864e-05 -0.0004936946295933275
-5.11310995455994e-05 -0.0006019398518939082 0.00038051749601059146 -0.0005155309644184848 0.00025259572394951735 0.0014140930514277216 -0.0005976229506886707 -0.0008894733384847349
-0.0013010885437044553 0.000295650560741614 -0.00017580959806809317 0.00023264242192521541 -0.00025352424901650873 -0.0008289502083058043 -0.000530757719896781 0.0003350779460432325
-0.0011000264794622662 -0.0015903787753434521 0.0008653121469728622 -0.0016431793212472296 0.0009276351119989927 0.0003745842827186165 -0.0012180615271933494 0.0007743985934425864
-0.0015953005898167465 0.0007096647031123534 -0.0010264871568920566 -0.0013938974487500793 -0.0013630267798258138 4.4859888699965816e-05 0.00014812987259613951 0.00020611046471081748
0.00011398698466371308 0.00013598653035110022 8.667136027583198e-05 0.00014138851385175937 0.0002856596353758564 0.0002085523153975808 0.00023029528515255407 0.00014522694110992676
6.430581942804704e-05 0.0004238686469356731 0.0003052308298560291 9.882066592501692e-05 0.00026795320730760004 5.753838053493927e-05 0.00019011233814725012 0.0001636229455692082
0.00019223138745808898 6.666685011479853e-05 0.00012874582639050536 0.0002507730011998585 0.00023594866260723098 0.0002169648150308199 0.00011968981530798848 0.00014951552366720185
0.0003010612061505015 0.00023162060649209508 5.4855752524533114e-05 5.371681566678074e-05 -0.0018088434803071186 0.0026973625320955816 -0.0017371913399330356 -0.00020297858042883838
-0.00017683219636053602 0.0015133095029311614 0.0015483545888677337 0.0034235383940378803 0.0005549326180310108 0.0002615114175533276 0.0005215179566456777 0.002971163078190932
0.0003915988722076535 -0.0009548457929736212 -0.0017447659925117621 0.0022468877874599054 0.0015715338279097273 -0.0015505965158691241 0.00112040420395555 0.00038943969213020205
0.0012847266970427377 -0.0009438488605548406 0.003375160413169258 -0.0021755286923667867 0.00018243291766002867 0.0006589553476303873 0.00020760061931635978 0.0001726996801212983
-0.0008766735610383035 0.0002507642177562997 0.0001786880240177354 0.001825883445809739 0.0006767103231220363 0.0015467081149033108 -5.067314321880514e-05 0.0011066499566980733
-0.000257202210818068 0.0028929631929674685 0.0021606279298562524 -0.000733659477807551 -0.0010665244373299846 -0.0017581144555448762 0.000544728174416557 -0.0005545732638909832
0.0003716361344384789 0.00020703655681715596 -0.00010217911443388726 0.0020558587075530255 -0.00022818057603879143 -0.0005337153290687125 -0.0008008020046760914 0.0008192744002406904
0.002199197332860035 -0.0003626653013850182 0.0010217324706737396 0.0003053641688037185 -0.0002658674581400102 0.00019879637108887312 0.0026014546951524226 0.0005964080371999553
0.0015665150274308168 0.0011461988594142377 0.0013456130619833183 0.0013063908055520595 0.0014219239427663492 0.0015154076884457135 0.0014492640675316 0.0016564046108054893
0.0016588916798157536 0.001513824851877057 0.0016874548834612518 0.0009209340795218227 0.0011368704217820024 0.0012393444574814818 0.0015054057610736 0.001498569596616992
00000000: 6f9c 058d 2553 5bbf 7632 de4c 6293 363f
00000010: 4c2e f60f 30fa 363f c5df 23f8 790e 3c3f
00000020: caf0 7057 145a 3f3f 4692 575a 1d8f 3ebf
00000030: 3ff6 7c65 781d 553f 15b2 d5ac dd78 433f
00000040: 2a4c 16fe 8f70 453f 43d3 8426 d6aa 033f
00000050: b62b 86f3 a4bd 493f 2e05 e7c7 6e99 37bf
00000060: 04fd 170b 8d19 3c3f 6581 510a 5a4a 44bf
00000070: c5f4 7ebf f854 603f a624 a3aa 1104 293f
00000080: 6b67 3936 382d 453f 4ea4 0fd1 6c53 55bf
00000090: e3b3 973f 296b 3c3f 078c 74d7 89e7 29bf
000000a0: bfee 1775 ea8f 3d3f 7a39 64b0 2b94 2a3f
000000b0: 4d99 5633 505c 41bf 6e21 072b 1b88 3b3f
000000c0: 832d b420 8921 41bf 0a42 1ba5 f810 523f
000000d0: 9ff2 8813 6044 61bf 4990 398f 3f46 283f
000000e0: d5ef b875 4350 35bf a450 58ad b0b7 57bf
000000f0: 739c 3ca3 b5d6 1cbf 6cb5 34d4 c891 52bf
00000100: 4abd 1e21 6a95 543f d9e7 485e 468f 22bf
00000110: da8a 5252 f39c 42bf d5a3 4dd0 3c0a 3e3f
00000120: e40e f669 c3cf 4dbf bc13 6d04 062c 5bbf
00000130: 70f6 7dae 401c 473f 615e 021f b143 46bf
00000140: db02 6890 0b49 43bf 8168 9b9f 18b3 053f
00000150: 59cf d51b 400a 423f f158 5f8d 348a 46bf
00000160: d08d cb84 5fa1 56bf def3 87c2 08c2 22bf
00000170: 0c3d b48e befa 32bf 268a b800 ee64 21bf
00000180: 69a4 f50a 3dbe 243f 8009 7693 45e0 47bf
00000190: aee9 a8db d4b5 4c3f 4fbc 3b20 492a 50bf
000001a0: fa00 08cb 7287 43bf 501f 8349 4406 20bf
000001b0: 6755 26f8 9179 58bf ca9b 6911 d062 493f
000001c0: 7ea5 ae2c 9ba6 293f 4ff0 5425 41b5 4cbf
000001d0: a6da 5ec5 864e 413f f335 0f55 1cbe 423f
000001e0: b879 2590 b0cf 583f b060 6f72 2f83 5a3f
000001f0: 3a47 4e80 a97c 543f 9fbf 595a 7f0b 5b3f
00000200: f7f2 be7b 6f29 553f 4321 4a1d 04de 5a3f
00000210: 4410 5ba0 114e 5b3f e8a8 d35e 880b 583f
00000220: 1806 e825 1203 573f d1db bbec bf82 5b3f
00000230: 3627 fcb3 25f7 583f 4a02 19e8 bccd 573f
00000240: 5be2 c91b 9e9d 583f 6749 ff2c c6b4 543f
00000250: 8e92 c71e d3f4 573f 4934 aab9 03be 563f
00000260: 134b e864 270c 5a3f 79c7 7a53 a57f 553f
00000270: d424 118b 02c9 573f 15a9 2f05 09d8 553f
00000280: 383e 99fa ba43 583f e72b 7344 f37a 5a3f
00000290: 2d2c c39f 092e 593f 73a8 8ba7 47e1 543f
000002a0: 0ac4 d425 e11e 573f 261a e82f 7a92 573f
000002b0: 2d0b b68a b10b 593f 6adf d2f6 ee24 5b3f
000002c0: 0fa4 f1d2 bddb 553f 08fe c2fa 19f8 543f
000002d0: 6821 ba98 b02f 583f 1b48 6743 c764 383f
000002e0: 70c8 8181 fe8b 40bf d4d9 f67b 99bd 513f
000002f0: ee4b 499c 6cc5 193f 688c 3973 235d 253f
00000300: b786 af62 9c94 4e3f 1664 f01b 8a95 53bf
00000310: e34c dbc1 f3df 1bbf e15d 66f7 e8e9 22bf
00000320: 154e e098 b928 53bf 217e 7974 2c50 5bbf
00000330: 83ab 91f6 6da8 1e3f f5b1 02af e9cc 5e3f
00000340: c7b8 dcc6 2559 503f a866 bc2b 1f2f 2cbf
00000350: bedb a965 803d 3dbf 8851 a04b d865 233f
00000360: 3569 bcb0 a551 4cbf 11b0 49ef 0379 35bf
00000370: 956b 944e aef0 233f 1e51 dbfb f8e2 573f
00000380: a0f0 d096 4ed2 4dbf 3d07 e15a 9340 4f3f
00000390: 52a6 ce76 2701 103f 770e 2b43 c40c 4f3f
000003a0: f472 6abb 7b07 45bf c44c e35f a881 503f
000003b0: bd51 c4d4 4024 0dbf 997a e724 692d 40bf
000003c0: 774d ee33 b3ce 0abf da86 30fd 6fb9 43bf
000003d0: 1094 6f33 06f0 383f 53a8 ed50 96e4 40bf
000003e0: d5e6 9b5f da8d 303f 6154 33da 222b 573f
000003f0: 6e6c a783 3995 43bf bf5e 2173 7125 4dbf
00000400: a06d a42f 2951 55bf fa3c 4b7d 3160 333f
00000410: e073 b3f2 300b 27bf 099f 0a30 2f7e 2e3f
00000420: 2382 b75b 6e9d 30bf b995 7004 bd29 4bbf
00000430: 4279 4786 5164 41bf f8c5 e2d1 acf5 353f
00000440: c3ef 4170 d805 52bf deba 0335 880e 5abf
00000450: 2b51 a0af c35a 4c3f b6df 8e5c feeb 5abf
00000460: 9df3 fc3b 9165 4e3f 7e66 6e3e 7b8c 383f
00000470: 39b9 1f9b ebf4 53bf 2602 0351 2060 493f
00000480: 874a 13f7 2c23 5abf 4f76 7258 1941 473f
00000490: aafe 3031 66d1 50bf 2bfe 34fd 6dd6 56bf
000004a0: 2bde 58dc f254 56bf 2486 f809 fe84 073f
000004b0: 374d aeea 696a 233f 8499 1c69 eb03 2b3f
000004c0: 6b25 367c 89e1 1d3f e413 af66 f3d2 213f
000004d0: 947b aca1 6ab8 163f 0e28 0716 3688 223f
000004e0: fa97 aeca 92b8 323f 92f9 8ebf da55 2b3f
000004f0: 30c7 b16f 6d2f 2e3f 575a d5ec 0109 233f
00000500: 0d7a c790 7ddb 103f 8a98 f4f9 55c7 3b3f
00000510: 9919 956e ec00 343f 451a ff1c bee7 193f
00000520: ca73 2243 828f 313f c053 88b3 ab2a 0e3f
00000530: a9cf c08c 1ceb 283f f8d7 7266 4672 253f
00000540: 37a5 770b 3732 293f 2bbe 8dc3 ef79 113f
00000550: 2bb9 493a fedf 203f 3864 c0d6 456f 303f
00000560: c18f 3094 1fed 2e3f e4a9 e391 2170 2c3f
00000570: 6d46 a15e 3f60 1f3f e036 9c91 e898 233f
00000580: c5b1 d508 f8ba 333f 1624 24dc e55b 2e3f
00000590: c84e 024e 9dc2 0c3f c038 76bb bf29 0c3f
000005a0: c32a dbe5 d6a2 5dbf 99b9 8b7b c718 663f
000005b0: b066 7bff 4e76 5cbf 48f0 bdba d49a 2abf
000005c0: 538d 2000 812d 27bf 0964 b9b4 47cb 583f
000005d0: 7e58 9814 455e 593f 2b3b 0c2e ae0b 6c3f
000005e0: 8d21 14b9 1c2f 423f be64 65fc 6e23 313f
000005f0: f983 b648 cf16 413f 50ab 0f08 fb56 683f
00000600: 8491 6a59 f0a9 393f 4ac2 0dba d349 4fbf
00000610: bef2 2038 1496 5cbf 7fd7 13b2 1068 623f
00000620: 82b9 4e99 7dbf 593f b5f8 cb54 ac67 59bf
00000630: 35ba 83da 505b 523f bd8d d0bd b685 393f
00000640: 686a 7ac9 880c 553f c786 85fe 93ed 4ebf
00000650: 7071 fc72 39a6 6b3f c429 ba12 6ad2 61bf
00000660: 293a 83d4 6ee9 273f 10d0 73d5 b797 453f
00000670: 5961 bebd eb35 2b3f 0d29 d0f4 d6a2 263f
00000680: 5b0d 1023 12ba 4cbf 01d2 401d 206f 303f
00000690: fdba 4d70 c66b 273f cb6a e86b 4fea 5d3f
000006a0: 5d51 745a a82c 463f e425 4731 5d57 593f
000006b0: 89f3 7af1 3b91 0abf 131c d157 a021 523f
000006c0: e7f1 7b15 23db 30bf b4a9 acc9 fbb2 673f
000006d0: cf95 8549 2ab3 613f 5bb7 56bb 610a 48bf
000006e0: 63b3 09e5 5379 51bf 594a b505 11ce 5cbf
000006f0: efc4 dfd8 82d9 413f 9308 0d04 192c 42bf
00000700: b9e8 1d0b 055b 383f 0dba 307b fe22 2b3f
00000710: 2060 bed1 1fc9 1abf 649c 40bd 72d7 603f
00000720: 8faf 2c39 78e8 2dbf 34de 1df1 207d 41bf
00000730: 5506 d835 9d3d 4abf 47b1 b360 92d8 4a3f
00000740: 491d e813 0d04 623f 6d1c dd9b 83c4 37bf
00000750: 5cda fee2 74bd 503f a54b 4e1e 2903 343f
00000760: a714 ac09 846c 31bf 96ce 24d3 7f0e 2a3f
00000770: 5b7b ce5a a54f 653f e773 e681 088b 433f
00000780: d6be efb3 70aa 593f cbd9 6aa7 81c7 523f
00000790: c7d3 0806 e90b 563f fdf1 4772 6667 553f
000007a0: de9e 3835 fb4b 573f 001a 919d 14d4 583f
000007b0: 0d03 7e71 a7be 573f 7e79 78e8 7623 5b3f
000007c0: fa68 cb60 e52d 5b3f d786 c30e 71cd 583f
000007d0: 78a2 6de2 b2a5 5b3f 2cba 6ce0 5a2d 4e3f
000007e0: dc87 0152 61a0 523f 2a85 74fa 2f4e 543f
000007f0: da91 b420 21aa 583f 29c4 20da 748d 583f

linear_cov.bias f8 [900]
0.39948022884334367 0.051031257659557794 -0.05087371490192541 0.05930085140674982 -0.01787748080232028 -0.032120147719508295 -0.002103976439761022 0.01196784686647407
-0.03238762558607602 -0.08691273258369502 -0.07736293787136012 -0.010997237617597628 -0.02024264410287965 0.05828792265601665 0.02517500908411227 0.10612701641041042
-0.05450351128355418 -0.02440173713621792 0.026133278597171475 -0.056576832233325075 -0.05473732924629874 -0.07660488291941694 0.03605392307045698 -0.011015373201834088
-0.02224723693325784 0.06246359292676744 0.0061264204135512155 0.04705656949079952 -0.04845727889281035 -0.05770701227664481 0.055760100776757936 0.5108404451254704
0.036547355313942445 0.040261515707341516 -0.005923512874233017 0.02075545738103729 0.027163820983959096 0.07304741287542348 -0.07344580609831683 0.04251627138245881
-0.06475982103358455 -0.007475865134337667 0.04307498333396022 0.035972170970545884 0.021973491553340677 -0.027327128560650237 -0.05940863373223771 0.0009911669806650831
0.024369421785396254 0.03697976785754584 0.02263490143296132 0.016932581707720776 0.012879572219869902 -0.06802711077147136 -0.007373577742365142 0.09763002631148013
0.07293652397179716 0.007438176889877131 -0.016988356548583248 0.013349503539767747 -0.05234823003030279 0.035177169653792195 0.37506460000383557 0.056888157231948684
-0.03503697489454637 -0.04408807666143363 0.012128552786579917 -0.05900722315747937 -0.01829589073650398 0.03448045126436069 -0.02060081971676666 0.011787124905638553
0.06444184446459399 -0.03751282170152037 -0.015109974657867498 -0.019573356857857296 0.06394953316324321 -0.007499789336957379 0.02079547268735551 0.05105011816161481
0.00016618904983455924 -0.017604223152616772 0.004279782107857563 -0.00445515561659834 -0.03600964342486748 0.018958814372720168 -0.025273368617249648 -0.0011668267062958058
0.028914197014170827 0.004029230843180645 0.0571922427539753 0.032523682417127046 0.05506854010513899 0.47223976290190317 0.004726897510693855 0.04664047968347613
0.01651464221813623 -0.014183512802831364 -0.011013030029283435 -0.04692405128417819 -0.002518170673347989 -0.045913822941258994 -0.019740010467317905 -0.0883303488945872
0.026500781228192487 -0.041984117951427 0.05658630146791402 0.048389508451022106 0.003151968947202229 -0.027229777624089464 -0.04606360433764245 0.005462232499930592
0.005066032225301362 -0.013957190969409037 0.050790859295083236 -0.01385875635262089 0.01611647946785832 0.023272229230622603 -0.031056243533169013 0.08083267915367669
-0.018896151784913134 -0.006467011714777435 -0.03585228187263068 0.004499417403547716 0.3236229438069464 0.03721264934326777 0.0013315079986904786 0.03592048991700513
0.059114991912366216 -0.020960131409507605 0.029954216500905306 -0.004930408081438747 0.06936970959382922 -0.011564955471076442 0.02802270914106005 0.03704117488199475
-0.027015557380191207 0.0012525878214742713 0.024598784208740492 0.07612522799848499 -0.05307410386018612 0.02941625926197218 0.002317657629830043 0.01685175528145259
0.011398012964247384 0.021183991250040387 -0.05665129311261734 -0.0007380976159768067 -0.015029243123068619 0.03379384439116555 -0.028826160241067402 0.015400856381335606
-0.04211759605384749 0.04832141283044243 0.037519693054276604 0.462351336939995 -0.03830580919331958 -0.003556975816491519 -0.015729402219473883 0.04976407353789465
-0.04974989985041708 0.01185206380939551 0.028851576967015284 -0.036004401592858976 0.052217649750521136 0.10314607141661229 -0.005273862386308645 -0.006628598191046569
0.011292110471945558 0.036222828224540156 -0.010338616249844201 -0.05994591000578149 0.009267934459373045 -0.025297477671207186 0.0183400488262145 0.03478960030621245
0.023639582447646273 0.007169611454703904 0.013188676882832233 0.025666909402304816 -0.002976149267918806 0.027436852424357977 0.012471923664595463 0.01702317321145118
0.0015356780210575521 -0.038352646397369995 0.3213526067593459 -0.014957756822598102 0.023418031846634848 0.07339449793156849 0.0988472165386177 -0.004226254239037597
0.0356898002888871 0.01688622410676192 0.04879408199718794 -0.012751337624545915 -0.02004812286538678 0.0805134320020307 0.022585659633744974 0.0434438134879787
0.01021304545704335 -0.005604016848850012 -0.024050011743910756 -0.014806330202285197 -0.014680181473874107 0.028297732967472143 0.0005525090351489987 0.03995078380143971
0.008445195108887292 -0.07099428822565353 0.014654876187519091 0.07787934884480036 -0.05603901729482953 -0.006173048391087237 0.03708006241452903 0.0019521007899297033
-0.014960372193645004 0.4955191947492155 -0.05683924639296928 -0.07077528686155328 0.0359860980735236 -0.08977874442547336 0.039408242802518034 0.025985871949098776
-0.03276102457729149 0.01202599648412458 -0.007645632903872827 -0.004012121141924959 -0.020708163041052267 0.00966172462488311 -0.06512070732687412 -0.019587639064327998
-0.041170277801571606 -0.005305579540382432 0.026207757700962207 0.05670114666147991 -0.02397729594041885 0.005945356133517875 -0.07456678018151593 0.03929015751773959
-0.03154894677745902 -0.06964031472660832 -0.016102885093535732 -0.01110594991444173 0.06190353691089777 -0.012049325638259304 0.02083796742395587 -0.05736511357394884
0.3877831230920822 0.004163724142697381 0.08187894993899426 0.0008681062187684862 -0.11977261934665098 -0.04570277807458954 0.0232847388019374 0.034981039020150394
00000000: ecf7 9185 1591 d93f 086f 71dd c420 aa3f
00000010: 04a8 759b 1e0c aabf f579 d562 ae5c ae3f
00000020: 34f9 856d 794e 92bf dbf6 fe4f 0d72 a0bf
00000030: 15b0 02c0 5b3c 61bf e40b 2937 9982 883f
00000040: 63e4 5f61 1c95 a0bf 078f 0db0 e93f b6bf
00000050: 0479 14b8 0ece b3bf bdb6 4f3f b885 86bf
00000060: 9730 a0d9 7cba 94bf 9c65 1e23 ead7 ad3f
00000070: 3864 c542 7ac7 993f ae6b b4e0 232b bb3f
00000080: c7c6 f55c e2e7 abbf f4d1 dcdb c4fc 98bf
00000090: b4ff a5a3 aec2 9a3f bc8b 4e78 a3f7 acbf
000000a0: e56a f7fd 8706 acbf 6a51 daaa 609c b3bf
000000b0: 53d1 f5e8 a875 a23f 79ab 3d5d 3a8f 86bf
000000c0: c904 38cc fac7 96bf 864b 9f61 3afb af3f
000000d0: 4180 1575 0418 793f 52c4 0c76 cc17 a83f
000000e0: 1d0f 3278 64cf a8bf 47c4 f404 c68b adbf
000000f0: 8b03 8482 968c ac3f 1e37 a90f ce58 e03f
00000100: 0a48 a8bf 55b6 a23f 5437 804a 289d a43f
00000110: 2700 28e1 4043 78bf f009 a92a eb40 953f
00000120: 43c1 0a2b d5d0 9b3f 7f7b 5b39 3cb3 b23f
00000130: 167b 3827 58cd b2bf 0c63 4556 b1c4 a53f
00000140: 761e 6f81 1994 b0bf 333b 2e44 039f 7ebf
00000150: b2e4 6399 ec0d a63f 47ec c4c3 f16a a23f
00000160: 74f1 660e 3880 963f 83a8 d88d a4fb 9bbf
00000170: 01c3 f5f5 ce6a aebf d5c4 1371 413d 503f
00000180: 41e2 5c36 4cf4 983f 5ca8 1f1b 03ef a23f
00000190: 206b 9c85 9a2d 973f f19f af52 c656 913f
000001a0: be38 c4eb 9a60 8a3f 1e3d 0188 396a b1bf
000001b0: 09a7 20b4 c133 7ebf 9a8c 1d0a 48fe b83f
000001c0: cf8d 24d1 f7ab b23f 7bfe bd67 7e77 7e3f
000001d0: 29e3 274f 6565 91bf 9217 f808 fc56 8b3f
000001e0: 159f f71f 63cd aabf e82f 75f2 bd02 a23f
000001f0: c8d7 b9f3 0e01 d83f c98d aecd 7120 ad3f
00000200: 8f4c a5ca 5df0 a1bf 4b0d cf5e b692 a6bf
00000210: 5a84 87cc dad6 883f f9d7 60db 3136 aebf
00000220: a938 7571 28bc 92bf ab41 10f5 6ba7 a13f
00000230: 4635 d19b 6118 95bf a461 de1f d923 883f
00000240: 4f27 78be 427f b03f e004 c76c e134 a3bf
00000250: dace fd77 faf1 8ebf f74a 4fbe 090b 94bf
00000260: 35d5 8721 ff5e b03f 79ae dd5e 19b8 7ebf
00000270: e761 638c 684b 953f 8811 ecb7 3d23 aa3f
00000280: 4a7f 6711 61c8 253f fd0f d96a d706 92bf
00000290: 3dfe fe42 ad87 713f db05 c0ba 913f 72bf
000002a0: 346b b321 db6f a2bf 3d9c ce7e f069 933f
000002b0: adf0 ae0e 43e1 99bf f0fe caa2 061e 53bf
000002c0: 368c 43ea ae9b 9d3f 1022 316b f480 703f
000002d0: c42a 6d38 4d48 ad3f 3773 a7b0 f1a6 a03f
000002e0: a57f 9495 f131 ac3f ba34 6220 2d39 de3f
000002f0: 5f03 85e3 825c 733f 8910 d2cd 42e1 a73f
00000300: d99a ede0 36e9 903f ff61 0bdd 3e0c 8dbf
00000310: 7bf2 71de ff8d 86bf 5e9f 52e3 6d06 a8bf
00000320: a142 0296 fca0 64bf 1e20 ef3f 0482 a7bf
00000330: a7f1 84ad b936 94bf 0d1c bf57 d19c b6bf
00000340: ae2e c652 0523 9b3f b306 1b3b f17e a5bf
00000350: 849e 6934 e1f8 ac3f 1487 8878 82c6 a83f
00000360: abce 7a71 28d2 693f b2c3 7d71 1fe2 9bbf
00000370: 9005 5514 a695 a7bf 6da2 34df 905f 763f
00000380: 2382 a6ab 1ec0 743f b2a4 0f76 9695 8cbf
00000390: 855b 376f 4201 aa3f f8c4 61ca fa61 8cbf
000003a0: bfe4 f6a0 d680 903f 2e5a cddd acd4 973f
000003b0: d60c 3f39 35cd 9fbf 13c1 6951 73b1 b43f
000003c0: c8ed be47 8359 93bf 4ac8 153d 277d 7abf
000003d0: 3185 42f4 3a5b a2bf d2b1 9629 fb6d 723f
000003e0: 8bb5 f801 3db6 d43f 358c da4f 890d a33f
000003f0: 195d c2d3 bfd0 553f bf50 e6a2 2b64 a23f
00000400: cc0f eff9 5144 ae3f c5dd b19b 9276 95bf
00000410: 13a9 fe70 51ac 9e3f 0690 7357 e831 74bf
00000420: 0ddc 099a 36c2 b13f 1f48 390c 5eaf 87bf
00000430: 7585 392d fcb1 9c3f 9e79 7295 0ff7 a23f
00000440: d87a b95d f7a9 9bbf 6661 a1ee bb85 543f
00000450: bba6 ca76 6c30 993f f16e a764 f17c b33f
00000460: a721 b068 872c abbf f4d8 00be 4b1f 9e3f
00000470: f075 26f7 7afc 623f 2b92 4127 9641 913f
00000480: 4dda 5d67 d757 873f 6f7f 7896 41b1 953f
00000490: 06bd 63f6 6501 adbf 96a1 998f 9c2f 48bf
000004a0: 36e4 93dd a6c7 8ebf b6ad ee40 6d4d a13f
000004b0: 57c0 04de 9a84 9dbf c8e4 e7f3 7b8a 8f3f
000004c0: 145b 4603 7090 a5bf 8e45 9b8f 95bd a83f
000004d0: f086 3ffd c735 a33f 70d3 da0f 2a97 dd3f
000004e0: ecd8 76ab d19c a3bf 246a bed9 8423 6dbf
000004f0: cf1b 7950 5e1b 90bf 8ad4 b838 ad7a a93f
00000500: 3b73 aca1 d178 a9bf 7b96 9c13 e545 883f
00000510: 4ea1 0b8e 448b 9d3f 2cee b43e 2b6f a2bf
00000520: 42aa e793 45bc aa3f 9bfa 71eb c767 ba3f
00000530: e396 90a7 0b9a 75bf 1292 2ec7 9626 7bbf
00000540: 3f48 7069 5120 873f 11a1 2f6d cc8b a23f
00000550: 738a 6e95 692c 85bf daf0 01f6 3ab1 aebf
00000560: 505f 3c1b 11fb 823f 8895 13fd 94e7 99bf
00000570: 159c a9d7 bbc7 923f 5cb8 1c47 f1cf a13f
00000580: 78d3 0386 f934 983f be53 91eb e15d 7d3f
00000590: 8f3c 1d3f aa02 8b3f 10a1 e321 6d48 9a3f
000005a0: 385c c2f8 6f61 68bf 789f 78ff 6718 9c3f
000005b0: b3a8 0f42 e18a 893f bc8a ded0 856e 913f
000005c0: 690f 2bb8 1929 593f 7dc7 fb43 f5a2 a3bf
000005d0: df01 2186 0a91 d43f a723 ff22 2ca2 8ebf
000005e0: c703 ac83 e5fa 973f 888a 5258 fbc9 b23f
000005f0: 9680 551a 0d4e b93f b326 dc7b 8c4f 71bf
00000600: ec44 15fa ee45 a23f eb76 2a51 9f4a 913f
00000610: a120 d5b4 89fb a83f 2f16 9f90 5f1d 8abf
00000620: 754c 36c0 7e87 94bf 9462 563d 879c b43f
00000630: ae2c f1f5 b120 973f c6ed 497c 443e a63f
00000640: 2f31 d8c1 93ea 843f e502 79d1 3cf4 76bf
00000650: 2251 a2f7 90a0 98bf 11d4 f0ff c752 8ebf
00000660: 5817 a39a a410 8ebf 56be 95b6 14fa 9c3f
00000670: e77e 4c1e c81a 423f 64e5 c0db 6d74 a43f
00000680: f977 68e6 b64b 813f 6dc9 2182 ae2c b2bf
00000690: de5b 9e2f 6003 8e3f 3c7b 52a8 e6ef b33f
000006a0: 629c 2965 25b1 acbf 8530 4d0f e948 79bf
000006b0: 76de ce6e 28fc a23f 4094 4743 b4fb 5f3f
000006c0: c927 762a 8ba3 8ebf 9d3d ff23 96b6 df3f
000006d0: 8830 c6a0 081a adbf b575 6f46 541e b2bf
000006e0: e040 ac14 c56c a23f 0df0 2e63 bdfb b6bf
000006f0: 482d 0f34 512d a43f abba b758 0a9c 9a3f
00000700: b42c 4992 0dc6 a0bf 2d1b cfec 15a1 883f
00000710: 443d 78f4 0651 7fbf 897a 7991 036f 70bf
00000720: 9e12 164c 8534 95bf f66d 4bba 86c9 833f
00000730: 57e5 422c c0ab b0bf d6a1 bf34 c80e 94bf
00000740: 3631 7349 4514 a5bf d9da cba9 4dbb 75bf
00000750: 6993 e8d8 34d6 9a3f 190f 1dc5 ee07 ad3f
00000760: 9c77 a417 818d 98bf ff27 8162 285a 783f
00000770: cd64 3ffa ce16 b3bf 84cf 2feb d61d a43f
00000780: 02ce 43fd 2e27 a0bf d5e2 3b9a f2d3 b1bf
00000790: 5c55 6453 467d 90bf 9569 635d b7be 86bf
000007a0: 5efc 1305 d2b1 af3f 2f01 711c 51ad 88bf
000007b0: 8c6d 6752 8c56 953f c67e 76cd f55e adbf
000007c0: 52c2 e74d 70d1 d83f 77f5 5b30 fb0d 713f
000007d0: 6103 38d4 04f6 b43f 1e1e d7e8 3372 4c3f
000007e0: dad4 0c1b 6ba9 bebf be5a 55c2 5a66 a7bf
000007f0: 27d4 995e f4d7 973f c3ae 24e5 08e9 a13f
