port_results/2025-05-05/20_1/52/1_trained_linear.pth (torch, 207543 bytes, 4 tensors)

linear_mean.weight f8 [20, 60]
00000000: 0e56 226d 8519 8f3f 9866 2a20 6dba 7a3f
00000010: 8abd 38ee 43b8 853f 78b4 b6ec 0bd1 8abf
00000020: 0164 0d23 f9b7 9b3f cba3 a681 16c4 86bf
00000030: 0b6c 26a8 ee6f 93bf 90c9 54da 9745 7d3f
00000040: bbd3 c922 1561 65bf 91dc 33b0 0f6e b0bf
00000050: 148f 6030 52b3 97bf 4427 579f 1657 613f
00000060: b918 88d3 ee5b ad3f ce37 cb7e 8433 993f
00000070: c097 942d 9cb1 a1bf d1c2 5c53 35d9 8cbf
00000080: d7f9 1b55 91a0 9bbf 3902 e6b6 30f8 683f
00000090: 6ab6 75f2 d952 493f 8daa c42f cfb5 913f
000000a0: 8645 b187 d8d6 5e3f 73f1 86b5 0a4f 923f
000000b0: 9385 400d 50a3 ac3f f1a8 60e0 036f a53f
000000c0: 2654 96ad 80d9 843f 2d49 0c02 f8a4 7e3f
000000d0: d0f9 debf ab0c 8f3f 8d33 722b ed5f 92bf
000000e0: 5bac d827 e9ff 81bf 8f23 42f4 6e45 8bbf
000000f0: 8120 dccd 52d0 80bf 8170 0bd9 b95c ab3f
00000100: 5e7c 2b86 a691 8dbf c637 1aab a174 7f3f
00000110: 335e 1d4a 260f a23f 3b4d 805b 568f 76bf
00000120: 5768 2a45 c78b 583f 1c86 2487 ed22 a43f
00000130: d924 a278 f910 8ebf 0bb4 4d83 e3ed 9dbf
00000140: d0d3 18cc 76e8 a53f 4923 fe15 f1c7 9b3f
00000150: 2e5b 61ab 780e a23f db96 d753 e13d a23f
00000160: cc11 bc53 e0cb a33f 9b94 c3e3 fa4f a33f
00000170: 7272 11b1 9ba3 9e3f 011f db27 e7c2 9d3f
00000180: d21e 86b3 e091 a03f 1192 01ea 0d52 a13f
00000190: 9729 11ad 3fb5 953f bd9b b0d3 fa75 9d3f
000001a0: 529b 2b7a 1282 943f 8ce5 539e f43b 9c3f
000001b0: 4c53 37f0 233b 9b3f 93af a770 bb3f a43f
000001c0: 61c6 0af6 2e76 a23f e671 83e0 757d ae3f
000001d0: ddbd f139 5986 a13f 32ea 4b45 2d04 9d3f
000001e0: ea8b 6b24 0545 7ebf 04b0 8c31 f062 95bf
000001f0: 5fa0 239d f878 8cbf 6ecb 6ad4 f81f a53f
00000200: a8cc c3c4 03cf 7fbf 6ea9 65be d3a5 67bf
00000210: 516f a8f0 664a 81bf 8cec 5e72 2881 a43f
00000220: ade8 ec19 b8ee 8bbf f56f 4c35 e4f4 743f
00000230: f026 83f0 334e 933f 912b df19 0838 963f
00000240: beb8 e16d f9b7 7d3f 0bee 3336 2d17 65bf
00000250: 8b7d 9a09 b84a 9dbf 336e f926 3d73 943f
00000260: 69ed 14eb 9c3b a7bf c1de d690 e1df 85bf
00000270: 6ff7 f086 a194 a43f 5f30 47f0 9348 9cbf
00000280: e49a fa26 f6b0 7f3f 7411 8bd0 9a09 79bf
00000290: fcda aa6b 1e38 883f 1f4d 95a3 aa1b 7d3f
000002a0: c706 0391 3747 a7bf 57e6 10fe 7ed6 8ebf
000002b0: b402 1b16 0e88 883f 8bf4 8cee b3e8 a1bf
000002c0: ae6d 7cae 2e90 723f 5b8f e60b f0d7 91bf
000002d0: db96 c86d 3327 a5bf add1 1d28 a5fc 923f
000002e0: 3d39 c91f a1fb a6bf 3d53 54d1 1c57 9ebf
000002f0: 78bf d518 f4fe 963f bd68 3736 1752 873f
00000300: 92cb 2253 268f 94bf 3264 25c6 fe9f 953f
00000310: 1d98 4cb5 9943 98bf 72be e746 c752 91bf
00000320: 0993 d35c 4005 a43f c9dd 2111 6956 a93f
00000330: 5c25 15dd 61c3 9f3f 00fe 5673 e16f a33f
00000340: 3b66 48bc a9a8 a53f f786 01d9 f75b a23f
00000350: 0c89 1eec 2fde a03f 8d69 bdc1 e042 a73f
00000360: 26a8 130b 3a94 a63f b709 c371 0488 a53f
00000370: 09f2 a7d6 6087 a43f 3638 3e55 d45a 9f3f
00000380: 56c0 2677 5eef a13f ed26 c16f a66d a23f
00000390: cfed 7556 49d3 a03f b456 7ee8 c109 a53f
000003a0: 962a 1018 1022 a93f d42c b7e0 941e a33f
000003b0: 0052 f279 1466 a33f 00eb e6f1 1c2c a23f
000003c0: c6fa 6ade e8e1 61bf b0a1 c1bc 4bfe 673f
000003d0: a350 b1d0 68dc 9dbf e212 8d46 08b9 a0bf
000003e0: 9fc0 b70f 8f61 7fbf 57cf d24c 3e5f 953f
000003f0: 8783 04da 2039 6ebf 38fb 13de ff1c a8bf
00000400: 86c2 0377 03b5 a33f 7589 ef2b e2e6 663f
00000410: 54cb 7f61 a071 503f db4e 75f7 2af1 9bbf
00000420: e53e 09ff 06f6 83bf edf9 05f0 bb12 a03f
00000430: 40e0 bb3c 8f60 a0bf 48b4 66dd 760a 983f
00000440: 308b 691d 7485 943f 831d 949b 0327 80bf
00000450: de33 c4d3 4f27 913f 3663 eb3e fcce 9d3f
00000460: 0811 0f48 7898 323f 693b 820e e1b7 9b3f
00000470: deaa b0f0 8910 8ebf 4883 ad44 ea5b 903f
00000480: 2973 f703 fdc2 923f 26c9 403c e4d6 8fbf
00000490: 83cd 6c15 e184 70bf 6a88 0521 ab18 8ebf
000004a0: 92e7 9a61 b1a1 943f 96e9 7929 4e80 7dbf
000004b0: af07 3a8a 9bc9 7a3f d58e 8299 d38b 9f3f
000004c0: 062c 331f 6371 973f f07c 97db de71 80bf
000004d0: df34 7666 39de 7ebf 5bfd b5cf f6e1 8dbf
000004e0: 66bf 71dc 8053 993f c1e0 8196 3f05 94bf
000004f0: 944f 60e1 0a41 963f fa60 fbf9 1a4b a73f
00000500: a3a6 b88c 2103 a33f f2cb b751 40c0 9b3f
00000510: 5f7d 25b6 4724 a53f a518 f37e 4787 9e3f
00000520: 0a01 bc96 959f 9a3f f3f4 4004 05ec a03f
00000530: 3bbe 6fea 41e1 9d3f b4fc 6918 3008 a13f
00000540: 8be7 8fe3 3a2c 9d3f b823 4075 62c6 a03f
00000550: 1b31 f649 10e7 9f3f 2d8b 3901 7c16 a43f
00000560: 26fc cc38 8223 9e3f 971e 3091 b99c a23f
00000570: 6767 a7c3 f6cd a33f 3f8f 0f04 9e90 a13f
00000580: 7a3f bb98 cc6d a13f 17f1 a441 988a 9a3f
00000590: aa7e 7d66 d648 a13f d769 9141 4d40 a03f
000005a0: cd32 f672 4878 823f 1721 daf3 7779 88bf
000005b0: 6d04 1be3 07da 8fbf bdb4 4361 3abd 593f
000005c0: fa57 17b5 75f5 653f b653 5b8f 7a8c 753f
000005d0: 4cd5 756b f92a 993f 6d35 2fe1 95aa 9a3f
000005e0: 3a0f 909d cba5 9bbf fb16 f986 932c ae3f
000005f0: 8828 dc9f c630 823f 329f d2e7 dd77 5d3f
00000600: 43bd 3b11 cfef a13f 4b9d 506d eef4 69bf
00000610: ea43 5caa f75c 8ebf e072 44dd 79f3 85bf
00000620: 5df1 608d d401 743f a700 0bbb 8936 8ebf
00000630: 487a 0ff2 158f 843f 0739 dd01 6cff 573f
00000640: 5d6b a1a6 88e7 a5bf 1f2e bfb0 5826 8a3f
00000650: dedd 77c4 d173 a0bf c801 0e0a 3bc8 98bf
00000660: 1b38 5337 07f2 863f 454c b3ed 3d7f 94bf
00000670: 6867 6d99 3bb7 99bf b0d7 93e6 80b2 92bf
00000680: d198 fdb0 3794 653f a734 7d21 1242 88bf
00000690: 2cc1 94ba 28ad 46bf 7584 edb4 a869 923f
000006a0: b192 3f8f 6a95 67bf 7eb5 56a0 ff28 71bf
000006b0: 12c4 c4c1 5718 763f 9abe 0252 40ce 3f3f
000006c0: a2f3 89b4 35e8 823f cb60 7d09 46d5 81bf
000006d0: 0c28 2584 025b 73bf e222 5dfb 5452 76bf
000006e0: 2e48 5dd9 63c4 a03f 0e3a ce74 c59b a13f
000006f0: e3f1 4575 c145 9d3f 4bfa 298f 95c7 a33f
00000700: 5ad6 5069 3abc 9d3f b4f8 80fe ba1a a03f
00000710: 0d9a 92ce fcae 9d3f ebdb c192 23a1 a23f
00000720: f5a0 4d1e bc80 a03f 1e4c ea42 7862 9e3f
00000730: f3b8 d355 1cbe a23f da3d 2523 e13c a03f
00000740: 980a 42ac 8205 a13f 4e3a 5261 4dc3 a13f
00000750: dbe9 4f0f a074 a03f b65d 6c10 045f a23f
00000760: e79f 7dbd faf1 a23f c9c7 ebc5 3130 9b3f
00000770: c9f0 e21d 9793 a23f 7541 3a25 4e7c a33f
00000780: 9883 1f83 c5e9 893f 5df2 9a52 7c2c 84bf
00000790: d373 500b dcd0 893f 10ed 2906 5d9e 93bf
000007a0: 2be5 eef7 12cd 433f dc04 1542 b535 95bf
000007b0: c472 6dd0 056a 87bf 2572 72ee 3328 ab3f
000007c0: d2f5 673c fa56 99bf dd7c 6d5f bace 813f
000007d0: 08fd f6ac 98b3 94bf 0321 d42c 4732 a73f
000007e0: 31ae 371d 120a 903f 4168 908a 0d72 9fbf
000007f0: 199a 85f0 d338 a7bf 81b2 f663 74d2 903f
0.015185396569260792 0.006525446197565586 0.010605364520499778 -0.013094037209919515 0.027068989529059454 -0.011116195518143265 -0.018981675160471705 0.007146447348804222
-0.0026097691355126663 -0.06417940189190775 -0.023144993021687446 0.0021167222828112637 0.05734201748059448 0.02461058639419616 -0.03455818230058538 -0.014086166960255582
-0.026979704684885277 0.003048033852963064 0.0007728161043993435 0.017295110025922034 0.0018822779227501709 0.01787964566186546 0.055933477037125055 0.04186260332092385
0.010180478379689783 0.007481545239686843 0.015160886567056858 -0.01794405534433312 -0.008788892296328557 -0.013316027478383478 -0.00820984545454473 0.05344181799384363
-0.014437962502993947 0.0076795878573089945 0.0352718320343083 -0.0055077908837291535 0.0014981695173106513 0.03932897829714596 -0.01468081378358692 -0.02922778595841539
0.04278918496530759 0.027129904715852225 0.03526665775341652 0.03562835834945385 0.03866482755805442 0.03771957426378344 0.029920990641004903 0.029063808257688176
0.032362958826579594 0.03382915002365306 0.021199221552060967 0.02877036969234913 0.02002743597668239 0.027572462237889492 0.026592790161731814 0.039548738004525984
0.03605791810458637 0.05955093732493193 0.034228123019484726 0.02833624587490586 -0.007390041434265785 -0.020885231994881806 -0.013902609153277177 0.04125955193503371
-0.007765783997672283 -0.002886689722051353 -0.008442692012117144 0.04004789730193989 -0.013638914385968393 0.005116359174987641 0.01885300784559879 0.021698118762099098
0.007255529721176211 -0.0025745280305480337 -0.028605342470311917 0.019970851424984736 -0.04537668580675353 -0.010680925591130987 0.04019646427376144 -0.027620612659845608
0.007737123043318948 -0.0061126754232570975 0.011825788174389278 0.007106463011342683 -0.04546521802104802 -0.015057556274871304 0.011978254365545872 -0.03497850691790302
0.004532034254022417 -0.01742529938350344 -0.041314704085648045 0.018541889737620987 -0.04488852990162904 -0.029629183079197253 0.022456945434384562 0.011387044279150488
-0.02007732279225711 0.02111814579379629 -0.023695375147461662 -0.016917337134087558 0.03910256512771155 0.04948738416799931 0.03101876174813377 0.03796295674282746
0.04230242179273743 0.03585791133879284 0.03294515378299154 0.0454321133135692 0.04409963021483092 0.04205335510916391 0.04009535427391959 0.030619924261877617
0.03502936558231855 0.035992814199358715 0.0328619878809736 0.04109006846480892 0.04908800405254003 0.037342693739981364 0.037888183485083715 0.03549280598550375
-0.0021829174250734577 0.0029288748974531584 -0.02916110776671189 -0.0326616846200858 -0.007661398728927931 0.02087113708394325 -0.0036893502839494027 -0.04709624849237176
0.038490398672256496 0.0027956406988646717 0.0010036531657504249 -0.02728716979375077 -0.009746603639683335 0.03139293007824393 -0.03198669067745685 0.023477418196922423
0.020040334983046637 -0.007886913476353957 0.01675152521152145 0.029109898891735507 0.00028374611434524343 0.027068630705396588 -0.014679982812670852 0.015975628320464424
0.018321946494199857 -0.015546591843393087 -0.004032973511857721 -0.014695488877524993 0.020148059446661266 -0.007202439613701725 0.006539924219056844 0.030806833500391335
0.022893475322046462 -0.008029690815361396 -0.007536148280803816 -0.01459114858039239 0.02473260255322831 -0.0195512710201633 0.02173249245249982 0.045494883551954815
0.03713326304234712 0.027100567805927463 0.041292420372651455 0.029812924502743105 0.02599939091214857 0.03305068661618717 0.029179601606243315 0.033265593509889696
0.028489036692895858 0.03276355439454143 0.031154875292075262 0.03923404231024672 0.02943232986148927 0.0363519658786206 0.038680755027327866 0.03430646705217421
0.03404082645795277 0.025919322020159088 0.03375883103467221 0.031740583661946146 0.009018484123566673 -0.011950432900690573 -0.015552579515658327 0.0015709943882556276
0.0026805209133540205 0.005260924100828504 0.0245779964293054 0.026041356915631853 -0.026999646655908573 0.05893384001369203 0.008882095101871337 0.001798598007818297
0.035032721379929764 -0.003168550184017659 -0.014825758825766717 -0.010718299927753916 0.004884557993190289 -0.014752460499380794 0.0100385393615713 0.0014647059210407003
-0.04278208765091194 0.012768452543148233 -0.032133631928384906 -0.02420131920689686 0.011203819633376402 -0.020016639359550465 -0.025113040198767506 -0.018259061883291572
0.002634152195173469 -0.011844770094877012 -0.0006920288916827714 0.017981182139355362 -0.0028788644067268766 -0.004189489879917628 0.005394308853554202 0.0004853159935107404
0.00923196751795691 -0.00870756832561916 -0.0047254656113384745 -0.005449611626155289 0.03274833706258594 0.03439156580781254 0.028586409361638487 0.03863208172423479
0.029038345983471416 0.0314539371179178 0.02898783694095113 0.0363856426856087 0.032232168864370005 0.029672507366353178 0.03660667941754694 0.03171447328588402
0.03324516632803415 0.03469316304209667 0.03213977991977731 0.03588116360168263 0.03700240672225146 0.026551034646167957 0.03628227462601925 0.03805774883687977
0.012652915062007428 -0.00985047461596727 0.012605399222644842 -0.019158795834738618 0.0006042807216239168 -0.020712692411738995 -0.011432691024020676 0.05304109845858233
-0.024745855271239688 0.008695083653661612 -0.020216355854924678 0.045305465910191266 0.01566341689424017 -0.03070851476886838 -0.04535543738420617 0.016427820779130634

linear_mean.bias f8 [20]
00000000: a054 d00b 9f8d a73f 91d2 9259 5127 aa3f
00000010: ecd2 4c45 6b82 a53f 9020 ddd4 66b1 a53f
00000020: 8daf 6c33 aa02 a63f fe66 1ac5 254b af3f
00000030: 6a72 40ab f476 a83f 3af0 111f 0d16 b03f
00000040: 10bb 8c1f b2c6 b03f b1da e294 89f3 a43f
00000050: 0281 86c5 1f47 a43f 6458 2e51 7597 a73f
00000060: fb99 d8d7 531e a93f 5b7e 4200 6a85 aa3f
00000070: 2ccd f694 4cbd a53f da3a 2076 9bf6 a53f
00000080: 3594 f40b db3b a73f fdc6 f139 a6b1 ac3f
00000090: b1f4 4d11 c5e7 ac3f 5145 d482 b8ee a93f
0.04600235957347221 0.05108122080256295 0.04201064320515066 0.04236909244952003 0.042989081170474376 0.06112020522159688 0.0477825602576772 0.0628364754538219
0.06553185720688881 0.04092054312188987 0.03960513387869648 0.04607740989665457 0.049059505556488824 0.05179911854906712 0.04245986288460765 0.042897089166322025
0.04537853737773682 0.05604285676316854 0.0564557632087398 0.05064941975627824

linear_cov.weight f8 [400, 60]
00000000: 2b8c 842d 26a7 2e3f 1928 66da 0e5b 653f
00000010: d927 2311 ce64 7c3f 28f6 a038 b52b 623f
00000020: 1dbf 47fa 1302 6abf 2fd7 f828 664f 773f
00000030: 55cf ca28 7d95 803f ca73 f2dc b7e7 7abf
00000040: 46dd db1c 8492 45bf 113b 70ee 3796 613f
00000050: 91c7 64b5 3d7f 80bf 9b47 527e 77c2 84bf
00000060: 3fbb 7203 5881 53bf fda6 149e 992e 7a3f
00000070: fcc8 298d bf3a 603f fe53 5475 ce49 6cbf
00000080: c2de 09a0 6983 75bf 3653 95c1 83a1 84bf
00000090: e2bc e07d a5b6 2abf 105e 3214 a6fb 71bf
000000a0: 8b9f cc0a 8cd0 52bf 1b08 4904 8129 4f3f
000000b0: 92bd a5a3 2918 5fbf 9267 4938 0e71 89bf
000000c0: 2006 85d9 9cb0 68bf 2253 0a06 c5ad 72bf
000000d0: 672f d15b 759f 8abf c815 8d00 8268 843f
000000e0: 8fe3 b14d 106d 723f b43e aea9 e0c0 70bf
000000f0: 4da1 6833 1936 653f 9b97 59a4 e3f3 83bf
00000100: 09fd d77e 1802 58bf 5127 746e 1f50 04bf
00000110: 723f 5684 8dad 86bf 70c4 b818 c9b7 7ebf
00000120: 21c6 a273 ceff 88bf c37b 90d0 9d32 7dbf
00000130: 4dc9 26ce fa77 773f 7f18 0a70 a9b9 81bf
00000140: 8106 0f49 02e9 43bf 0871 1d14 72f2 473f
00000150: 67f9 e4dc da4d 353f 94ac 377f 2d11 5cbf
00000160: 54b6 216b 5810 54bf 30aa 0ad5 ffd8 55bf
00000170: 3142 348b 4c36 363f 8091 ac50 ddcf 5dbf
00000180: 1740 fa08 f498 4abf 1982 1724 59a5 57bf
00000190: 1f24 4d5f a43b 313f f0a0 4fb8 12fd 50bf
000001a0: d31b dc28 3ba4 323f 400e cc8a f882 4ebf
000001b0: 142b 22b5 7994 343f 6385 2fb9 369b 51bf
000001c0: 043b 39df 6831 56bf ef46 eca3 f52e 32bf
000001d0: adac 0f62 61e8 33bf 7885 f8ed 6570 453f
000001e0: 92cf d444 fb21 303f a914 faef 3e82 7a3f
000001f0: 1f4d ab8f 92a5 573f 4a4f 651b 838d 323f
00000200: 87fc e307 3c06 573f a52a dd28 3fcb 60bf
00000210: 70ca 7ea3 5b73 803f 18a8 2ce9 735c 7cbf
00000220: 1dce 28a2 4178 d63e f3ab 3603 81b4 833f
00000230: 04f0 87e4 7dc7 87bf 0bfd 9118 09bf 86bf
00000240: 0479 5db3 f8b3 68bf 722e 87e9 c295 453f
00000250: 843d a554 df3a 843f e074 1e12 9907 7fbf
00000260: cf3a fc70 a391 793f 2da8 0a00 2211 80bf
00000270: 2e95 8560 7076 53bf 1c05 379f b77e 73bf
00000280: f7be bd42 1e6d 64bf 46d9 4cf6 2d9d 43bf
00000290: d713 3db0 6ab0 2f3f 3ea9 1b5b 9da6 84bf
000002a0: ecb3 95e0 7ec8 513f 1075 60f7 1afc 7bbf
000002b0: aba2 034a 78dc 8bbf a4ff 5ef6 43b6 863f
000002c0: 2080 4a57 6ee0 803f 07bc 86bd 1b64 88bf
000002d0: a005 de58 0dd9 803f b99c 3b16 cdee 84bf
000002e0: 656d cbb6 f742 63bf 744d 35e9 57d7 833f
000002f0: cc73 8dc4 4d71 8bbf 2c71 6f08 74b9 82bf
00000300: de1d dd77 188f 86bf 8d18 de73 aa6a 7abf
00000310: ed50 bfe7 e06f 6f3f cb06 18e0 4e5b 89bf
00000320: 76ab 12bc 420f 63bf 006c c844 25c0 60bf
00000330: b23d 817b 452f 5bbf 87b7 63cf c159 68bf
00000340: b305 d8b5 5a67 68bf f574 c78c a0f8 60bf
00000350: 4587 b242 4606 4ebf 1b7d c472 04c0 69bf
00000360: d1ff 1496 4625 67bf 95f3 1011 3088 6fbf
00000370: 7420 272d 515b 45bf 3d9b 2357 7887 68bf
00000380: e843 9fbb 290b 51bf 6c83 214e 6fe9 61bf
00000390: 6aed 726e 2994 3ebf c41d 2978 be3a 68bf
000003a0: 669b 43ed e039 60bf 4cda 06fa d657 50bf
000003b0: f92d 96c7 b42a 55bf 2bae 4ee7 c76d 10bf
000003c0: 780c f655 72e0 083f 4922 28e2 30a7 793f
000003d0: 68ed 491d 5615 77bf 1df1 5030 d204 76bf
000003e0: 1b1c a3e5 abbe 5c3f 085b 8293 cafb 77bf
000003f0: 62ba 7876 9d04 69bf 6b95 782b d1f8 593f
00000400: 4cfd 8f3f e08e 743f fd48 670a c3ca 5cbf
00000410: 5fcb ed2b 2059 4c3f 84b0 a1e8 cc33 533f
00000420: 9a17 78c6 75ed 803f ef4e 0d96 15c2 70bf
00000430: 3501 3a42 4fc6 79bf ffc2 5106 34e4 5bbf
00000440: 66bc ed79 9a66 673f 6b7b 46b8 d833 653f
00000450: 723e 6425 40df 54bf 8cf0 ef44 60ec 653f
00000460: ec23 63aa 90e0 223f 14f6 7208 053a 1f3f
00000470: 3b73 908b 0a07 663f edd2 0eee 37c7 813f
00000480: 7167 5d99 ec6d 733f 7313 955a ece9 763f
00000490: dcee 9f8e f519 813f e172 8e51 5c88 86bf
000004a0: 76d3 a82c 1477 703f 2b72 60ee 51a4 653f
000004b0: 1dcf 2546 f6c9 3dbf f725 acba 44df 7e3f
000004c0: 9c03 ac3d 5c39 723f a640 3aaa 42ce 533f
000004d0: 786b 18fe 8994 763f 3363 83a2 8903 393f
000004e0: 5fa7 cc95 193b 763f 2c95 58e5 9346 4a3f
000004f0: e204 79ee dca2 71bf 162e f1f8 e764 6c3f
00000500: c8de 5316 f9c3 773f 3cf0 d372 917a 6e3f
00000510: 47c3 913b d7ed 763f ab23 0877 dba2 753f
00000520: 5f30 c925 145f 753f 2a55 d62f ed24 763f
00000530: 8bcd 4ef2 d28e 733f b25f 11c1 715a 743f
00000540: 519b 2c30 8be7 713f f60e 1d90 cd93 753f
00000550: a5d1 c9de ae85 703f f332 d3ba c7e5 763f
00000560: 8e5f ffa5 e5aa 703f 1cfc 0f87 a79f 783f
00000570: 635d 60f5 90ba 753f f0cf 8478 46df 763f
00000580: f645 7fa3 bd30 773f c0f7 f751 072d 783f
00000590: beac 29d1 d35c 773f 5a81 df54 088d 733f
000005a0: 2412 da65 c17a 43bf d4b1 b807 6528 4bbf
000005b0: a80a e78c 98d0 5a3f 38a9 fc20 d4c4 51bf
000005c0: 51f7 6e4f c71a 55bf 8808 f736 b31f 6e3f
000005d0: 6270 79c9 8f18 473f 1cb0 2319 f349 243f
000005e0: 818e 66b1 a1c2 233f e4da 4bc8 5a1d 56bf
000005f0: 74cd 296e 00b3 54bf ec55 9d38 f1d0 603f
00000600: bd85 b5a0 7093 46bf 2943 74d4 9eae 533f
00000610: cf61 0366 f1b1 273f 24e6 fc1e 4284 0c3f
00000620: 4a6c 2159 71c1 6bbf 3183 1cd5 9b19 5bbf
00000630: b757 a4cb 11f7 593f 3e14 b446 a444 40bf
00000640: b847 ca99 9091 5e3f b9fc f202 31f3 713f
00000650: b92e b7fe 105f 58bf 89b4 b9d9 d497 60bf
00000660: f33a 4c24 edb5 4abf 6bf6 cc43 2dde 523f
00000670: 2023 98d9 5f6d 3d3f 7e87 3bb5 fc7d 633f
00000680: 5505 8a87 37aa e4be 5f4b a771 d60c 63bf
00000690: 4934 d7bd 81f0 5ebf ed9d dd8c 654d 59bf
000006a0: 4ce1 cfcb a289 6bbf a3a0 fc95 faf6 583f
000006b0: d2ff d7cc 792e 6dbf 1d79 7af4 e78b 3cbf
000006c0: 2305 6b5d eb27 5dbf 334c 033c 7928 523f
000006d0: 597a 028d eb6b 5f3f ace8 d4d1 b24a 6d3f
000006e0: 744d c5e5 ab19 5d3f fd73 3c31 c805 603f
000006f0: 307f 42a5 0a98 5c3f f6c3 5290 15ba 593f
00000700: ba2f 391e 12d3 583f 9253 06bb aded 553f
00000710: 218b f11b 77c9 563f 3c03 6d2b c9de 583f
00000720: 862a 5c5c b9ce 5e3f f05d 8022 c9ed 5e3f
00000730: 2c68 5109 92a8 603f 7f1c 6645 0e00 593f
00000740: 20dd 2052 9d74 583f 7639 977a 4bc6 5a3f
00000750: 1e62 90d2 a61b 593f 3f99 b4f7 af4a 583f
00000760: f8e5 c5da bf5e 5f3f 06e1 a0fe 1e3f 583f
00000770: 016f ea0d a02e 573f dfd9 e4b0 ac91 573f
00000780: c60d 1085 6a63 253f da1b 770e bd2d 52bf
00000790: 2c1a 57b3 535f 513f a4ac b8cd 4a21 62bf
000007a0: ddf1 8000 4a19 58bf 536a 2a7f 37c3 413f
000007b0: 927b f3a9 24d5 423f e02c 76f8 e10c 1b3f
000007c0: 5455 3c3b 7583 523f 1c45 612a 22a0 52bf
000007d0: 22ff 8953 f292 55bf 6f7e d514 4580 39bf
000007e0: 54ef 9b3f 3fca 4a3f 9af9 1533 5d6f 403f
000007f0: abac b59a e163 51bf d9fa aed6 9674 f5be
0.00023386326825755704 0.0026068964099907996 0.006932072590823035 0.002218107173603174 -0.0031748190106028044 0.005690955221828094 0.008097627456073711 -0.00656863996041763
-0.0006583352166832721 0.0021468250665813778 -0.008055193041034222 -0.010136540930293416 -0.0011905059343850358 0.0063920975383469055 0.001981138347496912 -0.003453162421133359
-0.005252277944798047 -0.01007368978995658 -0.00020380754625779542 -0.004390381570508875 -0.00114835430140123 0.0009509925808475235 -0.0018978506692198566 -0.012422667591795809
-0.0030139029951505997 -0.004560250876825463 -0.012999455322777199 0.009964957849329617 0.0044985424857423425 -0.004090192402955207 0.0025892727092193036 -0.009742525532782589
-0.0014653434003547036 -3.8743933879882766e-05 -0.011073213196851592 -0.007499490293001107 -0.012206662086415911 -0.0071283497464084715 0.005729655941126244 -0.00865490315596795
-0.000607610813055895 0.0007308060669220249 0.0003250750859428359 -0.0017130798631750698 -0.001224600168395003 -0.0013334749566335062 0.00033892983192721204 -0.001819578292903662
-0.0008116904809458728 -0.0014432306783122072 0.0002629543590058642 -0.0010368998348387302 0.00028444713903791086 -0.0009311402878612943 0.00031402560592457105 -0.0010746035011311654
-0.0013545536175063053 -0.0002774572093794244 -0.0003037679435339929 0.0006542680457110447 0.00024616608137084065 0.006471868371254499 0.0014432841550629583 0.0002830929837689301
0.00140529501328482 -0.0020500405870838728 0.008032527853946564 -0.006924107338628381 5.357206222234297e-06 0.009621627722330195 -0.011610969101631959 -0.011106558859181456
-0.003015504592368436 0.0006587220878428569 0.009877915163683644 -0.0075756053282962366 0.006242407267349661 -0.007845178247709661 -0.0011879060203566316 -0.00475951888387385
-0.0024934378652047245 -0.0005985712456098378 0.00024176885937712722 -0.010083417265793867 0.0010853995357493719 -0.006832223260088158 -0.013604106672987134 0.011089831310414251
0.008240568198118636 -0.01190969154489886 0.008226494097246129 -0.010221101990693137 -0.0023512685932993043 0.009688078693818915 -0.013399703560645813 -0.009142786509919697
-0.011015120656920393 -0.006449380712984743 0.0038375275307577146 -0.01238118764286202 -0.0023266127978635543 -0.0020447471527069716 -0.0016592196025334402 -0.0029724870065512307
-0.002978970688446403 -0.002071679662761223 -0.0009162753170992374 -0.0031433188324993095 -0.0028253916395044394 -0.003849119072155858 -0.0006517549866709286 -0.0029942846677956368
-0.0010402591274110088 -0.002186505692450094 -0.00046659480581086896 -0.0029576988320376436 -0.0019807236768544676 -0.0009975051290048885 -0.0012919202257276592 -6.267101873785239e-05
4.744862485053179e-05 0.006262961340788361 -0.005635582336818025 -0.005375691461321244 0.0017544439966046324 -0.005855361283599654 -0.003053958458415538 0.0015852015184319678
0.0050190696429120545 -0.0017573265737281234 0.0008651167953373887 0.0011720181523982307 0.008265419120117735 -0.004091343232022856 -0.006292638401305607 -0.0017023571065488128
0.002856542312137433 0.002588198929700016 -0.0012739302088141916 0.002676189447354876 0.00014402166306684506 0.00011912017554301823 0.002688904377022542 0.008680760338259453
0.004743503775751155 0.005594180352379452 0.008350294508992766 -0.011002274741082231 0.004019812399339231 0.0026418304651214717 -0.00045454275654964617 0.00753714415874062
0.004449234310187313 0.001208844282619062 0.005512751611173587 0.0003816805860999306 0.005427455846794021 0.0008018705509057803 -0.004305708898358436 0.0034660845481420217
0.005802128788893142 0.00372055442733024 0.005597916367251105 0.005282265934973755 0.005217627240721694 0.005406309615314778 0.004774879464935276 0.0049690669557875145
0.0043712079084688585 0.0052679090311504775 0.004033740126591222 0.005590229219887932 0.004069230140849712 0.0060116333052056235 0.005304876560351476 0.005584025646658816
0.00566171720125074 0.00590231761407084 0.00570376149208157 0.004773170991001352 -0.0005944675755960621 -0.0008287900267923095 0.0016366472005847985 -0.0010845252581455755
-0.0012881227864762377 0.0036772251403088298 0.0007048322758680498 0.00015479176051458397 0.00015075897017623535 -0.001349772123999387 -0.0012633804514308985 0.0020527564383125887
-0.0006889629307062422 0.0012013007233841555 0.0001807791877641699 5.439116273326893e-05 -0.003388139136445233 -0.0016540548135212769 0.0015847848686170016 -0.0004964639787493686
0.0018657600514058025 0.004382316066027397 -0.0014875093428256393 -0.002025523875821171 -0.0008151443404090505 0.001151603893233678 0.0004490241059050149 0.0023794112874932485
-9.853796869354706e-06 -0.0023254574163983767 -0.0018883959777327311 -0.001544331712887255 -0.003361528359615706 0.001523728096751533 -0.0035622004422748233 -0.0004355851456042824
-0.0017795370564928712 0.0011082824640211819 0.001917820005509127 0.00357565808976997 0.001776140087788783 0.0019558820730609648 0.0017452339134606636 0.0015702448447820739
0.001515166943948805 0.00133840528369442 0.0013908065009437603 0.001517960028380296 0.0018803415454750351 0.0018877472121000514 0.002033505656567255 0.0015258921972376713
0.0014926468216012803 0.0016341912363376488 0.0015324715734604875 0.0014826506074512994 0.0019146798686889826 0.001479892986493482 0.0014149249106258368 0.0014385401187389996
0.00016318011560666044 -0.0011095377211505137 0.0010603253734743452 -0.0022131405837818186 -0.0014708731341804761 0.0005420704822712376 0.0005747250578699173 0.00010318879332353896
0.0011299748266016723 -0.001136811604301186 -0.0013167730777751759 -0.0003891152053565388 0.0008175667601046746 0.0005015568805644577 -0.0010614112059908292 -2.046148930978206e-05

linear_cov.bias f8 [400]
00000000: 007c 9113 d2ce e43f 6490 e361 3e6c 843f
00000010: b62d b2cf f586 a6bf 8372 338b 9c32 5dbf
00000020: 5e38 ae13 bf1f a83f 1a9a 83d3 248a 833f
00000030: 935f 9df7 3eee b03f 3690 3892 1738 50bf
00000040: fdf9 539b fd15 ae3f 744d 11ef 2bb4 b3bf
00000050: 46ee 37b9 9505 9b3f b188 7611 2c0b 8e3f
00000060: 4ca7 c831 edad 8f3f b8a7 11bb a4e7 753f
00000070: d959 a2ac f28a 95bf 5eb7 af14 bdef b4bf
00000080: 4acc 36ce 48e1 a23f 8b5d 7587 d9af 973f
00000090: 1f09 6b8b b324 633f d960 abdf ec08 95bf
000000a0: 7e2d 7e8f 94a8 783f d257 23dd 9db1 e43f
000000b0: b2cd 77de b7e5 b3bf 37d2 073d c288 953f
000000c0: 7b43 68b1 1933 b0bf b62d ee04 6011 a3bf
000000d0: cde4 2547 e422 5bbf a894 e549 ceb4 8c3f
000000e0: 6a9c 9c8a a011 a0bf bd02 326e 4804 aebf
000000f0: b24b a9b2 fa70 a7bf d700 112a 8db5 a0bf
00000100: 8ad6 29ba 743e 47bf b699 47b1 97a8 7abf
00000110: 84c2 479f f2d8 803f 74fc fc43 66d0 a7bf
00000120: 6165 528f 9569 82bf 1517 75bd 3141 9bbf
00000130: a20e fb50 9d19 9cbf 79af 97e8 c6d6 b3bf
00000140: 17e4 7892 c20a acbf 0e6a 1e99 ccaa b3bf
00000150: 1a56 5313 a7d2 e73f ad16 8470 c57a b2bf
00000160: 7d9b 51bc 0a93 aebf 60ee c29c 3e50 ad3f
00000170: 6b76 a420 3a08 a9bf 86c2 330f d0f8 a03f
00000180: c6fd 6404 8f4e 783f ac15 e4b9 4414 9d3f
00000190: ed49 a1f7 3ff7 a23f 07d0 f6ed 23ff 86bf
000001a0: 6337 a23c b1de a33f b0c7 c3a9 c1a2 9e3f
000001b0: 75de 1f02 b76f 62bf e685 788a 0629 923f
000001c0: 49a5 b362 72d0 64bf 7f2c fb0b 5079 663f
000001d0: b7b5 f244 f6be 71bf b353 7807 0b23 bf3f
000001e0: 3fe3 9650 9f43 6ebf 8a63 7b3b 7c24 943f
000001f0: a974 6506 6538 b3bf af39 36ae a23f e13f
00000200: 6545 fd74 2d4b 843f 0a66 ae72 6937 a53f
00000210: 178b e895 11d4 a13f 8b0a 57f0 303b 9f3f
00000220: e4ef 71d9 cf79 a1bf db1b 4c4a c932 b8bf
00000230: 61b7 92f1 0833 853f 17e9 9880 987b 94bf
00000240: dd66 5de9 3a88 9e3f 11a9 e272 0827 a1bf
00000250: d735 aa6e fec7 883f 1f3c 6409 86ce 97bf
00000260: 8737 ada6 749c 9b3f 9594 b6f3 0fb6 9abf
00000270: 12f9 3243 85f2 a6bf d9b3 6c69 c695 7f3f
00000280: 8b5f 2528 a25a a73f 8d35 08eb 0463 b0bf
00000290: 545b 125c 2e54 afbf f3aa 5804 d0df 793f
000002a0: cfb5 7643 fd69 e73f f22f 8966 7cf9 84bf
000002b0: f9d8 290c 91d8 83bf a989 5244 680a a5bf
000002c0: dfde ed83 c858 903f 2c09 2648 d9bd 9abf
000002d0: 39f3 4419 9e1a 69bf 8353 6bf7 497d 7a3f
000002e0: 2d9f 0c62 7775 a0bf 45d2 db7a 997f 84bf
000002f0: a63f d976 7791 a9bf 7923 5829 b3df 99bf
00000300: 2262 b968 445e 9c3f f03e 69e2 aeb6 84bf
00000310: 794b 7d7a b7de 853f 84ec bcd1 7f53 b2bf
00000320: 7796 acf2 17c9 803f 59dd 5ba2 5216 a3bf
00000330: dd0d b846 fac6 aa3f a0b0 4fa0 45c5 a33f
00000340: 68cf ce44 ff91 88bf 5de7 7a1a e141 e33f
00000350: 5427 6387 836c 92bf ead5 214f 2513 8bbf
00000360: 83a7 3b4f 2e8f 803f 8ef5 3db8 7ebd 6e3f
00000370: a546 9b1c 6d6d a23f f3db 34e4 b72a 873f
00000380: 7c7c 1b5b 2908 82bf f013 54e7 a83e a23f
00000390: 6746 38ba fc81 9ebf 63a2 1c66 3069 a1bf
000003a0: 1fa0 837b c1ff 7dbf 2a18 db1c b83d b53f
000003b0: 857e 52b4 bd84 b33f 3e48 a6bc 0d69 ac3f
000003c0: 5930 7ad2 5895 b03f c2f2 6aeb bfc2 483f
000003d0: c3f0 2ed6 f46d a9bf 3560 b7a1 66ea a23f
000003e0: 785f 2033 ecdf 83bf 9487 ef32 e148 92bf
000003f0: 97b3 d816 fef5 e83f 9c20 6aa3 d2c0 783f
00000400: f7f1 b543 e43f 703f e4e1 1088 49f3 b1bf
00000410: 9963 e3d3 203c 95bf 5c35 6c76 a388 a4bf
00000420: 0532 4d57 6bfe 7bbf 25e8 2286 7355 b93f
00000430: 944f d35c 042e a93f fa9a 7ffb feea b1bf
00000440: 5261 e7ab d751 9cbf 5128 1cb8 79e7 8cbf
00000450: fe54 11ec 76d6 86bf 1bba 72fd bb81 7cbf
00000460: 8bec 811a c3ad 80bf 8bb0 e4a8 5cb0 973f
00000470: 5980 1dbe 7b10 a13f ec25 0082 cc12 9b3f
00000480: 913c 3a31 fee0 a4bf 4e0f 8c6c c482 88bf
00000490: 4f63 c3aa 505d 843f a799 de5c 39a1 e33f
000004a0: 1ffb 0811 fbe0 7d3f d679 d73f 7118 99bf
000004b0: 7b4a ab09 4616 a03f 4f87 4dbd 354e ab3f
000004c0: b08f d3d8 6a61 b9bf 20e2 3aaf 05e6 65bf
000004d0: 468e 2bad cdfc 9dbf f47c e0b6 63d5 9abf
000004e0: 852f 9943 6d27 b8bf 5032 f426 776d a1bf
000004f0: eaba 42bd 706e acbf e242 b385 a7c2 b0bf
00000500: 568e ba33 fcab ad3f e56d 815c 62d7 a2bf
00000510: df10 c7cb 4a55 613f 364b 57c9 523d a3bf
00000520: 28f8 d54b fa9d 953f 9987 b9cf 7ffa 823f
00000530: 151f 7e9c 4f13 82bf cc34 172f f816 89bf
00000540: 2228 a576 6798 e53f 652d ea30 2438 73bf
00000550: d0b2 75d5 be61 96bf e803 2751 73db 91bf
00000560: f6fd 4b5a a9b0 ae3f 3162 28a0 5ee1 acbf
00000570: b4d9 ec7a 372f a63f 3883 4514 14ad ab3f
00000580: f9d8 f7b0 cb47 ab3f 7084 a4eb 8341 88bf
00000590: bd86 ce2d 5a3b 8b3f 9c03 c7ae 6895 79bf
000005a0: 987e 203c d756 b3bf c9e5 e727 99b4 acbf
000005b0: 0e99 a577 e7e8 9d3f e1da b9ba c8e0 b6bf
000005c0: 89d0 2d06 80a2 96bf af67 b49a f4ce 6d3f
000005d0: 6912 3512 bd38 b2bf 1b65 236d 5b95 97bf
000005e0: 78ce 89fb 8e58 433f 8172 a8be 0354 e43f
000005f0: 8da6 3006 85dc 8dbf fdfe 0cb3 5d21 993f
00000600: 447a c7b0 48c0 293f aa73 942c 2e2c 97bf
00000610: 7a78 04cc d966 92bf 63a8 07f9 f8c8 af3f
00000620: 918f d8bc 1ef7 99bf 2d1e dfce 56c7 a33f
00000630: dac2 d3c8 5793 a13f 2365 53e6 2999 b73f
00000640: f5de 4817 4ed0 9f3f e46b 8308 7a1c a3bf
00000650: 51a0 b32f 15ad a53f e8f4 c099 a177 953f
00000660: 715d a1fc b938 4a3f d190 2645 9837 a43f
00000670: 2f94 e719 ad58 8abf c0b1 2746 b31e a33f
00000680: f93e 99b2 280a 8fbf c797 e30b d724 8dbf
00000690: 3d91 8876 e036 e33f 4f06 6b48 7363 853f
000006a0: 8535 e9df d511 62bf 6aa3 6968 5af5 783f
000006b0: 7e10 ea7e f848 943f 75c8 d5dc ed6a 853f
000006c0: 564e 0b79 5aab a3bf e1ef 4c42 2452 733f
000006d0: 7dc2 84e6 d56c 9e3f 3750 027a 9eab b43f
000006e0: 8c68 2d01 2950 903f 8969 b8f9 52bb a0bf
000006f0: 31b9 5bd6 32a9 76bf 196e 6a62 f56e 9ebf
00000700: 994f c94f 6af0 863f 4d88 f88c 848c 8e3f
00000710: ad9f 1cc7 652e a5bf cc77 65b3 2672 a73f
00000720: b041 79e0 76d4 98bf 5aa1 7840 e312 9d3f
00000730: 58ce 766c 5761 763f 712c 4269 80d5 e53f
00000740: 4d37 b9b1 37ca 8abf ac3b f108 178e 9d3f
00000750: ac2e e5f5 e429 ab3f 86ad 2897 f28e b93f
00000760: bbe0 11bb 45d7 623f 9053 8ffa 6e2f 653f
00000770: b083 25f2 6b56 92bf 0b53 b44c ba01 843f
00000780: 4924 ffbb f4b6 8b3f 474b 45fb 2ace 61bf
00000790: aa63 38a2 8768 a53f c1e9 a332 bfbb 993f
000007a0: ba94 196f bf0c 9ebf 12e8 bba5 77df 84bf
000007b0: 4e15 7e45 a358 80bf 388d eda7 5f9a b8bf
000007c0: 7b98 52c5 e6a8 a83f 0af6 0ae5 b7f7 34bf
000007d0: 3373 c6c7 8ea4 63bf 8e94 8df0 59e7 81bf
000007e0: 57be f438 1880 e43f 0cce 5691 f7a7 83bf
000007f0: 7ef5 7583 a0ba a83f 7b32 e84e 38d9 a23f
0.6502466566270186 0.009972083437283348 -0.04399841461517033 -0.0017820862529368826 0.04711720576516208 0.009540832238099251 0.06613534493715027 -0.0009899358927976227
0.05876152535528332 -0.07696795069323575 0.02638849204048046 0.01466974666874807 0.015468457299977388 0.005347865561910518 -0.021037856852297174 -0.08178312068022595
0.03687503354321871 0.023131750958183466 0.0023368365030772688 -0.020541859771442048 0.006020145716216672 0.6466817206480704 -0.07772397214266993 0.021029505705842246
-0.063279729664158 -0.037241936303952825 -0.0016562680508214634 0.014016734724189142 -0.03138448421514613 -0.05862642617376455 -0.04578383856701097 -0.03263512743478863
-0.0007093496281657824 -0.006508438633750327 0.008226294980859146 -0.04651183681425489 -0.008990448414169351 -0.026615884007035257 -0.02744146162764472 -0.07749598673370696
-0.05476959264746755 -0.07682493913890928 0.7444644334270294 -0.0721858405778117 -0.05971559094250887 0.05725284255592267 -0.0488908924910277 0.033148290496574126
0.005934294377140719 0.028397630544551397 0.03704261682345931 -0.011228829097355243 0.03880838265568689 0.029917741762751582 -0.002250535429080542 0.01773462505491876
-0.002540801438602945 0.0027433932699288395 -0.004332506169857301 0.12162846500753126 -0.003694354211543432 0.0196704303078579 -0.0750792637458796 0.539018001801926
0.00990901482842572 0.04143838429372344 0.034821080731737 0.030499233884038673 -0.03413247613295292 -0.09452493728541304 0.010351247665621068 -0.02000273022552176
0.02981655167909635 -0.03350092317971776 0.012100208046173328 -0.02324876243897844 0.026964018509992662 -0.026085137605737236 -0.04481903500844643 0.007711195989753749
0.04561335315764755 -0.06401091325843407 -0.061189125766012126 0.006316959921188514 0.7316881482744807 -0.010241481665751426 -0.009690411742877535 -0.04109502634061652
0.01596368127090286 -0.02611484053478212 -0.0030644500604054795 0.0064671410861664195 -0.032146197050961646 -0.010009001790856628 -0.0499379475191966 -0.02526740970464256
0.027703350917677956 -0.01011406544162649 0.010678704667645299 -0.07158659811550377 0.008196055501296968 -0.03727968437118063 0.05229932893055509 0.03861444074559128
-0.011997217452382095 0.6017919079961122 -0.01799207223738304 -0.013220111348554792 0.008085595887184166 0.003752467631726381 0.03599110578728685 0.011311947490510099
-0.008804629414440372 0.03563430618127217 -0.02979273687930686 -0.03400565382464007 -0.007323985854078812 0.08297301010597438 0.07624421741865646 0.05548899581766918
0.06477885378461802 0.0007556378467011504 -0.049667025704793775 0.03694458698345252 -0.00970444232011379 -0.017856138929239387 0.780028385755588 0.006043265157707502
0.003967181833442349 -0.07011851856157808 -0.02073718350661444 -0.04010496922101467 -0.006834430027833798 0.09896013283551548 0.04917920716402971 -0.06999200477694592
-0.027655954234292075 -0.014113379412737855 -0.01115124614640672 -0.006959661804258245 -0.008143924948163203 0.023133704956464867 0.0333288831304805 0.026438899454694395
-0.04077905989572018 -0.011968168795199265 0.00994360943916353 0.613430673013501 0.00729463646763298 -0.024507302781666095 0.031419933967886636 0.053331069334275776
-0.09914272111524158 -0.0026731596970786115 -0.02928468102881101 -0.026204641377373286 -0.09435160541869266 -0.03403828001510034 -0.0555300932913861 -0.06547019018331526
0.05795276767210271 -0.03679950122087997 0.0021158657893654976 -0.03757723529601835 0.021110449675227155 0.009266851927524121 -0.00882589527442649 -0.012250842034428187
0.6748540227210962 -0.004692212458972865 -0.021857244280385768 -0.017438699558400744 0.05994157054191966 -0.0564069338326515 0.04332898498107643 0.0540548586602711
0.05328213248496811 -0.011843710545294622 0.013296799204741356 -0.006246003071681463 -0.07554383485739391 -0.05606535541660269 0.029208771398225024 -0.08936743315448893
-0.02210426366532706 0.0036387231281311476 -0.07117826170458276 -0.023030689750929683 0.000590390983303781 0.6352556918896682 -0.014580764056592055 0.024541343739882916
0.0001964653714727362 -0.02262947222799353 -0.01797046954845214 0.06208017387309963 -0.02535675075172567 0.03863021159446265 0.03432726217750366 0.0921808421438937
0.03106805817716825 -0.03732663492129243 0.04233614165588107 0.02096416951120697 0.0008002193583348927 0.03948665470241653 -0.012864448884053995 0.03734359961876832
-0.015156095457455875 -0.014230423021626038 0.6004488291842233 0.01044359268906017 -0.0022057702292729874 0.006093362003050421 0.019809611078486437 0.010457857419826614
-0.03841669776525396 0.004717008244195826 0.029712049669969865 0.08074369887100451 0.01593078679739128 -0.03267916963905566 -0.00553245409331131 -0.029720148212261408
0.011200743255507283 0.014916453888023673 -0.04136961036266427 0.045792779349298124 -0.024247987223419976 0.028392363367090702 0.005463925837307558 0.682312207777967
-0.01308101187819557 0.02886234275893755 0.05305400373125954 0.0998374575653341 0.002299915497641162 0.0025860946229649476 -0.01790779748387522 0.009768920389015464
0.013532554614260077 -0.002173503826420928 0.041813124229697365 0.02513025995811247 -0.029345503955842324 -0.010191855187702745 -0.007981563146823103 -0.0961055550556481
0.04816361578677771 -0.00031994094483053846 -0.0023978031806123567 -0.008742048886867939 0.6406365501806687 -0.009597715495011115 0.04829885105844321 0.03681350672932112
