port_results/Delage_3/10_1000/25/5_trained_linear.pth (torch, 17023 bytes, 17 tensors)

radius f8 []
0	0x3fcbeee4f1c88cd3	0.21822797590093632

shared.weight f8 [10, 30]
0	0x3f3863ef93d8eec0	0.0003721675783230176
1	0xbf9fd4364ad955c6	-0.031082962339800145
2	0x3f84bf18713ac6d0	0.010130110698216482
3	0x3f9dc4678cbd0f28	0.02906953617572508
4	0x3f85107ff244f646	0.010285377102827852
5	0x3f9523dac4353470	0.02064458677823605
6	0xbf1178a92f0aeb60	-6.664784064984225e-05
7	0xbf945d3d43abbbf7	-0.019886929755497076
8	0x3f96a5e4e3bade4c	0.022117210769208293
9	0x3fa8c87aca5b4c53	0.048404538346993896
10	0x3f86ee9c9d2e460b	0.011197303339744577
11	0xbf851bda86ea2a2e	-0.0103070328161908
12	0x3f9ab0ce5399ae51	0.026065086224134785
13	0xbf71e3b6550bf823	-0.004367553935251708
14	0x3f7f1f51767d90a1	0.0075982267515863075
15	0x3fa40a2b59bf749c	0.0391400858932027
16	0xbf8a27651df00c30	-0.012770452476621313
17	0x3f8111599f3c25a1	0.008333873912777902
18	0xbf90ed10936a55c1	-0.016529330251236155
19	0xbf52b42a20a098f8	-0.0011415873909839652
20	0xbf76db7e1ff46d9b	-0.0055804182768740785
21	0xbf416a060fdc4f48	-0.0005314378356353422
22	0x3f72ccb4978292f8	0.004589753567562076
23	0x3f40f555772c4d8e	0.000517527323923893
24	0xbf4803cfae29b3a0	-0.0007328762115555894
25	0xbf4974b2654e5e81	-0.0007768508026968075
26	0xbf70bdd1f16f7bef	-0.004087276544821868
27	0xbf8002e169343371	-0.007817994139736691
28	0x3f467a74ae8a21d5	0.0006859845862701672
29	0xbf713fe869769bfa	-0.004211337908976093
30	0xbf97b5be10a9d2d8	-0.02315422989564095
31	0x3f8f54d99d52a3f0	0.015298557389842288
32	0xbf5de1fb7121f5c0	-0.0018238978850882853
33	0x3f814393f47731aa	0.008429675958631606
34	0x3f61fd60a2f48258	0.0021960151131142185
35	0xbf4b19a249721632	-0.0008270304123391746
36	0x3f831ed2cf54ce14	0.009336134865043845
37	0x3f6356f0841729c2	0.0023607919290260246
38	0xbf50154c55ec1002	-0.0009816403832596525
39	0xbf8511146c8bf5a6	-0.010286483347495
40	0xbf81597b3536dcb1	-0.008471453248473844
41	0xbf48b9cefc3f202a	-0.0007545719786259443
42	0x3f210d2936613d48	0.00013009193497957373
43	0xbf7e4743d4b14a4a	-0.00739218231599865
44	0x3f91efbbf64151b2	0.017516075997564058
45	0xbf85b244478700da	-0.01059392302784128
46	0x3f84ce3343b7c7f0	0.01015892076881994
47	0xbf92b4cdf13249d8	-0.01826783928533779
48	0x3f9301e7ae465e30	0.018561954509634215
49	0xbf534473945e8c65	-0.0011759880739894643
50	0x3f6e88a2910d201c	0.0037272620324167016
51	0x3f72f7f8af205594	0.004631015226569519
52	0x3f554f80ef589cac	0.0013006934290247614
53	0xbf42da7c26366ec0	-0.0005753618428800608
54	0x3f60f357f4532936	0.0020691602572685775
55	0xbf43b6b38916c780	-0.0006016136778070752
56	0x3f6b5fe57741520c	0.003341625380963947
57	0x3f7901cd9aec408f	0.006105235238251918
58	0xbf5932a106300d90	-0.001537949800650338
59	0x3f74a9897c1463e4	0.005044495629840082
60	0xbfc3f9587c0eb93f	-0.1560469251393872
61	0x3fb031e5f02dd9cf	0.06326138604877161
62	0xbf891a25ce604869	-0.012256903992270378
63	0x3fc46e6b1d3030bd	0.15961970257956706
64	0x3f885c245f382036	0.0118944970663649
65	0x3f9f327e4a840040	0.03046605424697213
66	0x3fbc73670ee2c962	0.11113590348648963
67	0xbf894fda35c72edf	-0.012359337583709827
68	0xbf91d489ae41281a	-0.017412329922343962
69	0xbf943a846f6037c2	-0.019754475877611595
70	0xbfa825c91389a4ae	-0.04716328013894021
71	0xbf83cf102b61dde0	-0.009672285388872603
72	0xbf76f06f583ecbfb	-0.005600390377298754
73	0x3f8701bb5232b372	0.011233771749482566
74	0x3fb23e9b5288d160	0.0712678028583631
75	0xbfa9c9881d768340	-0.050365689846563644
76	0x3fb01d991b75337d	0.06295163078648432
77	0xbf81be278c7b1ef0	-0.008663472151411139
78	0x3fbf1dc2f5e329dd	0.12154787543401065
79	0xbf804dbd0d54cb40	-0.007960774392449133
80	0x3f517b7ab238f344	0.0010670374112031348
81	0x3f87c8758504a69b	0.011612814065830526
82	0xbf5d279dc17866ac	-0.0017794647773200873
83	0xbf950aa4b039f3dc	-0.020548413520817252
84	0xbf7c26b2afbc1476	-0.006872842782972835
85	0xbf95c216f8b1b068	-0.021248206070979242
86	0xbf78ecb17e654add	-0.00608510335435383
87	0x3f71a448cb72bccf	0.004307064394352979
88	0xbf9c939fcba250d8	-0.0279068916357382
89	0x3f8082a0380c7db4	0.008061649046395704
90	0xbf97b4334565fb2f	-0.023148347006549826
91	0x3f953867b6034878	0.02072298096101874
92	0xbf942c71ec3baa14	-0.019700794261476487
93	0x3f99cb8070e5d207	0.025190359965067823
94	0xbf8ad2b2a7a59c8c	-0.013097186795404413
95	0x3f8550f13dc5a7fb	0.010408291528353422
96	0x3f646ebb05da092e	0.00249420669462199
97	0xbf700a91f78a6062	-0.003916330512446194
98	0xbf8ec2c02c1b8e11	-0.01501989492994141
99	0xbf83a2032afa8d9a	-0.009586357831102888
100	0xbf81d8e84041d00e	-0.008714498959513175
101	0x3f756f4ebc8f38ba	0.0052331042906656414
102	0xbf7cf0c650e8b250	-0.00706555812079708
103	0xbf68bde870db478c	-0.0030202426777145627
104	0x3f99a86153c71f24	0.02505638192977168
105	0xbf915445709aa271	-0.01692303180485272
106	0x3f939d4855b6021e	0.01915467284334415
107	0x3f4793d632ec781c	0.0007195278065841334
108	0x3f97d85070a46738	0.02328611075890949
109	0xbed782bf5bb70800	-5.605395411336159e-06
110	0xbf7490bb4a3bef61	-0.005020839311096954
111	0xbf60e8bfad1a8c6a	-0.002064108245421849
112	0xbf7d68a9a141aa6b	-0.0071798921745577044
113	0xbf8637bfe01cf35e	-0.01084852125824803
114	0xbf778837f589cb60	-0.005745142546049603
115	0xbf85b5a338065e9a	-0.010600352427715
116	0xbf8038a5928d2da9	-0.00792054513444536
117	0xbf764269b6724dd1	-0.005434430065310151
118	0xbf85874de98c7714	-0.010511978807297186
119	0xbf6524267b285ce4	-0.002580714376800951
120	0xbfa41e573ae3b158	-0.03929398149361657
121	0x3f4c12015f8467c0	0.0008566385941179908
122	0xbf96eeb61944e322	-0.022394986431410698
123	0x3fa0a56e19275a3c	0.03251213128139738
124	0xbf64e5d122cce147	-0.0025509915052703033
125	0x3f8dd21dae8ecc02	0.014560920610028564
126	0xbf86b5c22dfb95d2	-0.011088864353449166
127	0x3f8065059682974b	0.008005183845238092
128	0x3f8caf802a42d7fc	0.01400661591501872
129	0xbf7d3d66be01d54a	-0.007138635002879321
130	0xbf6838ae76239a2b	-0.0029567153406902156
131	0xbf8a9c18b201321e	-0.01299304288127084
132	0x3f78d6717a2a850a	0.006063884039265286
133	0xbf9a0a8072f30540	-0.025430686012218873
134	0x3faebf98ae1c8f6f	0.06005551457772539
135	0xbf81cb19823092a2	-0.008688163075995906
136	0x3f9b2b016f8b6da3	0.026531240876335748
137	0xbfa11f099cd3828f	-0.033439922708344054
138	0x3fa323b127516ba8	0.037381683396879695
139	0xbf4f759d9faffeaa	-0.000960065808044382
140	0xbf6d152da48e4d3d	-0.0035501376591554877
141	0x3f3dadf5e2b1dd00	0.0004528737360440377
142	0xbf600d288cd21674	-0.0019593994134677276
143	0xbf8249e5eb1c0b8e	-0.008930011975740528
144	0xbf5c44f74c8dde72	-0.0017254271535573043
145	0xbf8043989d4f5d7f	-0.007941429424973332
146	0xbf63edbc5481fa42	-0.0024326971361568204
147	0x3f52a15781089f0d	0.0011370996982211252
148	0xbf82f809e51a9280	-0.009262158683960964
149	0x3f5183014d1b8c33	0.0010688317019507231
150	0x3fadd29ade434d78	0.058247413284017335
151	0x3f7861f29f613d63	0.0059527852482255976
152	0xbf8f10111145edc9	-0.015167363490710255
153	0xbfb8ac743e3ca4d8	-0.09638144034819918
154	0xbf912c8b640cf682	-0.016771486264806963
155	0xbfa3c39673de26f0	-0.03860159077073699
156	0xbfadeb0f8a645ce4	-0.05843399586063372
157	0x3f784d0f78f0fe31	0.005932865561646448
158	0xbfa399b08c9c1fe1	-0.038281933941163755
159	0xbfa4739d26059502	-0.039944563762029275
160	0xbf7d6f5cc3bf0b1a	-0.00718628154931158
161	0x3fa0cc05db844125	0.03280657105108479
162	0xbf9010d35de8e22e	-0.015689184767525947
163	0x3f82457c33c1994e	0.008921594933963075
164	0xbfb2fdcd567a1769	-0.07418521271946833
165	0xbfa09d13c9f43776	-0.032448404696068175
166	0xbfa33db6ec1c0ea2	-0.03758021957585568
167	0x3faa74ec21daadf9	0.051673297054858076
168	0xbfaba704046435d1	-0.05400860360723992
169	0x3f9256605a9ebf77	0.017907624751102937
170	0x3f795446872d3050	0.0061838870049762545
171	0xbf5bf1947e954fd6	-0.0017055463925616985
172	0xbf68be3c6d10b018	-0.0030203991123212252
173	0x3f8edb37b024ef11	0.015066561758991822
174	0x3f803d6632553e66	0.007929609690705063
175	0x3f8bd1a4ee34f0f2	0.013583458442206073
176	0x3f74ffb9cd0730ea	0.005126691612940196
177	0x3f64cd903e293db6	0.0025394265406146433
178	0x3f94796f55bfd7b4	0.019994487389304275
179	0xbf4e77b6d88674a6	-0.000929798393417909
180	0x3f7e32c9946c06a2	0.007372653408994319
181	0x3f94199565541363	0.019628843602748868
182	0xbf943193e72a963e	-0.019720374092363928
183	0xbfa95eaff3bc61cf	-0.049550531866944796
184	0xbf90b81c35e396d0	-0.01632732466614223
185	0xbf91363c63a71675	-0.01680845602256516
186	0xbf83b1f6446d890e	-0.009616779292347857
187	0x3f7632f2315428ce	0.005419679703900294
188	0xbfa4e78cbfd4f54c	-0.04082908479402167
189	0xbf9a093bc9f012e8	-0.02542584819822738
190	0xbf8af00d10f13523	-0.013153173522506173
191	0x3f4b85c9f94a9830	0.0008399234962623899
192	0xbf7dec41cfda712f	-0.007305390432204724
193	0xbf91df984ce77f46	-0.01745450944315443
194	0xbfa356e7c2b19b93	-0.03777240993149813
195	0xbfab2e178e26cefc	-0.053086029150476194
196	0xbfa296886884b1d1	-0.03630472446306821
197	0x3f9ebeb6b2f7ad65	0.030024389909084976
198	0xbf9278f26fd28a16	-0.01803950126180539
199	0x3f75a63cbfa857ed	0.005285489367926372
200	0xbf8650d6d52f1e04	-0.01089637601934524
201	0xbf8eaaf007cfa490	-0.014974475134254456
202	0xbf934a73145879ae	-0.018838689915463717
203	0xbf8a052d681642cf	-0.012705187548620071
204	0xbf7b886d7c3126cc	-0.006721904445905213
205	0xbf8a922a364345c5	-0.012974099904030542
206	0xbf8c5b1dde9d9ca9	-0.013845666271392014
207	0xbf8dc02c8bdf9d5f	-0.01452669908390075
208	0xbf737c7f06041c0e	-0.004757400689647374
209	0xbf90910624a179a9	-0.0161782226426738
210	0xbf72906d6971e122	-0.004532267942629427
211	0x3fa9e6f3ab5d3637	0.05059014765593555
212	0xbfa3f2b03c82ca6f	-0.038960940729698794
213	0xbf5f829e28dd29b4	-0.0019232315566620585
214	0xbfa47547f1034cce	-0.03995728318263901
215	0xbf6bde0b969b0940	-0.0034017778715177693
216	0x3f89dd29155d35b2	0.012628861393433197
217	0xbf71b30b88bc2726	-0.004321141295585728
218	0xbfac560c564c4688	-0.05534399560395992
219	0xbf9c69711dff551d	-0.02774597879018358
220	0xbf80c7dfbf836be2	-0.008193729431175304
221	0x3f9d12b27c5008c8	0.0283916366934214
222	0xbf9c203c6540301a	-0.02746672027574002
223	0xbf69d99ad736404a	-0.0031555198890558566
224	0xbf7ae3d6319a514c	-0.006564938253763874
225	0xbfa026c6f893b71f	-0.031545846790193226
226	0x3f945aae9d295d23	0.019877174703961786
227	0x3f8ac9e16b785970	0.013080369083621618
228	0x3f994c64d3ec44ac	0.024705481943844518
229	0x3f84062f93d4bd53	0.009777423571533694
230	0xbf49d60cafe4be8c	-0.0007884561489727867
231	0x3f4d33d1773d4304	0.0008911869794961673
232	0xbf81ed1fd497ccde	-0.008753060031244816
233	0xbf805a5de476cb49	-0.007984860930127307
234	0xbf50787a3b44b540	-0.0010052865664634397
235	0xbf7bdec4048c594b	-0.006804242796326253
236	0xbf7426a21c962a14	-0.004919656037041271
237	0xbf69e2c43944a1b0	-0.0031598885053833667
238	0xbf77fb436e2a4030	-0.005854857825980317
239	0x3f62b40b64725fba	0.002283117533419668
240	0x3f8c24e31ae6d489	0.0137422316155187
241	0xbf40c97e4108a06c	-0.0005123011088175151
242	0xbf991ddd88ea6f68	-0.024527989846873238
243	0xbf99ec0e1e2f6cb9	-0.02531454142795717
244	0xbf8304a84282b1a3	-0.009286226777782519
245	0x3f75f641d4b33af0	0.005361802245899425
246	0xbfa0f34000c783f8	-0.03310585031045571
247	0x3f8b224b41211040	0.013249004292568256
248	0xbf51c305b1a6fedc	-0.001084094582083076
249	0xbf5d9aad5eaa7656	-0.0018068974556294712
250	0xbf87c8851acc2918	-0.011612930183691847
251	0xbf7d23c936feabea	-0.007114206309704033
252	0x3f90c020c9a457e4	0.016357910449265392
253	0xbfa1f09d152658d6	-0.03503886111427483
254	0xbf9e64f3d3bc54dd	-0.029681978033370682
255	0xbf965300993c57e8	-0.02180100379253949

shared.bias f8 [10]
0	0xbf808fa15555d004	-0.00808645288154964
1	0x3f7447e098122f6e	0.004951360054416527
2	0xbf55b98047cd2170	-0.0013259651888849165
3	0xbf6e43206c99f686	-0.0036941178594236982
4	0xbf6342c611718a1f	-0.002351176120599221
5	0x3f7c2f6b996d3208	0.006881161031583101
6	0xbf87f92de50a199d	-0.011705740501622592
7	0x3f62ff844be801e7	0.002319105521792364
8	0x3f6af2aae7fcacbd	0.003289541054888183
9	0xbf76dd3222b90d6c	-0.005582042543724835

mean_hidden.weight f8 [10, 10]
0	0x3fa63e5347998364	0.04344425438899327
1	0xbf9162578df0c764	-0.01697670749508208
2	0x3f79a5b521f4d1cb	0.006261546658880633
3	0x3f81df6a4df71587	0.008726912025745616
4	0x3f9542db01009301	0.02076284593217093
5	0xbfaa38a1f4dc9a3a	-0.05121332277331132
6	0xbfa7b85698b894ab	-0.04632826437254186
7	0xbf83fc38343e56d2	-0.009758414358468501
8	0xbfa3001f8fbdcb15	-0.037110315605693035
9	0xbfaf0b0c31a65295	-0.06063116174769793
10	0x3f8b471ea5611b99	0.0133192438335195
11	0x3f81ad64b5a42a34	0.008631502907992951
12	0x3fc080d742b9d4fb	0.12893191106892474
13	0x3f9a0a74eae13fbf	0.025430514179163085
14	0x3fa0cb4765bf6136	0.032800894899710206
15	0xbfb4acd3fac9a604	-0.08076214668985676
16	0xbfa8190fa427be92	-0.04706620100830351
17	0xbf83bad076f10e0e	-0.009633663778124048
18	0xbf99b41879a65980	-0.025101072716631645
19	0xbfc6aeb424b6fa86	-0.17720653336251163
20	0xbf71da94efd7457e	-0.00435884645908524
21	0xbf7775b3597b776f	-0.005727482399121671
22	0x3fa73538d6601a8f	0.045327926796791755
23	0x3f72b601586dcb35	0.00456810498768583
24	0xbf86c715d9a20ec6	-0.01112191267407726
25	0x3f706e6c48e5d97f	0.004011557566960255
26	0xbf89a5aa33ebfdd9	-0.01252301188424003
27	0x3f97c4559251e4ed	0.023209893279703065
28	0xbf98488389ce5b50	-0.023714118276611018
29	0xbfb065e64c64fe54	-0.06405486455059278
30	0x3f959ff86e6e7251	0.021118051281165787
31	0xbf5d8a6a7f8e28e2	-0.0018030204794024442
32	0x3f9112a1aa49bc5a	0.016672636049801383
33	0x3f4c7ec667608bf6	0.0008696049469601997
34	0x3f8df0a7684f3be7	0.014619167204640916
35	0xbfa163e855491276	-0.0339653591259194
36	0xbf9654591c0314ff	-0.021806137404174027
37	0xbf9310bcb50f87fa	-0.018618534613672445
38	0xbf8e4a38daa4566c	-0.014790004894659613
39	0xbf9f13e587a42e47	-0.030349337009324875
40	0xbf98aef9129f2b8b	-0.024104968797285003
41	0xbf7a2f5b1326342b	-0.006392818222946277
42	0xbfa5360be9a4be30	-0.04142796732992016
43	0x3f337ec3f73068ba	0.0002974728042218867
44	0xbf9b18d44e0764c7	-0.02646190382242677
45	0x3fad26cb0f4e4bad	0.05693659364546675
46	0x3f94fc99be5025ee	0.020494844666279315
47	0x3fa27192d9eb3d52	0.036022748090199244
48	0x3f8c30631a35aab8	0.013764166104654904
49	0x3fad449fda4edd19	0.057164187811787844
50	0xbf9421f44cb9ea5c	-0.019660775359151436
51	0xbf5b4a2bcf8347f2	-0.001665632995401453
52	0xbf7f922cdf9d0752	-0.007707762991971583
53	0x3f46070ad07f050c	0.0006722262196420538
54	0xbf9060b1a026f868	-0.015993857765117886
55	0x3fa19a03e2bad600	0.034378167559605544
56	0x3f8d1fcc7be4bcc0	0.014220807581834527
57	0x3f9532f34b91338b	0.020702172744040886
58	0xbf69086774c658ca	-0.003055765211864435
59	0x3f8df8d1d386a5e5	0.014634742038498192
60	0xbf7feeaa72c76cf3	-0.007795968831909794
61	0x3f82daed070eb3f1	0.009206630494952935
62	0x3f654184cdf5682b	0.0025947183454890963
63	0xbf9673fa9ad18cff	-0.021926799487471445
64	0x3f05af6d0bced140	4.136134655344454e-05
65	0x3f75042200395bac	0.005130894485396203
66	0x3f8e225f5cb1237a	0.01471399785636306
67	0xbf99abe4b95c9dfb	-0.025069783986650034
68	0x3f8d65c03c93e6a6	0.014354230736432893
69	0x3f932f61566298aa	0.01873542871239723
70	0xbf8f7220da8db77a	-0.01535440127346609
71	0xbf838b8ed2762dc8	-0.009543529317645474
72	0xbfab6d6d8a1d3b22	-0.053569243535653635
73	0xbf6713ae050c8ac9	-0.0028170012304980824
74	0xbf9976f791635cf8	-0.02486788582686203
75	0x3fadc3ac41549371	0.05813349053850104
76	0x3f9fd1f702bb1a16	0.031074389974287873
77	0x3fa02f8c855d3092	0.03161276939371861
78	0x3f8fa8602cd404da	0.015457869880722109
79	0x3fb3f08f40122cfc	0.0778893977568948
80	0xbf616ef6c6fed001	-0.0021281070584908694
81	0xbf5654c1e6018d40	-0.0013629811801586095
82	0xbf52979bff2469f0	-0.0011347793011454686
83	0x3f7955aad102be31	0.00618521428275147
84	0x3f5015581a5a2cf2	0.0009816513424166198
85	0xbf6103a7ab41d90c	-0.002076938131774791
86	0x3f6d0a0a288c0936	0.00354482635555189
87	0x3f8f0562d2d31436	0.015146991785863855
88	0xbf7afa6b185c60d8	-0.006586473789660562
89	0xbf79d5aeaef8afbc	-0.006307299001075902
90	0x3f5c49896a614597	0.0017265169094752059
91	0xbf76faf28c62ad4b	-0.005610415892231056
92	0xbf7aa572dfa586f2	-0.00650544044978728
93	0x3f6c4fdab5dec30f	0.0034560462654201827
94	0xbf689c422ac0d7dc	-0.00300419734233069
95	0x3f76386e4f31c9db	0.005424910446083032
96	0x3f41b88a481a6dde	0.0005407977298150198
97	0x3f7e364e2b9a20e2	0.00737600837022276
98	0xbf74a99f3c3e68e3	-0.005044576657292607
99	0x3f5ea4ff5f04477c	0.0018703931673979815

mean_hidden.bias f8 [10]
0	0x3fad73de2f6ec519	0.05752462700855627
1	0xbf93db292a871893	-0.019390719624219854
2	0xbf9fc19ee3c9b0b7	-0.031012041714732343
3	0x3f68242312d175b8	0.0029469189671959793
4	0xbf54bd65acd330ef	-0.001265858928763793
5	0xbf8667f180caa52d	-0.010940443747431939
6	0xbf98a1af972a950f	-0.02405428276201343
7	0x3f5e61f06d490237	0.0018544052046679646
8	0x3f8207e08077b85f	0.008804086609384308
9	0x3f68c32d9b87800f	0.003022755696505903

mean_linear.weight f8 [10, 10]
0	0x3faebc745da6ec40	0.06003154414380463
1	0xbfa1c0f4c3d04f01	-0.03467526331237814
2	0xbf8d9ece8e96c9f6	-0.01446305630347398
3	0xbf75c9286a494156	-0.005318792220876686
4	0x3f7f49bb4709b53e	0.0076386752631212845
5	0xbf72d4371099de34	-0.004596915337621566
6	0xbf9952a7a49302bc	-0.02472936574918337
7	0x3f81b0047958bd87	0.008636507943349482
8	0x3f3e0cf5a70ef6b2	0.00045853612305877666
9	0x3f70be642936a593	0.0040878212488818675
10	0xbfb29b26a99bd0d8	-0.07267991677128138
11	0x3fb73a7905506d5d	0.09073597316494415
12	0x3fa394ef4c08560b	0.03824565699703094
13	0x3f907391c8a6ae01	0.016065862533350742
14	0xbfa5b04d91277959	-0.04236071011449622
15	0x3f85fe0f98954831	0.010738489002196957
16	0x3f92d4e5645a73aa	0.018390259027558344
17	0xbf9fab92ae80abee	-0.03092793645934571
18	0x3f741fac72d33384	0.004913018824663665
19	0xbf84e8f7c002432a	-0.010209975764412588
20	0x3f373fb1c4d2c09b	0.0003547486310919807
21	0xbf03b2c7cbc89048	-3.757164219944702e-05
22	0x3f2c9fdd01ecb470	0.0002183873447959869
23	0x3f64177f2d03e5e3	0.0024526103881015045
24	0xbf59786e258cde0a	-0.0015545917178324564
25	0xbf615a5ba0469cc9	-0.002118281323607006
26	0x3f51ee3a19d1ac94	0.0010943953887146184
27	0xbf32864f7d76a3aa	-0.00028266373325408023
28	0x3f4c6aeed053d673	0.0008672395785242606
29	0xbf2c9998e71b1131	-0.00021820060242395406
30	0xbfb4ea7f00bf59fb	-0.08170312660454464
31	0xbfc1b3d40979ef4c	-0.13830042326650938
32	0xbfa1a0d154cff71a	-0.034430066683837704
33	0xbfa9d715477d1f15	-0.05046907899537537
34	0x3fb05c76fe91aa2e	0.06391090121329832
35	0x3fa0a323bde07305	0.03249465649444087
36	0x3fa037707fe03181	0.03167296944602339
37	0x3fb2e8556e4d22ab	0.07385763113883097
38	0xbf822fcdee28731f	-0.008880242186074803
39	0xbf8244aec2bb522f	-0.008920064275494159
40	0xbf22413bcb90dcf4	-0.00013927321359272877
41	0xbf3af81cd2847d18	-0.0004115171782519008
42	0x3f43ca2e761327c2	0.0006039358960603302
43	0xbf50eca4b3717158	-0.0010329826743805306
44	0x3f4ce4274f39c634	0.0008816902104184566
45	0x3f2cd0332255f8d5	0.00021982788272718068
46	0x3f4dc52f08239d07	0.0009085158965519709
47	0x3f52711eb225d214	0.001125602699713406
48	0x3f44ea1527283f2f	0.0006382563863684738
49	0xbf1369f13bcadc1c	-7.40579116137317e-05
50	0xbf6b693446accd53	-0.0033460637108874507
51	0x3f840019048fc9aa	0.00976581139727702
52	0x3f61083edbbec04e	0.0020791270926210697
53	0xbf79fd8d5464e37e	-0.006345321721078599
54	0x3f870af28923a098	0.01125134926810771
55	0x3f67d696f595cdc9	0.0029099415229951503
56	0x3f5ff11525c86c62	0.0019495684165409467
57	0x3f73b81fd4317c60	0.004814266521036975
58	0xbf4ef3a3f311b236	-0.0009445715460408347
59	0x3f493732d461d864	0.0007695196334356444
60	0xbf91ec807b16b582	-0.017503745568026037
61	0xbf8904ec9304bb0e	-0.012216423260353017
62	0xbf89f283a7859e98	-0.012669590520729287
63	0xbfa27be169ca3750	-0.03610138336544699
64	0x3fa06f1f440b214e	0.032097794586266035
65	0x3f914df50efd97e1	0.016898945846513306
66	0xbf84ea26775c491e	-0.010212231175988292
67	0x3fa764cedb1d5f80	0.04569097923984966
68	0xbf52f4d9a1a02e00	-0.001157009630790351
69	0x3f54e019996cf537	0.0012741327279422573
70	0x3fb331c6566abe5d	0.07497825250424613
71	0xbfaf22d55d12f108	-0.06081263314396962
72	0xbfa9542b802d37ee	-0.04947029056221185
73	0xbfa374fa137ce46b	-0.03800183761490746
74	0x3fb283e238863278	0.07232488517747437
75	0x3f521df68e2bbbd4	0.0011057765738617846
76	0xbfa25cfc7d92ff08	-0.03586567910087807
77	0x3fac540edb1c501b	0.05532881188096913
78	0x3f7e8b5dc93adfee	0.007457128860259827
79	0x3f74ea0a7b1fb57e	0.0051060113346300656
80	0x3f937b50cc017972	0.019025099231265448
81	0x3fc581e40daeb997	0.16802645366756216
82	0x3fa93ac8cf5a25f8	0.049276614486256365
83	0x3fb01fb8a2ea05d7	0.06298402764698295
84	0xbfb4b33da78d008e	-0.08085999813647701
85	0xbfa445b605dc2a97	-0.03959435292752749
86	0xbf7d6c4a18db8f16	-0.007183350984380407
87	0xbfb58dae0ec7d0cb	-0.08419311390736366
88	0x3f904d558136d29f	0.015920005809408107
89	0xbf718bb97c2ea837	-0.004283642340775321
90	0x3f96247d2594212f	0.02162356893407596
91	0xbfa1976d5f2962ae	-0.034358423105634514
92	0xbf633ffb7641ace0	-0.0023498450628288564
93	0x3fa639f227235fb6	0.0434108422065828
94	0xbfae0042503dbd2c	-0.05859572629457896
95	0xbfa014c81b56cd64	-0.03140855153778935
96	0x3f7cb88d09842b17	0.007011938978630969
97	0xbfa194c3fef581f6	-0.0343381165246263
98	0xbf963d43a1b4907f	-0.02171807932349212
99	0xbf53c95db459f667	-0.0012076773722634827

mean_linear.bias f8 [10]
0	0x3f8c8315890249aa	0.013921898120575833
1	0x3fa33b5a9323700d	0.03756220861552615
2	0xbfb1eddf921946a9	-0.07003590885985979
3	0x3fa1d03dc479f9c4	0.03479187987703683
4	0xbfa298447cef7c40	-0.0363179590710776
5	0xbfab078f4c11b701	-0.052792051349440434
6	0x3fa90ab0f54a7e91	0.04890969270968271
7	0x3f8045f1030eaa79	0.007945902734566733
8	0x3fb096544a56d0b6	0.0647938424579618
9	0x3f6ba6c8d2cbc1a9	0.0033754274685337715

cho_hidden.weight f8 [10, 10]
0	0x3e73249da5fcf151	7.13133458925113e-08
1	0x3e183aa13a9dbfc0	1.410314735190318e-09
2	0x3e2ff2d2677e2300	3.7192975886107923e-09
3	0xbe2330b66b746768	-2.234043030115865e-09
4	0xbe57b92b655df84f	-2.2094061989223487e-08
5	0xbe62792ff9d21357	-3.440936711347571e-08
6	0x3e5afc2598c0364b	2.5131691880388354e-08
7	0x3e644fd8193d2b2c	3.783384552746183e-08
8	0x3e43443cb6bb5c18	8.971687135757966e-09
9	0xbe65aa667094a1ef	-4.035537244158015e-08
10	0xbe5c9e7e4aac9264	-2.6653627453693748e-08
11	0x3e4853c28e83141f	1.132822942429073e-08
12	0xbe5c9dfaa32dc7d0	-2.6651756533870316e-08
13	0xbe75ef9bc9e47640	-8.171785956632801e-08
14	0xbe60d4ed7b29e50e	-3.135157502094936e-08
15	0xbe37709585ca9044	-5.4574994217024805e-09
16	0xbe53c118cd313666	-1.8397611278433218e-08
17	0xbe5b18921019fe5d	-2.5235096684591425e-08
18	0xbe4a3fbbfe8d231e	-1.222312558255881e-08
19	0xbe554d6554f9ed45	-1.9839338448528293e-08
20	0x3e4662fb84ad7586	1.0424596427126967e-08
21	0x3e5904f43fb84c5b	2.3301087266331682e-08
22	0xbe4348de5932efc2	-8.980111576544517e-09
23	0xbe1229a3c76292c0	-1.057205681973857e-09
24	0x3e73c2ecf516bda2	7.361705669258335e-08
25	0x3e50e4051d84ab52	1.573069305472958e-08
26	0xbe6713d58713e879	-4.2985150447734766e-08
27	0x3e5d9a02d375b4c1	2.7568643560226776e-08
28	0x3e3f0160d9009a04	7.219003519997465e-09
29	0x3e50b8e0f008d5f5	1.5573745850400984e-08
30	0xbe3cf6a9a84d9070	-6.743596463229323e-09
31	0x3e6b94e4ec495646	5.1374767138953356e-08
32	0xbe635c7db5886195	-3.6063218803754514e-08
33	0xbe45c4e62f5b51b8	-1.0137044519262663e-08
34	0xbe442c843d5bdb97	-9.394200899371358e-09
35	0xbe30f10ef1a114f1	-3.944531612859817e-09
36	0xbe690d861e55ba28	-4.666452805666929e-08
37	0x3e41339456d68e98	8.010064357303151e-09
38	0x3e603f85d2565ae0	3.026451115687713e-08
39	0xbe629dbf397ddba2	-3.467537296093865e-08
40	0xbe403d5485e0131b	-7.562139522223941e-09
41	0x3e67baa3275b8805	4.4198803656752466e-08
42	0x3e6149b9342ea0db	3.220137625238783e-08
43	0xbe53aaa9926b7309	-1.8315995077273997e-08
44	0x3e68cdedcb92fcb1	4.620181343885846e-08
45	0x3e4d5ebda4d78528	1.3676509836909477e-08
46	0xbe64f4cbed0798ba	-3.903403256507445e-08
47	0x3e59f6504cfd2142	2.4179148294045034e-08
48	0xbe5c4ae4ac8eab1c	-2.634949217468754e-08
49	0xbe3946260380d40c	-5.8845657722078e-09
50	0xbe5a7ecdafb2a5e6	-2.4675695248102198e-08
51	0xbe56ba362f9490fc	-2.1166530727053506e-08
52	0x3e4cbcde3b4f4f9e	1.3382065103534585e-08
53	0xbe56063486c92b8a	-2.051167096094434e-08
54	0x3e633ec120a6e701	3.584685622248366e-08
55	0x3e451fc76f2efb90	9.836692770979373e-09
56	0x3e5df075be7eea49	2.7883142822191643e-08
57	0xbe66439090205386	-4.146979117062016e-08
58	0x3e2c091f030b9478	3.2637768255047314e-09
59	0xbe681b9acc4090dc	-4.490433405692888e-08
60	0x3e412b26008957d7	7.9947284497144e-09
61	0x3e6b3e2a3b45c9cd	5.074372869369298e-08
62	0xbe684d59482bd78e	-4.526626986259362e-08
63	0x3e4f30df8c3a2b16	1.452439980029807e-08
64	0x3e3b1b465e92e036	6.311233738034073e-09
65	0x3e5469b3d4eff360	1.9010994830443293e-08
66	0xbe4761dae8b5b26a	-1.0888207022379071e-08
67	0xbe69882b65daabdc	-4.75568924078945e-08
68	0xbe61d7cb1523243b	-3.323507037769864e-08
69	0x3e281bb98f921718	2.8065755245572705e-09
70	0xbe53ff5c1cc25d24	-1.862412250859445e-08
71	0x3e49b8f650a67c00	1.197797640657221e-08
72	0x3e4202976a6863a0	8.386617023286307e-09
73	0x3e14f45e4fa26cf0	1.2197161601365343e-09
74	0x3e50005df9c0851d	1.490249666735894e-08
75	0xbe6117d3a52508dd	-3.183832987748342e-08
76	0x3e559291af72b548	2.009098928601897e-08
77	0xbe3502397248eec6	-4.891466596836e-09
78	0xbe658c2b4cf120ba	-4.01354128756088e-08
79	0x3e7035d30feb0c54	6.038789377841455e-08
80	0xbe473ec0a529412a	-1.0824355777293309e-08
81	0x3e5692934b472940	2.1022334721786005e-08
82	0x3e37b265ab75d398	5.517356064525246e-09
83	0xbe26c5bae0ea3db8	-2.6510542713506797e-09
84	0xbe4677e31434f6f0	-1.0462621552656342e-08
85	0x3e409808ae5ecc9b	7.72712866942997e-09
86	0x3e38ed476837e5c0	5.803739381004389e-09
87	0x3e573cc5895b066c	2.164150510772604e-08
88	0xbe32e86affcb66eb	-4.402334494093262e-09
89	0xbe571e724b9be566	-2.1531182814947208e-08
90	0xbe55db56fea48f0f	-2.035572769469906e-08
91	0x3e3d040dc1674434	6.755775514058266e-09
92	0x3e5c64fb952bd6a0	2.6444405175143552e-08
93	0xbe60835b9740bb0a	-3.075807600315161e-08
94	0xbe5bb2ef9d07726a	-2.5796674853422717e-08
95	0x3e5caf60b313e8b6	2.671505256334026e-08
96	0x3e6287427246f980	3.451175548421721e-08
97	0x3e69acfc05bf7efb	4.782475634934961e-08
98	0xbe3f5d73b6327f41	-7.302744051102736e-09
99	0xbe575b01c11d806f	-2.1751500218505415e-08

cho_hidden.bias f8 [10]
0	0xbe7a514be3557f35	-9.80405666282041e-08
1	0x3e88ed54f16440f0	1.8572119903819833e-07
2	0xbe74dbecdb086e86	-7.770613908618361e-08
3	0x3e6e890ef2f4dbd8	5.6876585547591624e-08
4	0xbe7e3fa60b41c9da	-1.126849181203285e-07
5	0xbe74e137d21b41e3	-7.77831599366672e-08
6	0x3e70dd6616ea0d8c	6.282642115757336e-08
7	0x3e526af5003d03e4	1.715291376926612e-08
8	0xbe492ebbb05a4b5d	-1.1726539304943508e-08
9	0xbe7160f876b68736	-6.474104246323457e-08

cho_elements_module.weight f8 [45, 10]
0	0xbe4af9ad99d9d89c	-1.2561355340638998e-08
1	0x3e551cdde48c05cb	1.9662790759320725e-08
2	0xbe59bd9030c9d0ce	-2.3972691431303337e-08
3	0xbe5b39d5be7815c3	-2.5356111791834505e-08
4	0xbe46a88352d25b42	-1.0551071650313909e-08
5	0x3e3cfee88e966e69	6.75109588493292e-09
6	0xbe3c2c56ea492468	-6.5595845739301296e-09
7	0xbe4c8389fd9d7bd2	-1.3277784139264243e-08
8	0xbe5cc87d12655980	-2.6806405228668557e-08
9	0x3e4cf91530a8e6b0	1.3491594970654053e-08
10	0x3e5a2906af96191e	2.43636390832203e-08
11	0xbe2daf0201da489c	-3.455628684955403e-09
12	0xbe469285ccd93eb1	-1.0511071481217683e-08
13	0xbe525105dba283c0	-1.7058565872908485e-08
14	0xbe61e43a968d16da	-3.332555104664014e-08
15	0xbe4aba4765adf4b9	-1.2446032806576619e-08
16	0x3e61df85aef72958	3.329130559731326e-08
17	0xbe4d6e6303e795f4	-1.370496971199819e-08
18	0x3e586181048b772a	2.2706459187604003e-08
19	0xbe4049b50154bb1c	-7.58465294267652e-09
20	0xbe606a1c03eb1b8f	-3.0574370137691405e-08
21	0x3e7097ea09c42c36	6.181528750344159e-08
22	0xbe6346bc53fb01ff	-3.5904927473462323e-08
23	0x3e6c04c562827e82	5.218877802245979e-08
24	0x3e562628c4057c6e	2.062791915177386e-08
25	0x3e645f796183fbbc	3.794756881120963e-08
26	0x3e690970eac29f76	4.6634821644380784e-08
27	0xbe5eecfd28bb20aa	-2.8801837844203824e-08
28	0xbe4a666f71cdf808	-1.2293522250310826e-08
29	0x3e659b3152a7f14e	4.024472340447291e-08
30	0x3e55e8329458f89f	2.0402503927849017e-08
31	0xbe67b5225a8d19c2	-4.4158763151799705e-08
32	0x3e5ff5affbd851b3	2.976480550059816e-08
33	0xbe46d4a924663168	-1.0631375901825928e-08
34	0xbe52f0b4924173bf	-1.763948732945011e-08
35	0x3e5ef30094ddaffd	2.8823714352308828e-08
36	0xbe4c9c0f291290dc	-1.3322386112971731e-08
37	0x3e5d9d5d6f945991	2.7580845139956826e-08
38	0xbe3d17882c3a8465	-6.773490826958199e-09
39	0xbe589e302e72f6db	-2.2927227141760166e-08
40	0xbe71c202de6d765a	-6.615316970383914e-08
41	0x3e78d26c739fb9a1	9.246903412394896e-08
42	0x3e6717c706fa5776	4.301384215231708e-08
43	0xbe3729097f7d5444	-5.39242783050796e-09
44	0x3e58088c230916fa	2.2382837085749665e-08
45	0xbe77abff838a5c62	-8.818457864833643e-08
46	0x3e429c0733ae4e0a	8.665716690916488e-09
47	0x3e52b96b4d1d149b	1.7438357264509578e-08
48	0xbe607bae27225976	-3.070221489644726e-08
49	0x3e4b08a77465cfc7	1.2588596509591257e-08
50	0xbe6fd2778b8cf23b	-5.9273348401786124e-08
51	0xbe2e6fcb2e636c80	-3.543297533078848e-09
52	0xbe6258c4e8e738e1	-3.4173493468704536e-08
53	0xbdeb80a2cb379200	-2.0010690813439932e-10
54	0x3e64802248d69d83	3.818519998403557e-08
55	0xbe5ef70585eb06cf	-2.8838336492035968e-08
56	0x3e4077d51a3c4868	7.668554520153798e-09
57	0x3e4964fea81c8ab5	1.1825240567628112e-08
58	0xbe46fb27a1d49acb	-1.0701396264425538e-08
59	0x3e5f13fd8eac338a	2.8943724676581207e-08
60	0xbe6063017149bb20	-3.0522683190704786e-08
61	0x3e60ddc0e84eb4c5	3.1415791779948e-08
62	0xbe5239c0e712b523	-1.697391244632065e-08
63	0x3e5bc1629065b82c	2.584924010381137e-08
64	0xbe678d77b6017bfc	-4.387015084603686e-08
65	0xbe41aa0cca062519	-8.225560955255161e-09
66	0x3e10016dd09107cc	9.316474833491643e-10
67	0xbe606bfbb918861d	-3.0588004251241464e-08
68	0xbe4dc166ab3c9931	-1.3855971793172786e-08
69	0x3e63fa92be3c2faa	3.7213417928849945e-08
70	0xbe649b93912f2c32	-3.838487052479557e-08
71	0x3e5ff8fd3efa4e86	2.9776817399449522e-08
72	0x3e337981adff484a	4.534291803098789e-09
73	0xbe4cdec77fea2dbf	-1.344374922259585e-08
74	0x3e60ae456ec6b52e	3.107031240914294e-08
75	0x3e399dfcdac43f5e	5.96445507936849e-09
76	0x3e510a6d656079b5	1.5870418167244055e-08
77	0x3e6b3680b71980dc	5.0687979047350505e-08
78	0xbe42a676d5364c78	-8.6846997707808e-09
79	0xbe4daae06da28bae	-1.381500018923631e-08
80	0x3e6399443d11eab8	3.650541880673017e-08
81	0xbe6c52bd0bf86e70	-5.2756065734897455e-08
82	0x3e55de0e0d19b813	2.0365605041287316e-08
83	0x3e45cc06f421423f	1.0150010280316398e-08
84	0xbe431c3d32c40298	-8.898931002245385e-09
85	0xbe59489329de4a7d	-2.3547090159299572e-08
86	0x3e655d2fe82f8244	3.9793573790090236e-08
87	0xbe556dc61aec2110	-1.9957129000623935e-08
88	0x3e65d92c5f77fe1d	4.069569209050008e-08
89	0x3e41bad74ca610d0	8.256103707601604e-09
90	0x3e6166e32c660431	3.241357187083754e-08
91	0xbe6f1c04f77d2acc	-5.794586760298584e-08
92	0x3e6922a3837a324a	4.68181586252092e-08
93	0x3e49a1d094af5ddc	1.1935871532393225e-08
94	0x3e5785b6613b1fb1	2.190686217045947e-08
95	0xbe4356d64b660616	-9.005520201736127e-09
96	0x3e401f9748b566d6	7.508044206033804e-09
97	0x3e35ffe77e4c2948	5.1221870952731355e-09
98	0x3e5d64826d051704	2.7374006007490206e-08
99	0x3e576839d7d2d19d	2.1799591011423866e-08
100	0x3e73afc05fa461df	7.333803600897823e-08
101	0xbe446ec1a03806d4	-9.514690374991369e-09
102	0x3e5c59f0840f5901	2.6404230138996168e-08
103	0xbe11876a73b4b1b8	-1.0203202300615332e-09
104	0x3e60913f0adea5ce	3.0859128016227086e-08
105	0xbe5260fd0b8c93db	-1.7116648295907927e-08
106	0xbe568ed59eee11d5	-2.100872536658691e-08
107	0x3e638f69dea8e196	3.6433728773898296e-08
108	0x3e5d9c9d3d75724a	2.7578113873592833e-08
109	0x3e64724044d4ee4c	3.80841887839002e-08
110	0x3e58a78a29d4ab13	2.2961247671578776e-08
111	0x3e40665c4c56a8d7	7.636773334221797e-09
112	0x3e6c954dca289c92	5.324039277872384e-08
113	0x3e60623a02b232aa	3.051701499235788e-08
114	0x3e6bd36ffdb7b65a	5.1829829063890355e-08
115	0x3e54b223fff196f5	1.92745233076169e-08
116	0x3e5661ea5bcf23f8	2.084531102226298e-08
117	0x3e50dca6dda0185c	1.570388783597008e-08
118	0x3e3d04ca0333e66c	6.756444337379301e-09
119	0xbe553726ede032de	-1.9758416118552456e-08
120	0xbe642b5de36431d4	-3.7568437626521214e-08
121	0x3e50256183443c5d	1.5037152149374515e-08
122	0x3e530ae8a3c018a7	1.773481471403083e-08
123	0xbe41b22a1004a136	-8.240320870602915e-09
124	0xbe5b440da792779e	-2.5393286116733733e-08
125	0xbe054765f2cd8780	-6.192974792756392e-10
126	0xbe4170e3f0c6cad2	-8.121588312330127e-09
127	0x3e5d118c78ffff30	2.7072196540078175e-08
128	0x3e06a5943922dd00	6.591084225907468e-10
129	0x3e203f44a8397ca0	1.8914161918942426e-09
130	0x3e2ed713aa702150	3.5902652686798397e-09
131	0xbe5959cc5062f9f2	-2.36097479559342e-08
132	0xbe09b89772fbf180	-7.485813964955182e-10
133	0xbe631a56f3bb3587	-3.558190405997647e-08
134	0xbe49f2cbf2765202	-1.2083176749782788e-08
135	0x3e71f6cc4cce2e4e	6.692131933170177e-08
136	0x3e6e3273e42fc37d	5.624644618802151e-08
137	0x3e4733236a943e9c	1.0803229715780081e-08
138	0x3e620044919f27fa	3.352956152965533e-08
139	0x3e7871d29dcc587c	9.106330574009673e-08
140	0xbe70afed26e0acca	-6.216471046319428e-08
141	0x3e4b429453ad8265	1.269396198371661e-08
142	0x3e55f4a1ea1beed2	2.0447741839130943e-08
143	0xbe35eb832144da57	-5.1036406388393435e-09
144	0xbe58fcc4436298a5	-2.3271301518309566e-08
145	0x3e5af01c784001f2	2.508790643285406e-08
146	0x3e62696f28912dcc	3.429474754924667e-08
147	0xbe60f06c48f32347	-3.155162985876781e-08
148	0x3e600d09ebe82ecc	2.989719182299889e-08
149	0x3e3de25ed99075d7	6.957971442959872e-09
150	0x3e3bbbb5cf3a3820	6.457148804920028e-09
151	0xbe576822abcf5b96	-2.1799261718524268e-08
152	0x3e28038acb8a048c	2.7955785154793736e-09
153	0x3e24a7ef55daf00d	2.4046743891616525e-09
154	0x3e4634188aa2454c	1.0339310147874089e-08
155	0x3e437c389ed3b89d	9.073521457154558e-09
156	0xbe51969ee9ff20e8	-1.6380438893992314e-08
157	0xbe4de4c5e73a50ac	-1.3920313102982847e-08
158	0xbe53d15e40bb5c3b	-1.845680590206045e-08
159	0x3e5b232c30fb1ad8	2.5273666769458544e-08
160	0x3e79db029022502c	9.631927258758295e-08
161	0xbe76e30f2ebb2fcc	-8.526053435069471e-08
162	0x3e617693606d2df6	3.2527719232176295e-08
163	0xbe518692b5d044e4	-1.632205780608138e-08
164	0x3e5ecccdf5d657ad	2.868475178703785e-08
165	0xbe512e50232fde8f	-1.6000969615236878e-08
166	0x3e634ace92583412	3.593454981848871e-08
167	0xbe470c3a7b208b36	-1.07324530131715e-08
168	0xbe46a295f5620b74	-1.0540290123567033e-08
169	0x3e750ef77b1cb0c9	7.844889074172746e-08
170	0xbe6025c5c94f203e	-3.007715424597609e-08
171	0x3e6215ad6ba765bf	3.368533670376997e-08
172	0xbdf91dee3fc89300	-3.6549924179546826e-10
173	0x3e4ca0fbd3e4cd9d	1.3331343692684139e-08
174	0x3e407f3689beccd8	7.681979767451918e-09
175	0xbe5142de8a4f5501	-1.6075752857219228e-08
176	0xbe4b4c34bdb5afd4	-1.2711472699703357e-08
177	0xbe4589f9fc60730a	-1.0029864838022466e-08
178	0x3e5467acdef4fecb	1.900361995305149e-08
179	0xbe451fb886ca4cbf	-9.836586844786764e-09
180	0xbe4203f68f297a81	-8.389112048424338e-09
181	0x3e6195f0e834d82a	3.275593221179467e-08
182	0xbe522a2fc2da6ae2	-1.6917280179673167e-08
183	0x3e54fb9f553a29fa	1.9541848429849463e-08
184	0x3e59d4106747e6e7	2.405454897940568e-08
185	0xbe5c45305ddaabed	-2.6328739957902962e-08
186	0xbe66abcbaa393ece	-4.2228170540738416e-08
187	0x3e366cbcb13f7976	5.221169958157622e-09
188	0xbe3baa49745c5de2	-6.441302440885026e-09
189	0xbe34cb1f7ceff618	-4.841352165515356e-09
190	0xbe506901e17a4583	-1.528317569596944e-08
191	0x3e56a87ef2a13011	2.1102081117476672e-08
192	0xbe5978c2f4a8ed01	-2.372239230940356e-08
193	0xbe603d4fea621028	-3.0248427138952375e-08
194	0x3e57d352b4705ab5	2.2189208050909186e-08
195	0x3e60b04a670d9eb5	3.108500557549331e-08
196	0xbe1116a740e15748	-9.946810072833311e-10
197	0x3e62fd603d3f6210	3.537116524649942e-08
198	0xbe47b61100672817	-1.1041386482972689e-08
199	0x3e6bff13af64df3a	5.214734770598097e-08
200	0xbe5e1f32a544058e	-2.8053174298309766e-08
201	0x3e68134379ebdcee	4.484364456673216e-08
202	0x3e47a69fb421a6c1	1.1013296611668575e-08
203	0x3e63d8e36d306fca	3.6968328530529533e-08
204	0x3e5f6a3148e19d76	2.925732594423796e-08
205	0xbe669de4e846deed	-4.212702456616747e-08
206	0x3e4cf619490e996a	1.3486167101312796e-08
207	0x3e7198504ca1bb13	6.554639067774221e-08
208	0xbe27179359da3298	-2.6882733390210974e-09
209	0x3e502b90e2721024	1.505965321588525e-08
210	0xbe574849d2aff5f2	-2.1683402778157977e-08
211	0xbe575d6e387ff7b3	-2.176031757560722e-08
212	0x3e481cab854919ca	1.122802132618033e-08
213	0x3e44f0e51609e07a	9.751410957564196e-09
214	0x3e6265d57131ce72	3.42685507964187e-08
215	0xbe5796e1c4146750	-2.1969324364140642e-08
216	0x3e4d76ba2e98ef06	1.3720140984368945e-08
217	0x3e6142525c6cab1a	3.2147521580814886e-08
218	0x3e4bd5c1863467e5	1.296167457267323e-08
219	0x3e654076823b18b1	3.9584577641398945e-08
220	0x3e70d7659beb0c5b	6.273908235558007e-08
221	0xbe77a13b2f68a627	-8.802789950496887e-08
222	0x3e6144750341f31d	3.2163058356362114e-08
223	0xbe35dbc0635e9614	-5.089306356474387e-09
224	0xbe6799799d947f5e	-4.395751646902518e-08
225	0xbe452a28aaa8bd64	-9.855573542248416e-09
226	0xbe61af33cfc0779b	-3.2939732691675276e-08
227	0x3e6a758658bceff1	4.9283879281829114e-08
228	0xbe2013ea331dca14	-1.871701371089251e-09
229	0x3e49bbbfd39f2bac	1.1983046211465624e-08
230	0x3e689c071abcd2c2	4.58387348897905e-08
231	0xbe35f483f68df140	-5.111829051086292e-09
232	0xbe593f4390a2489e	-2.3513217186295096e-08
233	0x3e5c5171f323b7cd	2.6373327696145495e-08
234	0xbe6073b8c96b2968	-3.0644309469818394e-08
235	0x3e591bba25c74427	2.3383935109277036e-08
236	0x3e58e4169981d204	2.3181522118948574e-08
237	0x3e61d08b102ada83	3.318231913322886e-08
238	0x3e51a8305d2e60d2	1.6444351501674607e-08
239	0xbe61ff61a55d03d6	-3.352311199337652e-08
240	0xbe4dd3b579994a12	-1.3889273553468653e-08
241	0x3e31238678ffd2ba	3.990430999513533e-09
242	0x3e591085493821a6	2.3343166134463158e-08
243	0x3e553f202aa71489	1.978742384682081e-08
244	0x3e53964df68d89cb	1.824193366100534e-08
245	0xbe57a22449d58ade	-2.2010287472293288e-08
246	0xbe3eb70d468089a8	-7.1514040037315494e-09
247	0x3e57c2c4e6ee6180	2.212898525151137e-08
248	0xbe50979b5f8b6658	-1.5452703979986237e-08
249	0x3e380ee58fc430e8	5.6014839401093315e-09
250	0x3e6617365f9ae7c0	4.11470856948147e-08
251	0x3e2a9e78332c6282	3.098861966847736e-09
252	0x3e57bed64ef6de73	2.211468069581345e-08
253	0xbe260c8703f5ddd0	-2.566833884057428e-09
254	0x3e1c6516cfc07c00	1.652799507506256e-09
255	0xbe3364c76e630c98	-4.5154402215490235e-09

cho_elements_module.bias f8 [45]
0	0xbf671c30b4f3d2d3	-0.0028210593514991027
1	0xbf21f8960c7020ad	-0.0001371081509378194
2	0x3f160a6e8d501518	8.407878642920465e-05
3	0xbf818fc3334c833e	-0.008574986460702424
4	0x3f9e9fde6b35f71c	0.02990672616350941
5	0xbf4348e9369b9ad6	-0.0005885256516336655
6	0x3f1623f928bdd946	8.445938345666868e-05
7	0x3f307802519e6c97	0.0002512937222662408
8	0x3f08f0c5d02b205e	4.7570263651375926e-05
9	0x3f41be14da7177d8	0.0005414583037113242
10	0x3f4524d524907a51	0.0006452599274132197
11	0xbf6e60204b3d6bfe	-0.0037079458942748103
12	0xbf2a4968670c3f35	-0.00020055198140100377
13	0xbf87b1133e0da376	-0.011568212825027162
14	0x3f2ee0b7bb0d04a2	0.00023557894521711748
15	0xbf9d496173315703	-0.028600237518126025
16	0x3fa768d699dbf090	0.0457217276398022
17	0x3f42fecc6d93b593	0.0005796907600178917
18	0x3f7af33196c4a611	0.006579583842076812
19	0x3f2e98b9e071bcf2	0.00023343342784041366
20	0xbf81f5e97e159a84	-0.008769821319856826
21	0xbf88457477a4f0e3	-0.011851224805120747
22	0xbfa81a2493beff36	-0.04707445434132611
23	0xbf51d282c7b7ada2	-0.0010877873563640357
24	0xbf56285c5357f858	-0.0013523961655432983
25	0x3f330cb6e66ab844	0.00029067483266487595
26	0x3f5e19c7facb89a8	0.0018372013975570343
27	0xbf95348afa51e68b	-0.02070824768859451
28	0xbf8291c020cdb4e8	-0.009067059517941137
29	0xbf97a440ad204814	-0.02308751160314422
30	0x3f0a9793e4bbc680	5.072040639032566e-05
31	0x3fbccc71d1dc2a57	0.1124945771554534
32	0x3f2cc3ff8f04a07e	0.0002194642506847567
33	0xbf7a1b90aa19ec6e	-0.0063739443736451195
34	0x3f9196c174158f46	0.017176649770944928
35	0x3f1a8ff070afb440	0.00010132699041749769
36	0xbf71d227532ea59e	-0.004350808728227488
37	0xbf5b3c09e5bdaf7c	-0.001662263551192005
38	0xbf5ba9103fbf1189	-0.0016882570916872694
39	0xbf9f1117db390ae3	-0.030338642840670792
40	0xbed0ba5cb6fbce14	-3.988260558907275e-06
41	0xbf71bd5e92409fe5	-0.0043309873763419425
42	0xbf7f2c62f53099f9	-0.007610689691353028
43	0xbf844ea54e93629a	-0.009915629826012396
44	0x3fa05c2afcf140c8	0.03195318544078557

cho_diag_hidden.weight f8 [10, 10]
0	0xbe719095fdc36611	-6.543393688291403e-08
1	0x3e6959ea8732b918	4.72203546484514e-08
2	0xbe4e1656d462de5c	-1.4010473347764325e-08
3	0xbe5b1658c8f1646d	-2.522700675816273e-08
4	0xbe2b382c1c13c364	-3.1687578955025287e-09
5	0x3e44725364a11908	9.521183081653511e-09
6	0x3e50f4837859e80c	1.5790696325579223e-08
7	0xbe70c9f03780774e	-6.254323448069875e-08
8	0xbe5d3c1406a78386	-2.722691797875935e-08
9	0x3e1da2a09dbe0740	1.7249993577380459e-09
10	0x3e31eeba1f9ad3cc	4.175241924486626e-09
11	0x3e55d810e2b155d5	2.034381744690594e-08
12	0xbe5bc8b804a92a51	-2.587592033203034e-08
13	0x3e5c0f44085d5b5e	2.613256857379317e-08
14	0xbe465c8981ee324a	-1.0412872395739038e-08
15	0x3e64e05907c6a339	3.888524788563697e-08
16	0xbe54777140131b5b	-1.906098035379312e-08
17	0x3e507a175f7f436d	1.534532675912651e-08
18	0x3e61152ce76ac3f2	3.1819038894493044e-08
19	0xbe1c95cf53974530	-1.6638773261651983e-09
20	0xbe74da7742003c2f	-7.768490251101453e-08
21	0xbe541a75b79e2707	-1.8722711804130155e-08
22	0xbe4374eb66c1978e	-9.060239857145402e-09
23	0x3e7142d5ddf1b249	6.430251840863802e-08
24	0xbe67620006857cee	-4.3553883002527e-08
25	0x3e3bb000b0f1c974	6.446500901764465e-09
26	0x3e653df69c95bb6e	3.956639067325032e-08
27	0x3e6238f5b979f04e	3.394205022337038e-08
28	0x3e37cdde8d4f22df	5.542341881397209e-09
29	0xbe6aae1f63ddb26e	-4.969568266521883e-08
30	0xbe5e64ccae970092	-2.830638382521913e-08
31	0x3e41021b175c934b	7.920072357992594e-09
32	0xbe6f4a2731a42354	-5.828153444755336e-08
33	0xbe52a3c3ddb3f36f	-1.7359580312289083e-08
34	0x3e0a525d9b43471c	7.660634822027955e-10
35	0x3e56e26f8ea51d34	2.1312865175203524e-08
36	0xbe5c0ea8fad39e3b	-2.6130365139800002e-08
37	0x3e52b878db58d4ee	1.743491192235375e-08
38	0x3e3dbb601c517932	6.922505628701663e-09
39	0xbe2c449e47f8488c	-3.2908329947862815e-09
40	0xbe456263c2dfd54c	-9.957856841168133e-09
41	0xbe507bbf1e45a74c	-1.5351348540808773e-08
42	0x3e07745ab5fa1f80	6.82616057389318e-10
43	0xbe5da520594b70f6	-2.760908087122107e-08
44	0x3e562243fb25396d	2.061375398961826e-08
45	0x3e4b08658cc55ca2	1.2588128227879045e-08
46	0xbe40a623d888bd5c	-7.752787537899636e-09
47	0xbe3f1a587335eb53	-7.2417110531883546e-09
48	0x3e6aa8df5b1493a4	4.965748291234393e-08
49	0xbe4a6151eaef5742	-1.2284217502515216e-08
50	0xbe4e842edf1b0fa2	-1.421027826258601e-08
51	0x3e5770df3926796c	2.1831045035630173e-08
52	0x3e7859da0a088936	9.071448171157208e-08
53	0xbe5883a844f640be	-2.2830708266248522e-08
54	0xbe5876178050854e	-2.2781357262554262e-08
55	0x3e5fa66ba95dc062	2.9476434258225258e-08
56	0x3e7e918dda50ecfa	1.1387680005994571e-07
57	0x3e4e6985308715d4	1.4161778875356657e-08
58	0x3e4726d025f41505	1.078081018772286e-08
59	0xbe6433d642a338a5	-3.7630066467018506e-08
60	0x3e75ad135e4f8fdd	8.074967856836788e-08
61	0x3e6e5426af7130a3	5.649163441946974e-08
62	0xbe75d3b9f812e636	-8.131212149682937e-08
63	0x3e4c4bfe3dbc4716	1.3176746741934689e-08
64	0xbe4e37bdc5476050	-1.4071231437784808e-08
65	0x3e64c20d53802aec	3.866481751442829e-08
66	0x3e316d1812e76030	4.057341392080408e-09
67	0xbe534c0ce4e612e2	-1.797179854372142e-08
68	0x3e416f12c8223756	8.11828316054244e-09
69	0x3e61fb1e6b66b75b	3.349209747330165e-08
70	0x3e54ecd69e9b1c18	1.9488064418088226e-08
71	0x3e32fc21c9c0257c	4.4202642900194595e-09
72	0xbe6950520fc67b50	-4.715053767149414e-08
73	0xbe566e5ac504593e	-2.089056422388473e-08
74	0x3e68a7f5d8338e15	4.59255558250978e-08
75	0x3e59516f64dbd12f	2.3579323652415143e-08
76	0xbe546aed12db2291	-1.901544626514685e-08
77	0x3e6421cc898ebd18	3.7498822886569454e-08
78	0xbe2541d4970a7f74	-2.4746579718807288e-09
79	0x3e6b211182622a79	5.0532023275036207e-08
80	0xbe2a1e9712517c6c	-3.040709145018422e-09
81	0xbe66c3d52c9fed84	-4.240306379629443e-08
82	0x3e77ed26456cd578	8.913265623913975e-08
83	0xbe55e0e84c55c7ed	-2.0375982475455794e-08
84	0x3e40569f5a94b4e8	7.608145962703245e-09
85	0x3e4439933e74c146	9.417954373482754e-09
86	0x3e5d8250448a867d	2.7482432581944195e-08
87	0x3e024f16cf842938	5.328603383471484e-10
88	0xbe309ce9aafa5cac	-3.86800162702173e-09
89	0x3e70a0262318210b	6.193511905433584e-08
90	0x3e6141cbf7f98c6b	3.2143701919595686e-08
91	0xbe5dd89a511f069c	-2.779635106093773e-08
92	0x3e56f1d23e34e4f4	2.1368837266700832e-08
93	0xbe509963d84f55da	-1.5459190833561273e-08
94	0xbe56a22ebfdc6ae6	-2.107911355803161e-08
95	0xbe4a0f008c015ac8	-1.2134482196981862e-08
96	0xbe452f5008b49e81	-9.86494821124516e-09
97	0xbe5ae8502b1ebb14	-2.5059537285268112e-08
98	0xbe61dada35547f55	-3.325732815030102e-08
99	0xbe64f7d7e9a81920	-3.905620112394741e-08

cho_diag_hidden.bias f8 [10]
0	0x3e31d66f9f50e290	4.153149370466584e-09
1	0x3e8603e6f3e18650	1.640263409012713e-07
2	0x3e8810c9843d65f1	1.7930250539414627e-07
3	0xbe5e11829461f75a	-2.800337852619131e-08
4	0xbe78b0d5420ebf9c	-9.198022655923204e-08
5	0xbe625d3110c66980	-3.420567127044275e-08
6	0xbe805a3f2b061d0a	-1.2183581566910489e-07
7	0xbe5416394664569f	-1.8707300952322355e-08
8	0xbe6b26a5446d130f	-5.0572602597450895e-08
9	0xbe905116e9de872f	-2.431386095740342e-07

cho_diag.weight f8 [10, 10]
0	0x3e612ef99ca7841e	3.200675598495458e-08
1	0xbe5ef74e253b467b	-2.8839368517249675e-08
2	0x3e6a9e62e9e4a367	4.958118647792257e-08
3	0x3e44af50c511af34	9.63212279572966e-09
4	0xbe71cd2ac63a5565	-6.631550913468798e-08
5	0xbe5e8cb8cdc37835	-2.84516204908965e-08
6	0xbe52d77d374ded20	-1.7547751213453616e-08
7	0xbe37e48068ebc3f0	-5.5629257994649145e-09
8	0xbe46ec4fc7c5851a	-1.0674396693543037e-08
9	0x3e6b3150fec8b466	5.0650242975791866e-08
10	0xbe6a25e5a0925c2a	-4.8704510710231165e-08
11	0x3e612ce7d9361446	3.199169920212151e-08
12	0xbe31fdc611d1b4d0	-4.188926786263331e-09
13	0x3e6f654dc208e933	5.8479081359009515e-08
14	0xbe21d7e1dd6b638e	-2.077232368193681e-09
15	0xbe7d2ce6908ffc96	-1.0868680901109327e-07
16	0x3e5d36bf0d653232	2.72075205362708e-08
17	0xbe67c43296e49f5f	-4.4268363962658076e-08
18	0x3e14b77824007769	1.2058693071922354e-09
19	0x3e22c31a2080ec90	2.1841979371246105e-09
20	0x3e4f94208da7e0a2	1.470494164367762e-08
21	0x3e52c99582929e4c	1.749716474889906e-08
22	0x3e3212ff0b00824e	4.208228585072919e-09
23	0x3e4e6f1a5840df42	1.4171933633661167e-08
24	0xbe2a035c9d8ee410	-3.028327127661597e-09
25	0x3e4eb8a331f35942	1.4305692240551024e-08
26	0x3e72d1ee5a038b9c	7.011012437582154e-08
27	0x3e5c9ea10f321290	2.665412153188805e-08
28	0xbe51a7cd13bcc30d	-1.6442940550107157e-08
29	0xbe605f17dbf5d53a	-3.049421648085691e-08
30	0x3e8122e7cc07e50e	1.2767575265064173e-07
31	0xbe5aec00872213ac	-2.507295743987074e-08
32	0xbe82948ddc2431f2	-1.384339452587589e-07
33	0xbe723fa2c861e07a	-6.798124915937265e-08
34	0x3e1f2c483fa6c130	1.814506099718315e-09
35	0xbe80324a7f8c6dba	-1.206729505425438e-07
36	0x3e5d2ac5fe288fab	2.7163963420753345e-08
37	0xbe7585b3455bc6bc	-8.017669136573007e-08
38	0x3e522b1d290c1f6b	1.6920653825156196e-08
39	0xbe402e2d40924e05	-7.534575645937263e-09
40	0xbe680387225a2607	-4.4729152199012606e-08
41	0xbe254632affbdce0	-2.4766441119028415e-09
42	0xbe606c9a54488b77	-3.05925121106141e-08
43	0xbe19c483044a4690	-1.4998731294809497e-09
44	0x3e41ec6658058815	8.346250580149253e-09
45	0x3e0f5c07b804c468	9.126813610750259e-10
46	0xbe5c8bb214d8e328	-2.658524183281142e-08
47	0x3e4d0736b34f7b97	1.3517298927692145e-08
48	0x3dfbe42ca3eec250	4.058719228176963e-10
49	0xbe629df7f33b26a2	-3.467698519788545e-08
50	0xbe525f29f4e78d2c	-1.7110010569726267e-08
51	0x3e650ab567d22c96	3.91934635658445e-08
52	0x3e4bae9776a8595c	1.2890435126467301e-08
53	0xbe61ddc9d902b398	-3.327869102626756e-08
54	0xbe5b47bfb6cda84f	-2.540673043079641e-08
55	0xbe697fb64c79f58c	-4.74953565894779e-08
56	0x3e7e84fd4c337b52	1.1369396006901688e-07
57	0xbe596a2615fca30c	-2.3669231351933934e-08
58	0x3e680ebaa4bcf2c2	4.481065171569645e-08
59	0xbe822e18901d5cb8	-1.3545201942952546e-07
60	0xbe694f25230fc6b4	-4.714198487816576e-08
61	0xbe21b982fc423a50	-2.063421407757381e-09
62	0x3e6ca90fe8d3acaa	5.338415318987859e-08
63	0xbe4bf966f6a7fb52	-1.302651471846657e-08
64	0xbe69cf7ba9ed3b8e	-4.8075766692822206e-08
65	0xbe83017ff6863f64	-1.4160468287922823e-07
66	0x3e8ad6bfb0af536f	1.9996510788760828e-07
67	0x3e3d88b59e005355	6.87642517928732e-09
68	0xbe6f4be94fb8c4b2	-5.82943275564131e-08
69	0xbe71cbcd56b312ee	-6.629564601723539e-08
70	0x3e6e7eed08f7eba0	5.680286207714759e-08
71	0x3e684229c30a5daa	4.5184883728010183e-08
72	0x3e454b32c97b28a9	9.91567210231995e-09
73	0xbe3879a3cff6a7f6	-5.69856628501037e-09
74	0x3e4ec25e9a56418b	1.432339475740223e-08
75	0x3e5e0a7f3c2499e8	2.7977865143689796e-08
76	0xbe7b40c3e657f222	-1.01525296246305e-07
77	0xbe4f3a00afb3a481	-1.4541006168648198e-08
78	0xbe5b474c92049acf	-2.5405094140506356e-08
79	0xbe6840279a0cb21e	-4.5170270418458986e-08
80	0x3e3fe3de5cf48a0c	7.424995243022084e-09
81	0xbe59c94790737b0e	-2.4015315094943835e-08
82	0xbe80db0fbddd8ddc	-1.2558481804056758e-07
83	0xbe5706134fb83d86	-2.1442521520569845e-08
84	0xbe5d0ca17772c15d	-2.7054304987853716e-08
85	0x3e83bd3588886012	1.4706774133298058e-07
86	0xbe82c2a3bc02a04b	-1.3977520830111095e-07
87	0xbe759a11ecfa37a0	-8.047311017054499e-08
88	0x3e74900fc92c231d	7.66021790826545e-08
89	0x3e72e0805fd06958	7.032215161608844e-08
90	0x3e736fba14bb39fd	7.240635574031841e-08
91	0xbe61a0fadf84b08e	-3.283625099807164e-08
92	0x3e6a186e265d882c	4.860652751019313e-08
93	0xbe66c49662872e6a	-4.2408555170686754e-08
94	0x3e609ce0b0a57cb3	3.094375785011416e-08
95	0x3e6ad217bf59b292	4.995739992246018e-08
96	0x3e68de96d98aceb2	4.6323033580344e-08
97	0xbe5e2114eb38a3da	-2.8060027813595077e-08
98	0xbe44a0d98f9f58fa	-9.605809914782532e-09
99	0x3e4a76a2558bf018	1.2322987673247584e-08

cho_diag.bias f8 [10]
0	0x3fa08348fe85b615	0.03225162608110225
1	0xbfa7450a3bff0c6a	-0.04544860823036674
2	0x3f7c88cc4a72de0a	0.0069663982496233155
3	0xbf9a1f8afab4c980	-0.025510951568500584
4	0xbf1b991283a5a5c2	-0.00010527778150550614
5	0xbf63ff86aabdaabf	-0.002441180249595248
6	0x3f9bbe57cddcc2ab	0.02709328836425821
7	0xbf92d4ede9eafa64	-0.018390386011328266
8	0x3f82921acdf744f4	0.009067735109882659
9	0xbf93837405ca4468	-0.019056141713523905
