port_results/Expected/Adam_2/10_1000/0/2_trained_linear.pth (torch, 29815 bytes, 4 tensors)

linear_mean.weight f8 [10, 30]
0.0003670767585850307 -0.16772150030079122 -0.11588300078170084 0.041763569127518156 -0.038640292116126164 -0.03276239363116596 -0.14856112249880332 -0.026435880086711147
-0.22180211157412968 -0.027346546663471114 -0.0997153483646478 -0.06639194537751675 -0.007849394549052233 0.0022906756532686 0.1670557244708368 0.277378165962589
0.18489205384647675 0.0483363303310429 -0.11809072141157878 0.023013324097061683 -0.13399519062366713 -0.1590863927038748 -0.09501661955072388 -0.11298373050276568
-0.09060888278195091 -0.12294567763602281 -0.13076589941702185 -0.1800622515680336 -0.1450544125116359 -0.1362384979113754 -0.06013202256350308 -0.06196998427632386
0.13626074235738278 0.10382977032933405 -0.015276531967597264 0.024055390290253314 0.04249939513251805 0.12123179291958117 0.017812492659847006 0.024791965170546295
0.1848410766851522 0.01353199698642869 -0.07596398750508855 0.17275542581197437 0.06849808954304161 -0.007124124552637962 -0.05672122171684279 -0.16601721108504403
0.058896638045726056 -0.16501211323240025 -0.19780786339060075 -0.22442394207373717 -0.19888457400372042 -0.2239743587823993 -0.20638346805531768 -0.20460389193855263
-0.2143538872621392 -0.1871156075393886 -0.22066834542115324 -0.20044123839822756 0.0011948776527996605 -0.04030592807080892 0.21691619843646467 -0.10394790414706236
0.07457952216141926 -0.007383274135032771 0.0030785030459237928 0.06571381263648053 -0.031214498491942588 -0.1035541435455656 -0.007782479115168456 0.03450365860742874
0.01022250896050632 0.2031266509856849 0.08487058214701372 -0.2260887946836448 0.04618729606866101 0.029493135613433853 0.09019458106541844 0.09756221954365238
-0.14277421423352127 -0.16583691395348057 -0.16405177814798533 -0.1693184140159343 -0.13121822970720512 -0.176973573158062 -0.19194824458111362 -0.1202597863715317
-0.18511150461852283 -0.12134584612256458 -0.22991929853542153 0.2651118386205995 -0.20259560902617307 -0.1642405516550314 -0.21548564452040378 0.06902906577804731
-0.10928006358816354 0.15362158639489637 0.041207638824748614 0.048259037979026594 0.3381240666246673 -0.1635527441231558 -0.1101500391637781 0.0006687858744874709
0.28844630120561865 -0.11797431817404419 -0.30554456750689685 0.11758249183704171 0.08460730471795246 -0.3930342839574884 -0.14573595180706211 -0.06454780549743931
-0.09042799279964348 -0.0497553094943856 -0.01123526310453804 -0.058354936057484125 -0.12056915927108981 -0.11365560588277018 -0.11010799744266526 -0.022190243298868522
-0.1311907676876597 0.026831489426792945 -0.012159102190880905 0.14202094967471063 0.10487061789482585 0.04669510455840463 0.05782911588496937 0.03317318639970225
-0.1118301225863664 -0.12090677250224972 -0.016912139914747694 -0.17290156303810564 0.006904187829209713 0.01828192721639009 0.014508194969773788 0.032281664111194805
0.07864078654356232 0.15217524853809633 0.08271390634454683 -0.08106961211810595 -0.29441379689579644 -0.30384889316736297 -0.27260419662145785 -0.2532878158521758
-0.2719350979411019 -0.28347477260461956 -0.27202091638695247 -0.2594241676433901 -0.2995239188299728 -0.258134401820526 0.44406836393424914 -0.33097141824500087
0.2956044078738504 -0.31584806537909804 -0.1761024315515756 -0.11958746817151264 -0.07643200779447921 0.45103946424399655 0.1629853108637726 0.2002517897937586
0.1484639036444057 -0.09879750821479259 0.007640209072235609 -0.45292909200469716 -0.06976470083455773 -0.11255128285860846 -0.38254827905923555 -0.15323221538429002
-0.3056761459005388 -0.02114047205905388 -0.033715359553818575 -0.0516319902217521 -0.05581873805211886 -0.062105207476286346 -0.0033286007993332074 -0.05381706467501186
-0.06598288085805742 -0.03521856333368892 0.0287264380447212 -0.11637059499519141 -0.04284345317651366 0.0960649969008198 0.22155478274894078 -0.08907522162939123
0.2505709018416354 0.10542552844316615 0.09742261167506756 0.10557646525167626 0.05318897100454002 -0.05505483410957725 -0.06358684963990223 -0.24438705036748304
0.08207794849831092 0.04691867809140719 0.08246303050587553 -0.16620503108515033 0.3201487056714785 0.23915097591035503 0.12271795906863635 0.20010398898892892
-0.12760322513562383 -0.16224534724445785 -0.16075002030816837 -0.13976382915690044 -0.1417616447106845 -0.16987838236977956 -0.1139164395500305 -0.09816826368084423
-0.1508300093057471 -0.14418613326667 0.15370708385720427 -0.16936227932565373 0.05637689312883028 0.1015538037890208 -0.08391280698181829 0.06414119198813242
-0.08483210062492598 -0.00862610582062499 0.19769620403918173 -0.05603013207185143 0.025861951700071946 0.12904787807162002 -0.12928026390314887 0.28294248749698037
0.0936317682772411 -0.07735380591324474 0.2968123571431361 -0.011236667118875493 0.052540908206174054 0.15657475364781998 -0.11844483217884365 -0.1265887831673527
-0.11620868726264157 -0.16918470163382324 -0.10788242140931667 -0.15053143823867068 -0.15088639793952596 -0.15315343553220415 -0.15099424952178628 -0.16934277789519678
-0.12045309133442542 0.20613974135440605 -0.22917501347142502 0.1712299655298001 0.3230299208979289 0.2568453112993288 -0.04003935179498868 -0.03194454530661856
0.25266301613553155 -0.04128940229886411 -0.12297965099997706 0.06052940544489429 0.08798125888503845 -0.2155130843204466 -0.4075989220884017 0.3210514355211453
00000000: 9fbe 59ac 860e 383f bf60 50eb e577 c5bf
00000010: 2d0e 8522 82aa bdbf 1744 22d7 0862 a53f
00000020: 1daf e40d a9c8 a3bf 917b 5e82 3bc6 a0bf
00000030: ca71 4b05 0d04 c3bf dc52 a7e1 0112 9bbf
00000040: 3d83 b2f7 0264 ccbf 9905 50ae bb00 9cbf
00000050: 30aa 22f0 f186 b9bf ac3f 1d02 10ff b0bf
00000060: d279 0de7 5713 80bf 456e 8720 e5c3 623f
00000070: 471d 9bfc 1462 c53f 0ec3 db59 90c0 d13f
00000080: 33cb 47f6 8aaa c73f c001 f61b 8abf a83f
00000090: b47c 6c8a 313b bebf ddfc 7909 ce90 973f
000000a0: 4f64 c620 c126 c1bf b86c f362 f15c c4bf
000000b0: 44fd 8b59 0253 b8bf 014d 7d73 80ec bcbf
000000c0: 318c 46cc 2432 b7bf 579b a130 5e79 bfbf
000000d0: 1bcd b6de efbc c0bf 454a dda4 470c c7bf
000000e0: 4d61 f09a 2491 c2bf 9325 7e5a 4370 c1bf
000000f0: 5785 b4dc 9fc9 aebf f4d3 999f 87ba afbf
00000100: 82aa 13f4 fd70 c13f 106a ea7b 9694 ba3f
00000110: 41b8 9369 4d49 8fbf 2b4b 5bea f9a1 983f
00000120: f84c 6310 7bc2 a53f 2e36 d3f9 0b09 bf3f
00000130: abb4 bc25 703d 923f a7bb 719e 1063 993f
00000140: e6fa a855 dfa8 c73f 76dd 0ce4 a9b6 8b3f
00000150: 5d13 023a 6072 b3bf 79d4 088c d91c c63f
00000160: 1104 6d3e 1789 b13f 5499 759f 2f2e 7dbf
00000170: 8fa8 8660 900a adbf 6a79 174e 0d40 c5bf
00000180: 5b61 803c b327 ae3f ff74 e3ee 1d1f c5bf
00000190: fcbe 13a0 c451 c9bf 64b3 d279 ecb9 ccbf
000001a0: f92e 83ba 0c75 c9bf fa75 0e19 31ab ccbf
000001b0: 7bc7 dd02 c66a cabf d754 41d8 7530 cabf
000001c0: 9bda c7bb f26f cbbf d4f6 797b 67f3 c7bf
000001d0: 0d53 6c3f dc3e ccbf 1356 d8f9 0ea8 c9bf
000001e0: 8977 411c ae93 533f a250 cc85 faa2 a4bf
000001f0: f7ed 20f5 e8c3 cb3f e1a3 cc70 549c babf
00000200: 5775 a2c0 a417 b33f cf6b 288f ec3d 7ebf
00000210: a962 e4bc 1638 693f c54d 2bd4 9ed2 b03f
00000220: 6359 bc88 b1f6 9fbf 01bc e43b 8682 babf
00000230: 53d3 8054 85e0 7fbf dc5c 9faa 76aa a13f
00000240: e9f7 58ed 89ef 843f 9afa 76d9 0d00 ca3f
00000250: 81c2 b616 14ba b53f 9a43 9445 7af0 ccbf
00000260: 100d 367c dca5 a73f 0d2e aad3 7233 9e3f
00000270: 08d0 f3f7 fd16 b73f 76e1 436e d6f9 b83f
00000280: 4e2b 6cea 6c46 c2bf 812b f3dc 243a c5bf
00000290: f084 ff0e a6ff c4bf 298e 67cd 39ac c5bf
000002a0: 89a0 9d4a c2cb c0bf 8a2d 7cee 11a7 c6bf
000002b0: 2110 8094 c291 c8bf 5a5b 7d69 58c9 bebf
000002c0: 9a96 39d9 bbb1 c7bf b613 9a78 8510 bfbf
000002d0: 12e6 f6dd fe6d cdbf 1c1b 2aa5 97f7 d03f
000002e0: 9e51 8a25 a7ee c9bf a186 049b d505 c5bf
000002f0: ad7e fc99 0895 cbbf 357a fd8b e3ab b13f
00000300: 5749 373b c7f9 bbbf be4a c344 dfa9 c33f
00000310: 7b02 32ea 2a19 a53f 5972 b69b 68b5 a83f
00000320: a22e 0920 d3a3 d53f 940a 97db 4bef c4bf
00000330: 498e dcff ca32 bcbf 67e3 beba 2eea 453f
00000340: 9823 9579 e775 d23f 9c4e 539e 9033 bebf
00000350: d067 3acd 0a8e d3bf 37b4 05dd e219 be3f
00000360: 0b2d c406 d3a8 b53f da77 f344 7927 d9bf
00000370: 0c6f 6ec5 79a7 c2bf afdb a379 3486 b0bf
00000380: 04a7 b7f7 4926 b7bf 5657 2926 8779 a9bf
00000390: 807f c47c 8302 87bf 54a8 dabb b2e0 adbf
000003a0: 61bd f9d3 9edd bebf 3c08 46a6 8818 bdbf
000003b0: 2d57 0ba8 0930 bcbf 3b23 0905 0ab9 96bf
000003c0: 8cb8 60ec dbca c0bf 073b 5dc6 b679 9b3f
000003d0: 8385 1112 dfe6 88bf 3691 1913 be2d c23f
000003e0: 366a 2b02 cdd8 ba3f 2e5d ecb5 6be8 a73f
000003f0: 290f f722 c79b ad3f e2b4 616d 13fc a03f
00000400: 4a53 371f e6a0 bcbf 5317 c309 bff3 bebf
00000410: da5b 5b7f 6a51 91bf 6785 566f a321 c6bf
00000420: c70c e9ce 9047 7c3f 3c4d 025e 7fb8 923f
00000430: de75 5af7 78b6 8d3f 8e6f 3ce7 3887 a03f
00000440: e018 5676 cd21 b43f 7aab dd81 7a7a c33f
00000450: b39a ac12 bd2c b53f ca25 bf64 fac0 b4bf
00000460: 0727 4af7 acd7 d2bf 8618 c5a0 4272 d3bf
00000470: fc74 4fdf 5872 d1bf 07dd 6319 de35 d0bf
00000480: 67a9 1278 6267 d1bf f3fb 645f 7324 d2bf
00000490: 306f ed6a ca68 d1bf 2381 f4d2 679a d0bf
000004a0: c1a5 ef5e 662b d3bf ebaa 7227 4685 d0bf
000004b0: f94a 12b7 9d6b dc3f 1a79 51be a22e d5bf
000004c0: d3c8 17c0 2eeb d23f d8b7 d3cd da36 d4bf
000004d0: d14a 2144 868a c6bf d6de cec8 489d bebf
000004e0: b74b d84d 0c91 b3bf 6c88 08a1 d4dd dc3f
000004f0: b6b3 f1e1 b3dc c43f b198 10c4 d9a1 c93f
00000500: 1605 657d dd00 c33f 9775 b522 cb4a b9bf
00000510: f900 9901 574b 7f3f 2d4c 644d cafc dcbf
00000520: 05e9 7f74 19dc b1bf 4625 002f 29d0 bcbf
00000530: f7d4 ecc6 ab7b d8bf a173 e2fc 1c9d c3bf
00000540: 50d9 73ae 3290 d3bf dc69 7610 d9a5 95bf
00000550: f424 50bd 2343 a1bf fb10 dc1a 826f aabf
00000560: ba2c e00c 4694 acbf 513c 0bf6 40cc afbf
00000570: 56ec 62f2 9444 6bbf a9e5 7d09 e98d abbf
00000580: b497 610b 41e4 b0bf b4e9 75e3 2a08 a2bf
00000590: 0208 bb9f 766a 9d3f af6c b89b 76ca bdbf
000005a0: 874e 7bbc 93ef a5bf 7eb7 fa33 b797 b83f
000005b0: 47ec 1639 e85b cc3f 6b3d c83b a2cd b6bf
000005c0: 994c 2f89 5a09 d03f cbb0 d3dc 2afd ba3f
000005d0: ed0a 0933 b0f0 b83f f5b4 7b29 0f07 bb3f
000005e0: 52dd f1b5 953b ab3f 9284 f9af 2530 acbf
000005f0: 77b7 a84f 3a47 b0bf 9a76 722a 1348 cfbf
00000600: 7de4 8578 0f03 b53f 36c3 f297 b905 a83f
00000610: 6edb 2613 4c1c b53f 467f 78da 3446 c5bf
00000620: 85ce 2dff 507d d43f ebb4 2bca 7f9c ce3f
00000630: a7e7 d4b4 716a bf3f 11d8 40ec 019d c93f
00000640: 282b 696f 4d55 c0bf 09eb 2b9e 74c4 c4bf
00000650: 9607 07e8 7493 c4bf 5441 b2f9 c7e3 c1bf
00000660: 1b06 eedd 3e25 c2bf cfac 4928 93be c5bf
00000670: b019 58b6 a029 bdbf 2bab 032a 8e21 b9bf
00000680: 999d 9cd2 654e c3bf be61 75f3 b074 c2bf
00000690: b644 2a79 acac c33f 009a 70c5 a9ad c5bf
000006a0: 4a11 7aa0 6edd ac3f 29e9 0e1a 6eff b93f
000006b0: 13d5 b349 4f7b b5bf 4a5d eaa1 8e6b b03f
000006c0: 11c5 d579 8eb7 b5bf 96a0 2153 90aa 81bf
000006d0: e320 72f5 1b4e c93f b9a6 ad41 fbaf acbf
000006e0: 72d7 0c33 8e7b 9a3f 69c8 f70f a484 c03f
000006f0: 25bb bd74 418c c0bf e8b2 9cce ba1b d23f
00000700: fa0d 9e66 40f8 b73f 2b57 9e82 75cd b3bf
00000710: c99e be41 f9fe d23f fd36 55ee 3f03 87bf
00000720: 1d33 e554 a4e6 aa3f 6af8 253b a40a c43f
00000730: 939d 9688 6652 bebf 7142 dfad 0f34 c0bf
00000740: f1db 4d3f dabf bdbf d719 4024 d8a7 c5bf
00000750: 962c c4af 2e9e bbbf b1a1 203a 9d44 c3bf
00000760: 6cdf 47d8 3e50 c3bf 0fc0 7022 889a c3bf
00000770: e341 ca91 c753 c3bf 27d4 6f2e 06ad c5bf
00000780: eac3 fb87 03d6 bebf 0cf4 c27b c962 ca3f
00000790: d1c6 f559 9b55 cdbf 75d9 050f ddea c53f
000007a0: 66b5 78b0 85ac d43f f156 0a51 2770 d03f
000007b0: 6768 06b5 0980 a4bf e949 c112 095b a0bf
000007c0: 367e cd7f a12b d03f 5d0b 1771 e223 a5bf
000007d0: 254f 1e2b 987b bfbf f30e aad1 b5fd ae3f
000007e0: 6578 9295 f085 b63f ad19 82c8 ee95 cbbf
000007f0: 574a 10ca 1916 dabf 436b f951 1b8c d43f

linear_mean.bias f8 [10]
-0.2009879452968038 -0.2867738968248378 -0.1940502074401359 -0.08170286927980593 -0.3395729580734114 -0.06549959685253157 -0.18523482027623447 -0.1697191003176913
0.0753328962352822 -0.1910380089806587
00000000: 3a52 f815 f9b9 c9bf d262 0de7 805a d2bf
00000010: 1c63 5e1f a3d6 c8bf 25cf 8baf 7aea b4bf
00000020: 8300 6237 90bb d5bf aeff 61e2 94c4 b0bf
00000030: d35b 954b c6b5 c7bf d37d af00 5bb9 c5bf
00000040: 53bc a445 0449 b33f 80b4 6ef8 ee73 c8bf

linear_cov.weight f8 [100, 30]
0.01625695465833877 -0.02067027823957138 0.0508306150472751 -0.008927466634037137 0.005752887336220879 -0.019686399906797058 -0.04097953681913568 -0.01958285420032677
-0.0026414148504581053 0.00031551484445514435 -0.05672536300404842 0.048209629306278715 0.0014104508873062755 -0.05606837888329332 0.03434558235892073 0.051687508355359846
0.005622397268578429 0.0036428715939585236 -0.05027471667563034 0.018891428992188798 0.046197999439152905 0.03749441715565443 0.046126707735677404 0.04350772469199806
0.040029746428255956 0.045422472027483625 0.04512880493513066 0.03926840694682713 0.05124518069400948 0.03560850829421272 -0.005314694350726125 0.00024126446845698006
0.020747269816037917 0.006212912362284389 0.009250796146496197 -0.011181739329257789 -0.010558318241209027 -0.03728400258123561 -0.019410748121289147 -0.005397070213306101
-0.04308393861145083 0.007706036369092761 0.021875682297249115 -0.005563887561735522 0.03203971201761526 0.042917009952179244 -0.019707592006921192 0.001954487299158854
-0.007289037857853293 0.012229731221798374 0.007000604506550956 0.007288263994737572 0.012083018318784944 0.011074666180241614 0.01269545469127762 0.007267940196011657
0.0046939118238742365 0.0046285637696794404 0.006323576871088883 0.00763852530046577 0.02321860111979839 0.015344243106136895 0.04861096803185945 -0.030208310099168162
0.009605741378413427 0.00541665994482919 0.00463633269892129 -0.009925317544138447 0.027417645326826588 0.006828401260827848 0.002923470912761772 0.017869478763758814
0.0072851802388957864 -0.011692250488419102 0.016246270487390097 0.008751687655702537 -0.009473667603580671 -0.005755162831430506 5.185492600803839e-05 0.0046850059657664745
-0.0006328238554707508 -0.0007748697450276443 -0.0016698459685583354 -0.0032903321911789255 -0.0016728030517039261 -0.004242021680923406 -0.0034431873900075613 -0.0018262217909175847
0.0003575241802276602 -0.0021103192380555885 0.013347022053942847 -0.015170397914838306 0.021918478059171142 -0.029630549283357042 -0.002094056030174438 -0.00920806190198613
-0.036045561357059934 0.0059246275237106 -0.006730185673934416 -2.351282760900308e-05 -0.004117009889377894 0.05753954988515152 -0.00581488794053761 -0.05299945550055889
0.008858831092269105 0.021913292269675824 0.013016921858497225 -0.00866110985718394 -0.03326794438382161 0.007952323334052425 0.037760947212414055 0.03095520463167181
0.03311336438964114 0.031880998420073296 0.0318526171282863 0.036072662780856996 0.036541795808539654 0.03224505753232611 0.04455237210900754 0.0269675641921424
-0.014368869464186902 0.007896693624732264 0.024793380401758453 0.029966504307325146 0.0258680610537952 0.003474350040897217 0.02532159092510169 -0.032649568119613295
-0.012253726058552876 -0.010419992868691663 -0.019379920787313508 -0.0048110940345027844 0.020026777798848983 0.04939245635625115 0.015376368376809564 0.020692695292716886
0.0007115061534495161 0.01582762566337407 0.005163394589130434 0.010330750308346967 -0.015567582920505956 -0.017107287113899344 -0.013104381020661011 -0.012408718235023014
-0.01132243756139283 -0.01788825589207511 -0.02024138852322974 -0.01843787239504528 -0.022194374067458403 -0.01366063959437191 0.011390251899131893 -0.007406254289421733
0.014663556066927048 -0.013181129551263384 -0.01151846018381449 -0.014261445553087714 -0.03222785542255585 0.0023348069015706454 -0.00928841364953337 -0.007859290278977365
-0.019091867639044666 0.0951755286192396 0.0005081161378259811 -0.05042745575531103 0.014140174538079739 0.018856290613611847 -0.04344950541472012 -0.02835972676658416
-0.014579374487023995 0.008135301152099877 0.02586417358339715 0.024087892042376307 0.023812744603814925 0.021523288470564457 0.02781309393386521 0.0218174946772597
0.02194263222523966 0.01954386138141155 0.026342484657665054 0.020233461385940184 -0.005669782917794542 0.017204730768379233 0.025480262669949398 -0.0757685809845493
0.013699694496128137 7.263507735296217e-05 -0.011591220392179871 0.004623152000311807 0.03714069614182118 -0.005105307965039843 -0.03208071812712983 0.03471274666652738
0.015345001931374181 -0.056923340986024314 -0.037767683631683785 -0.1081592033200433 -0.03769294281040567 -0.004308377622231434 -0.013079586266156483 -0.011678010428120987
0.09249173541598904 0.08884007672080547 0.07646065531942187 0.07967108866900344 0.06421610372461505 0.09607156072856184 0.09558608347466171 0.10559602947515828
0.10639841045836278 0.08364975255224913 0.01193221806480477 -0.015251334605046397 0.0487713692347819 -0.04706053740123466 0.004478918726599188 -0.011228986035129946
-0.03493428974816543 -0.01036123776633209 0.002098707485437574 -0.0031819796154707275 -0.03492410331050092 0.05315694678845045 0.0020592855447022153 -0.033489842452056696
0.010557108621752104 0.016187967211165315 0.005959341406668271 -0.0062001882341882995 -0.03346884592568141 -0.0018075672259236703 0.03286148231826199 0.024934936012440942
0.029640005189452628 0.029602200895293782 0.026128874206552462 0.0343634434697975 0.03285592238769609 0.027991263644025346 0.039486268249468034 0.022399519950205275
0.033458028014728844 -0.004462366919672269 -0.0032554664559747547 -0.03527305500120428 -0.008882528521367254 0.013548976112060733 -0.03679597528991088 0.037253734979655485
0.009152457180282948 0.009402446045080014 0.027278014411867366 0.009651265709343418 -0.01374996570041244 0.011150439373393543 -0.029710830931277462 -0.05760801852340267
00000000: 6248 5cc2 a9a5 903f 8918 27e4 962a 95bf
00000010: 29f8 866a 7806 aa3f 18a6 d549 9048 82bf
00000020: cc5c 77ef 5690 773f 7349 1aef ab28 94bf
00000030: 5f07 e314 45fb a4bf 9934 6919 870d 94bf
00000040: 097c bbcc 72a3 65bf c5e0 36f0 75ad 343f
00000050: 1388 e955 1b0b adbf 520c 72ba eeae a83f
00000060: b603 c01b dc1b 573f 7376 499b feb4 acbf
00000070: 43be fc81 be95 a13f 80f9 fefb c876 aa3f
00000080: b572 4cc6 8207 773f 58ac 81cb a7d7 6d3f
00000090: c2ff df8f 9bbd a9bf 6add c856 4658 933f
000000a0: edac 76a1 43a7 a73f e7a6 eede 7732 a33f
000000b0: 11ce 647a eb9d a73f 93db 59fd a446 a63f
000000c0: 9f95 8d67 c77e a43f c118 b93f 9d41 a73f
000000d0: 489f 9b6a 1f1b a73f 758d 3417 fd1a a43f
000000e0: 5b17 51ee ce3c aa3f 747d 2a45 473b a23f
000000f0: 422e cb66 dcc4 75bf 1413 e000 7e9f 2f3f
00000100: e05b 5db5 c53e 953f 86f5 8af6 b572 793f
00000110: 5910 4ad7 14f2 823f b33b daa5 73e6 86bf
00000120: 0bc0 5f7c 999f 85bf aa32 8087 e316 a3bf
00000130: 17c1 7c41 69e0 93bf c341 f700 3d1b 76bf
00000140: e95a a316 190f a6bf a61d fe62 5d90 7f3f
00000150: 9e6f 2d30 9466 963f 6f43 dcb1 28ca 76bf
00000160: c3ec 9356 8267 a03f 4a99 5fe4 37f9 a53f
00000170: 034d 9c1c 3a2e 94bf 5d80 f860 db02 603f
00000180: 8725 8033 1cdb 7dbf 3d8a 17bd e60b 893f
00000190: 1a9f 8676 aaac 7c3f ef3d 0878 4cda 7d3f
000001a0: 6013 2144 fbbe 883f 624e 7788 50ae 863f
000001b0: 74b4 a715 1300 8a3f 26ed 37d7 fcc4 7d3f
000001c0: faad 615c ec39 733f e8a4 4aa0 66f5 723f
000001d0: 955c ae3d c0e6 793f bfc5 ae05 9349 7f3f
000001e0: 0da5 dff1 9dc6 973f 36f4 9472 cd6c 8f3f
000001f0: 2af4 d86b 89e3 a83f 88fe c55f edee 9ebf
00000200: 08cc 97c8 2cac 833f 6ec5 1095 c72f 763f
00000210: 913b 0b15 8cfd 723f e131 0992 b953 84bf
00000220: 2956 0c08 5f13 9c3f 8568 9601 19f8 7b3f
00000230: cd7c c17e f6f2 673f 4c32 8c6b 604c 923f
00000240: f7c1 f1ad 10d7 7d3f 6217 b74b 1bf2 87bf
00000250: 9584 b3c1 dca2 903f 75de 20a2 67ec 813f
00000260: ed92 3e24 ee66 83bf f56e 4ec2 b992 77bf
00000270: 2c90 d3b0 d92f 0b3f 72f6 78b6 9530 733f
00000280: df49 b6e1 82bc 44bf 5cb9 551b 1464 49bf
00000290: c795 c174 d75b 5bbf 1d4d eea4 53f4 6abf
000002a0: 1ff8 9499 3e68 5bbf 3740 3706 1560 71bf
000002b0: b099 7d27 e334 6cbf 42c1 80b7 baeb 5dbf
000002c0: b813 5fa9 426e 373f e0f7 9103 a949 61bf
000002d0: 66f1 c3f9 ae55 8b3f f9d3 4a57 a811 8fbf
000002e0: e3d8 c429 cc71 963f 79c3 8980 7857 9ebf
000002f0: 1485 4cc5 8d27 61bf 991e d425 addb 82bf
00000300: ef99 6356 9074 a2bf 0bfc 4817 6c44 783f
00000310: 4951 d975 1c91 7bbf 3e55 ba35 ada7 f8be
00000320: eea2 506d ffdc 70bf 4e71 f7e9 d275 ad3f
00000330: 5f5e 8d18 5ad1 77bf 8652 29a0 be22 abbf
00000340: a7a0 932e 9424 823f 3473 9526 7070 963f
00000350: 7c27 6aad 9da8 8a3f 435a ab7c eabc 81bf
00000360: 2c6f 44fa 7e08 a1bf 1a00 2dc5 4e49 803f
00000370: 1dc5 af22 6755 a33f a7d5 229e b8b2 9f3f
00000380: 6963 3a22 3cf4 a03f 2ff5 27cb b452 a03f
00000390: a84b b779 fc4e a03f 24ca d8b5 1d78 a23f
000003a0: 7e9c de33 9bb5 a23f 8232 1e97 6c82 a03f
000003b0: c1b6 558a 91cf a63f 9c39 0899 629d 9b3f
000003c0: b7f3 6e03 6d6d 8dbf 9905 eb46 242c 803f
000003d0: 956d ee97 6f63 993f 79d0 e60f 8aaf 9e3f
000003e0: 53ab f230 287d 9a3f bfc6 9d79 3d76 6c3f
000003f0: 07bf 9f33 e7ed 993f 42c2 9ab6 71b7 a0bf
00000400: 6faf 6745 7b18 89bf 80c1 c3c4 1357 85bf
00000410: b61d ec77 54d8 93bf 2827 9438 ccb4 73bf
00000420: 00e2 c24e e681 943f c53b 70d1 f749 a93f
00000430: 8427 7a3a a57d 8f3f bf78 3146 7730 953f
00000440: 72d8 79d4 8b50 473f cadc 63fa 1d35 903f
00000450: a8b6 582e 3626 753f 856c bdd5 4928 853f
00000460: f6b4 2b9c e5e1 8fbf 4bbd b59a 9284 91bf
00000470: f730 583f 78d6 8abf 90a1 09f8 bd69 89bf
00000480: 3a27 4cd8 3730 87bf 63e0 2788 4c51 92bf
00000490: b97d ee96 28ba 94bf ab35 c7ab 60e1 92bf
000004a0: c485 193b 1fba 96bf fdf3 6602 1cfa 8bbf
000004b0: 3d25 33bb c553 873f dbc2 573f 0556 7ebf
000004c0: 840d 012e ed07 8e3f 01b0 c642 b5fe 8abf
000004d0: 6a6e 518e fd96 87bf 391d f4d1 1a35 8dbf
000004e0: 98c4 1e62 2b80 a0bf 3e6f 1ce9 7120 633f
000004f0: c20a dac6 cd05 83bf 836b be15 8818 80bf
00000500: 195c 848c d18c 93bf d794 cc66 6c5d b83f
00000510: 3170 e618 63a6 403f 9e3f 94a2 a0d1 a9bf
00000520: d834 9b19 86f5 8c3f 068f 093e 104f 933f
00000530: bc33 9179 033f a6bf 60a3 f10b 550a 9dbf
00000540: 1778 f184 cadb 8dbf e38b 21a3 3da9 803f
00000550: 4f0c b74e 237c 9a3f abd2 3412 7faa 983f
00000560: 6c9e 343d 5e62 983f 7273 5570 330a 963f
00000570: fed7 6223 097b 9c3f 245a 7a48 5357 963f
00000580: 4ba7 2e1f 2178 963f 6c04 e255 4e03 943f
00000590: 5674 6638 86f9 9a3f e2fd bf9b 14b8 943f
000005a0: 1a4b 51c3 3239 77bf 9b5a f2ef 1d9e 913f
000005b0: 9e95 717b 7f17 9a3f 7899 64d9 9165 b3bf
000005c0: 28c6 9bde 950e 8c3f f734 8920 750a 133f
000005d0: 4887 0a44 23bd 87bf 6b19 55ea b9ef 723f
000005e0: 5641 8ff6 1a04 a33f 1005 efab 4de9 74bf
000005f0: fa5d 6046 e26c a0bf 64c7 5f7f dec5 a13f
00000600: 2754 9e4b 336d 8f3f d9fb d35f 0e25 adbf
00000610: 3c67 162c 4956 a3bf 4c60 0551 52b0 bbbf
00000620: 0d46 5249 7d4c a3bf dfe4 c74f a9a5 71bf
00000630: 4c1b 115a 78c9 8abf 3911 f806 a4ea 87bf
00000640: ac0f c3d2 89ad b73f 9d09 1728 39be b63f
00000650: c413 07ee ec92 b33f 5a24 4510 5365 b43f
00000660: 17af 5f71 7770 b03f 51a4 6753 2598 b83f
00000670: 3af5 795e 5478 b83f ece9 2e65 5708 bb3f
00000680: 7bda 431d ed3c bb3f 76c8 87f7 116a b53f
00000690: 224b db32 eb6f 883f dace ca7a 173c 8fbf
000006a0: 1466 b097 8ff8 a83f f716 249a 5118 a8bf
000006b0: d726 3c97 7c58 723f dd13 4efe 38ff 86bf
000006c0: 5968 f43f e8e2 a1bf 28df d1ca 4538 85bf
000006d0: a840 7100 4f31 613f f7cc 514c 1811 6abf
000006e0: 9517 1f73 92e1 a1bf 57f1 0528 6337 ab3f
000006f0: b1f4 2982 a2de 603f 65d8 28a4 9425 a1bf
00000700: 507c 2a22 f79e 853f 7bee 0a17 9493 903f
00000710: cb4c 2887 d268 783f 5c3d 1e5b 5e65 79bf
00000720: 6b0f 5f1d d422 a1bf daf3 b887 7c9d 5dbf
00000730: dbc4 b55f 38d3 a03f 0c1e ce3a 8b88 993f
00000740: 9b93 c413 f359 9e3f e98b f012 0a50 9e3f
00000750: 0f34 cb10 87c1 9a3f 64ee c2d3 1598 a13f
00000760: c227 45d0 7dd2 a03f 77ff b2e7 bda9 9c3f
00000770: 768b 8b4d 8b37 a43f 9e67 8756 e6ef 963f
00000780: 8e4c 3920 6921 a13f 7552 b97f 2147 72bf
00000790: 1cba c53e 35ab 6abf 5303 5253 4f0f a2bf
000007a0: af5c 0acc 0031 82bf 3c5c 5dca 90bf 8b3f
000007b0: 143b fd0c ecd6 a2bf f56e c8ea eb12 a33f
000007c0: 5a8b 2302 86be 823f c6d0 20f2 9641 833f
000007d0: 39f5 318f c4ee 9b3f 556e b1f4 0ac4 833f
000007e0: 48ff 0828 f128 8cbf 3cdc 8ea3 0ad6 863f
000007f0: 3f4e bf1c 846c 9ebf 9d3b 1757 cc7e adbf

linear_cov.bias f8 [100]
0.051391577958478526 0.0023713855487179766 -0.0023786682606271856 0.04758536754585629 -0.02674749076607608 0.030553280216265678 0.14077631998549933 0.04668982497227221
0.013495434259810767 0.07525503595221386 0.04519673966089258 -0.012139467283437073 0.02979398106883507 0.025706052874628408 -0.03378965543855115 0.04919641204289344
0.10542360466159038 0.0053101774843005494 0.013082400844404214 0.06742795869513499 0.039927004078053344 0.04021849201624164 -0.07165236756241504 0.029699270954422076
-0.07080279526844772 0.05038614694029632 0.1336606394300999 0.04193657184189698 -0.07786811445287732 0.06639466439920266 -0.003886206758910656 0.021813788078852283
-0.06639319460756356 0.05739877556588939 -0.07304735986598151 0.037914338684281575 0.23230831725458712 -0.009834839472507647 0.004224267441859045 0.18237105178832283
-0.06978045642597473 0.05395265331933065 -0.05035048673325346 0.006241466433273684 -0.009884091121903908 -0.06646712201517707 0.2021021323377369 -0.0474167461711916
-0.06897335125795707 0.1355136567133911 0.08140012945093995 -0.013409847755006562 0.01827975512693643 0.0035400199531510157 -0.08199996556043102 0.08935937838623229
0.21254502556603688 0.08812624772314609 0.06822558773310565 0.18236016096868277 0.07083704572878462 0.030985142535686676 -0.06866413053407286 0.07500962154355421
-0.0847595212941129 0.03401852226181445 0.1045740356161488 0.006877276330657676 -0.06271552045995728 0.05208953404963643 0.03236237673072257 0.08985342647660806
-0.12986792167570674 0.11929089344071798 -0.11396795365462259 0.08867946481251117 0.110451116019459 0.17512897118528203 -0.08323566468706771 0.1261097441386277
0.052207107244326215 0.052536171140591684 -0.017038144589876198 0.01780409765923266 -0.033836832936126375 0.10479027838275791 0.10412609518088271 0.024026295453184583
0.07707664215121918 0.11416073069665049 0.004969875265761264 0.006198296752536737 -0.019517912538960867 0.012359386061062707 -0.01888719629495376 0.03837573957635891
0.10728994734277737 0.003929329554474086 -0.010521044253338623 0.1134673080468101
00000000: 3635 3e35 ff4f aa3f 1e2c 18ec 276d 633f
00000010: 3dcd 65cc 6d7c 63bf cf53 c1fa 1b5d a83f
00000020: 0187 5cb8 b163 9bbf 1dee 41ed 5b49 9f3f
00000030: 24c9 315d f504 c23f daad 9f8e bae7 a73f
00000040: 6663 5486 7ea3 8b3f fa28 46fe e943 b33f
00000050: a56e 75ed 0624 a73f c429 c9b7 93dc 88bf
00000060: 4fb0 3b39 5082 9e3f b183 9f01 b052 9a3f
00000070: 8d76 1ab2 e04c a1bf 890a 9ca9 4530 a93f
00000080: 8f7a 3f96 0afd ba3f 27af 18ea 1fc0 753f
00000090: 2431 3d1e f2ca 8a3f 3280 6e6d f542 b13f
000000a0: aa28 7cf1 4f71 a43f a4f2 cea7 8497 a43f
000000b0: 238e 5c3f cf57 b2bf aa6d db55 7c69 9e3f
000000c0: abb3 24ca 2120 b2bf 325f 8f8a 36cc a93f
000000d0: 61af 8eb5 ca1b c13f 6975 22d9 b578 a53f
000000e0: 57ee f92c 2aef b3bf 6435 39a0 3dff b03f
000000f0: 77a5 eb5d f7d5 6fbf 8728 9a89 5a56 963f
00000100: 0136 84f7 24ff b0bf c699 c54f 5f63 ad3f
00000110: 0efc ae55 3bb3 b2bf 299c 6519 8269 a33f
00000120: 4c3f 9968 47bc cd3f 0ba9 2acf 4924 84bf
00000130: b78d 3228 774d 713f 0180 9543 ef57 c73f
00000140: 2fe0 3fca 21dd b1bf 62f1 13a3 ae9f ab3f
00000150: 6cc9 b6fb 89c7 a9bf d220 5ce3 a690 793f
00000160: 3c3f f440 1c3e 84bf 4c7e 5043 fd03 b1bf
00000170: 35d5 6b90 7bde c93f 7c0e 2dfc 0147 a8bf
00000180: 5dcd f2cf 3ca8 b1bf cc68 dff1 8258 c13f
00000190: b5c7 e18d a3d6 b43f 51af 6a4c 9f76 8bbf
000001a0: b4db cb99 edb7 923f 128e a1bd f5ff 6c3f
000001b0: eaec 5a22 f3fd b4bf 6e7f c297 41e0 b63f
000001c0: 02e7 dde6 ac34 cb3f 0cde e317 718f b63f
000001d0: bb66 106c 3b77 b13f bb15 bae7 9357 c73f
000001e0: 5319 c06a 6022 b23f 0e23 69b7 91ba 9f3f
000001f0: 9a57 0df3 f893 b1bf 0b37 6a9f d433 b33f
00000200: c89a fbcb ccb2 b5bf 4f3e 2531 e06a a13f
00000210: cb6a fb2e 5dc5 ba3f d7c9 cfce 582b 7c3f
00000220: 25bf 53d5 1f0e b0bf ac04 6aba 7aab aa3f
00000230: 39cb 5b2b cd91 a03f e58b 2658 a200 b73f
00000240: 6dc5 3216 839f c0bf 71db 0916 d989 be3f
00000250: 0418 bdf9 002d bdbf 054f 3289 b2b3 b63f
00000260: 303b 1c3b 8646 bc3f 3455 e949 a06a c63f
00000270: 5b18 b1b9 ee4e b5bf 8223 6435 5d24 c03f
00000280: e25e 77d4 e3ba aa3f 2ad2 cf61 05e6 aa3f
00000290: c530 3187 7272 91bf 088b b9c4 3c3b 923f
000002a0: 0fc5 b8b5 0f53 a1bf f1b9 9722 89d3 ba3f
000002b0: 834a 76fd 01a8 ba3f e2a1 dc64 599a 983f
000002c0: fc31 5379 4bbb b33f 2b5f d43c a339 bd3f
000002d0: 46d0 b4bb 4a5b 743f 3420 7d9d 6263 793f
000002e0: 8602 2af0 80fc 93bf 0e7d 72b7 e04f 893f
000002f0: cb8e 9949 2a57 93bf a66b e124 fca5 a33f
00000300: c5db 069f 5a77 bb3f 5f21 e85e 3318 703f
00000310: 2922 e7a7 0e8c 85bf b4e8 3989 310c bd3f
