inv_results/2025-05-02/22-55-52/15/3_trained_linear.pth (torch, 46829 bytes, 2 tensors)

linear.weight f8 [110, 50]
000000 4a 38 d1 18 a7 a9 6b 3f f3 a0 82 d0 a5 61 6d bf
       0.003376795159545619 -0.003586601120407201
000010 50 f7 19 1b 31 1a 63 bf 12 53 94 dd 2a ef 81 3f
       -0.002331825170414449 0.008756956946436332
000020 ae 2d 28 53 10 66 3b bf 7e be 14 66 59 37 80 bf
       -0.00041807077937569103 -0.007918070247426853
000030 80 00 d7 a7 4e 6b 2f bf f9 4b 01 40 a3 c9 6c 3f
       -0.0002397092356840637 0.0035141170956562964
000040 03 bc b4 a3 88 21 69 bf 39 87 83 13 78 c1 68 bf
       -0.003067747949578871 -0.003021940730932562
000050 7c 66 dd ab 96 a3 46 3f ab 31 d2 cc d6 b4 42 bf
       0.0006908879947602055 -0.0005708741024519811
000060 d3 84 26 9d df 9a 4d 3f 44 7e c3 c5 ee 63 71 bf
       0.0009034721245379191 -0.004245693879255056
000070 e1 c0 3c 32 e7 ae 41 3f 80 7f 86 68 a4 cd 50 3f
       0.0005396489036453533 0.0010255914258791854
000080 4f 41 a5 23 fa 5c 52 3f 8a dc e0 c3 4c 58 74 bf
       0.0011208002820986723 -0.004967021812311798
000090 a0 b0 c1 b4 50 01 73 bf 24 c9 f4 ad e5 7f 45 bf
       -0.004639926202895023 -0.0006561156732572166
0000a0 d2 17 8f 27 0b a1 83 bf 2e 2e b7 67 05 35 65 3f
       -0.009584509987586563 0.002588758999740446
0000b0 ac 77 b7 7b 70 89 61 3f f4 67 fb 3f 33 fe 7e bf
       0.0021407315195877876 -0.007566642947233849
0000c0 1e 9a c4 75 36 59 71 3f 3e d3 be 82 8f 8a 80 bf
       0.004235470518585886 -0.008076783349545754
0000d0 08 0a 17 fe 1c c4 41 bf ed ba 4d 5d 6f 90 52 3f
       -0.0005421773495800095 0.0011330688041330487
0000e0 7d 7e 72 6a 88 a8 35 bf aa 72 eb 5f 41 46 53 3f
       -0.0003304799124155057 0.001176418154208362
0000f0 59 df 85 1e 3b e1 4e bf 54 6c e8 fc 6b f5 78 bf
       -0.00094237696343578 -0.006093427493875831
000100 e3 18 2a 86 ad 9a 77 3f e0 6f a7 a0 14 c4 83 bf
       0.0057627466472977866 -0.009651337769291446
000110 bc 8d 9b fc 89 6a 23 bf b3 67 db a3 65 23 6a bf
       -0.0001481336060385872 -0.00319070674491414
000120 54 04 03 14 d4 12 67 bf e4 5b 09 fd 82 97 6d 3f
       -0.002816595282724191 0.0036122854583413456
000130 10 46 e3 4f ab 79 75 bf 4c 81 74 fc 5d 55 37 3f
       -0.005242985904446509 0.000356040426099842
000140 84 eb 13 45 68 68 7c 3f 66 36 bc 1c 6e dd 81 3f
       0.006935508064311761 0.00872312569802176
000150 12 e0 53 2b 5d 83 82 3f 6d 17 8e c0 f7 20 83 3f
       0.009039619335894176 0.009340224803746822
000160 44 4f 51 6d cd 09 7c 3f d7 b6 f0 2b 17 aa 84 3f
       0.006845285844139518 0.010090046909762602
000170 81 02 ae f9 e6 e1 81 3f e8 2c 44 58 fc 9b 77 3f
       0.00873165559255651 0.005763993951642045
000180 a5 0e a0 e3 cb 1e 81 3f fe 0d db b9 42 c4 80 3f
       0.008359520801611462 0.008186837479462913
000190 4b fd a7 a9 ed 5e 31 3f c2 0c 70 e0 58 74 7e bf
       0.0002650575858353556 -0.0074351760622476965
0001a0 63 ff 0d 4d 2d 8b 69 bf 01 4a 56 5c fa a0 70 3f
       -0.003118122557168522 0.004059770556880783
0001b0 b3 4d f9 49 37 fd 5a 3f e4 b2 d2 1d a8 f4 56 bf
       0.001647285454869568 -0.001401104141488912
0001c0 0e 3a 7d 1e ca 1b 55 3f 27 35 98 b2 58 bd 7d 3f
       0.0012883638209647582 0.007260652995239958
0001d0 1f c2 e0 7e 76 d4 79 bf ca ab 93 41 60 c4 45 bf
       -0.006306136010650692 -0.0006642789841441118
0001e0 46 fe 56 73 26 75 71 bf be 08 67 0d 33 c7 5b 3f
       -0.004262113759466118 0.0016954420622004441
0001f0 ef 31 2c 2e 77 14 6f bf 19 67 78 28 c5 f9 28 3f
       -0.00379393842138697 0.00019054919924670828
000200 2b af ae 00 36 6b 58 3f 90 9c ee a8 1b 27 5a 3f
       0.001490404831865309 0.0015962381473657895
000210 a5 31 51 a3 7b 0f 68 3f f7 43 d0 47 9c a3 4f 3f
       0.0029370703510151635 0.0009655488098606603
000220 0c 94 41 fc 80 5f 5c bf 3d 71 83 3f 47 4d 56 bf
       -0.0017317542670067824 -0.0013611980230541908
000230 24 43 d3 05 f1 48 64 bf 03 50 17 ee 6b 2d 52 3f
       -0.0024761874652558125 0.0011094621662453015
000240 f2 8e 1c a8 51 95 5c bf e7 1c 62 e4 f0 77 4c 3f
       -0.0017445847920009552 0.0008687902670922149
000250 a3 35 75 68 2e c6 6b 3f cf bb 25 f1 d8 b3 68 3f
       0.00339039863653197 0.0030154454372488325
000260 8c c9 ef ad 72 c3 63 bf 09 fb 2a 39 56 e0 56 3f
       -0.0024125327904524537 0.00139625950093575
000270 2b 93 9a 71 29 43 5b 3f 54 b2 05 5f 13 19 43 bf
       0.0016639618610636102 -0.0005828232370226985
000280 e8 ae 92 b4 fe 28 7a 3f 9e d0 53 bc c2 cd 56 3f
       0.006386752074074777 0.001391830607926393
000290 b3 22 36 a4 16 16 5c 3f 60 50 02 1f 24 f3 62 bf
       0.0017142506702347126 -0.0023132043352891846
0002a0 54 03 08 bc 13 c1 33 bf bb 58 74 73 c5 b5 64 bf
       -0.00030142528342485164 -0.002528081556771059
0002b0 87 8d e0 5a 48 b4 50 bf a8 58 5b 36 5c df 50 bf
       -0.001019545230072834 -0.0010298157225654778
0002c0 8c 3d be d6 c7 80 78 bf 7a 90 61 0b ab 96 5a bf
       -0.0059821897701931685 -0.0016228361469297335
0002d0 b0 6f de 38 3d 6f 80 3f c5 ba f9 cd bc 49 84 3f
       0.008024671838761183 0.009906268154023743
0002e0 28 b7 4a 95 56 45 83 3f 35 a5 b0 0f 40 c5 86 3f
       0.0094095959005603 0.011118412474461973
0002f0 81 a0 44 df 57 15 80 3f 6e 1e 75 4d 55 0d 86 3f
       0.00785320901975717 0.01076761858588712
000300 59 13 54 d2 43 4f 86 3f 53 d3 b0 af 43 20 7b 3f
       0.010893373352254864 0.006622566604211527
000310 f9 d2 97 90 fb 58 83 3f b9 4e 46 26 31 35 83 3f
       0.009447064733629317 0.009378799419926908
000320 db fa ab 61 54 31 40 3f 2c 0e 35 8d 50 6d 56 3f
       0.000494161798400085 0.0013688360821370133
000330 9e a7 d0 1d 53 8c 38 bf 1c 36 2c 1e 3e e7 62 3f
       -0.0003745749398286149 0.002307530712079465
000340 9c 88 24 1b 9e f2 4c 3f 63 96 14 33 ed 73 61 bf
       0.0008834144594269846 -0.002130473404252696
000350 81 8e 4b 41 b2 8b 21 3f 08 d7 89 8f 95 d4 45 bf
       0.00013386298146321823 -0.000666211154636471
000360 ab 13 c0 8f 66 c4 22 bf 30 d3 d4 1d 42 41 67 bf
       -0.0001431822964833828 -0.002838734754414672
000370 44 72 45 39 2f e1 40 3f 4a 63 c4 2f 34 3d 5e bf
       0.0005151253304052712 -0.0018456468233749184
000380 01 b8 fc bd 97 a2 6a 3f 18 b2 a2 00 2b b5 56 bf
       0.0032513583863851285 -0.001385967249500136
000390 48 e2 14 ab 8a a7 66 3f f5 2f 63 ab 88 b9 54 3f
       0.0027654369702328242 0.0012649378455078495
0003a0 ab 56 d8 e5 35 d0 4a 3f 35 95 65 c1 b1 23 6b bf
       0.000818277661610541 -0.0033129188333755008
0003b0 ef cd a1 c0 d0 ed 5e bf 3e 10 92 4d e2 85 53 3f
       -0.0018877543066339005 0.0011915884008724255
0003c0 63 45 60 05 db 9d 75 bf e6 40 a8 d6 75 a9 5f 3f
       -0.005277495909483096 0.001932492329277885
0003d0 b9 20 ff d5 9a 3b 61 bf 31 8c ab 84 5d 64 5b bf
       -0.0021036171092171066 -0.0016718781723106364
0003e0 dd 95 9c 69 4a b1 64 bf dd 69 f6 64 d5 f0 68 bf
       -0.0025259450311689705 -0.0030445258959847913
0003f0 af 5e 81 d8 29 68 45 bf 9e 2e 56 9e a6 47 69 bf
       -0.0006532863926720002 -0.00308592360187794
000400 77 30 77 57 89 e1 58 3f 62 76 e7 3a ca 2d 35 bf
       0.0015186158396885122 -0.0003231638646904231
000410 9a da 38 b7 c9 71 41 3f b2 f6 77 52 c8 7b 68 bf
       0.0005323634090420193 -0.002988711599526927
000420 64 ba b2 00 0e 51 45 3f fb 79 a8 00 97 79 5a bf
       0.000650531613606575 -0.0016159033426742509
000430 47 51 0b 67 06 5a 51 bf 29 65 8f fd 97 d1 3d bf
       -0.0010590612911772366 -0.00045499764160934986
000440 e8 f7 58 f9 1d 17 5f 3f 79 a2 93 39 96 7f 56 3f
       0.0018976013865450395 0.0013731925048948975
000450 ed b0 16 ee eb f1 34 bf 09 0b e2 6c e3 ab 66 3f
       -0.00031959543238248186 0.0027675096417295636
000460 68 c8 8a c6 51 d8 73 3f fd 7b d0 3f 93 af 7a 3f
       0.0048449701650260316 0.006515097801666589
000470 f8 dc 1a 7d f5 de 79 3f 56 8d a4 6a 2a 54 79 3f
       0.006316145839881708 0.006183782281627378
000480 2c 67 79 63 11 77 72 3f ce 24 48 62 74 b0 7e 3f
       0.004508083271127988 0.007492498993550712
000490 b2 db f2 77 1b 31 7b 3f 9e 24 dc 03 6e 26 72 3f
       0.006638629244824766 0.004431180712125697
0004a0 af 29 1e e5 39 d6 79 3f aa 64 cc f0 35 be 77 3f
       0.006307817604361095 0.00579663343958107
0004b0 62 d4 73 28 f1 c6 20 bf e8 51 44 40 9e 8f 5e bf
       -0.00012799924682097274 -0.0018652959270798412
0004c0 2b 90 43 09 f2 4d 73 bf 73 e3 cb 4c ed 30 6e 3f
       -0.004713006452423267 0.0036854395642617554
0004d0 1e 18 dd 5d 49 c7 57 bf 68 c3 7b be bd 33 43 bf
       -0.0014513222190131246 -0.0005860020146127689
0004e0 d7 ed f1 86 c8 cc 5a bf eb 25 1f ef 65 bc ee 3e
       -0.0016357382080788207 1.4656033702114892e-05
0004f0 ff fb ff 90 bb 38 72 bf 1c 4d 9a c7 ef 53 56 bf
       -0.0044486357510313814 -0.0013627854918112975
000500 8f a5 65 79 be 35 56 bf c2 a1 77 a3 2d 04 4f 3f
       -0.001355587015121482 0.0009465430111364403
000510 84 b2 2f a6 0c 76 64 bf 80 9b 10 82 e1 39 61 bf
       -0.002497696595574363 -0.0021027950720226563
000520 69 2a 0d e5 7a 80 5a 3f 31 27 68 ea fe 37 30 3f
       0.0016175460952633453 0.0002474782326379209
000530 7b fb ff 84 a4 da 03 3f 66 5c 1f 86 a7 c7 54 bf
       3.7868638742103376e-05 -0.0012683044410459975
000540 e8 d4 03 e7 30 cc 76 bf f9 e8 ac 34 16 e0 49 bf
       -0.005565825486191424 -0.0007896526743487446
000550 3a 17 f6 96 8b e6 40 bf 09 0f 05 81 7b c5 53 bf
       -0.0005157643881126058 -0.0012067514508808405
000560 a9 c8 35 64 31 11 4b 3f 70 d9 69 18 5a 8f 7d bf
       0.0008260241669815388 -0.007216789183635761
000570 88 83 65 f7 77 74 68 3f 33 cf 83 30 5c 4a 73 bf
       0.0029852240651710472 -0.004709587207105947
000580 ca 7d 15 10 6a e1 5d bf 38 3d bd 6b ff 25 53 3f
       -0.0018237624902538324 0.001168727335386267
000590 3e 47 db d6 74 b5 39 bf ee 35 11 11 6d b6 63 3f
       -0.0003922853710324087 0.002406323452794671
0005a0 7a c1 7a ce 56 5d 63 3f 18 4f 80 c2 31 fb 60 bf
       0.0023638434830319218 -0.002072903811503834
0005b0 6a 34 da 43 9a bd 75 3f 0c dc 8e 5b 12 2d 76 bf
       0.005307772252888568 -0.005414077481808565
0005c0 bc 0c 62 94 c4 6f 6a 3f 01 11 57 37 f6 98 64 bf
       0.0032271232076382644 -0.002514344111405831
0005d0 7f 51 78 5a 03 57 76 bf b0 78 26 8a 26 08 74 3f
       -0.005454075907909916 0.004890585465913741
0005e0 5b eb ae aa a9 32 45 bf 1e 04 07 84 e9 91 4b bf
       -0.0006469086123311695 -0.0008413686955962595
0005f0 13 e6 6c 23 81 b2 52 bf 5e 35 32 de d1 04 61 bf
       -0.0011411915890690058 -0.0020774935706586025
000600 49 25 1c ce b0 13 54 bf 2c 4e 5d cd df 6d 5d bf
       -0.00122539774059967 -0.001796215588417814
000610 17 2d a1 a9 16 9c 46 bf aa 03 a3 1c 1d 1c 61 bf
       -0.0006899939210226771 -0.002088600977998974
000620 45 4d 70 10 23 66 61 bf 74 e2 46 bb ec e0 55 bf
       -0.0021238980148240738 -0.0013353645164057267
000630 f8 6e 46 3b ce f0 60 bf 57 fb b5 2f f6 25 58 bf
       -0.0020679500541528305 -0.001473894516351234
000640 7b ce 19 22 0e a3 54 3f 8e 1d f2 23 3d 95 5b bf
       0.001259578515967612 -0.00168353052848311
000650 b5 fd f7 ac e1 bc 1a bf 1f c9 b1 36 0e 99 59 3f
       -0.00010199668326293136 0.001562370186345925
000660 77 c2 1a a0 79 63 4d 3f b0 88 55 b3 13 26 38 3f
       0.0008968681215347347 0.00036848050088712347
000670 d4 54 48 a3 61 fc 59 3f fb fa 07 0c e2 ab 62 3f
       0.0015860513204917675 0.0022792258243947683
000680 41 8f 9e 59 fa 29 5e bf 8b df 52 c4 2b ce 2f 3f
       -0.001841063005920199 0.00024265560401714697
000690 2d f2 d3 03 28 cf 59 bf fe 4f 16 39 34 8f 63 3f
       -0.0015752688189528783 0.0023876209240345494
0006a0 00 70 58 f7 67 1f 63 bf 01 34 01 c1 a4 8c 53 3f
       -0.0023343115415297433 0.0011932000088734631
0006b0 5b aa 63 6b fb 9f 50 3f 4b 89 17 37 28 12 52 3f
       0.0010147052067234405 0.001102961800250118
0006c0 32 0a 74 e2 7c 13 5c 3f 10 85 a3 af 55 2f 1d bf
       0.0017136306358344175 -0.00011133156286604142
0006d0 93 92 47 a8 d1 2e 5b bf 12 f6 c3 c0 c8 bf 5b bf
       -0.0016591117320043133 -0.0016936741331500288
0006e0 f3 53 05 55 99 af 54 bf 6a 93 7e b8 3e 3f 40 bf
       -0.0012625691780006026 -0.000495820641834938
0006f0 b7 9c f2 61 08 cf 40 3f ff 53 48 98 05 24 22 bf
       0.0005129614763931455 -0.00013840263649514403
000700 4f a4 46 25 c7 72 71 3f c7 46 cd e5 61 a5 4a 3f
       0.004259851372276093 0.0008131721511778982
000710 a2 27 bd 25 83 f0 45 bf 76 2e d1 64 77 97 56 3f
       -0.0006695404403924585 0.0013788858371012436
000720 59 b3 93 6e ef 75 50 3f ef 12 b8 7c 80 e8 5d 3f
       0.0010046804621268361 0.0018254523046163337
000730 69 fc e2 c6 0e f6 67 3f e2 89 8e 10 92 71 58 3f
       0.002924946652540995 0.0014919210827676267
000740 fc 28 47 c9 b9 04 34 3f 36 ea ce 9b 2c 2a 5e bf
       0.00030545745655942403 -0.0018411098128427012
000750 c6 f0 b5 a1 10 e4 47 3f 44 2a f8 01 46 8c 53 bf
       0.0007290917596232342 -0.0011931117695690588
000760 ca 57 cf fc 6c f1 42 3f cb aa b7 98 5b 7f 5c 3f
       0.0005780965963093573 0.0017393488404830345
000770 c7 c8 88 ec 3e 1c 63 bf 77 36 ed 64 e5 90 44 bf
       -0.00233280458294258 -0.0006276245202145443
000780 ac 64 d3 b7 6f b5 6c 3f cf e0 45 4f ce 0d 71 3f
       0.003504484366754731 0.004163556954488181
000790 9c 3e f4 f9 42 a2 70 3f 2b 6e d1 4e c0 03 73 3f
       0.004060994745728099 0.004642249300640648
0007a0 ca b5 a1 3d 31 48 6c 3f ce 32 e3 22 10 b7 72 3f
       0.0034523927434324296 0.004569113762226974
0007b0 cd 3e f6 82 b2 ed 72 3f a9 f7 4a 9b e4 62 66 3f
       0.004621217070407813 0.0027327027295020634
0007c0 e1 df 8e 9c 9f 08 70 3f 08 a1 cc 36 8c 68 70 3f
       0.003914473993908958 0.004005954466983271
0007d0 66 c0 58 8b 68 68 78 bf 7b 48 66 b7 5b a1 69 bf
       -0.005958946586858449 -0.003128699430086588
0007e0 ab 6f bd d2 cc 7b 71 bf 03 43 91 05 2e 48 5e bf
       -0.004268455591809254 -0.0018482636862879327
0007f0 9a 44 3b 21 a4 a5 69 bf 89 45 6f fe 60 a8 37 3f
       -0.003130741659199088 0.00036098831190852686

linear.bias f8 [110]
000000 77 ce b4 42 d9 1e f1 3f 5b 1b 93 1b 8d 8e cc 3f
       1.0700314145769008 0.22310031744401723
000010 71 97 ad 12 32 f0 c9 3f 6e d8 78 1f 57 38 a0 3f
       0.20264268791214193 0.031679842559626845
000020 bc fe fc 14 4b b1 86 3f 67 74 bd 9a f4 45 cc bf
       0.011080347612391399 -0.22088487201372972
000030 b9 4d a9 03 8f 16 b8 3f a1 3c 00 57 2f ff c8 3f
       0.09409421767605054 0.19528762577144668
000040 60 b0 55 92 aa 4e c1 bf f5 76 1e 30 ad a6 bd 3f
       -0.1352132048153889 0.1158245317914995
000050 65 be 4f fb b3 fd cb 3f 4b 77 fb e0 6f 1a f0 3f
       0.2186799027544907 1.0064543522234597
000060 8c 39 bb c1 d3 3b a3 3f 87 3b ed ee 90 e7 c4 3f
       0.037565820120664645 0.16331683794348015
000070 a8 93 89 63 69 fc c6 3f b2 bb 74 53 e9 29 8b bf
       0.17957799301362098 -0.01326353345811335
000080 79 a9 12 1d 04 f9 bb 3f 17 10 09 c5 f4 e2 c4 3f
       0.10926843366420326 0.16317615147465922
000090 4e a4 1f a5 87 9d b0 bf 4c 8b 15 4a 61 12 a9 3f
       -0.06490371495569144 0.04896835355136506
0000a0 be f5 76 b1 d9 8e c9 3f 5c 48 ff c1 1f 08 a4 3f
       0.19967194714801723 0.03912448161249024
0000b0 84 7f 05 45 4d b4 ea 3f 15 54 ea 2e 8e 5a ad bf
       0.8345095012737009 -0.0573315078992566
0000c0 01 58 7c ec 47 91 ba 3f 0f 7b 69 4e fa b3 9f 3f
       0.10377931140496345 0.030959998165026422
0000d0 74 67 27 d6 69 f3 c5 3f 23 3a b8 9e 11 90 95 3f
       0.17149088818296898 0.021057391464689112
0000e0 b2 33 13 cf 22 0c 9f bf c4 9e f8 cf 73 9f 8c 3f
       -0.030319732560019914 0.01397600630214358
0000f0 37 8d 36 06 d1 aa 9f 3f b5 04 64 a8 08 77 c5 3f
       0.030925050739495332 0.16769512388422006
000100 7c 98 ac 1d 5e ca ab bf 73 47 bf 52 f1 f7 ed 3f
       -0.05427831756814869 0.9365164390712678
000110 e2 e0 89 6e 4b 9b 94 3f 95 90 11 1e 1a a1 b9 bf
       0.020123652097454044 -0.10011447176072104
000120 ce 6f 83 f0 cb ee a4 3f be e4 32 fa a8 35 c8 3f
       0.04088437376932995 0.18913757530916614
000130 7a 31 6d 65 26 fb ac 3f 68 9a 12 14 0b 3c ba 3f
       0.056603622323197336 0.10247868766837487
000140 07 e4 82 03 f5 17 80 3f 02 1f 70 73 2e f9 c6 3f
       0.007858194512992979 0.1794794143354395
000150 53 54 0b 9d 11 5e ba 3f 28 91 2c c2 2e c9 94 3f
       0.10299787601555126 0.020298700906225126
000160 3c 60 cb 45 d4 a8 ed 3f 6d a0 d1 23 d6 b9 b1 bf
       0.9268590319798089 -0.0692418897102713
000170 22 7a 84 63 71 b1 c6 3f d6 12 ad 3a 19 4a ac bf
       0.1772901283192861 -0.05525282708416561
000180 5d 3a da 25 e8 2d 57 3f 54 c0 7c 8d dc 25 bb 3f
       0.001414753634353303 0.10604647115974447
000190 e8 16 af 8d a8 e0 cc bf e2 21 16 9a 22 27 8b bf
       -0.22560603063737195 -0.01325823815092603
0001a0 85 c3 e1 86 e8 9f 9d 3f db c6 8a c5 cb 07 ba bf
       0.028930314285790643 -0.10168145726018045
0001b0 f8 87 3e 3f 8a ca b1 bf 16 4b cb d6 6a e6 f3 3f
       -0.06949676555680628 1.2437542333979699
0001c0 ba 31 64 93 76 58 af bf 04 fa b0 7b fe 04 be bf
       -0.061221795551407124 -0.11726370353515142
0001d0 37 4a 7e b9 19 c8 ae 3f 80 6f e0 f1 cb 85 c5 bf
       0.06012039555857423 -0.16814565000901993
0001e0 6f 19 96 46 88 03 b6 3f 8c d2 c0 b2 31 8b bc 3f
       0.08599139903353657 0.11149893392650706
0001f0 c2 74 c5 d1 4e be c5 3f 4d 08 46 ab b7 1a a5 3f
       0.16987023585071453 0.04121946302167654
000200 31 d0 b4 50 63 1e c7 3f a1 63 1d 58 a7 95 ad bf
       0.1806148666452159 -0.057782392030907966
000210 37 3a 74 72 44 68 f2 3f 0e 17 e7 63 f3 ef b5 bf
       1.150455901227941 -0.08569260777502682
000220 41 fd 11 62 bb f9 ba 3f 62 38 fb bf 6b 11 c1 bf
       0.10537310737889972 -0.13334414362037977
000230 d2 43 9f da 60 0d c9 3f 69 b3 95 bc 2a 86 c4 3f
       0.19572077441128372 0.16034445007553735
000240 86 51 2f 7c 2a 0c 95 3f f3 bb 6a 66 66 c3 c7 3f
       0.020554221944466565 0.18565063477350882
000250 9d c6 57 9b d1 6e ad bf 72 3a 07 ed 21 2a bf bf
       -0.05748610516810724 -0.12173664128133924
000260 3f 7d a6 ca 47 84 b5 bf 15 dd 5f 64 f1 77 f2 3f
       -0.08404968926924015 1.1542829438092828
000270 ab 8f 58 77 ec 9a c1 bf a5 c1 e4 d9 cb 3d ac bf
       -0.13754039599836906 -0.055158968304002166
000280 ad 83 e5 10 0e ca c1 bf 4d 08 37 20 47 ed af bf
       -0.1389787275793685 -0.062357161219111924
000290 17 5b 25 5e 80 92 9f bf 62 ae d3 ce 56 54 ac 3f
       -0.03083229612942792 0.055330956218168095
0002a0 6b 8b 01 dc 80 03 53 3f 6b 86 80 0e a8 c6 af 3f
       0.0011605032341541431 0.062062503595609574
0002b0 7d 04 c2 04 8c fb b9 3f b2 41 20 b4 f5 42 c1 bf
       0.10149455181273655 -0.1348559503098961
0002c0 ee d7 82 35 66 88 f0 3f 2e 88 65 f7 80 2d c5 bf
       1.0333005991246824 -0.165451165007711
0002d0 0d 9b 31 d8 3e d5 bc 3f 81 6c 7b 14 4b c0 a8 3f
       0.1126288678948237 0.04834208130861218
0002e0 c1 17 54 02 64 79 87 3f 4d 38 dd 06 55 d1 b9 3f
       0.011462003060397909 0.10085040490705062
0002f0 ea 7b 05 da 60 de ba 3f 5c 9c 8a 57 36 90 c5 bf
       0.10495572397984146 -0.16846350931629928
000300 09 81 4c 9d 5b b8 c1 bf 30 4e 01 91 cf d4 aa bf
       -0.13843865566833127 -0.052404867602174554
000310 f8 d8 87 b8 5c 9b c5 bf 1d d9 a8 f6 21 68 f1 3f
       -0.16880377779279576 1.087923015130918
000320 67 e7 7e 96 4f 25 c2 3f 83 bb fb 59 e1 96 c3 3f
       0.14176363800452949 0.1530420007106522
000330 0e 52 ac 70 4a ef c1 3f 8f ea f5 e7 29 12 c4 3f
       0.14011507512681515 0.156804312002198
000340 fd b9 01 54 94 cd b9 3f c4 20 6f 40 51 86 bc 3f
       0.10079314280458358 0.11142452071283332
000350 6c a1 c4 f7 be eb be 3f ee 00 f1 81 f7 77 c3 3f
       0.12078469800019825 0.15209859700008316
000360 16 00 4a 38 1c 11 b8 3f d2 74 7b 95 56 38 ba 3f
       0.09401108144993517 0.10242215299099947
