port_results/cvar/obj_4/30_2000/27/4_trained_linear.pth (torch, 679543 bytes, 4 tensors)

linear_mean.weight f8 [30, 90]
00000000: 1aee 4350 0e03 8abf 3c2f fbcb 2557 84bf
00000010: 9f47 7037 c372 95bf 2948 bb72 adb6 7dbf
00000020: 816a 95c7 b67f 803f 4e5b c071 b518 503f
00000030: 3711 f00b 0481 6f3f 58f9 0e1c 9c5f 853f
00000040: bb58 81db 900f 8a3f 9f51 dbe4 1901 743f
00000050: c739 1ccd 4224 90bf 4ac2 895d 6213 793f
00000060: 77b1 bb9e 58d2 6d3f f1e3 9ea1 8687 86bf
00000070: 7fdd 1187 f680 9bbf ca5b 77b4 3590 953f
00000080: ad84 ef37 0377 893f 3ea7 d3ee 5c40 94bf
00000090: c610 c3ce 3692 7c3f da40 21f1 478e 84bf
000000a0: 9bca 9225 44be 703f 0744 90e6 a5cd 7e3f
000000b0: e414 8e34 1e5f 633f 5b2e bee5 ffcf 9bbf
000000c0: b999 f563 5957 8b3f 31bd ea2f 779a 8bbf
000000d0: e7dd 3a75 f01f 6c3f e128 ad7d 2d49 5bbf
000000e0: 82a5 784d ebb3 743f ccdf dcbf 7caf 923f
000000f0: 333a 645a db7d 9abf f327 a6c7 ca3a 8fbf
00000100: 6bb1 83d4 4c19 843f 517f c44c 3e68 783f
00000110: 7cb4 3c83 44a7 75bf 9900 587f 2b30 90bf
00000120: 110a 1dbd 0fc4 6dbf 27fa 269b b351 7c3f
00000130: 9de2 1a26 9335 5d3f d3af 1966 06de 77bf
00000140: 6726 0682 9113 7fbf 966c a9d9 886f 86bf
00000150: 1fee a146 b6ca 913f 1ad6 cd79 e60d 83bf
00000160: a698 e38c fbbc 79bf 6ac0 536d 7589 60bf
00000170: 5530 f9e3 a671 763f 5ba0 cedb bf43 873f
00000180: 114b 5b1e 8621 78bf db20 15c0 bef5 893f
00000190: 1360 6f60 40d9 91bf 28b6 c081 edf3 933f
000001a0: 9313 208e 9ee3 833f 7266 9a32 3905 79bf
000001b0: d0dd d7e9 e576 83bf b5f8 6b2e cc9a 9cbf
000001c0: e188 7f69 cff9 973f cd0f 278f cc78 5ebf
000001d0: 93f4 17ed 7e44 713f a892 a023 e1b9 893f
000001e0: 5a59 818b 5e27 873f b965 211f 833b 853f
000001f0: 0a5d 6880 61cd 8b3f 9dd0 5227 1252 803f
00000200: 45c5 0283 8e04 7c3f e788 3f3f 3532 853f
00000210: 0851 d3b4 2870 793f 6b9d 9279 fc63 7e3f
00000220: a177 c663 3279 793f 3064 67ff 5be7 7b3f
00000230: 0fe8 41c1 6792 843f 0c8b 3ab3 308b 643f
00000240: 9d57 e793 38a1 893f 6a9f 441f cb4d 883f
00000250: f961 c8dd b5a7 7d3f dcda 199a 23fc 863f
00000260: 6b0e 3cac 4feb 823f 7015 7c81 fe5c 833f
00000270: 12da 5d50 27d5 8c3f 97fe 5b77 a15d 8f3f
00000280: 55e4 221f dd4d 8f3f 35ca e34a ebeb 723f
00000290: 63c8 c244 4733 853f 0d41 bb2f b742 833f
000002a0: b19c 14c5 759e 803f 8ca1 f3ce 78a9 7d3f
000002b0: d917 2d4b 3351 7f3f f78e b103 c786 813f
000002c0: 4ad3 5e02 507f 8b3f 3224 60ab 380b 883f
000002d0: f76c b02a d72c 85bf 2754 221a df62 8dbf
000002e0: 41bf 264f 1547 743f b27d ca36 e33f 80bf
000002f0: 4aeb 720a 0b94 283f 6fa5 0f60 8095 743f
00000300: a91c 5586 e042 66bf 0dff d12f 24aa 943f
00000310: eb5b 323e b12a 9a3f 2009 8536 8237 88bf
00000320: 62bc 03b8 a10a 72bf 23a5 7986 36ea 8bbf
00000330: 4721 d578 4e2c 7e3f ea77 9563 8077 91bf
00000340: 3a96 9d7b 580b 87bf 3081 73f8 514c 933f
00000350: 01df a680 e4a6 663f d978 befb 901d 79bf
00000360: 18a2 33c7 1055 803f bc5d f3c4 ed66 7cbf
00000370: f4a2 4a59 2794 713f 9056 8739 5bd8 813f
00000380: 18fe d704 761e 8dbf e800 8f76 d3c7 99bf
00000390: 2b5d 5fb2 8842 403f e976 0d97 2c68 32bf
000003a0: 4002 6ebf 03ae 90bf eecf 2b68 de8f 8bbf
000003b0: 484a c17b 1467 743f fd24 eefc 93ba 55bf
000003c0: 8483 6568 1d11 89bf 147c 5c46 50bc 92bf
000003d0: df6b 3010 be2c 653f aa78 8758 b073 76bf
000003e0: 2232 5d38 c43a 4a3f 5188 abfb 9f2b 9cbf
000003f0: 8e5c 97b5 54cd 893f dfb2 08fc 4039 85bf
00000400: f25a 614f 1670 953f 1390 5415 a5ae 82bf
00000410: 9941 4f3b 513f 83bf 8ed1 74f0 5f8a 8abf
00000420: edd8 4723 3514 763f bc7f 4d74 f426 8ebf
00000430: dc8f 4f4b d7b9 803f b481 8fa4 8693 93bf
00000440: 10ce 0708 ecc7 793f fcad b0e9 41ca 743f
00000450: 14d7 25ef 0af3 77bf 8cbf 1db6 9e4a 733f
00000460: fae8 0d87 a697 7fbf 475c 64a7 1563 82bf
00000470: 2cbc d007 3eca 803f b3d2 02ef c618 88bf
00000480: a895 25a8 e689 75bf c6da f65f 864c 44bf
00000490: 622e 1eac f95d 553f c36c 2fb4 0dfd 67bf
000004a0: b217 9065 30e6 70bf 3951 cd06 5b3e 70bf
000004b0: 1842 8789 6a38 8e3f e71e 1ba0 ffbf 953f
000004c0: 3020 7015 c462 913f 92ad 7eb5 cdd2 913f
000004d0: 78c2 c102 d430 913f 1ee3 a5ab 1343 8e3f
000004e0: 064f 363c e85d 903f e87c 7387 002b 923f
000004f0: 42d2 1b5e e267 8f3f f8bc 9360 ef61 933f
00000500: 5a7c 259f f689 913f 4057 0e78 3ffc 873f
00000510: 367d 914b f237 8f3f 7ccd 570c 7806 8c3f
00000520: b972 4c54 fa10 8d3f 0fea 9c70 79f6 923f
00000530: b239 881e c1ec 923f d3e0 d00e 2f90 923f
00000540: 40b9 1861 17ad 953f 0268 e292 fd94 933f
00000550: 28a3 199c f4a7 933f b291 b6cd 2ccc 8f3f
00000560: 3867 71aa c074 8e3f 2b79 93ae 4e0c 923f
00000570: 6727 76fd bb56 8b3f 07ef 5d75 177c 913f
00000580: 1304 836c d2de 8f3f 570f 8f10 9568 923f
00000590: b529 ef83 12db 933f 6d8f db38 2414 963f
000005a0: 04a8 1d54 5587 813f 4f67 128d ddb7 853f
000005b0: 50de 9d74 1f2d 87bf 4dce ff20 a7a7 9f3f
000005c0: 4f4b 61d5 7518 583f 24e3 e2b6 9602 3bbf
000005d0: 8e1d b659 35d1 8dbf e1c3 44b8 4cc4 8d3f
000005e0: 89d3 7858 d2cf 8b3f 89c6 6216 1bca 6c3f
000005f0: 3cc0 ac63 a61e 61bf b35d 1292 53ef 61bf
00000600: bceb 97d8 f626 5abf 95e5 fe6e 3062 803f
00000610: e71c 6f68 d92d 81bf 74cb daef 779d 7d3f
00000620: ff97 07cf b955 54bf c797 c650 6658 7ebf
00000630: 6530 7fe3 4cff 783f 6501 1b47 1772 84bf
00000640: 4051 429d 6381 91bf 229c 078a 20b2 853f
00000650: 0931 c27c abb1 8cbf 6a1d ae18 056e 7c3f
00000660: 9f07 8967 c3dd 703f a07b 6d97 6016 973f
00000670: 6019 3446 c86c 713f 0d01 dfbe dbb7 81bf
00000680: aa05 a605 3935 733f 9d85 5fb2 b4f4 86bf
00000690: 325f 0f24 416a 803f 7c56 eec9 5d58 87bf
000006a0: 70dc 1185 f2b6 63bf cbe5 fa6f 1250 873f
000006b0: e724 bf09 65c1 74bf 4c4a 90e6 7c2a 753f
000006c0: 4261 b80c 50c3 57bf d953 1dff d912 94bf
000006d0: 4e8e 0cf8 2aa7 93bf 7ddc 31de 3fa1 743f
000006e0: 25e7 2303 fa05 6dbf b8a7 023f e053 88bf
000006f0: be3d 6ccd fd36 80bf e05f fd23 f15c 553f
00000700: b570 0d43 5b57 81bf 3770 1ef0 6807 71bf
00000710: a5cb 5aba b375 7cbf ee66 c970 22f0 83bf
00000720: 50f5 ed70 c225 7e3f 2117 7fba 721e 9cbf
00000730: 6498 dc0c 990c 723f d16a 27e7 c1d4 83bf
00000740: 68fe a952 efa4 97bf 9847 837d be38 893f
00000750: decb c7e7 4cea 87bf 2ba4 1a90 7d19 643f
00000760: f0d2 8d55 44fb 6a3f 21c6 24ce e818 9abf
00000770: 81a0 3ba8 c7c8 99bf 6b65 3047 850a 513f
00000780: c995 d075 5609 913f bdce 2a87 01a5 8e3f
00000790: 992c 6bd0 7049 8e3f e2e9 b057 1952 903f
000007a0: b9b7 aeb1 d1fc 8a3f eb4f 3af1 bb61 923f
000007b0: 9d67 de5c b8ed 913f 83d6 97cf c483 8d3f
000007c0: e3a9 25e8 9e50 903f a9e6 9417 3004 8e3f
000007d0: dcaf eef6 4cc2 8d3f a811 1d69 00da 943f
000007e0: d602 fc6a 4ee4 903f 0229 16e6 cf83 8a3f
000007f0: 905c ce51 e216 903f 825e f107 d726 903f
-0.012701141190055987 -0.009931845939170729 -0.020945596941664864 -0.0072542929953716495 0.008056095090684725 0.0009824535291096006 0.0038456992183474553 0.010436267477299907
0.01272500200154202 0.004883862636877372 -0.01576332451718956 0.0061220018766197735 0.003640339933431654 -0.011000682647010126 -0.02685914229774999 0.02105792917231123
0.012434029716987227 -0.019776775433377518 0.006975378124654158 -0.010037004514885362 0.004087701986622473 0.007520340012903587 0.002364691729271772 -0.027160643002885326
0.01335019909192857 -0.013478213453110928 0.0034331985897002484 -0.0016653961417483697 0.00505439677321229 0.018247555933356627 -0.02587073077398312 -0.01524885579853572
0.0098138811449295 0.005958789214019892 -0.005286471965331715 -0.015808753631063686 -0.003633528461166387 0.006913854204354786 0.0017827927589861077 -0.005826973910739458
-0.007587021246203563 -0.010954922811995876 0.01737484747034845 -0.009303856460728222 -0.006283743494554772 -0.0020186704156160322 0.005479480663392951 0.01135969056652202
-0.005891345883088276 0.01267575286568994 -0.017430311094216288 0.019485198063355608 0.009711493217773348 -0.006108497074501439 -0.009504123877362242 -0.027934255917892076
0.023413887800310177 -0.001859855427583479 0.004215713315258845 0.012561568164593709 0.011305559761393514 0.010367416751409718 0.013575326663199511 0.007969037842805721
0.006840283094946391 0.010349670403176648 0.0062104787914061335 0.007419573049595267 0.006219097933721247 0.006812438360122505 0.010044870934724085 0.002507777326017707
0.012514535916959885 0.011867129222607981 0.007240019240747569 0.011223104610718897 0.009237883037264546 0.009454716040191186 0.014078433170408498 0.015315305190142054
0.015285232079223979 0.004619521247365689 0.010351712022700526 0.00940459360518322 0.008114738537712137 0.00724169913085183 0.007645798078391019 0.008557848739833214
0.013426423141802996 0.011740153055159384 -0.010339432707090241 -0.014348738656091055 0.004950602759364931 -0.007934355840290095 0.00018751749778352984 0.005025388208175981
-0.0027174363373521815 0.02018028776046692 0.02555348341101286 -0.011824624337013534 -0.0044046704426668765 -0.013630319575173083 0.00736647275091002 -0.0170574246197858
-0.01125210883374016 0.018845825948006822 0.00276512746242108 -0.006131712285336565 0.007974749640610887 -0.006934098040083322 0.004291681009512816 0.00871344823182632
-0.014218256018465644 -0.025176338301890505 0.0004962127175031408 -0.00028086746811149685 -0.01628881317037867 -0.013458001665163945 0.00498111726126866 -0.0013262219615362552
-0.012239675281934266 -0.018296484274397853 0.0025848114178308314 -0.0054814232357484425 0.0008004625421818604 -0.027510165916176558 0.012598668853497832 -0.01036310929438272
0.0209353910398375 -0.009122171128701983 -0.009398111937031927 -0.012959241414684877 0.005390365190115026 -0.01472273807456747 0.008166963563731082 -0.019117454332332875
0.006294176099334262 0.005075700256422785 -0.005847017966848406 0.004709835020420782 -0.00771298456026614 -0.008978051348590322 0.008198246587282375 -0.011766008538282113
-0.005258465769974498 -0.0006194740416763593 0.0013041437345887798 -0.0029282825139325965 -0.0041257753846419155 -0.003965716908016775 0.014756042787582621 0.02124022879323109
0.016978324707480563 0.01740571422821586 0.01678782717539426 0.014776376415043976 0.015983227419908118 0.01774216486671501 0.015334862229317573 0.01892828013381817
0.01712785097458567 0.011711593486136374 0.015243428164636624 0.01368421352069648 0.014192538926687136 0.018518350122784407 0.018481271256001804 0.018128142623226772
0.021168103505425195 0.019123041238891865 0.01919538691291503 0.015526151683680964 0.014871125413424488 0.017625073819425168 0.01334902636769515 0.017074934519299336
0.015561717926518203 0.017977074752493518 0.019390382101656296 0.021561208696666712 0.008558909062873717 0.010604601733848943 -0.01131653380046696 0.030912982358087416
0.0014706755369117868 -0.0004121416049077001 -0.01455918960597449 0.014534568189079113 0.013579982113790983 0.0035143403102544974 -0.0020898103515705462 -0.002189315055669738
-0.001596203861821562 0.00799978102428404 -0.008388231753896537 0.007230251792566079 -0.0012411417520694632 -0.00740852324489611 0.006102848383260894 -0.00998323617693648
-0.017095142815905406 0.010593656742413474 -0.014010753388241886 0.006940860660399431 0.0041177399621704905 0.02254630016556869 0.0042541335308271255 -0.008651463282035832
0.004689429037513385 -0.011208926862255103 0.0080151642923024 -0.01139901421064881 -0.002406572028629088 0.011383194010124683 -0.005067248039219075 0.005167472737428524
-0.0014503747687567158 -0.019603162952382156 -0.0191923822304843 0.005036591991589676 -0.0035428889324266182 -0.011878730700420323 -0.007917387801653738 0.0013038973701977527
-0.008467400535373629 -0.004157457269595758 -0.006948186933800314 -0.009735364024141071 0.007360229049365799 -0.027459900505866778 0.004406545498374912 -0.009683146349677514
-0.023090114040768134 0.012315262036654492 -0.011677361319902543 0.002453561058093819 0.003293641534066409 -0.025485646802911547 -0.025179977076647212 0.0010401059669276856
0.016637183132976383 0.014963161408878429 0.0147885144810032 0.015938182809103092 0.013177526698054597 0.01795095119321381 0.01750839297128658 0.014411485276450314
0.015932543677459676 0.014656425208716089 0.014530755315568848 0.020362860122320164 0.016495919494448362 0.012946724137482327 0.015712295764015283 0.01577316270808505

linear_mean.bias f8 [30]
00000000: 4899 56c8 dfca 913f 1a41 aa4e ffd3 9b3f
00000010: e546 3513 b78a 973f 9ac3 4509 ba7f 873f
00000020: 4745 11e0 14bb 903f b406 0968 57d9 9d3f
00000030: 9737 98bf cd4e 5f3f 2a72 3e50 8364 a63f
00000040: 8c7d 52bf 4a2d a63f 8723 cf66 2418 8b3f
00000050: 23e3 b37e 2f5b a43f 3968 eb88 f29f 8d3f
00000060: eaf5 6bca be6e 8c3f 6de9 9923 d290 a03f
00000070: db54 753e 2720 873f ef42 b90b a09d 5ebf
00000080: 1ec2 b495 3d6c 7c3f fd5f c4aa cfb8 a23f
00000090: 78af e41c f78e a33f 63cd 4634 b24e 9f3f
000000a0: 90e1 e3f8 eb79 a73f e5e1 7e3e 5ca4 a43f
000000b0: a3f2 2485 9ff2 9b3f d9ee 1f21 9f37 a03f
000000c0: 76fd 6e7d 9129 733f f6dc 2ef2 fda7 9b3f
000000d0: 242e 3213 314d 51bf 526d 6496 e293 a33f
000000e0: 4740 927b 53aa 8e3f 28e3 e5db 130d 953f
0.017375465967824938 0.027175892998060204 0.022990093753214053 0.011474088104223946 0.01633865945433868 0.02914940426331354 0.001910878111064806 0.043735602898980666
0.04331430039860171 0.013229641330228649 0.039758190361629774 0.014465231708005276 0.013883104851170242 0.03235489544472867 0.011291796296669812 -0.0018686354586813744
0.006939163747390368 0.036566247554389954 0.03820011356069036 0.0305736393363082 0.0458520642586705 0.04031646979223406 0.02729272127293093 0.03167435912470546
0.0046783145143643925 0.0270080260340508 -0.0010560015914816779 0.03823764882892057 0.014973308762165639 0.020557699486263875

linear_cov.weight f8 [900, 90]
00000000: 13a0 ea36 f53b 62bf ef8d f746 0759 5c3f
00000010: 5154 02b7 86e8 7ebf ac19 5e3d f5fe 733f
00000020: f0aa 20f1 8e47 7c3f 8916 9f13 21ec 6d3f
00000030: 281c 9bce a7ae 7cbf 98c4 05da 9517 753f
00000040: fb30 b94a 24e7 553f f486 0f05 0c00 63bf
00000050: e056 b7b6 86ae 81bf 001d 862f 6924 6dbf
00000060: c77d b787 e108 7a3f e9af a19e 31fc 5c3f
00000070: f101 73e4 bb66 7bbf 5f5e f005 73f9 783f
00000080: bb2a b450 5007 563f b4ab e1a5 06f9 71bf
00000090: 1c41 429f ca38 7b3f dfd3 940e e4f1 50bf
000000a0: d059 8e3b b875 763f bb18 23af f152 723f
000000b0: bb88 a0a5 1701 663f b929 3605 1e5f 77bf
000000c0: bb6c 43b2 d383 733f 363a 0833 8ea2 863f
000000d0: a127 3460 40d8 57bf 730c 0a16 2654 7b3f
000000e0: ac75 4e7d 3df6 51bf 5f51 6d9b e5fa 6fbf
000000f0: 6f66 7509 44ed 5ebf c8b5 be09 0f61 76bf
00000100: 7bd9 22fa 0f79 773f ae18 2acb 72c7 71bf
00000110: c8aa 8848 7b79 73bf be59 8f3a c334 63bf
00000120: 5d79 36e6 fc4e 7dbf 601f 78ac d259 4f3f
00000130: bca4 4cd6 8ad7 843f 79d8 d51e 52f0 773f
00000140: 6515 02f9 fb05 7dbf 2065 9e77 9db2 603f
00000150: 5df5 d7ae 5600 72bf 2904 d3e0 0ac5 82bf
00000160: 9c6f a7ea 10d4 6f3f cd7b 4462 29fe 75bf
00000170: 7666 3740 7884 68bf 19ee 48ef 43bf 74bf
00000180: ccf0 6ded 2ef9 67bf 1f2c 6cce 19a1 63bf
00000190: 05f2 b664 d461 73bf 02bf b59a 112d 803f
000001a0: af1e b13e a1bf 60bf a164 2e09 983b 433f
000001b0: f2c4 c905 f9f8 76bf 1914 3f25 912e 433f
000001c0: 8c19 105c 71a8 89bf 0be1 6ed4 900b 84bf
000001d0: f0ba 151c d44a 7dbf 9b8b de15 5c84 6f3f
000001e0: 8e03 0d15 cf8d 823f f395 d9b9 7130 833f
000001f0: 948a 97a8 86ea 833f 17b7 51df d53d 823f
00000200: e8dc 7733 a445 853f b7dc d6e6 c343 823f
00000210: 2404 12c0 afa6 843f 0318 4b01 09dc 843f
00000220: 58ef bdf7 4d1f 843f c99b a4e1 ae6b 853f
00000230: cf48 8135 c20e 843f 45a6 61f5 d014 843f
00000240: 79d9 baec 45cb 813f dc87 7a81 54d9 823f
00000250: 9f8b 2ffb 8cca 833f 996f 706c b988 843f
00000260: afe5 abb0 afd7 843f bd35 df61 7720 843f
00000270: a649 a018 d46a 833f ced5 169c 8351 843f
00000280: ac4d 4d7c cce6 823f 905d 783a 124e 833f
00000290: 00c0 670e 87bd 843f c6fe 47f6 2d3a 853f
000002a0: 2d1f 4099 c142 843f a662 58ef bc3e 853f
000002b0: f177 ac73 ea92 843f 9d15 d1be 5125 853f
000002c0: 6ae1 efea 84d8 833f fa16 81cc c29f 843f
000002d0: 6e58 bbad 8811 82bf d476 a395 c46d 813f
000002e0: 7ae1 18b2 918b 81bf 73ae 101d 6df9 7e3f
000002f0: d925 5bcd 000d 783f 9afc b5fc 9c6b f93e
00000300: 11fe f07a 5650 2dbf 6575 d6a6 b419 843f
00000310: ad07 0c7c 9f69 81bf 7a20 8787 91b9 3fbf
00000320: 0ce3 941b 469f 703f 7629 0389 a87e 8b3f
00000330: 32f8 6bdf cbc5 78bf 09f1 9977 ecf6 733f
00000340: 492b 5b36 50d4 8bbf 174c 34ed 3e57 613f
00000350: ec97 df2e 4b58 363f d064 dc77 3d42 7abf
00000360: 4730 bc75 10da 803f 86c5 bef2 c725 753f
00000370: 35b4 45ee 12f5 4fbf db4f 9330 a59c 82bf
00000380: cb83 7502 3352 833f b420 e8bb 8426 6a3f
00000390: 9cdd 487d badf 603f 74f9 4182 4365 623f
000003a0: 5a3d a8c3 dbcc 73bf 2e61 8af1 62cc 523f
000003b0: 4045 1fb7 aff5 74bf 6ecb 785c 7ccd 6f3f
000003c0: 4af5 b109 4cc7 6fbf 40b8 a10e 3fff 733f
000003d0: 308f 9957 bb2e 873f 21c2 74ad 3e5c 7d3f
000003e0: 42e4 6b62 fa11 153f 9cc5 4fc9 cd96 823f
000003f0: e185 5ccc cb30 52bf 6b06 ad69 653e 66bf
00000400: 1dd2 0035 3f3f 673f 110e 2540 f9f8 66bf
00000410: 1982 5fef 5d5d 593f e8e6 a56d 7762 373f
00000420: 426e 3f30 27f7 4b3f a60c 4dd0 6b37 70bf
00000430: bad0 3e6f e0b4 4e3f ce13 e582 1a02 873f
00000440: 0223 efb5 5092 813f a2e7 f49a 661c 60bf
00000450: be6c a681 0d0b 7dbf f2bb 4b65 d893 6a3f
00000460: 5165 c356 80cc 81bf 379b ab86 3fc3 343f
00000470: c970 ecdf 6496 6b3f 2b83 0097 2dfb 5c3f
00000480: 57a4 5ff7 0e0b 1b3f c1e2 0c42 1350 833f
00000490: b469 5449 1235 803f 058d 868d d7bc 663f
000004a0: 8075 ca26 44ac 773f 1266 795b 525d 65bf
000004b0: 8638 a2c0 061e 7a3f b170 9ecd 9a20 763f
000004c0: 67cd a628 b4b5 793f ff18 bbb3 a4e2 793f
000004d0: bc4f 81de c89f 773f 92fc dc72 1d04 7e3f
000004e0: 726f 6604 64ef 763f 2867 6319 7cdb 763f
000004f0: 1b6f 8a8c 71bc 793f db77 011a 04da 743f
00000500: 83ae 29fc dc11 7c3f a5b2 885f 9d9b 743f
00000510: 3d4d 84dd f4fb 783f f15c 7a66 acc4 793f
00000520: b9cf 5f45 f456 733f 91b2 11e8 8bd9 783f
00000530: cdc0 5b91 22f8 723f 0001 b79c 35b6 6d3f
00000540: e979 a97b 7c7d 773f 1560 dc36 bc4e 763f
00000550: cd43 aa72 f543 793f 3815 0df2 6b9f 743f
00000560: bc23 cab2 3be0 7a3f ad34 dd39 871f 763f
00000570: 89d4 5f1d 040c 763f bb51 3add 1200 743f
00000580: 2a1d f15a d373 763f 5d04 c47d 090d 723f
00000590: 0ea0 c65a 07ea 743f cd31 bbbb b32b 773f
000005a0: ad99 a4f7 40a3 66bf 68e9 a2a6 8125 87bf
000005b0: 567f 4070 20d7 703f aba9 9fcb e40b 753f
000005c0: f942 6f74 3898 7b3f 0cd3 eb0c 4e65 603f
000005d0: da5e 18da 61e5 73bf 0225 a8f0 5bac 603f
000005e0: 964a 417b 7305 713f 0ad9 f351 e60c 6abf
000005f0: 4038 f5f6 e0c5 74bf c18d 043f 5d03 0c3f
00000600: 8871 e515 791b 693f 883d 4f75 b1ee 64bf
00000610: 0a3f 634b 0d3f 82bf 0385 c226 eb01 7d3f
00000620: a3f5 cf45 9567 6bbf 216f 457b 4473 78bf
00000630: 7d3d 2426 6ff1 7c3f 324a 62f3 d583 823f
00000640: a7c9 eff6 8978 63bf 0227 0a9f 4ad2 4d3f
00000650: fb80 2272 c83b 40bf 39a4 490d ad38 7bbf
00000660: 657c 1b25 5ca1 703f 2a33 3a5b 829d 893f
00000670: a9c1 f861 cb90 733f e842 b44f 5734 713f
00000680: 6522 3a56 a4bf 7e3f 5fef 4f6e 7f93 6cbf
00000690: a83d e73d a34e 84bf ac15 c65f 0335 86bf
000006a0: 3dad 5409 1540 893f 74ab 3d41 de86 78bf
000006b0: 8c95 5e76 2e23 77bf b718 1356 100d 68bf
000006c0: 5527 e62e ff73 7dbf 2559 367d 5be7 6bbf
000006d0: c605 b11c ca61 883f b8c6 eb46 7a31 583f
000006e0: a802 a6d6 e776 73bf c1cb f959 dfde 533f
000006f0: 31a1 7160 1097 6c3f b4cc 5c53 ff27 88bf
00000700: fed5 6b78 23ee 513f f196 9255 5624 7cbf
00000710: 7e1d 2b92 74d8 793f b777 e87c 5455 80bf
00000720: eef9 0c3e 61c0 74bf 9d69 6cf6 e729 8d3f
00000730: d952 53dd 12a3 87bf e415 8502 6a59 5abf
00000740: 3658 8a51 8b2d 7e3f 4979 07ad a9df 723f
00000750: 8aa3 7a15 7ba0 74bf ce15 b9f0 cb6b 87bf
00000760: 8bbf 084a 249a 783f a576 aa7a 3c02 7fbf
00000770: 0f3e b62a 43d5 71bf 0497 3c5a ffb8 63bf
00000780: d3a8 105f e0ed 843f 9314 e08f ff7f 823f
00000790: 26d7 70de d46d 863f ef0e b4c0 289a 803f
000007a0: a298 c178 be02 853f 1ce6 14a7 f229 823f
000007b0: 4e1b 6606 4007 803f 4604 3703 6c12 803f
000007c0: 9966 dafb 2326 7e3f 7999 3537 0b3b 843f
000007d0: 1280 5759 3984 823f ba05 8a6f 0de4 823f
000007e0: 23e9 1f64 4fc0 803f e6db 60e6 aad5 843f
000007f0: ac06 39d6 887f 7b3f d7c8 1290 4cb3 833f
-0.002225855764965709 0.0017302104059745379 -0.0075459730434391395 0.004881818740506121 0.0069041808765557405 0.0036526342418906105 -0.0070025019610460496 0.005149445875177204
0.001336846772477306 -0.0023193583260628873 -0.008633663607649777 -0.0035574011237177183 0.006356125809787234 0.001769112068838114 -0.006689771608933346 0.006097268399592431
0.0013445171669583106 -0.004387880295420855 0.0066459574628796834 -0.00103423377215716 0.005483359965089155 0.004473632887487418 0.0026860677580922954 -0.005705945269605933
0.004764391840775757 0.011052237446191087 -0.0014553669614678427 0.0066720473993228 -0.0010963058932483656 -0.0039038166536703857 -0.0018876232550923096 -0.005463656179853733
0.005730688486599407 -0.004340599453490563 -0.0047545257334983895 -0.002344495111610472 -0.007155406844871895 0.0009567526512350537 0.010176739373110137 0.0058444221334551455
-0.007085785167992274 0.002038295319789399 -0.004394854169274734 -0.009164891229717824 0.0038853006746943485 -0.005369340568249959 -0.002992853989536577 -0.005065217370936925
-0.0029264370490960975 -0.0023961547880211455 -0.004731969510825444 0.007898461850998743 -0.0020445012392292443 0.0005869381296747142 -0.005608532661981901 0.0005853852003318032
-0.012528310415302689 -0.009787684901184443 -0.007151440194646183 0.0038472937148567705 0.009059541540070073 0.009369743808927722 0.009724666614549883 0.008907004239712841
0.010386736698804147 0.008918314439922843 0.010083554314634986 0.010185308792085129 0.009825333712562376 0.010459295521810479 0.009793774850696128 0.009805328834960334
0.008688494002268442 0.009203586770414711 0.009663678565578425 0.010026405927469105 0.010177013949475759 0.009827549623788618 0.009481102944879204 0.00992110080810962
0.009229276221652004 0.009426252755516257 0.010127120139230783 0.010364874914557187 0.009892952431996694 0.010373569540250326 0.010045844702798208 0.010325087199940347
0.009690321368893879 0.01007034479711021 -0.008822505761980372 0.008510146919828022 -0.008566988227457929 0.00756209013438146 0.005871775754437058 2.4242748435818023e-05
-0.00022364669482220813 0.009814654675944732 -0.00850224110900285 -0.00048408320392612887 0.004058145387994438 0.013425175362858904 -0.006048008325477071 0.00487415666577485
-0.013588549288575573 0.0021167973551512553 0.0003409560730446282 -0.006410827741796868 0.008228424637785404 0.005162983939884019 -0.0009752600131328672 -0.009087839646248532
0.009434126389068617 0.0031921951733729585 0.0020598070498427223 0.00224555192295311 -0.004834040121309025 0.001147362350968416 -0.0051171172980997714 0.003882162945751436
-0.003879211913555257 0.004882093731891912 0.011319602595171924 0.007168049654226156 8.037653661209599e-05 0.009076698022883183 -0.001110266706242029 -0.002715299674861884
0.0028377756607602792 -0.0028042667555909857 0.0015481393179400725 0.0003568212101964078 0.0008534375524464415 -0.0039591037246423984 0.0009370895263516512 0.011234480971902185
0.008579855491818392 -0.001966667557692995 -0.007090618857911566 0.0032443262556323066 -0.008690836570553502 0.0003168134777937095 0.003367611905003985 0.001768869897212431
0.00010316161009850507 0.009430075123974093 0.007913725722166066 0.002775593759183461 0.00577952024164341 -0.0026079758206776294 0.006376291634422887 0.005402188014979868
0.0062768018200814795 0.006319659583544856 0.0057676168872439725 0.0073281431521642505 0.005599394504681375 0.0055804107307382625 0.006283229399425295 0.005090728780571009
0.006852973196696535 0.005031218279822146 0.0060996594477445406 0.006291078032197848 0.0047215978465721615 0.006066843519061963 0.004631171255582167 0.0036269232857365497
0.005734907400066971 0.005446181499586107 0.006168326168919114 0.00503484884467769 0.006561501690733825 0.005401161410032146 0.0053825531704109275 0.004882882774513704
0.0054815536560178044 0.00440696437385765 0.0051059996880340585 0.0056569119294178185 -0.0027633923429164126 -0.011302006624067842 0.004111410820797653 0.005138295871783087
0.006736965681697121 0.0020014309333141796 -0.004857427820318805 0.002035312242928301 0.004155589198563311 -0.003179979175565899 -0.0050715243990691605 5.3430827281066285e-05
0.003064857955150827 -0.002555224035382945 -0.008909324515485224 0.007081907806566481 -0.0033452907068737977 -0.005969302659959459 0.00706618707250983 0.009040519227970643
-0.002376813375570569 0.000910078464657377 -0.0004954079379509141 -0.006645847305301316 0.004060134831632122 0.012507456215894292 0.004776758636169034 0.004200306949557066
0.0075069827468118066 -0.00348830117081704 -0.009915614439619372 -0.010843302116664365 0.012329258296253637 -0.005987995322224705 -0.005648786061930432 -0.0029359168116541395
-0.007190701302883647 -0.003406218232792873 0.011905268669695778 0.0014766401397391781 -0.004752069109941338 0.0012128049055746134 0.0034900016649325395 -0.011795038920899927
0.0010943743124561807 -0.006870591395601742 0.0063099435380488105 -0.007975254117862691 -0.0050662802248653115 0.014240085799930574 -0.011541507129018512 -0.0016082320454001648
0.0073676530961588795 0.004607832714525203 -0.005035858913893141 -0.01143607452753317 0.0060063760325163125 -0.007570492026074104 -0.00435377347038425 -0.002407549605680683
0.01021933832278813 0.009033199861742147 0.010951674497941943 0.008106535321082712 0.010259140072048038 0.00886907169716538 0.007826328463819057 0.007847637031661258
0.0073605924241292526 0.009878242132526737 0.009041259802813815 0.009224038092045517 0.008179302447378028 0.010173163562383136 0.0067134232700156 0.009619329592485943

linear_cov.bias f8 [900]
00000000: 38e8 4c75 f897 e03f c56c f9b0 d7a7 9f3f
00000010: 1bb1 36da ad71 a2bf d553 0638 5048 a43f
00000020: cf7d 28df 1b60 69bf 8ff7 a846 691f 83bf
00000030: 3470 f8d4 56af 4bbf e208 56e9 c492 893f
00000040: 36fd 1b7c e879 98bf eda1 3597 dc8d a3bf
00000050: 5213 8a94 4f64 a4bf 6106 aef4 907a a4bf
00000060: 0b29 e731 ddad 96bf dd59 26b5 b3a6 a53f
00000070: 1bf1 9e57 ff27 9a3f 232c 2b05 ae5c b53f
00000080: fed8 6652 42c0 a6bf 98ed 8a2f fa32 823f
00000090: 80aa bada 065d 793f bde5 b185 347b abbf
000000a0: fdbc 0249 cf83 9bbf 5339 2bb3 9a0e a9bf
000000b0: 08db e8bb 9e3e 983f fc4d e285 1e17 733f
000000c0: d846 ad90 4775 3dbf 164c 0903 78fc a43f
000000d0: a2b0 1276 78fb 743f 9a82 b4bb 2678 953f
000000e0: 9925 c792 43f1 9dbf eccd 2d54 2a3c a7bf
000000f0: 8975 6bfa f728 973f 16c0 2c14 5d06 e53f
00000100: b839 1c0a bcba a73f a6c7 89f5 a22b 843f
00000110: bea5 e1a1 cffc 9abf d16e 7c4c 605b a33f
00000120: 5b5f f205 9501 b03f 47c5 0c70 e22e ac3f
00000130: 500a 55ee 1184 b1bf 9d58 50b9 9ed0 aa3f
00000140: 438a 2303 10c2 a5bf d370 0a50 d435 96bf
00000150: 07b3 799b 793e 963f cbc1 5e58 890b a23f
00000160: 9599 9677 cc80 9f3f 1541 5333 16a7 91bf
00000170: 42ba f90f b984 a3bf 7d71 2589 a346 6cbf
00000180: cd1e aeb2 5c59 a43f 896f f819 4370 a43f
00000190: 1fe7 cf45 611b a13f 27f8 69fb d619 8c3f
000001a0: b33d fd74 cf6c 913f c5da 9ffd c901 b2bf
000001b0: 8c45 2d33 78f2 853f 91b2 24a2 70a4 b43f
000001c0: a598 9197 f78b a83f b654 a6cb 184a 98bf
000001d0: 1c73 763a 3a06 92bf 56b8 8a4f def7 85bf
000001e0: d102 aa0a 4fef a6bf 3806 b315 3686 a63f
000001f0: 2338 9eb3 3ff0 e03f 9195 4ff9 a39c a83f
00000200: 8bf5 239a 7e39 793f d924 7535 c7e3 a2bf
00000210: e3f8 9985 1c66 763f 6318 a683 46b1 afbf
00000220: 5729 0395 2e73 83bf 72bb e4c3 dae1 8f3f
00000230: c1ff 519c 6de6 a2bf 29a0 5969 cf60 813f
00000240: 5cac 2343 af72 ab3f 8f86 673f e43b 98bf
00000250: 03be 9c1a 53ea 823f 978c cf25 bdb5 7bbf
00000260: 8fbd 1f0b d9d3 a83f 5766 6eac b2b2 acbf
00000270: c152 aca4 8320 9d3f 3205 1585 b937 a73f
00000280: 1aa2 332d b3e9 97bf a724 b774 d048 a2bf
00000290: 8158 2a44 6a91 7d3f 8722 d940 f7f7 90bf
000002a0: 32a7 2ca9 6072 84bf b0df fb6d 27e6 8a3f
000002b0: db5d 9adc 7af6 94bf 6f48 57b5 0069 7dbf
000002c0: 2d74 5c10 3445 9d3f 281a 05c8 46d8 a03f
000002d0: 747e 8062 516d a33f 9b25 7453 3b83 7bbf
000002e0: 88ae 4c8a cee0 883f 28ab b52f 175c e23f
000002f0: 6e6e b7f7 2bab 6fbf b8ee 173b 5959 8b3f
00000300: f066 0861 ca8c 683f 1f62 2677 2065 843f
00000310: dc47 95a9 4d5c 65bf 5b88 a8a4 a9d2 663f
00000320: a656 2c00 113b 88bf e567 ed26 8de1 9cbf
00000330: 544e 32ef f753 563f 2b4c 68db d890 a6bf
00000340: 53fc b5d5 9f4d 8f3f ff8c b7ff d8ed 7ebf
00000350: ecc9 dbc2 87f9 8d3f ca49 7b68 159e 8a3f
00000360: 8605 2dc2 a506 4e3f 2ef0 2fe5 e721 8abf
00000370: b455 167b 97a1 92bf f5d3 26c7 fc6c 78bf
00000380: bf68 fdb1 a2a7 823f 82a1 b0eb acd4 7bbf
00000390: 3a0d 56d5 297e a33f 4e15 86a7 db18 81bf
000003a0: 6343 4e79 b362 613f cd9c 42d4 3448 6d3f
000003b0: 152f da91 5841 65bf e19d ae01 3cf9 913f
000003c0: aa4f 9228 1de4 573f 1578 3b49 b8fd 8ebf
000003d0: 484b 697d a6fa 86bf 04c6 5f68 0b96 83bf
000003e0: cc93 8800 eb9b dc3f 8ae5 7306 741b 863f
000003f0: 6675 c63a 1429 7e3f ff27 9ce2 f988 39bf
00000400: fb03 fb3a c4bd a43f 380b 3f9b a256 84bf
00000410: 4fd2 4ce2 fa65 913f e200 74ec 6cb3 553f
00000420: 4aed cdb4 f4ff 9c3f b815 07d2 2537 7ebf
00000430: a01c 12a5 aab2 883f fbf7 8f83 bcda 9c3f
00000440: 725b c2d3 68ce 6e3f e210 9568 b59e 7fbf
00000450: 16d2 b12f 02c7 893f 7612 c86b 216e a43f
00000460: b4f5 1d6f fbd5 a1bf 9d1f 6346 ba6b 533f
00000470: e332 df11 81b4 3a3f a59d e393 5af3 963f
00000480: 2501 a61a c808 913f 0650 beb0 83c0 5fbf
00000490: 89a9 ef8c 7341 a1bf f1b3 0820 7962 6fbf
000004a0: 49b5 de8a 7a34 6a3f b4d4 8c1b 5861 9e3f
000004b0: 161f 17a0 7531 95bf 3382 737b 8b66 9e3f
000004c0: 0c19 49ff d797 9abf 7010 ade2 1282 9d3f
000004d0: 070d b2a6 9aec 913f 1d50 bc33 f04d e33f
000004e0: 79bf 566e abf8 97bf c87a 34e8 1eda 80bf
000004f0: dd79 074b 6bb4 85bf 33bb 9a72 3b68 a43f
00000500: 3cef 5bb5 6af5 b0bf c0f4 1f5c 37fa 923f
00000510: 0d8e 7ab5 e86f 923f 7650 49cc 9348 a3bf
00000520: 0ba0 0638 ccca a23f eb5d fd34 b09b b23f
00000530: 4d7a 9955 a80d 963f ddc0 2730 8033 833f
00000540: 9d25 e9bb d560 823f 4d3d 7454 28d9 823f
00000550: d6e5 a467 436b 6d3f e5a7 e6b2 a664 a8bf
00000560: efb6 9bf5 a6ea 903f d500 d590 57b8 83bf
00000570: bd6e e5d7 ec3f 8e3f 528f c751 0814 a43f
00000580: a74c 027c da25 a23f bc0e 0950 abd8 4f3f
00000590: f25f 4b4d 5fb6 8e3f 098f 398e f647 713f
000005a0: 681b 5530 49dd 67bf c329 d006 2a9a 923f
000005b0: 7aba 6cb3 7b93 663f 9993 03cb ee5d 773f
000005c0: 0eda b715 7159 5e3f 06f9 0661 c5c2 56bf
000005d0: 8ece 7297 fff6 d93f e923 e2bb 6632 653f
000005e0: 88a8 bb58 5864 863f d61a 3623 b928 803f
000005f0: 7bed cbbd c153 973f 7983 b6c3 5fe5 653f
00000600: c173 79cc ddb5 803f dfc0 21e3 1a49 5abf
00000610: f16d b5cf 2f41 823f f3c1 644c a300 23bf
00000620: 2a4f 472c be4d 6bbf 3ccb 5b23 d645 8d3f
00000630: ef1d 0152 bae1 40bf b60a 2d32 571f 8d3f
00000640: e567 9cf7 ee02 5bbf 553c 2991 3d89 5fbf
00000650: 593b b42f 21ca 72bf 8fa7 2d78 1458 353f
00000660: ba0a 8f89 5be1 553f 860a 1059 975f 5b3f
00000670: d122 b345 d0ae 783f 6a87 9580 f47c 7b3f
00000680: f9c0 1eb1 408a 733f e23c 5921 6093 7abf
00000690: 0ef3 73fe a322 903f 57cf 5150 6a05 b33f
000006a0: bb05 4890 9e69 b0bf 3abc 7571 d297 a63f
000006b0: 2d58 cc1a 0227 66bf e461 91cc 7689 65bf
000006c0: ca31 a77c e291 71bf b14c e654 b1e7 e43f
000006d0: 1f94 fda3 e082 9bbf 35de 8389 5c60 b6bf
000006e0: 6454 21a2 546b ad3f 3a08 ad2f 1f36 b4bf
000006f0: 04f3 ef23 a7f3 9c3f 363b 0859 520f 6a3f
00000700: 3182 ade7 550f a0bf 9cfb 45e1 a842 93bf
00000710: 61bd f546 cd85 99bf 6258 ac48 9050 923f
00000720: 09b6 af16 58c2 a0bf 57bf 4eb9 1895 80bf
00000730: f386 3171 18e1 a9bf 6c2c 4638 00cf 94bf
00000740: 66ce 41b0 7806 a4bf af18 1042 d8f4 513f
00000750: 0ea0 84ab 2261 a33f 1c4e c81d a1b2 a83f
00000760: 7bcf 948c 0501 a1bf f0ec 27a2 0b37 82bf
00000770: d281 a2bc 2d93 abbf c351 866e df27 973f
00000780: 95d7 3358 826e aabf ad06 797a 9ea2 b1bf
00000790: 0fcc 3db7 b7dd 83bf cbbd 9fbd 0aa9 8dbf
000007a0: 05d0 519e 51fb a13f ee75 edcd c452 633f
000007b0: 5b03 88aa 5304 9f3f 6e47 8139 6faa 9fbf
000007c0: 97b2 0418 e7b6 e13f 8ecc 17c1 d75d 82bf
000007d0: 33c1 cdbb 5062 b33f 99c1 e3d3 10ac a73f
000007e0: fb5e c2ba ed21 babf 766f 872a c79e aabf
000007f0: 4cc2 4167 326e 66bf e8c2 eaca ac6b 9b3f
0.5185510912917897 0.030913705994277025 -0.03602355278721544 0.03961420711417644 -0.003097586094795913 -0.009337255925057323 -0.000844876669308109 0.012486971255161131
-0.023902542662651537 -0.038191693742934386 -0.03982781112885071 -0.039997606151712224 -0.022147613688312123 0.04228746019650818 0.02554320308966949 0.08344543100535921
-0.04443557029610366 0.008886293960464184 0.006192232871095826 -0.05367435581224409 -0.02687000163194585 -0.048939546939083776 0.0236763765517152 0.004660720091254952
-0.0004494952888097598 0.04098868405403537 0.005122633506442183 0.020966153341876216 -0.02924066146241486 -0.04538090016913174 0.022617220553788484 0.6570268053092174
0.04634654639641006 0.00984885513136986 -0.02635502267404432 0.03780651982944295 0.06252414126572374 0.05504520051762057 -0.06842147892624806 0.05237289440280899
-0.04249620474162843 -0.02168971766023804 0.02172269832083187 0.03524426654564968 0.030764765547837653 -0.017238947756426166 -0.0381219703675595 -0.0034516519601039395
0.039744278728048955 0.03991899196645849 0.03341201760481582 0.013721160457176819 0.017016641154723632 -0.07033979837420208 0.010716380178254402 0.08063415487840532
0.047942864658396624 -0.023720157079499336 -0.017601880853919658 -0.010726677706170456 -0.04479453091790265 0.043992700718729016 0.5293272503056453 0.04807007234903005
0.006158346690651749 -0.03689405944403185 0.005468474782558827 -0.06189937932053693 -0.009497035906311053 0.015567502120203722 -0.03691427739340681 0.008485432055025015
0.05360934919902924 -0.02366596829404571 0.00923600125278679 -0.006765116556354609 0.04849127064505431 -0.056050857113586865 0.028444344449854556 0.0453470206216572
-0.023352431901829097 -0.035711778876767845 0.007218756773587854 -0.016570914586085308 -0.009983782923501747 0.013134296459142408 -0.020471496309793707 -0.0071802165670807735
0.028584302424054343 0.032900058666701704 0.03794340445915348 -0.006716949216987979 0.012147534938399276 0.5737415248707736 -0.003865800737669115 0.013354012599840245
0.0029968216624752728 0.009958509098212663 -0.0026074902386108278 0.0027859986632999107 -0.011831410234246786 -0.02820416021436491 0.0013627930864331854 -0.04407384565652025
0.015284775456846733 -0.007551047946864785 0.014636097559081095 0.012996833086991528 0.0009163197868035523 -0.012759982759227819 -0.01819454849972653 -0.005963313497365332
0.009108801895923667 -0.006794620009749843 0.03807192544175071 -0.00834819416992141 0.0021222596501008647 0.0035744697398346404 -0.0025946359517713493 0.01755231628672316
0.0014581951857381794 -0.01513236974227187 -0.011220265104531571 -0.009563531038994995 0.4470164780817043 0.010794550368234086 0.007363394758070773 -0.00038963413918280393
0.04051030368783156 -0.00993086849473955 0.016990585386525144 0.0013245166499587448 0.028320144210266997 -0.007376811729448311 0.012059529459533203 0.02817816308014896
0.0037605330854363845 -0.007719715716408811 0.01258660991718678 0.03990272942249799 -0.034835679353800414 0.0011853522387798917 0.00040748740309197294 0.022412696148334316
0.016635061861508 -0.0019379888571835493 -0.03370247931873666 -0.003831135342144958 0.0031988519103466656 0.02966821354057876 -0.020696485420358256 0.0296880525683056
-0.02596986289634011 0.02881650455971435 0.01750413553646715 0.6032639513455283 -0.023409536943006046 -0.00822853227742594 -0.010598028399667331 0.03985772870998119
-0.06624476363861914 0.01853262424264268 0.018005024029333728 -0.03766309612970613 0.03670347389135039 0.07268811505979726 0.021536474442081666 0.00937557360609314
0.008973760411339177 0.009203257634480844 0.0035911861897630444 -0.047642907465458774 0.01652012704919675 -0.009628948314116684 0.014770365084295073 0.03921533582959448
0.03544504894048233 0.0009718739020816085 0.014996285005892649 0.004219019992522063 -0.002913134524223638 0.018166214624253173 0.0027558723480958754 0.00570481565975891
0.0018523792595012164 -0.0013892104653759354 0.40570058622254457 0.002587509777246745 0.010933580596845141 0.007890173327508004 0.02278044434477298 0.002672850647016775
0.008159382631839908 -0.001604343659462208 0.008913396383539914 -0.00014497750653098793 -0.00333296912342886 0.014293358758981627 -0.0005151901023134324 0.014219933718441307
-0.0016486486114843876 -0.0019248105278568868 -0.004587297090678921 0.0003256845449671691 0.0013354677123379858 0.001670739937481487 0.006026090205701621 0.006710963332212086
0.004770519926680311 -0.006488204487666157 0.015757143407415568 0.07430138073851587 -0.06411162397855368 0.04412706027039133 -0.0027041474444429365 -0.0026290245337288066
-0.004289517130427753 0.6532828005023444 -0.0268664455501445 -0.08740785939505076 0.05745949248436302 -0.0789508334537751 0.02827321202129253 0.003181134067069459
-0.031367001086213604 -0.01880897402724778 -0.02492447610478388 0.01788545077860027 -0.03273272778447384 -0.008096879153384568 -0.05054546720272226 -0.020320895609568998
-0.03911187316489588 0.0010959731955622434 0.03785045951582343 0.04823783386759947 -0.03321091977195941 -0.008894053350550796 -0.05385725906058138 0.022613040085688995
-0.05162436796847129 -0.06888761987741061 -0.00970023658712729 -0.01448257819353573 0.035120535446282054 0.0023588031612422544 0.030289943011669745 -0.030923593411280086
0.5535769909962082 -0.008968053417424817 0.07571892342617019 0.046234632363737656 -0.1020802098231534 -0.051992629949125055 -0.002738092845952422 0.026777934918473273
