port_results/Delage_1/30_1000/48/8_trained_linear.pth (torch, 173439 bytes, 17 tensors)

radius f8 []
000000 eb c0 13 46 a6 06 d8 3f
       0.3754058536860742

shared.weight f8 [30, 90]
000000 8f f2 32 5b 08 52 26 be 14 3e 6c 90 98 dc f5 bd
       -2.598441206640251e-09 -3.1812964799186036e-10
000010 26 ce 26 a4 ca 3d 22 be ec e0 6e fa 46 f0 31 3e
       -2.123575344400879e-09 4.1766518359564955e-09
000020 30 68 ea d4 2c e5 01 be 03 a3 1e 65 66 54 53 3e
       -5.208193128777368e-10 1.800217425794031e-08
000030 18 28 df 51 de 36 2b 3e e7 7e 39 60 6f fa 3b be
       3.1681649655925343e-09 -6.514196740700537e-09
000040 74 57 35 51 47 5d 21 3e 4a 01 9e 89 b9 b2 3b be
       2.021478659522164e-09 -6.448976597423039e-09
000050 50 1f 23 34 0e a1 1d be ca fc 1c 51 64 d9 44 be
       -1.7246419436220286e-09 -9.708659240804447e-09
000060 6f 17 8b e6 bd e3 4c 3e 1b aa f6 19 50 ca 21 be
       1.3452775963854922e-08 -2.071061724642311e-09
000070 c0 d7 2d 76 5f 13 38 3e 26 5e 07 a5 85 9d 3c 3e
       5.605554994890146e-09 6.6625234916403756e-09
000080 74 e8 c0 d5 b0 d6 57 3e 59 e3 c1 c5 33 71 43 be
       2.220145965700898e-08 -9.053478127112749e-09
000090 ef ef 11 eb 37 ec 36 be 77 3f a9 b0 ef b9 44 3e
       -5.3371135715083915e-09 9.651441886280439e-09
0000a0 b2 40 02 cb 93 b5 45 be 34 d9 93 0e c8 15 33 be
       -1.0109174247951982e-08 -4.443592363200424e-09
0000b0 f2 cc ce ac 28 e1 3d be 2c 0a 4d 2a 96 e0 50 be
       -6.956869480598464e-09 -1.571820242301716e-08
0000c0 f0 af a0 8b dc 78 49 be cc b8 fa 3f 1e 4b 03 be
       -1.1861377980584414e-08 -5.615127251698935e-10
0000d0 9e 33 18 db e6 8e 47 be ab 81 ca c8 33 3e 44 be
       -1.0970146432768769e-08 -9.42637103904079e-09
0000e0 49 96 c5 db 6e b7 3d be 40 32 ac 74 4a ea 2a be
       -6.918920044838079e-09 -3.133341507592936e-09
0000f0 ba e5 05 31 4e 04 44 3e 98 ff b8 74 f2 66 20 3e
       9.32105728776546e-09 1.909460067302596e-09
000100 a2 93 ec a9 8e 85 18 3e cb 05 c1 79 d3 c3 4d 3e
       1.427351271635512e-09 1.3860382890140539e-08
000110 56 1a 8a 11 55 57 41 be cb 0e 4c b6 94 fd 3f 3e
       -8.075098410483382e-09 7.448380444323454e-09
000120 f6 80 70 bd 68 b9 3c 3e 65 d0 6c a3 f7 00 47 be
       6.687886653359673e-09 -1.0711969184591798e-08
000130 39 66 81 8a 79 55 39 be 07 fd 85 7e d8 30 4e be
       -5.8985049415020425e-09 -1.4058688394641198e-08
000140 3d 2a ec 4f c6 ca 43 3e f6 72 f5 0c 64 82 4d 3e
       9.216409411275647e-09 1.3741356856799708e-08
000150 bd 45 e2 2c d3 2e 10 3e 4f 45 29 54 1b 6c 3d be
       9.419693250546529e-10 -6.85041118499449e-09
000160 bb 3b 33 be a1 21 40 be 5e 4f 89 3d c1 9e 44 3e
       -7.51175650015951e-09 9.601999127372343e-09
000170 5c 5b f8 80 46 2b 36 3e e8 44 fb 1f 7d 16 29 be
       5.161632912339176e-09 -2.920609753914173e-09
000180 12 c8 e7 30 80 24 48 3e 78 cb 91 f4 de 73 34 3e
       1.1242265366012599e-08 4.76199686030175e-09
000190 9a 67 ae 0e ff 1b 32 3e ee dc 0e 4a e3 9d 53 3e
       4.216414088449143e-09 1.8269521565475934e-08
0001a0 86 3a bc 56 d7 60 3e be ab fa f9 32 72 c2 4c be
       -7.072995838120877e-09 -1.3392211422504939e-08
0001b0 70 96 92 8b b2 08 0b 3e 4f 30 82 ab d6 31 3f be
       7.867922070328159e-10 -7.263077854543354e-09
0001c0 4f db 56 61 25 76 42 3e f8 03 0f 35 f4 75 00 3e
       8.596809523677803e-09 4.79071097130465e-10
0001d0 3e 93 15 b2 82 e4 3a 3e 2c 4e b3 cf 66 fb 3f 3e
       6.261425851198904e-09 7.44639838263244e-09
0001e0 a2 c2 86 93 1f a2 49 be 09 0d 26 6d 15 3a 23 be
       -1.193643282899635e-08 -2.2383045219276115e-09
0001f0 a8 b8 b5 a6 4f 27 49 3e 7c c4 39 db c7 e6 0c 3e
       1.1713038725320837e-08 8.411439795131647e-10
000200 4e 43 4e 33 d8 8b 46 3e c6 f6 05 06 41 cb 18 3e
       1.0498924044192018e-08 1.4431984705329828e-09
000210 34 cb 9e d8 4c a0 39 3e 9b f6 03 11 c6 90 25 3e
       5.966558256080392e-09 2.510557213616105e-09
000220 7a 86 de c6 b7 e0 15 be 5c f3 41 60 83 63 15 be
       -1.2734558090991813e-09 -1.2449875583853812e-09
000230 74 02 77 0d e4 92 36 3e 94 10 b6 47 36 1c 4b be
       5.25587059242551e-09 -1.2624172144070924e-08
000240 d0 3f 53 7d 23 58 04 3e b7 6d b3 1e 2b 0e 27 3e
       5.920968113810745e-10 2.6839954613062438e-09
000250 97 f0 8f ff 31 24 00 3e 7a 67 2f f8 b4 51 51 be
       4.697762171668605e-10 -1.6129731782730954e-08
000260 4f 5a dd b5 6a d6 46 3e e4 8a 54 dc f1 1f 28 be
       1.0634570276187284e-08 -2.8084945225704004e-09
000270 72 94 f0 04 08 24 54 be f1 3e 64 b3 48 60 50 be
       -1.875753269041464e-08 -1.5251440299101383e-08
000280 74 78 72 0c 38 91 1a 3e 6f d1 5c 0d bc 40 45 3e
       1.5464181478656527e-09 9.89663854651853e-09
000290 3e 2f c4 2e eb 22 10 3e 30 fb 98 a4 2a aa 54 be
       9.39262163762534e-10 -1.9245513882414512e-08
0002a0 21 d2 00 fa d0 05 1b be 5a 1c f4 5d 1d fc 45 3e
       -1.572929321524996e-09 1.0237481028284523e-08
0002b0 10 e1 77 5c 69 95 26 3e 01 cf 72 3c 20 55 3a be
       2.629081594570356e-09 -6.1310183103800865e-09
0002c0 56 0c 53 6d ad 10 3f 3e cb 6d 69 6a 70 51 36 be
       7.23291800514568e-09 -5.196342611921583e-09
0002d0 18 22 d2 9d a7 5c 14 be d8 d4 c0 69 6a 05 46 3e
       -1.1852204697572225e-09 1.0254399378330163e-08
0002e0 dc 97 2b 37 4b dd 52 be 02 f8 d1 f1 bb 0c 44 be
       -1.7568868536115608e-08 -9.336389045771791e-09
0002f0 66 66 b8 c3 05 1e 3d 3e bd da 61 37 13 eb 52 be
       6.779393986748767e-09 -1.7619004443316873e-08
000300 1a 11 69 f7 dd ca 21 be dd 4e f9 2c 2d 51 3e be
       -2.0713137275531007e-09 -7.058748876712923e-09
000310 f7 49 a9 dc f0 a6 10 be 19 6f 11 4f 8b d1 40 be
       -9.692805331324053e-10 -7.831739231248288e-09
000320 8b 87 49 cc 2b 0d 2c be 7f cc 2e 09 83 c2 44 be
       -3.2656185275871696e-09 -9.667040756300645e-09
000330 e2 b8 6e f0 29 a5 3d be 9c 93 96 19 41 13 1f be
       -6.9023042896869195e-09 -1.8088154085250588e-09
000340 9d f3 e9 9f 12 61 43 be 53 97 aa bc ab 1b 4f 3e
       -9.024138767185039e-09 1.4485832885057546e-08
000350 3e 12 e7 24 71 64 49 be b0 c3 64 df 15 59 48 3e
       -1.1824235060592994e-08 1.1337916366694094e-08
000360 02 5c 14 05 3b 61 42 3e 9a 75 f6 cf 89 5d 3c 3e
       8.558764504882602e-09 6.604330637409894e-09
000370 77 b9 00 3f 77 d6 2e be d3 7b a7 31 aa 10 42 be
       -3.589987411531589e-09 -8.412216302828656e-09
000380 f3 96 9f ef c8 ed 3e 3e fa fb ea 12 aa 2b 46 be
       7.201183422114691e-09 -1.0323973312850936e-08
000390 5f 1e f9 0e 7e 27 21 3e fe d9 f9 6f a3 70 36 3e
       1.9970195426011172e-09 5.22471821329227e-09
0003a0 78 e2 45 01 73 9a 0f be 34 1c f7 51 3d e9 2b be
       -9.197775896352867e-10 -3.2492787485993303e-09
0003b0 64 71 cb 44 4a f4 28 be e6 c4 ce 7e 5e d3 35 be
       -2.9050580052279656e-09 -5.081682613701398e-09
0003c0 e8 4b 63 c6 72 a0 52 3e e5 84 a3 83 64 c4 42 3e
       1.7347514002390262e-08 8.739139291079239e-09
0003d0 c8 25 97 f5 02 68 41 be 60 fc e1 60 9d d4 35 3e
       -8.105437809558531e-09 5.082815514073041e-09
0003e0 c6 cd 90 f7 eb eb 42 be 6f 4f e3 17 dd 7e 11 be
       -8.811042328128456e-09 -1.0183756889434556e-09
0003f0 47 ec 99 82 98 cd 27 3e 16 31 ba 31 4e 56 1e be
       2.7710465214191124e-09 -1.765853413935146e-09
000400 92 1c ad 05 e5 0d 53 3e 5c 22 bc e1 43 4e 31 3e
       1.7745677243009417e-08 4.029302693371585e-09
000410 2f 0c 86 77 21 89 45 3e 26 2a 4b 34 5e 76 5b be
       1.0028326378298075e-08 -2.557632973707657e-08
000420 5c 32 d7 fa 1e 10 37 be 74 22 0a 6d df 74 48 be
       -5.369766781790522e-09 -1.1388461202954342e-08
000430 e6 c2 53 03 79 c2 2b 3e c3 4b b4 43 ca e8 47 be
       3.2316496376638184e-09 -1.1133652325198169e-08
000440 d2 8a 37 01 8b 49 2c be bc 6d ce f5 15 ad 21 3e
       -3.2930724898139334e-09 2.0577707718791438e-09
000450 86 42 60 63 ec e6 24 3e ac c5 98 7f 92 43 51 3e
       2.4333182370163066e-09 1.6078310216370086e-08
000460 01 27 73 2e 9d 5d 40 3e d6 f9 20 7a 8f d7 48 be
       7.620863452790058e-09 -1.156797308301572e-08
000470 9f bd 8d 5e 64 b4 41 3e 6a b8 07 6c 76 ae 18 3e
       8.244373143997248e-09 1.436652061308766e-09
000480 c4 19 94 c8 8e 0f 33 be 09 ce 86 f3 6b c0 2e 3e
       -4.43793191887862e-09 3.579962906165172e-09
000490 c4 03 bc 09 3b 10 0d be 51 ab e3 29 47 02 11 3e
       -8.458562907987529e-10 9.900481888804492e-10
0004a0 1f e2 38 dc 6c b1 42 be 8c f4 76 0b 4a 4e 51 be
       -8.704637794515478e-09 -1.6117298355082187e-08
0004b0 fc 33 3a fc 7c 82 2c be 08 b2 99 31 78 51 3d 3e
       -3.3189681851963618e-09 6.826184750790731e-09
0004c0 b3 c3 e2 16 c2 96 47 be e6 19 1b c1 ab 7b 3e 3e
       -1.098443710672577e-08 7.097397351855438e-09
0004d0 50 fc 18 b5 e7 5b 19 be e7 dd 47 02 ea a7 3b be
       -1.4760883248254863e-09 -6.439144360502881e-09
0004e0 5a 1e 9b 45 0d f0 47 3e 05 70 59 f9 b0 fc 3e be
       1.1146861367437363e-08 -7.2147407124879205e-09
0004f0 b5 09 80 5e b1 41 38 be 24 a7 29 a5 16 ed 25 be
       -5.6476827450822625e-09 -2.552537106422688e-09
000500 50 fc cc ce 1f 98 37 be 5a 4a e1 b8 e7 12 30 3e
       -5.493461002769109e-09 3.742484445679605e-09
000510 f2 7f 65 96 8e 12 3b be 14 b2 98 aa 69 52 42 be
       -6.303304855799268e-09 -8.531811107505762e-09
000520 98 ca a3 bd cc 0f 23 be fe 2c bd d2 a8 41 41 be
       -2.2190760176608182e-09 -8.03567575643948e-09
000530 5b f2 f9 f7 25 c1 36 3e 5c 4e 11 e4 2c d7 30 be
       5.297941529596649e-09 -3.920991143818746e-09
000540 ba b9 14 1a 92 ad 35 3e 96 62 74 a0 4d 06 4c be
       5.047305158281098e-09 -1.3049981552455106e-08
000550 cc 52 e2 5d 46 4e 48 be aa 0f ec 41 83 33 3c 3e
       -1.1318252054583918e-08 6.566108572443802e-09
000560 5b d3 78 ce 53 5e 25 be 43 d4 da 4c c7 76 42 3e
       -2.487616879653758e-09 8.59796003435113e-09
000570 7b da 67 50 26 f3 18 be 97 fb 2c 75 e5 1e 46 be
       -1.4522696947991045e-09 -1.0300748398020919e-08
000580 de c8 5c 12 39 d9 36 3e dc 81 f3 25 57 dc 34 3e
       5.319837270179595e-09 4.8570113202361965e-09
000590 dc 63 e2 bf dc b5 26 be d9 85 90 76 fa 89 fe bd
       -2.643838480672735e-09 -4.4440061922451503e-10
0005a0 a1 ff dc 5e 03 3d 57 be 5e 88 e5 17 74 98 3f 3e
       -2.1642383821922383e-08 7.356405594358296e-09
0005b0 bc ae 4f ba de ae 45 3e 9d 0a 22 3f 2d 62 49 3e
       1.0096973765729155e-08 1.1820114640764113e-08
0005c0 62 2b 36 03 fc 7a 35 3e b1 c4 8e 83 10 92 26 be
       5.001297198764513e-09 -2.6275595279962647e-09
0005d0 c7 ef 7a 05 41 ab 50 3e b0 13 49 ba bd b8 38 3e
       1.5524179579630216e-08 5.755956520934422e-09
0005e0 9e 33 b9 6f 18 c2 3e be 9b 4a 3c 9d ba 16 44 be
       -7.161448097362575e-09 -9.354569486683489e-09
0005f0 6a 4c bb 61 ad e1 1a 3e a0 8b 8e ef 74 a2 f6 bd
       1.5647122546662102e-09 -3.2937673383611096e-10
000600 b4 0c 75 25 72 79 e3 3d 77 c3 b8 65 e5 c7 4b be
       1.4169489429752663e-10 -1.2936463614824716e-08
000610 d9 3a a9 9b de e5 22 3e f6 43 54 fc ef b7 28 3e
       2.200008367571714e-09 2.877612789228559e-09
000620 78 1a 0a 8b a4 94 39 be b6 25 3e 52 2d d5 45 be
       -5.955955881812669e-09 -1.0166653803344109e-08
000630 57 94 e5 d8 e0 71 2a 3e 80 64 65 4f d6 b3 b7 3d
       3.078584227106348e-09 2.1557288039942806e-11
000640 79 30 80 2d 0e d3 42 3e 07 8f 42 d3 d2 4a 3c be
       8.765810674569708e-09 -6.587309631933476e-09
000650 80 1a 42 ef 98 f4 27 be c8 4a 60 60 eb 58 00 be
       -2.7887824220627692e-09 -4.757702571775107e-10
000660 bf e1 3d a0 23 46 56 3e b2 3a 7f db 80 2b 4c 3e
       2.0744261433154657e-08 1.311764817593623e-08
000670 75 f5 12 08 a8 ee 32 be 3a 91 b6 de 9e fb 22 3e
       -4.408008292739711e-09 2.2098995877208974e-09
000680 67 e8 19 36 b3 24 3e be 28 2a da 0e 17 78 03 be
       -7.018297805433427e-09 -5.666254390208308e-10
000690 72 b5 c6 7f f9 5d 4e be 5d 7c b3 ef cf 92 20 be
       -1.4140777431676136e-08 -1.929407631586752e-09
0006a0 3e 9a 99 aa bb f1 4a be 94 4d c8 5d c1 fd 2d be
       -1.2546903366273116e-08 -3.491438900371747e-09
0006b0 cd e2 1b 48 ef ba 22 3e 92 af 96 4f 86 39 42 be
       2.1804838497905367e-09 -8.486539903835202e-09
0006c0 85 2f 1a ba 7a d6 59 3e 52 2c 49 ce 58 ef 59 3e
       2.4063335885132075e-08 2.4153803306660866e-08
0006d0 e7 d6 38 6f 00 20 32 be c8 5d 8a d7 fb 95 f4 3d
       -4.220056959742107e-09 2.9956389412501065e-10
0006e0 a4 4e 3c fe 5f 21 52 be 8e 65 f1 c9 c8 7f 2f be
       -1.6885223787820034e-08 -3.6669845628261855e-09
0006f0 fa 13 a5 b8 28 5c 39 be 40 c3 0a ed d3 f6 3d be
       -5.904584274918857e-09 -6.976577274803744e-09
000700 a5 59 73 21 c1 5d 50 be 9f 95 66 6a 94 d1 41 3e
       -1.5242237774747792e-08 8.29746522603482e-09
000710 30 ac 3f 65 aa f8 33 3e 99 d9 58 9a 66 c1 35 3e
       4.649942281896873e-09 5.065340512964565e-09
000720 29 ff e4 cc 8f a2 35 be 9b 8b 10 10 bc a9 54 be
       -5.037292539957195e-09 -1.9243942443160645e-08
000730 91 87 34 c2 e2 53 10 be 86 08 4b 0b f5 55 4e be
       -9.50395991784736e-10 -1.4126193861682646e-08
000740 86 cb 3f ed d5 16 39 3e 65 5b 98 c9 38 6e 50 3e
       5.841534995293375e-09 1.5302145861270354e-08
000750 0e 8d d8 2c 43 91 4a 3e 31 db 9b c4 0a 2a 2b be
       1.2371424241872162e-08 -3.162332205880562e-09
000760 7b 3f ea 4a b7 f9 27 be fe ee 08 c4 54 da 26 be
       -2.7911100855192934e-09 -2.6604225769256746e-09
000770 50 14 d7 c9 21 37 15 3e 37 b4 57 46 29 b7 1d be
       1.2348964414937494e-09 -1.729668208461771e-09
000780 c2 42 8d 7b c6 de 04 3e df 62 c1 fd 83 b5 2a be
       6.074032311006309e-10 -3.109342101538618e-09
000790 42 08 5b 80 04 de 32 3e a8 21 4f 11 f6 5d 2c 3e
       4.3928754017096665e-09 3.3023576186751676e-09
0007a0 28 54 4f 08 35 30 28 3e 7c 6a 98 79 24 47 20 be
       2.815889801262835e-09 -1.8949970037275195e-09
0007b0 96 6d de 9d 08 f7 00 3e 9a 45 96 7d 8f 8d 25 be
       4.937457627974742e-10 -2.5090960253035223e-09
0007c0 4f 3e 20 10 af e3 4d 3e 47 d2 6d 91 8c 33 3a 3e
       1.3918331823901974e-08 6.100480362938724e-09
0007d0 00 92 cb 82 35 99 44 be 82 90 0f 47 64 22 38 3e
       -9.591911342843222e-09 5.619214525087717e-09
0007e0 97 64 65 28 06 d2 1f be 6d 30 94 5e 6e b4 4a 3e
       -1.852191429383095e-09 1.243539578473962e-08
0007f0 62 f1 b8 70 ea 99 42 be 48 d0 87 b9 c9 77 1f be
       -8.66187434895952e-09 -1.8316741232458976e-09

shared.bias f8 [30]
000000 24 12 51 6b c0 26 23 3e 37 53 4a 72 ac d5 4e be
       2.2295133192176898e-09 -1.4358508667886912e-08
000010 d0 10 3a 88 a2 b5 35 3e e7 63 d9 8c 93 0c 1a 3e
       5.054639487895016e-09 1.5162587187519277e-09
000020 12 10 9f bd 1e 33 43 3e 76 c1 ac 7a fb 7a 42 be
       8.940551344298025e-09 -8.605606745949095e-09
000030 3e fd 1c 58 76 2c 20 3e 5e 57 dc c2 56 4b 31 be
       1.882864254185429e-09 -4.0266412823606895e-09
000040 fd ea e3 53 a1 28 30 3e 7c b5 82 aa 5f ac 0a 3e
       3.7622432376469615e-09 7.76296212226839e-10
000050 e0 de 78 db 42 02 23 be 6b d4 2e 35 7d 9c 37 3e
       -2.212919371858904e-09 5.497430804786828e-09
000060 38 94 e6 cd f4 8e 42 3e 49 46 79 95 af 47 4d 3e
       8.641939106010497e-09 1.3634573178093154e-08
000070 26 71 ab 42 a6 7c 3b 3e d7 1b 20 f5 92 fc 21 3e
       6.399795397372888e-09 2.093917852479149e-09
000080 22 74 5d 40 7b ae 2d be 9a 13 5b c7 36 9b 3a 3e
       -3.4553893105488765e-09 6.194763026931114e-09
000090 6b 35 e5 f1 74 e5 43 be 70 17 48 59 43 89 31 be
       -9.264943975777105e-09 -4.08296098710636e-09
0000a0 e2 bd 8c 63 2e 70 30 3e ed b6 f9 03 72 8e 2b be
       3.827318511420324e-09 -3.2079903454180178e-09
0000b0 c7 ed 6e 12 3e a1 43 3e 59 7d 6f e5 85 ef 31 be
       9.140862800941388e-09 -4.1759658708160675e-09
0000c0 1e ea 68 75 dc 4d 39 3e ba ac 45 a0 32 b3 26 3e
       5.891580409781193e-09 2.6426267859547745e-09
0000d0 80 ab 4a 6e d5 27 02 be eb 37 68 eb a5 f7 3a 3e
       -5.283975172196132e-10 6.278831391025353e-09
0000e0 fe ab 64 57 a4 74 23 3e 98 90 44 27 d1 c6 34 be
       2.2649337363487384e-09 -4.8374358861379325e-09

mean_hidden.weight f8 [30, 30]
000000 ec 44 75 c7 84 aa 40 be 18 31 6f 40 1d 91 44 be
       -7.76075224801173e-09 -9.57718705547458e-09
000010 9d 6d 7f b0 bd 50 11 be ff 21 d7 cd f1 9d 4b 3e
       -1.0078886076353652e-09 1.2860154214876587e-08
000020 a8 03 46 24 0f 2f 4e be fa bc 06 ac 61 90 32 be
       -1.4055438709400883e-08 -4.3222658233965796e-09
000030 a4 b8 0c 1f c4 9f 1b 3e c2 d9 70 28 54 2d 45 be
       1.6079334497546157e-09 -9.86133953497844e-09
000040 7d 4b 65 51 01 56 44 3e 80 bc 6a 9b 96 b5 ff 3d
       9.469668199471124e-09 4.6143147238662355e-10
000050 61 4e 2e 95 87 51 14 3e a6 ad aa 5c 82 ff 32 3e
       1.1826909076420709e-09 4.423335873508962e-09
000060 d0 dd 35 16 60 7e 3f be d6 20 73 f7 b7 9b 17 3e
       -7.3326876544379505e-09 1.3741825158679325e-09
000070 93 5b e6 f6 95 87 50 be 50 aa 74 6b 42 e3 41 3e
       -1.5394419455851672e-08 8.329624419537545e-09
000080 e6 1d c9 80 89 60 3f be 8b c7 e9 92 d9 94 40 be
       -7.305549953673558e-09 -7.721336984045675e-09
000090 aa c1 e5 2a 15 7d 20 3e ff 6d 66 d4 d6 c2 27 be
       1.919526169246499e-09 -2.766155002276976e-09
0000a0 5e fb f4 41 81 b5 40 3e 9c d3 ef 2a ba df 35 be
       7.780736109768165e-09 -5.092922235838996e-09
0000b0 9a 26 a2 52 a2 61 31 be 7c a5 33 61 26 67 f5 bd
       -4.0469186145725354e-09 -3.1145361394242774e-10
0000c0 72 db e2 f4 a0 d8 31 3e 26 d0 ac 7a 33 ed 4a 3e
       4.155143630365523e-09 1.2538659740353483e-08
0000d0 28 fa 72 83 48 5a 46 be 62 7f ee 69 c0 48 f9 3d
       -1.0408772606305394e-08 3.6793333131233883e-10
0000e0 31 a6 55 f2 3e 2a 44 be 06 5e d8 45 36 b3 1f 3e
       -9.390070563735285e-09 1.845185580180655e-09
0000f0 fc b8 99 f7 60 2a 29 3e 99 71 e0 81 61 0b 52 be
       2.929654682740638e-09 -1.6805209772470984e-08
000100 af cf df cc 7d af 53 3e 30 75 6a 40 65 3c 55 be
       1.8333562938580725e-08 -1.9777491667474814e-08
000110 ad fa c9 e9 20 f6 38 be 5c 0e fb cc 0e 6b 2f be
       -5.811788075640607e-09 -3.657559234514828e-09
000120 00 ed a2 15 67 ff d3 bd d7 00 34 c5 79 2f 3c 3e
       -7.27510876273485e-11 6.562436888390114e-09
000130 19 11 00 3f ab 67 42 3e 75 a1 38 48 f4 db 5b be
       8.570475856791185e-09 -2.5945898331004227e-08
000140 1d 25 fb b7 b9 e3 5a 3e 09 c0 33 b1 9b 65 41 be
       2.5042847350333633e-08 -8.101066073577772e-09
000150 1a 60 cd a5 af 07 4e be 5f 2c ae 33 9c 21 02 be
       -1.39838195967814e-08 -5.276899814338982e-10
000160 03 cc 9c 0e f7 2e 42 be f3 5a 58 3a 99 6e 49 be
       -8.467332130237758e-09 -1.1842709766872122e-08
000170 cd 51 65 89 3b c4 1a be ca 7a 22 66 cf 89 05 3e
       -1.5580173033511565e-09 6.268476400011458e-10
000180 9a ce f2 c7 e0 66 31 be 2c da 0b 16 d7 70 42 3e
       -4.051687984403043e-09 8.587158263526012e-09
000190 02 89 b3 1b 1c ce 44 3e 12 50 c7 0a 9e c1 4d 3e
       9.68813728411703e-09 1.385636524349658e-08
0001a0 0a 9e 07 3f a1 31 53 be 00 dd 86 30 11 16 61 3e
       -1.7875681325705008e-08 3.1825527161056765e-08
0001b0 51 ad e4 3b 9a 43 2a 3e 24 35 71 9e c5 49 43 be
       3.0575404145560092e-09 -8.981754852150279e-09
0001c0 8c 25 5f d3 aa 14 23 3e 7f e2 22 c7 ce 73 43 3e
       2.221289509077758e-09 9.058217485432245e-09
0001d0 dd ce fc 98 9a 9d 28 be 22 6e df 4c 45 23 35 3e
       -2.8656376784531276e-09 4.921522035361201e-09
0001e0 7e d6 3b dd e2 5a 21 be f2 25 93 58 07 b9 45 3e
       -2.0203907244008393e-09 1.0115452269554508e-08
0001f0 f6 0a 2e 2c 9d 6f 42 3e 85 83 f2 1f f7 3c 41 be
       8.58492777366534e-09 -8.027137175717884e-09
000200 bc 19 fe 59 fc 97 38 3e 0f 79 4a f2 06 c4 52 3e
       5.726165680405573e-09 1.747694890424421e-08
000210 a8 f8 0d 94 1d f4 21 be 24 b1 56 9e c4 63 40 3e
       -2.0900713663575227e-09 7.632057606417066e-09
000220 2a b9 3f 45 d5 52 12 3e c8 8c 21 f5 29 0e 3a 3e
       1.0665719600876059e-09 6.06647872396302e-09
000230 4a 90 7b 30 46 fa 39 be 7c aa 07 07 ca 31 41 3e
       -6.048389129579701e-09 8.006807856451724e-09
000240 88 b0 c9 c2 25 0d 4d be d1 b1 09 71 88 1a 43 3e
       -1.3528092501431663e-08 8.895827658891007e-09
000250 6a 27 03 67 56 01 35 be 32 3f d5 01 1e d9 4d be
       -4.890659974392533e-09 -1.3899111246190464e-08
000260 f6 6e 34 f8 9d d9 10 3e 97 e9 56 47 98 ef 40 be
       9.808029673320025e-10 -7.88640106939858e-09
000270 0d 6c 13 87 5f cd 44 3e c4 3f cf ea a0 d1 55 3e
       9.686797338589111e-09 2.032039840891102e-08
000280 dd 81 0f 59 cb c0 41 3e 1e 07 23 81 54 7e 48 3e
       8.266932723393497e-09 1.1405664000397535e-08
000290 7c f1 b0 40 56 c8 49 3e 48 6e 61 c7 5f 43 50 3e
       1.2005942925696477e-08 1.5146266872966774e-08
0002a0 37 9d 44 e3 da 9c 40 3e 82 7c 91 14 8a 08 36 be
       7.735898234995761e-09 -5.130040677929577e-09
0002b0 50 da a4 b7 5a 76 44 3e 23 e8 61 80 7b cd 43 3e
       9.528511081379093e-09 9.221334817467685e-09
0002c0 05 28 bf a8 b1 e7 26 3e 14 ca d6 53 7c d6 4f 3e
       2.6664993043233914e-09 1.4825647038891359e-08
0002d0 ce b3 c4 5f 14 fb 56 3e 20 59 9d 89 fa 51 19 be
       2.1402518855427244e-08 -1.4738313125992094e-09
0002e0 44 e8 a0 a4 a5 26 55 be 8a 7b 0c 57 aa ef 39 3e
       -1.969837119134255e-08 6.038740494440088e-09
0002f0 c4 54 7f af 24 14 0e 3e 65 fb 0c d7 f3 dc 4d 3e
       8.754049421074355e-10 1.3906087588408694e-08
000300 d0 a1 83 cb fe 13 10 3e a3 f2 27 6e 94 f3 2c be
       9.358689778491823e-10 -3.3703962825929335e-09
000310 dc f5 15 b7 8e 35 42 3e 50 21 24 0f 75 30 3d 3e
       8.479323662263304e-09 6.796160289273175e-09
000320 b2 d9 db 53 fb 94 43 3e 2c e9 fe b2 15 03 50 be
       9.118560680387592e-09 -1.4912383494477844e-08
000330 f4 6d ed 5c b8 8c 46 be 65 c9 d5 4e 2e 06 32 3e
       -1.0500516815155597e-08 4.196573072866365e-09
000340 97 55 0d b8 b9 2d 34 3e fa 43 d2 29 6f 3f 59 3e
       4.698199940923565e-09 2.3513836756658398e-08
000350 24 46 bf 60 f9 2d 1c 3e 4b 68 4e dc 2a d3 41 3e
       1.6402678130576915e-09 8.300353191056345e-09
000360 b2 2f a3 ce 72 ac 37 be 6a b8 42 4e f7 d8 28 be
       -5.511945769773964e-09 -2.8926324548194273e-09
000370 00 0b 38 c4 1e 8f 51 3e 17 0f 11 9e e3 36 38 3e
       1.635315195585673e-08 5.637856821208938e-09
000380 ff ce ee 31 6c 32 26 be 1d e2 31 2b 4b cc 23 be
       -2.584066640754265e-09 -2.3047931007800814e-09
000390 c7 90 87 a8 ac cf 42 3e f9 43 71 d7 e3 97 37 3e
       8.759660789213555e-09 5.493247959876316e-09
0003a0 ca 01 fe f7 de 84 26 3e dd 5e f3 c6 91 a6 32 be
       2.6215598025195935e-09 -4.342445610742516e-09
0003b0 5c ae e6 6d fa 60 22 3e b6 ea d2 fd ea 52 55 3e
       2.1395763903718363e-09 1.9859427759166487e-08
0003c0 1a 5f b4 c0 a5 53 27 3e 77 df 57 2e cd 15 32 3e
       2.715590868178187e-09 4.210779923952878e-09
0003d0 ae 24 1c fe 04 a6 3c be 69 ed 2a ad c6 01 23 be
       -6.670251880141124e-09 -2.2126987823090436e-09
0003e0 40 3b 73 08 0d d0 2b be 3a 32 33 19 4f de 34 3e
       -3.2378242895850425e-09 4.8588017109716545e-09
0003f0 08 ed 13 14 4e 43 54 be f6 45 83 fa 6b 07 05 3e
       -1.8871305633596267e-08 6.120241995713244e-10
000400 78 41 bf 60 4e 78 ff bd 71 e3 60 0c d2 e6 32 be
       -4.5794798573658e-10 -4.400881608835762e-09
000410 98 1f 57 b2 1c 46 44 be 44 f6 ab 4e 53 d9 23 be
       -9.440758906307407e-09 -2.3107192733665576e-09
000420 95 fa 53 16 ca 61 40 be 96 7e 54 3e 77 7a 49 be
       -7.628458485121679e-09 -1.1864296165788228e-08
000430 2c 61 0f d5 e4 a6 4e be f5 c1 19 d4 ab 4f 37 3e
       -1.4273416811263386e-08 5.427565343005478e-09
000440 3d 1f c6 ea 19 a5 42 3e b8 ed b8 1e 3a b9 33 be
       8.68222057509344e-09 -4.592245233003518e-09
000450 65 45 07 01 66 5a 4f be 30 65 bb d1 32 48 ed bd
       -1.4599933734993426e-08 -2.130547759621931e-10
000460 da 56 35 8d 08 a3 4e be 3c 2b 83 40 a4 eb 25 3e
       -1.426639465474823e-08 2.5518791559901614e-09
000470 f3 52 4b 3e 0a b1 50 be b8 c3 1d b6 ea 53 58 be
       -1.554522900927471e-08 -2.265702948124713e-08
000480 c5 76 61 eb 69 f4 3e 3e 61 f8 6a 70 82 04 2c 3e
       7.207212318348623e-09 3.261679707002394e-09
000490 60 0d d5 ad 42 46 4a 3e 43 4b 37 2b e7 fa 4a be
       1.2234996511268785e-08 -1.2563583374092029e-08
0004a0 e4 53 ee d1 7b 12 25 be 93 ef 2e 93 c0 a9 38 3e
       -2.453127159261545e-09 5.74232421589803e-09
0004b0 89 a8 78 d5 19 b7 2f be 9c dd 31 38 a5 f1 20 3e
       -3.6921396320230396e-09 1.972532749602766e-09
0004c0 cc 85 cb 8f 67 04 23 be d7 dc fa 17 03 1b 42 be
       -2.213894066648086e-09 -8.43103786729394e-09
0004d0 bf 0c 94 ce b4 12 32 be e9 3a 5f ab 04 cf 3a 3e
       -4.207964845713834e-09 6.241878727386472e-09
0004e0 36 c8 27 31 72 5c 2c 3e d4 54 a6 e1 b0 e2 45 3e
       3.3016686131995177e-09 1.0191235456917021e-08
0004f0 74 d9 ad 98 f7 2d 5e 3e 87 b0 b1 a9 34 84 51 3e
       2.810690484129071e-08 1.631344535535927e-08
000500 46 20 e3 22 84 ff 4c be f4 b1 7b 92 ca f9 54 3e
       -1.3503297227246725e-08 1.9535186939378063e-08
000510 4d bd f6 16 75 b2 42 be 23 8e 36 4f 54 54 49 be
       -8.706515257745517e-09 -1.1794926347094734e-08
000520 c3 1d c2 b6 07 9e 52 be 17 75 3b 20 6b 68 22 be
       -1.7338716615703888e-08 -2.1429598112150353e-09
000530 8f a7 eb fe aa 1e 4c 3e 7a fc 6d 47 10 8e 4d be
       1.3094300724839788e-08 -1.3762589496636272e-08
000540 f4 93 b7 c6 89 c2 47 3e 10 90 17 5c 50 6b 43 3e
       1.1064072511421423e-08 9.042767315282695e-09
000550 63 a3 6c 9d de c9 5a be e4 44 38 ce b1 d1 3e 3e
       -2.4948784228782555e-08 7.175635394482421e-09
000560 a1 73 df e4 7a 34 5a be cb 2b 51 d3 8e a0 2e 3e
       -2.4405308267242304e-08 3.5654729399278334e-09
000570 78 ba f2 7a 70 db 44 be 38 ac d4 26 33 48 00 3e
       -9.71238364589227e-09 4.738694555340165e-10
000580 d0 48 cb db 9b cd e3 bd 2e 7f 16 16 72 86 54 be
       -1.4408694888008712e-10 -1.9115561916020935e-08
000590 6c 35 6b 5d d5 12 17 be 9a 64 58 44 9e aa 49 be
       -1.3430584332826397e-09 -1.1951884935781505e-08
0005a0 46 c0 82 42 73 71 4c 3e 50 e2 73 76 07 dc e1 bd
       1.3244880817407555e-08 -1.299448840425821e-10
0005b0 9c ba 47 95 26 3d 55 3e be ea 41 f6 85 3c 42 be
       1.978023907335209e-08 -8.491994392608952e-09
0005c0 f6 e7 af d8 70 e1 35 be d5 c5 57 a4 30 47 53 be
       -5.094480735700252e-09 -1.7954116656885423e-08
0005d0 bb 00 4d c3 67 49 53 3e b8 df 53 79 1b fc 49 3e
       1.7962175930019275e-08 1.2100112726443969e-08
0005e0 32 43 1e b5 03 06 12 3e fa d5 c5 74 b3 94 39 be
       1.0491054314103632e-09 -5.956008863505728e-09
0005f0 80 c6 95 bc 52 b4 1b be 33 45 69 3e 58 45 5b 3e
       -1.6126075911596792e-09 2.5397984072040422e-08
000600 a2 63 d0 ec c3 7f 2b be a9 ca f6 2a cd a7 42 3e
       -3.2013146357008656e-09 8.687132207031152e-09
000610 46 b6 72 e1 65 d8 3f be a1 19 78 3f 23 0f 4d be
       -7.414562761655277e-09 -1.3531712624557686e-08
000620 29 b2 1d 7c ea 38 4e 3e 14 8c 7f 0c ea e9 30 be
       1.407336814074344e-08 -3.938034072423646e-09
000630 14 35 d8 f2 9e 98 31 be 65 19 af 06 c8 94 21 be
       -4.096928835691792e-09 -2.0467183967364053e-09
000640 34 3f 0c 81 52 cb 4b 3e cc ca 5c 65 da 56 48 be
       1.2942695833069157e-08 -1.1333855780628328e-08
000650 82 69 7e 64 79 37 4f 3e 09 35 1f 72 36 e7 45 be
       1.4536406869708402e-08 -1.0199460446278036e-08
000660 cc 38 26 2a 58 a4 45 3e e5 7a 3e 70 0c bb 3d be
       1.0077827743129712e-08 -6.9222083654571876e-09
000670 6c 1d 7b a6 6f 26 4e 3e 38 1c 65 77 1d 22 42 be
       1.4039753539777314e-08 -8.443958182529127e-09
000680 04 2e 7d 3e f0 e2 1e 3e 4d 33 98 f1 d1 a1 16 3e
       1.7978296576771337e-09 1.317362169331776e-09
000690 92 e6 88 b9 1f 11 47 be 76 e1 de 63 cf 63 43 be
       -1.0741357845810657e-08 -9.02911800522787e-09
0006a0 8f c3 99 89 24 95 38 3e f4 f0 fc d7 be 06 0e 3e
       5.723579965541962e-09 8.73881786357756e-10
0006b0 d3 60 d2 0c a6 6c 34 3e d4 47 f6 0c fb 28 40 3e
       4.7554282292776295e-09 7.525123995101121e-09
0006c0 7e 39 3a af 9b 29 3d be b0 77 e0 c0 bc c2 51 3e
       -6.7899310511243505e-09 1.6540934004540058e-08
0006d0 ca e3 0e e9 2b 3e 4e be ac 4e 59 1f d5 85 46 be
       -1.4082927964291872e-08 -1.0487988237574594e-08
0006e0 4e 27 da c8 ed c4 36 be 31 4f b9 5b d7 2e 21 be
       -5.30137990245819e-09 -2.0003614023813053e-09
0006f0 0a 61 ff b3 c5 5d 1c 3e 2a 2f 52 7a 35 6e 4d 3e
       1.651135853034025e-09 1.3704646149055093e-08
000700 5c 66 da 31 c3 14 43 be 09 61 dc d2 b4 c9 59 be
       -8.885331188954859e-09 -2.401686776458998e-08
000710 e4 99 60 0f 34 13 54 3e f8 76 47 6e 79 16 1e 3e
       1.8696312907703804e-08 1.7513399004602493e-09
000720 6d a4 e4 e5 6e 05 58 3e fe 3b 56 6d a9 61 48 be
       2.237150764045814e-08 -1.1353516719460413e-08
000730 63 13 7f f4 63 5a 4b be 8e 88 aa 03 7c 8d 26 be
       -1.2737274027074518e-08 -2.6254767503546422e-09
000740 51 3f 54 2f 37 49 2e 3e 0a 39 80 0b 3c 5e 2b be
       3.5257542394604653e-09 -3.1860666015242508e-09
000750 78 19 75 51 39 c8 45 3e 5e 4c 89 4c 40 6f 4d 3e
       1.0143092184428656e-08 1.3706542027378574e-08
000760 90 4e c7 e8 e6 d3 54 be 20 4d 5b 1a 40 1e f9 bd
       -1.9397346438995295e-08 -3.6551741699045666e-10
000770 ec 3d c8 08 3b bc 34 3e 4d 4e 71 31 b5 ce 58 be
       4.827807608995189e-09 -2.310374033435153e-08
000780 ca 85 5f 03 66 21 32 3e 11 a3 51 76 1a af 4f be
       4.221327334535052e-09 -1.4754011077280761e-08
000790 ea a2 dc a3 80 1c 15 be 9a 55 54 c9 84 51 54 3e
       -1.2288415974429814e-09 1.8923014784534907e-08
0007a0 26 d9 6e 5c 81 66 47 3e 94 1a 3a 12 f7 1b 5a 3e
       1.0896665692899957e-08 2.4316123460708552e-08
0007b0 6e c4 81 53 4e 08 31 be a1 67 ff d2 6f 71 41 3e
       -3.965675170288001e-09 8.122582245630866e-09
0007c0 e0 72 42 6e 4e cb 06 3e f6 fb c0 eb 96 7c 4e be
       6.633975283338543e-10 -1.4196465662859165e-08
0007d0 a9 17 94 a3 d0 b7 32 3e a0 df c2 8c 62 bd 54 3e
       4.358130350746809e-09 1.9315429964429628e-08
0007e0 e0 db 72 83 b3 45 34 be 25 07 bb be 2c e1 3c be
       -4.7200057674649455e-09 -6.724053296527612e-09
0007f0 ab 59 b5 26 19 f2 56 be 3c 46 ea 9a 7d ce 3a be
       -2.136984493297242e-08 -6.241398882655044e-09

mean_hidden.bias f8 [30]
000000 9a 76 ae 91 2d ee be be 4b 77 75 55 af 9d ab 3e
       -1.8435944812775674e-06 8.230196425864227e-07
000010 00 96 36 38 82 b7 a0 3e e1 f4 f0 8d d3 03 ed 3e
       4.982003791078183e-07 1.3835404784607492e-05
000020 6d 20 c6 7a ac 75 a1 be da 3b cf 9e 61 78 a7 3e
       -5.203385078792385e-07 6.994676461316143e-07
000030 d2 b5 cc 65 f2 45 c2 be 2a a2 72 10 77 c0 8a 3e
       -2.178338759503968e-06 1.9931656700568597e-07
000040 d7 5a b6 2b 67 2b e0 be 3a a0 3d 44 d7 f2 86 be
       -7.710238938680152e-06 -1.7098037307793406e-07
000050 4c 2f 04 77 e1 07 77 be 6b 1a d6 06 69 a2 84 3e
       -8.579635646740395e-08 1.537383726263733e-07
000060 98 98 3f f9 99 6e a9 be 8f a8 32 03 b1 24 b3 be
       -7.579337641921707e-07 -1.141031145827343e-06
000070 30 38 52 f1 ab 3f f3 be e2 0e fb ea d2 f7 b6 3e
       -1.835700739554624e-05 1.3690031827476042e-06
000080 c6 aa 6e a4 bd 00 98 3e 6a 0b ec de 65 bd 81 3e
       3.5767098832221693e-07 1.321720754719143e-07
000090 ed 0c 60 a4 3d 5b 04 3f 1a 73 f9 a0 bc 41 ba be
       3.88267695115243e-05 -1.5650263128975885e-06
0000a0 f0 ef 38 8f 75 08 83 3e b4 4e f5 0d 3c 4a c3 3e
       1.4180722694874744e-07 2.299544675269034e-06
0000b0 fb bd 36 e3 c2 94 a0 3e ee 3d c2 2e 90 e4 7b be
       4.941552504324356e-07 -1.0390887056538511e-07
0000c0 36 bc 1c 88 79 5a da 3e 0b 54 c9 92 57 87 a3 be
       6.283144218063041e-06 -5.820000175774685e-07
0000d0 58 b4 cd b6 04 75 ba 3e 8a 8f 3d cb d9 41 bf 3e
       1.5769662368950786e-06 1.8630760622800987e-06
0000e0 05 37 30 0b 5a ca c2 3e 16 92 9d f0 e8 00 c8 be
       2.2399945804944787e-06 -2.8614466644364025e-06

mean_linear.weight f8 [30, 30]
000000 90 5e 98 10 3a 4d 7f 3e 58 23 85 6a 26 c2 33 be
       1.1660779732807056e-07 -4.600360682950202e-09
000010 48 10 d8 52 fe 13 6c 3e 71 c1 02 22 20 c1 9d 3e
       5.2299535684863056e-08 4.433750593431222e-07
000020 2b a6 da 70 cb f5 7d be c3 27 13 eb af 22 66 be
       -1.1161020215901774e-07 -4.1230575739661986e-08
000030 3b de 3a b6 fb 6d 50 3e f6 98 13 f0 00 62 5d be
       1.5301277924148674e-08 -2.736488991386969e-08
000040 6f 4e a4 0d 19 1d 74 3e 57 47 79 b9 b3 b9 4c 3e
       7.492923562542537e-08 1.3376306103700242e-08
000050 16 e0 c6 c1 d5 f5 6f be f8 76 8b 79 72 c8 42 3e
       -5.953068457929609e-08 8.74651444451269e-09
000060 ac 5c ea 08 4b 18 3b be 21 80 2f 78 e1 f2 51 3e
       -6.308521828750032e-09 1.6716078753728427e-08
000070 8c 14 26 1c 47 37 94 be ce da db 38 44 de 35 be
       -3.012408137592635e-07 -5.0915937141294754e-09
000080 9a 08 27 e5 20 08 89 3e 62 01 5e 37 80 c2 71 3e
       1.8650108530969822e-07 6.616029487975985e-08
000090 8e d1 ae 55 b9 c2 88 3e e6 b7 0b 9c 1d a3 55 3e
       1.8448114755060143e-07 2.0151185389548344e-08
0000a0 44 55 8a d1 7f 03 80 be c8 f8 a9 18 8e d9 36 3e
       -1.1931113232515658e-07 5.320139338293344e-09
0000b0 1d 08 70 6a f3 f3 86 3e 96 69 31 bf 18 16 66 be
       1.710126771026771e-07 -4.113896769830842e-08
0000c0 04 c3 b2 03 cd f5 72 be 28 8f 7d 84 ee af 28 3e
       -7.063209832531574e-08 2.8739722025166284e-09
0000d0 cd 67 07 9a 49 c3 a2 be 93 9c f1 0d aa d8 65 be
       -5.591762609017217e-07 -4.0691988217189155e-08
0000e0 8d 13 11 c4 47 6d 84 be 37 12 54 cc ed 93 8d 3e
       -1.5219208829484668e-07 2.203721349085099e-07
0000f0 78 7b 3a 7a f6 82 81 be 36 be 13 70 b6 d0 4b be
       -1.304713893494942e-07 -1.2952500851790592e-08
000100 3c 9c 79 17 59 32 43 be 6c 5d 90 9d 10 99 7a be
       -8.939146963622418e-09 -9.908493527087126e-08
000110 9f 2d d1 68 08 bd 49 3e 8d 0b 0b b2 f7 42 5c be
       1.198538093264152e-08 -2.6320658654996054e-08
000120 22 0c cd fa 10 29 73 3e 3c d8 21 b5 1a 97 36 be
       7.137810937884268e-08 -5.259702744622809e-09
000130 d2 74 98 d3 9a ef 55 3e ae ab 4d 9f cf e5 30 3e
       2.0429451219357716e-08 3.934302207678221e-09
000140 78 bd 65 c6 0e d5 63 3e 40 0b 78 7a 92 0f 54 be
       3.694045673767991e-08 -1.8683102757595197e-08
000150 80 72 c2 c5 2c c6 bd 3d 5f 05 cd c3 48 e7 5d be
       2.707940500304817e-11 -2.7849761818957886e-08
000160 8d da c5 ba d2 bc 7a be 0c 30 77 78 9e f9 4a 3e
       -9.960528641281076e-08 1.2561247832598068e-08
000170 04 f2 d8 32 60 cf 83 be 97 4e 11 44 1b 99 37 3e
       -1.475964607633186e-07 5.494354361307372e-09
000180 1e 25 59 73 42 24 67 3e 11 34 66 3d fe 22 5b 3e
       4.310466154547028e-08 2.527301375949875e-08
000190 40 91 23 a4 5d 17 21 be d3 07 86 97 32 f8 55 3e
       -1.989686000257001e-09 2.0460711765066635e-08
0001a0 8c 67 4e 88 15 e0 76 3e ca 7a 01 d6 eb 05 6c 3e
       8.521723955518368e-08 5.219714682766828e-08
0001b0 52 d1 f1 72 c9 a3 6a 3e d6 cf a6 80 50 e0 23 be
       4.9620480496126465e-08 -2.3138975225573457e-09
0001c0 88 eb 2d 06 0f 17 5f 3e 30 a6 44 38 90 2d 35 be
       2.89548868314879e-08 -4.9308831499583874e-09
0001d0 0a e4 43 bf db 78 7b be a0 ba 44 5c 9a 02 48 be
       -1.0234155906401162e-07 -1.1180605670970475e-08
0001e0 f1 54 02 d2 5e 55 a1 be 7c 91 5a 78 1f 19 4b 3e
       -5.165779022482095e-07 1.26185531011342e-08
0001f0 72 a4 65 4b d6 da 85 be 54 d7 34 a4 3d d7 c5 3e
       -1.628311900412529e-07 2.603624382447909e-06
000200 83 85 05 7e 9b 5f 7a be a4 be 4a 57 2c b4 86 3e
       -9.824881841903743e-08 1.6915650360081866e-07
000210 c2 0e 7a be 8e 69 95 be d9 48 b9 b0 60 03 9b 3e
       -3.190686457060001e-07 4.025279600517065e-07
000220 36 7b c2 67 cd 96 af 3e 88 ad 16 1d 0f 74 4a 3e
       9.414276998137661e-07 1.2318303629593335e-08
000230 c0 73 7a 5d cb ff 6a be 2f a6 7d f2 ec 56 83 3e
       -5.028992305681531e-08 1.4409089854208946e-07
000240 30 65 f6 38 b9 8d 8c 3e 3e 31 25 f6 e0 c6 84 be
       2.1274095416966854e-07 -1.5479974553102355e-07
000250 e5 24 c4 07 fa 36 c4 be e1 4a ab b3 bc 71 b6 3e
       -2.409786303063214e-06 1.3377836711083237e-06
000260 e8 c5 d1 93 d4 ed af be 12 32 98 da ec 1a 6f 3e
       -9.515590943099746e-07 5.7937906316420264e-08
000270 a5 39 24 32 65 67 ea 3e d3 69 94 e4 9c d0 a3 3e
       1.2590354860478345e-05 5.905298589321357e-07
000280 d2 94 de fa 16 55 56 3e 68 73 5c ef 17 75 98 3e
       2.0798651404999497e-08 3.644436071691501e-07
000290 f1 ee 4b c6 36 f2 95 3e 59 9d b7 a5 b6 f1 59 be
       3.270230933131077e-07 -2.4162412832609264e-08
0002a0 21 8d 02 3c 61 30 e1 3e 43 2b db ad 0e d6 92 be
       8.196346130090602e-06 -2.8068067857145784e-07
0002b0 4e f1 c0 6c bc c5 b9 3e d9 50 2e fe 7f 47 a8 3e
       1.536155127559205e-06 7.235794295839802e-07
0002c0 16 86 fa 8b 04 b0 a4 be 37 0d 98 2e 51 ee ba be
       -6.165376120368089e-07 -1.6052082919555902e-06
0002d0 97 33 34 c5 a1 f0 5d be e5 39 2a 92 b8 06 40 be
       -2.788376847217623e-08 -7.46280598887111e-09
0002e0 d1 b9 55 ea 39 73 75 3e 7a c4 8e 2c 56 36 94 be
       7.990785862663032e-08 -3.0118603127754317e-07
0002f0 5f 62 6b f9 6c 13 30 be 24 27 11 97 21 dd 69 3e
       -3.742957852263387e-09 4.817507005172622e-08
000300 c7 0c f8 24 e5 49 48 3e 67 79 d0 9c c0 77 69 3e
       1.1310285290803828e-08 4.743744206496286e-08
000310 38 1b 76 64 50 83 80 be fc 09 d8 fb 0d fa 50 3e
       -1.230310309014339e-07 1.5810854616876832e-08
000320 08 13 94 88 46 4f 66 be ee d7 24 f7 92 a7 42 be
       -4.155499861751182e-08 -8.686718653947429e-09
000330 68 83 53 4f 71 25 54 3e c6 b3 37 e5 7f 9e 57 be
       1.876266693824479e-08 -2.1997037370357457e-08
000340 a4 f4 e0 9f 83 e6 9b 3e b1 3e b2 1a 0e 3a 7a be
       4.1574904219630763e-07 -9.770236057888162e-08
000350 bf c2 b5 ab 54 39 77 3e c3 99 6e 19 01 2c 6b be
       8.651594900710498e-08 -5.061159240949228e-08
000360 07 95 35 25 d3 d0 a6 3e 0a 21 67 1d b3 36 52 be
       6.799614972573402e-07 -1.6962802573841523e-08
000370 05 87 42 f1 68 0e 55 3e e1 95 d2 79 da ab 68 be
       1.9610197091727995e-08 -4.595388179124965e-08
000380 74 d0 56 c5 4c 96 79 3e 43 95 0c cf ae d6 7b be
       9.531940866372285e-08 -1.0370688464637125e-07
000390 ba 8d bb c9 46 9c 9e be 00 b9 2f a2 26 ee ef 3d
       -4.561313262497813e-07 2.3232334206876203e-10
0003a0 96 6c ff d9 3d b1 a2 be 65 87 42 9c c9 9a 27 3e
       -5.570754417720825e-07 2.7479416260514537e-09
0003b0 f1 8a 44 85 09 97 77 be 58 92 5b 3b 5b 26 78 be
       -8.787955724626097e-08 -8.996512587293765e-08
0003c0 ae 80 c6 86 f5 13 6a 3e 11 4e f9 1e d1 4a 74 3e
       4.857399535656015e-08 7.559453484825506e-08
0003d0 11 c6 1b 55 ec 5d 6d 3e 64 ec 21 90 ed 60 68 3e
       5.470009035818302e-08 4.540872745956307e-08
0003e0 1c 0f 49 87 a3 cc 30 3e ff 4a 84 4a 07 c3 51 3e
       3.9114081874151274e-09 1.6541993248340678e-08
0003f0 f3 7a 95 c4 10 aa 65 be 7f eb 69 00 06 a9 56 3e
       -4.035293750081018e-08 2.1104000348035037e-08
000400 54 ea c5 e4 52 4b 7d be 7c d0 44 e7 46 be 40 be
       -1.0912952425570373e-07 -7.796692382511411e-09
000410 79 40 9d dc 09 7b 32 3e 8f 53 4b cf 1c 46 72 be
       4.30285447014879e-09 -6.807549708259669e-08
000420 a0 94 47 5e f5 e5 27 3e 94 c0 a4 b8 2e a2 60 be
       2.782125406994376e-09 -3.098235541938038e-08
000430 37 fc ad d8 43 f2 94 be aa 2f fc 63 a3 11 73 be
       -3.1212490430443806e-07 -7.103718590808545e-08
000440 3a 79 d1 09 13 cd 74 be 0e 3c a6 b9 c3 af 50 3e
       -7.749003079610262e-08 1.554058890736753e-08
000450 88 fd b3 17 dd 25 a6 3e d0 a0 e6 01 02 46 8b be
       6.600590007065807e-07 -2.0320317246675548e-07
000460 d0 9d 92 b3 25 16 66 3e ee 7a bc 69 d7 0d 63 3e
       4.113933589041891e-08 3.549096769098212e-08
000470 f4 38 d1 69 de 0c 71 3e de 8e 35 78 55 3e 54 3e
       6.351720079173513e-08 1.8853220773951753e-08
000480 12 e7 d0 76 23 4b 93 3e 62 e8 5e 86 c2 06 61 3e
       2.874957008600861e-07 3.171415201238907e-08
000490 1d bd dc 47 11 ac 99 3e 3b cd 1b e7 1d 7c 5b 3e
       3.825446767022994e-07 2.5597243830588496e-08
0004a0 b9 1d c0 9a 76 b1 7a 3e af d8 bd 6b 89 f4 63 3e
       9.943997864035959e-08 3.716949722916003e-08
0004b0 a8 ec c9 2d 1c 79 6a be 92 46 3f bf 05 3b ab be
       -4.9309965642759505e-08 -8.115338219155365e-07
0004c0 0b d2 50 42 0e 3b c7 be 4f 15 93 1b 6c 36 e0 be
       -2.7693136126721996e-06 -7.730763956446478e-06
0004d0 1a f7 79 4b 68 21 99 3e 16 f7 c9 71 68 b6 a2 be
       3.7447359655511534e-07 -5.576768874052478e-07
0004e0 9b 8b 5f b4 8f 3e c3 3e f7 96 da 30 88 ea a5 3e
       2.2941088983914707e-06 6.531518878707239e-07
0004f0 66 60 93 8e a4 4b df 3e 2f ba 14 c9 50 cf 84 3e
       7.461423799891373e-06 1.5504528908792545e-07
000500 76 fd 51 62 7e dd a0 be 38 5e f2 36 ad 19 c1 3e
       -5.0262241714498e-07 2.03851453013293e-06
000510 4f d8 75 df a7 28 bf 3e c2 95 f1 a3 18 a3 92 3e
       1.857209893289038e-06 2.7771435279761236e-07
000520 00 30 c6 51 57 d2 d7 be ea 02 1e 19 5f 8d c8 3e
       -5.679522726242253e-06 2.9268541731911452e-06
000530 f0 60 5d 34 d0 0d c8 be 6a b8 4e 09 67 36 64 be
       -2.8674552678236893e-06 -3.764873316519662e-08
000540 77 16 39 c4 d0 77 04 3f 5c 1e ee c5 87 5e d4 3e
       3.9039667651991185e-05 4.856409843940678e-06
000550 34 33 47 79 9b 2b a2 be 0d ec 76 d4 bd 03 a0 be
       -5.415183630896881e-07 -4.77272728830761e-07
000560 4a 8c df 7b 47 cd 85 be b2 a3 7f 71 c5 23 86 3e
       -1.6243660455527582e-07 1.649538539088409e-07
000570 d2 c5 10 2a b3 70 05 3f 92 f1 b0 07 80 86 8c be
       4.08940006838655e-05 -2.1253072532587062e-07
000580 35 51 11 02 9f 03 01 bf 81 82 76 8c ed c7 af 3e
       -3.2451906243709956e-05 9.471466676965591e-07
000590 f5 ba d9 4b 1e 4f db be 33 2d 33 00 34 0e 95 be
       -6.510986336401586e-06 -3.1375111593226673e-07
0005a0 35 b4 71 26 ce 71 7f be 1c d1 6b 32 67 56 5c be
       -1.1714008395372755e-07 -2.6391364783615562e-08
0005b0 6c 29 00 85 39 60 20 3e 94 59 71 52 84 c0 5f 3e
       1.9064030701331783e-09 2.9571372153357095e-08
0005c0 6c 58 a8 2f 80 b5 24 3e 3f af 36 f0 78 22 50 be
       2.410843411415614e-09 -1.5026571110388717e-08
0005d0 f1 ff af 82 a8 6d 69 3e 10 b5 51 cc 79 ca 53 be
       4.736399746713128e-08 -1.843173149213945e-08
0005e0 1b 59 13 83 14 e6 74 3e 09 62 be 53 10 8d 59 be
       7.785391244476489e-08 -2.379625139957061e-08
0005f0 67 9d fd b7 df bd 48 be ca ec c6 5b d5 f2 6a be
       -1.152124950972397e-08 -5.019561963604542e-08
000600 79 a6 ac 1c 3c 42 66 3e 2c 27 c9 b2 90 ed 4b be
       4.146011497168258e-08 -1.3004983389790336e-08
000610 e5 4a f4 1f dc 6d 81 be 0e c1 2a 96 d1 1b 78 be
       -1.2985721296233335e-07 -8.981178249256778e-08
000620 c2 57 99 d8 ce 36 70 3e 7a f8 b4 28 2b af 22 3e
       6.04022060366461e-08 2.1751332450950265e-09
000630 96 4c 35 ed 79 0e ac be 09 92 61 5e 60 81 74 be
       -8.361502871569113e-07 -7.638848095872998e-08
000640 06 79 1b fa 53 b6 4b 3e b0 fb c0 13 db 61 6d 3e
       1.2904507521097492e-08 5.4728703763755654e-08
000650 24 e8 f5 21 1c 25 50 3e 32 95 80 b4 5d 19 34 3e
       1.5036166198832603e-08 4.679683147966137e-09
000660 ce 17 0b ec 80 1a 59 3e 89 bb 45 aa fa c4 51 be
       2.3379483906811992e-08 -1.654908978034846e-08
000670 24 c5 69 f2 07 aa a1 be aa ab 64 b6 82 5e 75 be
       -5.264336991451379e-07 -7.960640644305448e-08
000680 3a 4a 93 8f 6f e7 41 3e 59 59 6e be a4 40 6c 3e
       8.337221123903875e-09 5.2624407768214847e-08
000690 ec a9 9d 9a 8d 38 a9 be 7f db b4 3d b4 c9 81 be
       -7.516417117441315e-07 -1.3253023110347783e-07
0006a0 52 85 2f 03 ee 22 a9 be d7 3c a0 57 17 8d b5 be
       -7.491244161628218e-07 -1.2845478907263738e-06
0006b0 a9 80 b2 5f d5 79 5f be 66 f5 8d 4e fa f3 60 be
       -2.9314227473058213e-08 -3.15774942366038e-08
0006c0 d7 49 e2 03 03 bd 91 3e ba d4 98 71 a2 95 73 3e
       2.643216737787128e-07 7.295798489725857e-08
0006d0 8c aa ab 44 9d 90 9b 3e d4 6c cc 58 13 f4 53 be
       4.107490140641899e-07 -1.8583070682172997e-08
0006e0 9e 98 5a a2 3a 4f 7f be 40 63 4c 77 61 c1 79 be
       -1.1663693352345989e-07 -9.59463174018159e-08
0006f0 82 84 e7 fa 1a c6 9c 3e 4e 0e ef 71 39 9a 73 3e
       4.2876376485200543e-07 7.30247759892082e-08
000700 04 3d 07 af 42 db d6 be 6c a1 b2 30 55 2c b2 3e
       -5.449410977977817e-06 1.0832056343367057e-06
000710 73 60 05 7e 96 74 9f be 1d 9e 81 17 ef e5 7f 3e
       -4.687223036556913e-07 1.1882997863617436e-07
000720 86 a8 de 74 ce c7 f3 3e 74 b9 a5 82 1a 69 5a be
       1.8864149118926375e-05 -2.4596751449355083e-08
000730 be a2 d5 b5 7f 58 85 be 0c ae 50 d9 f3 35 70 be
       -1.5903784859472947e-07 -6.038975748693515e-08
000740 1f 2a 9f 21 cf a0 a0 3e 3d 6c 20 78 1b b3 70 3e
       4.955578021212696e-07 6.221099904705243e-08
000750 c7 d5 54 e9 7a 80 e3 3e f1 90 d2 49 a2 63 62 3e
       9.29921888346675e-06 3.4252545002835714e-08
000760 6c 13 95 a0 16 b0 a2 be e9 f1 97 03 8f b1 74 3e
       -5.569411893132916e-07 7.708962437148137e-08
000770 d7 50 67 ce f9 b5 a1 be 88 1d 23 1a 02 08 69 be
       -5.278242525782724e-07 -4.6624396136914976e-08
000780 68 3b c8 3e c1 43 65 3e 52 f0 f0 f4 f9 37 7d be
       3.960852965414002e-08 -1.0884798239211668e-07
000790 46 61 e2 6a 4d 65 70 be 66 a4 48 47 10 b6 d1 be
       -6.107878888978941e-08 -4.222675773970629e-06
0007a0 b8 f8 da 1b 49 5f 7d 3e c4 31 2b 2c 72 73 75 be
       1.0942000635679908e-07 -7.99110564761403e-08
0007b0 26 7b b6 60 ab 86 75 3e ef 01 22 40 2f 81 6c 3e
       8.01907946074857e-08 5.309400565121547e-08
0007c0 54 b5 fa 6d 33 7c c8 3e 42 1b 25 7f f6 0f 49 be
       2.918858498754626e-06 -1.1670568487857834e-08
0007d0 49 24 ad 1a 5c 52 88 3e ae 68 4c c9 c9 d5 85 be
       1.8121091945936692e-07 -1.6268424887154622e-07
0007e0 28 09 04 7d bd a1 70 be 9c 19 95 f3 28 bc 8d 3e
       -6.195827429239847e-08 2.2154301308249114e-07
0007f0 54 f0 9a 47 df 32 c6 3e b5 91 6d 64 1f 1c a1 be
       2.6462935779053227e-06 -5.099133851658247e-07

mean_linear.bias f8 [30]
000000 a4 8d 21 3e 58 be 96 bf 5b 57 0e c4 cc d7 88 bf
       -0.02221048239915792 -0.012130355580477639
000010 25 a0 37 76 9f 66 b9 3f a2 3c 82 2c f8 86 9d bf
       0.0992221511475014 -0.028835180012319335
000020 63 e2 1a 69 a1 b3 9f bf c8 b6 c1 f7 57 ff bb 3f
       -0.030958673515416268 0.10936498450038379
000030 a3 2e 28 95 52 b9 99 bf 94 9e 22 2c 06 36 b9 3f
       -0.025121012071436365 0.09848059251327818
000040 34 73 43 1a cb 4f ac 3f 4c ef d5 ad b7 43 86 bf
       0.055296275096884534 -0.01087134837393191
000050 36 5f 0e 75 ed 04 9d bf 6c 13 5b 23 4e 48 b1 bf
       -0.028339109677829565 -0.06750954020669803
000060 b4 c3 af e5 c3 ca 8b bf df c9 96 82 34 63 a9 3f
       -0.013570337721803806 0.049584999981920445
000070 b2 82 34 43 08 71 86 bf e3 fe ac 94 12 ee 9c bf
       -0.010957779456078984 -0.02825192482418871
000080 a9 95 ae 61 e9 c9 a0 bf 6c 4b c2 5b 04 3b aa bf
       -0.03279046361357569 -0.05123151416878255
000090 20 67 72 d4 17 6e 9a bf 95 dc 41 ba c3 eb 88 bf
       -0.025810596791962515 -0.012168435212727405
0000a0 16 60 0d 02 8d b4 c0 3f bb b9 22 d9 9a 06 b1 3f
       0.13050997352797883 0.06650703240550275
0000b0 83 87 bf 28 fa c5 b2 bf 16 91 5b 92 d7 27 94 3f
       -0.07333339209392702 0.019683235462154412
0000c0 a3 a7 bc ae d4 4a 8a bf 66 5d 5c 60 3d 25 86 bf
       -0.012838040907428743 -0.010813216689298865
0000d0 8e f3 f5 53 22 76 96 bf cb 67 8a 9f 66 7c a8 3f
       -0.021935020803983067 0.04782410333173422
0000e0 44 4f c2 0b 72 1a 84 bf ca 05 72 3a a2 0a a0 bf
       -0.009816065772873757 -0.031331128725479454
