port_results/Expected/Adam_1/10_1000/30/0_trained_linear.pth (torch, 29815 bytes, 4 tensors)

linear_mean.weight f8 [10, 30]
000000 73 79 82 78 03 00 d8 bf 0f 4b be b2 e5 5f b6 3f
       -0.3750008274891094 0.08740077604151629
000010 ff ae 2e 18 14 d8 c3 3f ce 45 51 3d 12 f2 bb bf
       0.15503169232157885 -0.10916246411331729
000020 14 87 01 9e ac 19 bb 3f 1e 59 c1 89 2a e7 c0 bf
       0.10586050851409495 -0.13205463148433066
000030 2c d5 14 6f 52 94 c3 bf 02 b3 91 8e cb 0d ba 3f
       -0.15296392845054052 0.101772997195166
000040 01 90 d5 9e 5d 6d b9 3f 0b 4e eb e5 2f 05 63 bf
       0.09932503822125228 -0.0023218093404950894
000050 ce 96 b5 6b bc 55 a3 3f e5 39 89 55 70 28 c0 bf
       0.037763488910781726 -0.12623409439625202
000060 65 00 2e da 1b 2b c6 3f 52 1d df 83 e0 16 cd bf
       0.17319057610802982 -0.22726065100708098
000070 45 d1 95 ef 4a 7d d2 3f 91 5f 19 e7 f2 29 b5 bf
       0.2888972606372316 -0.08267133848255372
000080 2b 2a f8 65 f4 41 ca bf 5d 19 a2 a7 e8 95 b2 bf
       -0.2051377771279744 -0.07259992687804613
000090 1c 4e 4f 82 cd 2a 99 3f 3d 36 4a 2f 8f c5 c8 bf
       0.024577342108228803 -0.19352903184010187
0000a0 72 3d 09 7b 1d c2 c4 bf 44 d3 47 2f 87 81 c1 bf
       -0.1621739245187928 -0.13676538284894424
0000b0 9c c9 b2 eb 23 cb c2 bf 04 28 e1 c8 62 1b c9 bf
       -0.14682435044012443 -0.19614825066156538
0000c0 69 4f 70 3b 76 8f b6 bf 50 1e 9e df b2 08 c8 bf
       -0.0881265540231745 -0.18776546400862282
0000d0 a1 47 2f 32 32 c6 c5 bf ac 13 fa 3d 11 50 c4 bf
       -0.17011096430229336 -0.15869346166814802
0000e0 f1 95 74 4d a0 83 be bf 2b ca 35 37 48 5d c0 bf
       -0.11919595614434521 -0.1278467435436864
0000f0 8e 82 cd 9e 3f 51 e4 3f 53 a0 a6 79 ef fd a9 bf
       0.6349180318466823 -0.050765498733483704
000100 9a 16 03 ce f2 30 d0 bf 11 a2 90 45 d1 e0 d6 bf
       -0.2529875766598281 -0.3574717692704619
000110 9f a8 4e 4b 6d a1 81 3f 04 0d a3 8b 2b 5a cf 3f
       0.008608678684897618 0.24493927305420737
000120 4d 1a ea 5e d1 a4 b5 bf a8 c8 d1 49 98 44 db bf
       -0.08454617087600376 -0.42606169899876045
000130 cc 30 70 b5 1a 55 c3 bf ce 66 52 00 eb b0 c8 bf
       -0.15103467807091986 -0.19289910808293204
000140 f0 a4 3d 15 74 b6 d2 3f 33 9f c4 eb b7 64 db bf
       0.29238607477471046 -0.4280223658010868
000150 25 3e 6e 77 43 c3 df 3f 41 48 9c b0 18 d2 ac 3f
       0.496292940741997 0.05629040866746538
000160 fc f5 57 fb 50 76 c2 bf f6 fe 27 7d 4e 12 d0 bf
       -0.14423572800289708 -0.25111734602249614
000170 7b 2b f8 2b ea 84 a4 3f f9 cf 66 b3 f1 2f d5 bf
       0.04007655894027714 -0.33105127830208364
000180 38 35 a5 43 7b 9a d9 3f 89 f7 80 72 0a e2 c6 3f
       0.4000538025473648 0.17877321806912175
000190 e0 07 36 e5 81 3a a1 bf 36 c9 ed 61 b8 12 a7 bf
       -0.03364950106607956 -0.0450646991293006
0001a0 62 2e 61 48 f9 ef 95 bf f3 c3 e1 74 3e 76 bc bf
       -0.02142323974866967 -0.1111792598110382
0001b0 d2 11 b4 76 81 e8 b3 bf 8d ac 23 c5 4b a3 bd bf
       -0.07776650569946433 -0.11577294886562779
0001c0 cf 4c 79 dd 5b 05 a7 bf 0b 4f 31 0a ca 28 a2 3f
       -0.04496275976694052 0.03546744703694856
0001d0 17 97 05 8f 40 1e c5 bf 26 eb e8 6e dc a5 b0 3f
       -0.16498572333801384 0.06503083904037207
0001e0 c1 2b 09 73 92 4d a6 bf 25 14 03 c5 2c 6f d5 bf
       -0.04356057790990731 -0.3349105762429779
0001f0 2a 9a 8a 98 50 ab b2 3f 78 25 e5 49 81 3d b8 3f
       0.07292655681758534 0.09468849233703291
000200 89 8e a2 fc d9 a5 6d 3f 3a 9f fb a8 e7 3e d6 3f
       0.003619123225762359 0.3475894117568604
000210 c2 3a 4d f3 e4 0c d0 bf fc 14 ab 8f c2 11 cc 3f
       -0.25078700790338015 0.21929199233105823
000220 d4 a2 49 58 e5 a9 c6 3f ec 7d c3 53 c9 95 c4 bf
       0.1770598107425686 -0.16082111921330922
000230 aa 20 21 d3 39 af d7 3f ed 2a 6a c7 a7 82 c5 3f
       0.3700699388323395 0.16804978596731904
000240 d5 7e 58 2a 7a 44 c8 bf 6f 06 d8 82 66 6c dc 3f
       -0.18958975856457153 0.4441162374278979
000250 66 4a bd 6b 2d 84 b9 bf 7a 43 75 c9 e3 77 c6 bf
       -0.09967311745030258 -0.175533746116823
000260 0d 6b c3 19 09 4a b4 3f 4c 0f 9c ac 7a 71 c0 bf
       0.07925469283092586 -0.12846311023906265
000270 e5 b9 09 23 44 f6 b3 3f d1 6e fc c5 36 0c d2 3f
       0.07797647338313814 0.28199548086716414
000280 66 74 0e 04 6e e5 ba bf 20 25 6c e5 02 89 b3 bf
       -0.10506332015070682 -0.07630937672742677
000290 d8 59 24 db 66 48 b5 bf 68 19 5d 9c b8 0d 91 bf
       -0.08313601350923905 -0.016653904479676213
0002a0 b1 e0 3f 9d 76 05 b5 bf df 03 d9 6d 5f 77 ad bf
       -0.08211461390590348 -0.05755136695780271
0002b0 87 47 20 54 fc 97 c0 bf 76 f0 7b 20 06 24 92 bf
       -0.12963823421210582 -0.017715545399355347
0002c0 5f 6b 43 4d a4 a7 c2 bf 92 fb 6d ea b1 15 91 bf
       -0.14574102184891566 -0.01668432229370926
0002d0 c4 87 96 b9 7a e9 83 3f 29 e1 f4 00 a3 d5 ba bf
       0.00972267035360009 -0.10482233785012753
0002e0 30 b7 0d 7c ca 93 99 bf 72 08 0f 19 b5 57 ab 3f
       -0.024977840253476546 0.05340352946179018
0002f0 ba c0 6b 59 40 7d 63 3f b6 75 cb 0d c6 eb bb 3f
       0.002379060442187689 0.10906637036119701
000300 17 e5 0e 4d 57 88 9d bf 44 16 e0 3f 02 e5 be 3f
       -0.02884041221452546 0.12068189677673852
000310 ca c5 67 19 42 2a 9a 3f 57 e6 70 5c d0 03 b7 3f
       0.025551827240581727 0.08990194565640174
000320 6e f6 19 4d 05 f7 c4 3f 01 65 c3 a0 3b 28 9d bf
       0.1637884737464676 -0.02847378891678876
000330 b6 69 cc b9 27 9b ad 3f fe fc 21 01 bf ca 93 3f
       0.05782436507270765 0.01932810253537997
000340 78 00 ff a9 b7 ac b7 3f 0f 18 b6 79 bd 98 6c bf
       0.09247920894904549 -0.003490800923546373
000350 a8 72 ec b4 f2 68 a7 bf d2 2d 61 a8 49 7b ba 3f
       -0.045722565255549796 0.10344372139768801
000360 29 79 0d a1 4c 7a a4 3f 55 11 a0 62 47 54 76 3f
       0.03999556985830772 0.005451468323375804
000370 52 87 9a c1 71 9a c3 bf d0 6d 29 ae d0 57 c1 bf
       -0.15315076783468357 -0.13549240592952438
000380 b9 7e be ff 31 f9 c1 bf cf 95 f2 69 47 29 bf bf
       -0.14041733729844966 -0.12172361694918908
000390 44 8a c9 84 34 aa bc bf fa 7b ab 3f 14 3e c3 bf
       -0.11197212449909794 -0.1503320036781302
0003a0 48 38 3f 26 54 f1 c3 bf 37 6d df b1 47 27 c2 bf
       -0.15580226771857242 -0.14182373223489161
0003b0 0a c2 f4 8c 65 9c c1 bf 17 2f 65 48 58 8a c0 bf
       -0.137585347963537 -0.12922194991039568
0003c0 45 81 4e 16 68 fd 8c 3f 2b 56 33 0c 15 28 98 3f
       0.014155209713692893 0.023590401525174592
0003d0 b8 0a 15 37 94 71 92 3f ab e9 8d 8d ea 12 19 3f
       0.018011394369078032 9.56493053205001e-05
0003e0 7d a2 62 70 f7 09 b2 bf b6 f9 9a f0 34 48 91 bf
       -0.07046457761556187 -0.016877009568583033
0003f0 97 9a 55 82 6c 52 9d 3f d2 21 be d0 a7 a1 7a bf
       0.02863473458765017 -0.006501822976027376
000400 8c 04 b7 95 71 e4 a9 bf dc 28 bc e0 d7 ba 89 bf
       -0.050571012044664604 -0.012563406511180757
000410 cc 1a fb df ed 92 b1 3f 53 cd c5 01 60 db 64 3f
       0.06864821165354867 0.0025460124144786405
000420 7c f3 88 5b ab ea b7 bf a5 ed 1e 2f 16 a2 a5 3f
       -0.09342452034702647 0.04225224805073972
000430 ec 59 26 e2 bf b2 96 3f 04 6c ca a6 88 f1 9e 3f
       0.022166250398720708 0.03021825330743512
000440 7b 3e 4e d6 10 28 c3 3f 97 0c d6 ff c3 15 ad 3f
       0.14966021026747342 0.056806683521267214
000450 a0 7a bb 8e 1a e2 97 bf 99 43 67 dc 3f a5 a5 3f
       -0.02332345482033793 0.04227637830229653
000460 b6 5f ac a1 2c 43 c0 bf 4c 5a ab 07 ba 5c c2 bf
       -0.12704999822812874 -0.14345479368667424
000470 a4 8b 89 21 95 89 c0 bf 99 6f d8 31 0e 03 c7 bf
       -0.1291986860042843 -0.17978074487552645
000480 e5 a9 f8 49 bb dd bb bf 0f 09 48 d4 5a 87 c7 bf
       -0.10885210567418076 -0.18381820073415908
000490 5c 75 3b 0e 32 38 c2 bf 51 8a 2d c5 6c 74 c8 bf
       -0.14233995146688982 -0.1910530054838824
0004a0 a2 90 0f b8 f6 78 c7 bf aa 68 6f b7 51 40 c3 bf
       -0.18337902057021888 -0.1504003663711207
0004b0 73 dd e1 83 74 70 d1 bf ca 76 2f 36 bc b5 9f 3f
       -0.27248871688012527 0.030966702277388326
0004c0 b1 04 17 9a 82 c1 bc bf db d3 35 72 89 34 c3 3f
       -0.11232773076973747 0.15004079891846697
0004d0 b5 16 bf ce 2a 3b bf 3f 02 f2 40 8b c9 d7 89 3f
       0.12199657008667482 0.012618612825570533
0004e0 45 fa 91 07 e0 7a c1 3f bd 0a ca b0 76 05 ba 3f
       0.13656235093727012 0.10164586845534536
0004f0 4d a6 74 c2 e1 f4 ab bf 7b c7 01 72 44 52 a8 bf
       -0.05460267542578077 -0.04750265018164065
000500 55 01 56 20 b8 61 a4 3f 14 99 a1 f2 8e f6 84 3f
       0.03980803866125152 0.01023589780761517
000510 38 c2 71 ab 85 e6 b6 3f ba e4 57 ab 8c a3 c7 3f
       0.0894549888196331 0.18467863432286952
000520 24 94 0e c8 a8 f1 93 3f e4 3c 35 3a 0d c7 9f bf
       0.01947654458094318 -0.031032759359104115
000530 25 70 e5 54 29 d4 a6 3f 46 dd 05 77 6b 37 c1 3f
       0.04458741341906628 0.1345037776152173
000540 dd 0f f2 90 44 7c a7 3f 1d f8 78 43 b4 17 ae bf
       0.045869963353680744 -0.05877459834708552
000550 02 e9 3e cd 6d 74 d6 bf 7b c6 3e 1f d0 d0 d4 bf
       -0.3508562569001158 -0.3252449326638282
000560 a0 97 06 1e f1 3f d4 bf 7b 54 a4 52 3d d9 d0 bf
       -0.3164027016849733 -0.2632592494058554
000570 cb 58 c1 7c a0 4b d4 bf a2 22 6a c7 9c 01 d3 bf
       -0.31711589987879724 -0.2969734141739001
000580 47 90 c2 03 87 58 d5 bf 3c f7 1b 79 de c3 d2 bf
       -0.3335282837599646 -0.2932048971850809
000590 59 3c 44 ab 99 79 d7 bf 8a 07 f7 44 2e 9c d1 bf
       -0.36679689145325295 -0.27515751585826165
0005a0 51 c7 4c 93 f8 13 c6 3f 3e 2e 0d 5e 41 d8 99 3f
       0.17248446648005225 0.025239011159369655
0005b0 8e d0 94 fd 29 aa ce 3f 4a de 1f 80 a1 f0 ac bf
       0.23956799394511957 -0.056523367777057645
0005c0 e2 75 1f 48 fb 6b a5 3f 87 28 16 32 35 ad a4 bf
       0.0418394589939728 -0.04038397060783532
0005d0 41 35 e6 08 77 6d c9 3f a9 5a b0 4a 72 f8 c8 3f
       0.1986531060651178 0.19508198401373036
0005e0 4b 14 55 8e 1b 30 c0 3f d1 37 3f 0b 31 b2 5a 3f
       0.12646812867947896 0.0016293982453023834
0005f0 d8 47 94 74 57 3d d2 3f 9d c1 17 9e bf 0f b7 3f
       0.2849939955204923 0.09008405313193753
000600 de c3 06 5f 1a 11 c7 bf 94 bc 7a f2 a9 a1 c3 bf
       -0.18020944251978127 -0.15337108936134725
000610 f6 cd 84 85 e4 69 ab bf ef 29 26 da 69 f5 c6 bf
       -0.05354227189891596 -0.17936442519960802
000620 b2 c1 2c 0b 03 78 c5 3f 9d 09 40 02 f4 40 81 bf
       0.16772497220655463 -0.008424669569653537
000630 c9 69 f2 b0 b7 d8 a4 bf 2f 09 bb bf 9f 0a b3 bf
       -0.04071592364308036 -0.07438085966990536
000640 10 9a 93 9d ae 9d b0 bf 89 d1 8f e3 9c e8 bf bf
       -0.06490603777965753 -0.12464314037044323
000650 2c a8 d8 ea 24 1c bb bf ec c5 5d df 70 31 c0 bf
       -0.10589819654038085 -0.1265088167815941
000660 62 70 e6 e9 98 88 bf bf d9 a9 d4 37 ef 35 b6 bf
       -0.12317805967762888 -0.08676047432951552
000670 cb 6d 15 f6 02 a5 b7 bf ca b8 95 e1 a8 b3 b3 bf
       -0.09236162670042984 -0.0769601393455758
000680 57 03 a6 89 72 fe b4 bf 9b 9b 83 e8 13 1e bb bf
       -0.08200755940016556 -0.10592770029653169
000690 81 c5 e9 c7 a3 96 ce 3f 3a f4 c0 7d 0f 94 da 3f
       0.23897216092477083 0.41528689652097095
0006a0 db dc 5e eb 7c c0 d9 3f 26 9f f6 0d cc 7e d2 3f
       0.4023735331097222 0.2889890800820346
0006b0 5e 16 08 3c 87 54 d3 bf 85 26 33 08 4a ea ce 3f
       -0.3020341955419549 0.2415249385870092
0006c0 be 29 14 3f 95 4d dd 3f c2 c4 cc 0f b8 95 d2 bf
       0.4578602901462111 -0.2903881220145871
0006d0 32 85 de 82 91 6e c2 bf e2 1a 6b 29 f5 31 c1 3f
       -0.14399927988146427 0.1343370868910006
0006e0 e0 ff 92 f4 a5 85 d0 bf f0 66 ca 5c 79 8c d2 3f
       -0.2581572426242911 0.2898238569410827
0006f0 be 52 82 08 54 91 bd bf 77 ac 81 99 12 da c3 bf
       -0.11549878318539705 -0.15509254928051394
000700 4f fc 5c 02 17 d2 c3 bf ce 31 9a 48 9a f3 b7 3f
       -0.15484893432037203 0.09356083176152838
000710 63 02 fb e1 72 fb c3 bf a8 b4 fa 51 6e 31 d1 bf
       -0.15611110719875673 -0.2686420250491417
000720 b9 cf e4 50 9e b0 dc 3f c5 6f 5c bb 80 52 9a bf
       0.4482799329737151 -0.025705348430264303
000730 51 29 2d 66 9d bd a1 3f 34 f5 3d a4 8f 11 9c 3f
       0.03464977142592097 0.027410740279710313
000740 68 e0 9a 6e 36 92 95 bf 58 9d 7b 77 f7 42 a9 3f
       -0.021065569401543277 0.04933904012232898
000750 91 84 57 17 8d a9 a4 bf cd 4d 91 be b1 b3 b6 bf
       -0.04035607252058882 -0.08867941763428817
000760 7c 2a e5 89 61 61 b8 3f d8 90 c0 e9 21 d6 cf 3f
       0.09523591629582911 0.24872230447466026
000770 02 47 f2 aa b5 74 a1 bf a9 e3 aa 2e 86 84 b2 3f
       -0.03409354888675688 0.07233465804428242
000780 36 e4 a2 86 19 a8 cc bf 20 00 93 7a 51 e1 d2 bf
       -0.2238799960521491 -0.295002336217296
000790 68 f7 c3 ec af 0d b3 bf d1 a8 32 98 dc 0e e2 bf
       -0.07442760019691053 -0.5643141720404633
0007a0 be b7 9b fb d6 8b c5 3f 88 f6 6f 87 9d 3d d2 bf
       0.1683300713115709 -0.2850107023840356
0007b0 65 12 7c 7a 68 c3 dd bf b5 55 7e 3d 9d fd c5 3f
       -0.46505176507370144 0.17180219175922465
0007c0 0f df 02 68 9c 95 c8 bf d0 03 38 6f b4 2b 65 bf
       -0.1920657642237917 -0.00258431664565293
0007d0 80 76 12 61 de 72 c7 bf c0 47 af df 2c 22 b0 bf
       -0.18319301357125894 -0.06302147351314513
0007e0 45 c1 f6 f3 0f 6e dc bf fe 9d a2 34 1e d4 c7 bf
       -0.44421767067526147 -0.18616082735137235
0007f0 2c dc ec 55 4e 74 b1 bf 71 3d a7 ae e6 62 d1 3f
       -0.06818093869957015 0.27166144424423694

linear_mean.bias f8 [10]
000000 55 f9 54 b5 b2 f5 cb bf 03 c9 2c 8d f5 cc a7 bf
       -0.21843561033342476 -0.046485589488286315
000010 14 93 74 0f 42 1d b3 bf 31 f1 b4 c2 dd b0 c7 bf
       -0.07466519238785124 -0.18508502967041232
000020 a3 e4 c5 d5 ff 34 c3 bf 9a 97 2e b5 50 31 da bf
       -0.15005491197715512 -0.40925996488146554
000030 85 90 26 3b db b2 ba bf 83 21 90 c2 0a 5f b8 3f
       -0.10429163164241302 0.09520022630761642
000040 59 0c 7d 8c 2e 76 cf 3f 12 9a 4c 5a f0 e1 da bf
       0.24579412326611097 -0.42004021471294195

linear_cov.weight f8 [100, 30]
000000 ac 60 84 91 92 7e c0 bf f0 fd 91 25 b2 38 c1 3f
       -0.12886268716170457 0.13454272112356547
000010 2a fa 45 38 ce 5a 51 bf 85 19 a8 95 1c 51 b2 bf
       -0.0010592473855407605 -0.07155016568876789
000020 73 9c 37 37 36 56 a0 bf 5b b7 d2 ee 7b 76 b9 bf
       -0.03190774368322815 -0.09946417408602086
000030 87 66 67 bc 67 6c a8 3f ad 2d a3 6f 53 e6 a7 3f
       0.04770206618168254 0.046679122331251356
000040 ae 3c 73 2b d7 9a c5 bf 50 34 a6 69 37 7b c0 bf
       -0.1687878572615537 -0.1287602678170594
000050 56 60 1b 64 d3 4f bf bf 77 65 d6 1c 23 15 a8 bf
       -0.12231179422394808 -0.047036263723565
000060 b6 da b1 bd 1e f1 b1 bf c6 7e 81 b9 b1 90 aa bf
       -0.07008545047015499 -0.05188517941928476
000070 70 1e 54 90 c1 36 bb bf ed 6f 47 ec ec 95 b9 bf
       -0.10630426190993503 -0.09994393127948316
000080 12 d0 fe 8f 16 e1 b9 bf f2 85 1c 12 23 a5 99 bf
       -0.10109082236778047 -0.025044010143693236
000090 22 3d 3a 86 09 52 b0 3f b2 61 8a 41 67 95 b5 bf
       0.06375178839720211 -0.08431096410857356
0000a0 47 00 76 5a 77 aa c6 bf e1 73 d2 a8 ab 2c c4 bf
       -0.17707721631086512 -0.1576132368399206
0000b0 11 19 d5 35 21 fd c6 bf 22 31 3e 54 44 8b c1 bf
       -0.17959990623985125 -0.13706258881973904
0000c0 7e da 7c 7c e7 b4 c5 bf d7 ad 49 1b 36 b1 c4 bf
       -0.16958325937749302 -0.16165806133663693
0000d0 ba 3a ba d6 5f 1a c2 bf 62 ce 3d 09 00 62 c0 bf
       -0.14142988190402211 -0.12799072695962638
0000e0 c0 a3 4b a6 b2 81 c8 bf 84 9d a5 89 48 1a c1 bf
       -0.19145806426902645 -0.13361460419694648
0000f0 48 df d0 a1 de d6 83 3f c1 e5 90 48 d0 3a ac bf
       0.009687175095777115 -0.055136212213664056
000100 d4 6e fc 4f 5a 0e 71 bf 32 74 8e 36 45 8d ae 3f
       -0.0041640785055070025 0.05967155734035891
000110 6e 70 b7 e9 bb aa 92 3f 9c 51 8d a4 78 6f a2 bf
       0.018229423656393733 -0.0360067082280324
000120 fa 6e 5e e7 27 53 76 bf 17 d7 3b d5 92 cd 8e 3f
       -0.0054503973714437 0.015040537960412643
000130 59 53 8d 21 88 51 94 3f 8b e9 a1 58 ea b4 97 3f
       0.019842268989424514 0.02315107503862061
000140 e1 4c 04 09 c8 91 9b bf d2 f1 2d d4 0b 6f 43 bf
       -0.02692329936060112 -0.0005930717237415067
000150 13 d2 34 f3 05 61 92 3f 6d 87 2a d1 6a 14 8b bf
       0.01794823929704321 -0.013222536571735078
000160 e6 02 28 03 29 79 6d bf 7d 52 ff 57 fa 31 87 3f
       -0.0035978127500587596 0.011325794039217069
000170 e7 2a 24 66 8c 60 64 3f 54 07 fa 1f 87 4c 81 3f
       0.0024874441306840136 0.008446746505118043
000180 e0 fd ed 07 b6 a9 a8 bf d0 e3 66 80 5e 5d 73 bf
       -0.04816979262158916 -0.004727715632207599
000190 64 a3 0e bd e9 8e a0 3f c6 f7 1b 7e 04 19 9d 3f
       0.03234033997370636 0.028415746876809832
0001a0 ec 7f 33 4e 69 ed a0 3f 67 1e 32 75 f1 7d 98 3f
       0.03306130485157141 0.023917935159742856
0001b0 3b 6f b5 ad 2f 59 9c 3f 61 ce 11 10 38 de 9f 3f
       0.0276839685223955 0.031121135693366834
0001c0 15 fa 29 5d c1 fc 98 3f 6a 6a 03 27 8a 58 98 3f
       0.024401685057904816 0.023775251990495162
0001d0 44 87 13 50 e3 0b a1 3f 2c 2b df bd be 88 95 3f
       0.03329382278913198 0.021029453600742418
0001e0 cd 97 bf 32 5a 8d b5 3f cf 62 93 6b 21 81 b9 bf
       0.08418811549162726 -0.09962662578926572
0001f0 1e b9 a8 98 5e 76 b2 bf cb 8c 32 f2 06 0f c0 3f
       -0.0721186754896945 0.1254585917095937
000200 eb a3 d5 37 c1 5e 94 bf 4e 76 6f 3e f1 0f ae 3f
       -0.019892710717076694 0.058715380546101245
000210 2e 57 e5 e4 70 0b ad 3f a4 02 6c eb 9f cc 80 3f
       0.056727912846936554 0.00820279061508817
000220 25 8c 5c 17 71 25 a8 3f a5 c7 cf 4b 00 79 b2 3f
       0.047160657979724165 0.07215883112783546
000230 17 20 66 09 fd 64 98 3f 9f 2c 39 a4 5d d8 98 3f
       0.023822740267434108 0.02426286997642235
000240 2d 14 6a 00 fb 1d 9f bf 81 df e0 fb 3a f7 b6 3f
       -0.03038780393628231 0.08970993661284689
000250 0b 09 03 f1 68 6b b1 bf 76 b1 55 52 c5 9e 81 3f
       -0.06804519542768987 0.008603612494618256
000260 1a aa 32 1a b8 ee 9a 3f 4a 47 e0 11 df 73 a1 3f
       0.026301266287797366 0.03408715337003672
000270 22 48 69 4d f2 de 9e bf f4 28 92 3e bd 34 77 3f
       -0.030147348379905854 0.005665530429846511
000280 0a a0 97 bd 65 3b a2 3f aa 11 47 28 c7 0a a9 3f
       0.03560941638335187 0.048910354296398964
000290 39 1b 4a 9e 6b 46 a8 3f bd f5 7c d4 68 ea a9 3f
       0.04741226489300349 0.05061652749871424
0002a0 75 ca c5 1c e5 ac 94 3f c1 70 1b af 2b 35 ad 3f
       0.02019079197038783 0.05704628479517871
0002b0 7d 2b ff 58 f2 80 9d 3f 8c 0c 68 8a 53 4d a3 3f
       0.028812205011301984 0.03769932808429485
0002c0 db 82 fa 68 fe a5 a0 3f 14 61 4d 58 b2 e1 a1 3f
       0.03251643210865548 0.03492505386265257
0002d0 1b 40 87 32 6a ea ac bf e2 0a bb 21 22 a9 bf 3f
       -0.056475943248756454 0.12367451976301028
0002e0 19 c6 3b 5a 1d 5d 80 bf 57 b5 95 13 1c 90 c5 bf
       -0.00799010211582911 -0.1684603782299898
0002f0 6b 95 47 de 40 28 a9 bf 1f 49 16 6c 6f c9 a7 bf
       -0.04913523400663674 -0.04645870394155537
000300 f1 03 78 ac 7c 0f a9 bf e8 75 bd b5 0e 2d ae bf
       -0.04894628148395686 -0.05893751114374962
000310 e7 e7 fa f1 b1 21 b2 bf 28 f8 49 bb 16 f5 b4 bf
       -0.07082664640157042 -0.08186475822910266
000320 5d 33 7d 77 db f2 a1 bf be 6a 88 9b eb 26 a1 3f
       -0.03505597909552336 0.033500063644358744
000330 94 2a 1f 55 c2 44 24 bf 24 49 9f 98 ec c7 bc bf
       -0.00015463707182868504 -0.11242560125473183
000340 66 f2 71 9c db 06 94 3f 13 11 bf af 28 b4 a5 3f
       0.019557410644198824 0.0423901285680889
000350 71 a2 8c 08 ea d8 75 bf 87 f9 c4 d6 9d f9 9b bf
       -0.00533381861968306 -0.02731939910267436
000360 be 60 4a 4d ea 3c 99 3f fd df 24 af 04 24 9a 3f
       0.024646435706558327 0.02552802390093233
000370 87 39 79 30 49 e1 67 3f ec e1 28 9b 09 86 11 3f
       0.002915041873882976 6.684716826377946e-05
000380 9e 05 00 13 3b 86 63 bf 36 52 f5 2c 01 c5 86 3f
       -0.0023833421510068417 0.011117943939702984
000390 b1 81 db a4 63 53 9a 3f 95 8c c1 42 10 92 5b bf
       0.02570872968397148 -0.001682773475317122
0003a0 eb 8d c1 b7 d3 b4 9c 3f 2c d1 9d d0 79 54 89 3f
       0.028033550348835517 0.012368156126946937
0003b0 63 03 71 17 5d c5 8f 3f 36 12 0b 31 33 d1 96 3f
       0.015513160016895794 0.02228240954242918
0003c0 8e 8b 89 b7 14 71 a1 3f e8 20 be 2d ee d6 a2 3f
       0.034065863995031184 0.036796038707565704
0003d0 2f 49 72 75 b5 7a b5 bf 55 80 41 45 ed a4 b5 bf
       -0.08390363805145705 -0.08454783383194926
0003e0 a4 52 b8 e6 34 56 b5 bf 15 02 29 05 87 36 b1 3f
       -0.08334665901959198 0.06723827243786958
0003f0 29 08 78 b1 db 01 bd bf 5b ac 75 fa 2c c1 a7 bf
       -0.11330960352646059 -0.04639568860405837
000400 cd 72 80 b5 30 0b 69 bf 50 58 ea b7 b5 d4 9c bf
       -0.00305709374880645 -0.02815517363577441
000410 30 4c c8 2e c4 66 ab 3f 33 ac 9f 03 22 a9 b2 3f
       0.0535184199435651 0.07289326275319823
000420 bf a0 e8 9d 3b ef a5 bf c6 91 e8 09 c1 80 b2 3f
       -0.04284082701298208 0.0722771310034381
000430 36 c2 74 08 21 44 85 3f a0 e0 e3 e8 73 33 a4 3f
       0.010383852072295512 0.03945505350014966
000440 9e 49 71 e0 68 53 a2 3f 5d 77 f0 b2 60 34 a9 bf
       0.03579261531617138 -0.0492277353698529
000450 7c 80 bc 1a 4c 10 ae 3f 76 54 5d eb 22 b8 ad 3f
       0.05871808840152057 0.05804547427275335
000460 f9 29 35 39 a1 d2 8e bf 0d 8e f8 79 bd 26 60 3f
       -0.015050181921329108 0.0019715977394001495
000470 2a a5 ce 14 62 c1 71 bf 19 7f 15 86 fa d1 8d 3f
       -0.004334815149300378 0.014560658661764191
000480 be 9c 79 64 76 d7 67 3f 8b 9a 91 de 51 83 46 3f
       0.0029103576996934713 0.0006870412590956483
000490 0e 44 a8 52 96 6b 82 3f c5 66 fe 73 be c6 77 3f
       0.008994268796444185 0.005804771382736444
0004a0 15 25 a3 e4 6f a3 82 bf c8 7e e5 7c 0b f6 94 3f
       -0.009100793995815462 0.02046983671004801
0004b0 eb 12 c5 f0 75 bc a5 bf 4e 89 36 b3 f1 e7 ad bf
       -0.04245346607289043 -0.05841021835955705
0004c0 de a0 42 af 30 b3 c2 bf 42 1c 57 22 d6 7b b3 3f
       -0.14609345014219505 0.07610834444413775
0004d0 1b e4 81 ad b1 ec c1 bf da bc f7 89 e9 0f 90 3f
       -0.1400358292774236 0.01568570046032112
0004e0 57 01 9d de ec 8b bc bf 68 ac 1b c4 0b ea 88 3f
       -0.11151009020705281 0.012165157243961569
0004f0 5e 51 1c fe a0 2d c3 bf 7c 76 d9 3f 82 e3 ba bf
       -0.14982998283142995 -0.10503400858712014
000500 9b d0 27 19 c7 7f 94 3f f7 ea cf 6f c8 bc a6 3f
       0.020018683348056326 0.044409049653003345
000510 cd d3 51 e5 a4 bf bc bf a9 a3 43 9b 76 1d b4 3f
       -0.1122992572653196 0.07857457438116335
000520 f9 57 9d b5 84 b8 c0 bf 81 a2 49 bf d4 b8 b2 bf
       -0.13063105457212013 -0.07313279790981576
000530 f0 45 95 8a c3 50 98 bf 93 98 4a 2d 15 cb 9a bf
       -0.0237455895742808 -0.026165324105612852
000540 11 43 ca 0e 95 22 b2 3f 2e 6b 24 7d 19 82 a4 bf
       0.07084018336378174 -0.040055080915598715
000550 b1 42 55 11 22 9a b4 bf 0b 0a b8 3c c6 30 b6 bf
       -0.08047688410921229 -0.08668173773188685
000560 e3 1b c5 b9 b1 d5 b6 bf 93 84 43 d8 97 fb a7 bf
       -0.08919821534537635 -0.04684137835443738
000570 e7 a1 7e 8c 69 36 b4 bf 96 14 fe 34 61 53 aa bf
       -0.07895526580853805 -0.05141738674050449
000580 dc 76 de 60 9c da a5 bf 7d 4d 1f a7 52 84 ae bf
       -0.042683493447140924 -0.05960329332415435
000590 bf 6b 6d e5 f3 8c b2 bf fa db c7 4a 80 4a ac bf
       -0.07246326781516553 -0.05525589859819742
0005a0 84 66 0e 1f 0c 42 a2 3f b1 8f e8 b3 f5 45 bb bf
       0.035660151282354696 -0.10653625147148095
0005b0 50 b8 db 4f 17 6f 95 bf 36 a0 7d 61 c6 67 be 3f
       -0.020931591271555583 0.11877097969193148
0005c0 cb fe 69 77 57 9e 97 3f 71 40 06 99 f2 8e 98 bf
       0.0230649630198048 -0.02398280199992126
0005d0 53 22 e5 90 8e 01 a1 3f f7 0c 11 3f d5 59 88 3f
       0.03321500319231476 0.01189009283746721
0005e0 d3 97 57 0b f7 0b a1 3f 98 cc a3 4e 47 06 b2 3f
       0.033294410833874764 0.07040830297391876
0005f0 dd 4e 50 b6 31 7c ac bf cf 7c bd 90 fc 62 a1 3f
       -0.05563502645978045 0.033958332699279496
000600 38 50 d7 d3 c2 a5 85 bf ca 9e 67 96 f4 e8 9a bf
       -0.010570070352436386 -0.026279279403665957
000610 9b c3 c5 44 64 be 72 bf f1 91 ad 3d 21 7b b1 3f
       -0.004576102899918856 0.06828506236849542
000620 30 df b8 0b 94 e4 ab 3f 09 61 bf 90 81 01 a3 3f
       0.05447828906147689 0.03712086574495472
000630 d3 be 99 ea 9a 16 bc bf 67 ff 60 8c b8 15 98 3f
       -0.10971992709687166 0.023520358627365037
000640 d4 5f 2f 77 74 71 b4 3f 2a 74 dc a8 7a 9b b2 3f
       0.07985618505278974 0.07268492338739976
000650 12 12 cf 1b 95 5b b5 3f 5a cb 96 2b 32 dd b2 3f
       0.08342868737151601 0.0736876827639156
000660 a1 11 74 4f 38 96 b0 3f 70 a7 b3 4f 05 e5 b5 3f
       0.06479217471866729 0.08552582927555163
000670 94 6b 91 64 15 47 b1 3f b8 0a 94 57 79 1e b1 3f
       0.06749089913630107 0.06687124622480212
000680 d7 d2 8f 45 e2 85 b4 3f 57 71 96 0e 31 62 ae 3f
       0.08016790579115295 0.05934289267608744
000690 19 46 10 d0 e5 a4 bc 3f 80 03 83 fe 50 6f 70 bf
       0.1118911393134784 -0.004012409575978704
0006a0 92 3c a2 29 88 f2 81 3f 64 4c 68 4f ed 97 b2 bf
       0.008763374109803022 -0.07263072193772896
0006b0 b2 a4 18 6a 49 d9 9e bf e2 9a 19 8d 38 cf b0 3f
       -0.03012575826702308 0.0656619400484533
0006c0 15 54 ae 05 7a 0f b4 bf f2 dd 52 08 0a 8c ac bf
       -0.07836115492530411 -0.05575591422660499
0006d0 e9 6b a2 f1 0a 93 b4 3f 5a 0e 34 48 af 47 a3 3f
       0.08036869429854189 0.037656285823712124
0006e0 a9 02 15 e2 65 b7 b0 3f f0 12 bf 09 34 05 b0 3f
       0.06529843110639412 0.06257939565609738
0006f0 97 0f 6d 79 ac 3b 42 bf ab 9c 54 2f e8 d4 ad 3f
       -0.0005564300689475551 0.05826497628941615
000700 46 09 f9 09 04 56 a8 3f 10 c3 b2 29 da 0f ac 3f
       0.04753124829996351 0.05480844267856899
000710 42 08 84 14 c9 89 b2 3f 78 66 66 00 c3 a6 99 bf
       0.07241493941185786 -0.025050207995809676
000720 fc 26 59 02 78 cd 83 3f b0 e1 44 a4 0f 64 b2 3f
       0.009669244357741295 0.07183931122279463
000730 de ad ff 74 e5 7c 9b 3f d6 1e df a3 1b f2 9c 3f
       0.02684362913707427 0.02826731860821393
000740 82 43 16 7c c1 dd 9f 3f 6b 7e 79 4b c1 d0 a1 3f
       0.03111936874262567 0.034795799697118955
000750 ce 8f d1 8e e2 c6 a0 3f 39 db b4 35 49 cd 9d 3f
       0.03276737206832046 0.029103416350348275
000760 b0 17 2f 63 01 38 a0 3f aa 47 21 05 a5 6e 9f 3f
       0.03167728744260445 0.03069551318942102
000770 28 70 da 55 9a b7 9c 3f 1e 08 54 6f d1 0c a4 3f
       0.02804413937575148 0.03916029438006795
000780 f5 f3 22 55 fc 11 82 bf b2 37 c2 54 7a 42 b2 bf
       -0.008823367450867517 -0.0713268715792015
000790 85 04 39 0c e9 0e ba 3f 97 1f ea 96 8b 20 c0 3f
       0.10179001377493264 0.12599320286630863
0007a0 1a 86 3c 37 49 15 ba 3f 0b ab 3e 91 86 34 b1 bf
       0.10188729857011261 -0.06720772787108957
0007b0 47 69 38 ee b0 f2 bf 3f 99 fe c2 42 0a d2 b1 3f
       0.12479692283560438 0.06961120729374172
0007c0 05 bb 91 73 a3 00 b2 3f bc 95 65 62 35 59 b8 3f
       0.07032224246516357 0.0951112141825296
0007d0 ac 4d 00 ac 37 27 a4 3f 05 3e 4d 81 cf 96 b6 bf
       0.0393617055380234 -0.08823868662624797
0007e0 6c 25 b9 b5 1c 95 ac 3f f3 d8 78 a5 3d 07 ac bf
       0.05582513540555109 -0.05474274296686756
0007f0 fe cd 94 a1 8f fa 8b 3f 24 ae e7 bc 10 22 20 3f
       0.01366150104386232 0.0001230855400103796

linear_cov.bias f8 [100]
000000 39 17 f8 05 75 43 c5 bf 85 c9 a4 93 c8 b6 a4 3f
       -0.16612112800083326 0.040457027457153884
000010 82 92 41 bf f2 3f b2 3f b4 e9 c7 73 7f 06 74 bf
       0.07128827256526374 -0.004889009342600326
000020 59 28 66 21 d2 44 70 3f f4 1f 44 33 ae b8 ac bf
       0.003971882650498492 -0.05609650016600645
000030 a3 91 b9 96 04 c6 ba 3f 45 75 53 89 ab f1 9f 3f
       0.10458401374632458 0.03119533563300549
000040 ca cc a8 77 98 bb 81 3f 1f be ca fd d8 2a 96 bf
       0.008658591415132828 -0.021647825708610676
000050 02 77 04 75 bf 8e a0 bf 55 da 65 74 41 98 b5 3f
       -0.03233907988963659 0.0843544873403997
000060 e4 4d d7 a3 64 59 ce 3f a0 8e db 4c 59 f9 b8 3f
       0.23710306167650608 0.09755476118476247
000070 69 32 ce 73 2a 01 aa 3f 90 cb c5 ab a9 a4 bd bf
       0.050790144573601044 -0.11579380458515076
000080 ba 24 c9 87 e6 55 d1 3f 34 a7 d8 5f db e7 ad 3f
       0.2708679510147466 0.05840955300329967
000090 e9 73 57 7a ea ca c1 bf 57 87 f4 77 5d 6a c5 3f
       -0.1390050027247576 0.16730850560366647
0000a0 6c f4 52 48 bc 91 bd 3f f0 57 08 92 7d 1b a1 bf
       0.11550499692653354 -0.033412860943073386
0000b0 f1 6e e1 b2 18 0c a5 3f 0d ec fa b4 42 0f 9d 3f
       0.041107913814554815 0.028378526970055207
0000c0 1f f1 62 7e 6e 19 90 3f 06 99 57 0a 23 27 88 3f
       0.015722013916034002 0.011793397667997595
0000d0 6b fd d9 a6 11 20 96 3f 69 0e 24 43 8e f2 77 bf
       0.021606708344277175 -0.005846553527820577
0000e0 f7 df 76 7e 15 7c 7f 3f 79 c6 fb 9e 95 12 cf bf
       0.007686695061629215 -0.24275465262285303
0000f0 fc af 32 1c 5c c7 36 3f 61 62 3d 33 31 2d a4 bf
       0.0003475761297504485 -0.039407289032799005
000100 ae 49 c8 a2 13 a4 a8 3f 34 e6 e1 37 90 f7 fe be
       0.048126805897612854 -2.953247484824822e-05
000110 46 cb 58 ce 32 17 a9 3f d4 20 7b 86 e2 2b 97 bf
       0.049005115212273284 -0.022628344972674366
000120 00 ed bb 5f 3a 7a b4 3f 08 d6 09 1e 28 16 a8 3f
       0.07999005162485062 0.047044042269515585
000130 5d 7d aa 08 7a 45 a8 bf c6 17 09 f5 19 69 96 bf
       -0.04740506511483986 -0.021885305004864873
000140 7e cb 30 b4 10 81 74 bf 9b 93 57 ba cd b9 a5 bf
       -0.005005898713579591 -0.04243319415744581
000150 48 eb 8e 5c 31 15 ad 3f a5 da 5d c4 88 f6 93 bf
       0.05680231337415492 -0.0194951410153076
000160 c8 45 e1 48 15 b5 a8 3f 5d 2c 7d fb 78 f1 73 3f
       0.048256554743271673 0.004868958079735722
000170 d0 e0 ce b0 4c a2 a9 3f 87 ee 92 f2 75 4c b6 3f
       0.05006637247373791 0.08710419819083813
000180 84 88 7f 79 8e 74 a1 bf bd 69 8c 2b 12 09 bb 3f
       -0.03409238083965341 0.10560716212459105
000190 92 af ad 7a d3 e7 c3 bf 66 dc 19 f0 d4 1e 6d 3f
       -0.15551227083357994 0.00355474080498257
0001a0 62 10 27 d8 d1 3e 9d 3f ba ca 7e 1c e8 5a b4 bf
       0.028559950654895146 -0.07951212592778747
0001b0 a8 f0 47 2d e9 eb a9 3f d3 6b 93 e0 dc a0 67 bf
       0.05062798192736412 -0.0028843225487497986
0001c0 94 97 cb 0c 31 e5 b2 3f 2a 3a c2 c1 e2 10 b9 3f
       0.07380968630204016 0.09791390638768208
0001d0 b8 51 f0 91 19 11 cd bf bf 71 8e 44 18 4d 8c 3f
       -0.22708434701838853 0.013818921653915404
0001e0 16 97 66 7d 22 52 b8 bf a1 2d ce 4f 0f d3 a6 3f
       -0.09500327645818304 0.044579008571499
0001f0 c9 52 2a ff 8c 54 b6 bf 0a d1 0f fd 66 e1 c4 3f
       -0.08722764234182558 0.16312873226673502
000200 f0 97 d4 b3 b9 45 c0 3f 45 22 bb 31 aa 50 81 3f
       0.12712785034926766 0.008454637186688827
000210 67 d8 9a e5 19 3a a8 3f ed 1e 4c 9d 68 68 b5 3f
       0.04731827667039639 0.08362439956919916
000220 c0 fd cc de fc ea be bf 56 e8 52 fb 3b 4b be 3f
       -0.12077312888594971 0.1183354843696248
000230 73 0c 0b d0 37 bd b1 bf 41 46 b7 dd 90 f5 a0 bf
       -0.0692934878270977 -0.03312351900570976
000240 0a 79 f2 aa 27 cd 94 3f 4b 57 24 66 2b d7 9b bf
       0.020313854035173974 -0.027187994107485108
000250 4d 4a e2 de 7f d6 b9 3f 74 9a 4c 1a f6 6f a5 bf
       0.10092925254347414 -0.04186982222590965
000260 fa 2d 00 6e 91 67 ba 3f 84 5b bd 43 8d ec c4 3f
       0.10314282355846408 0.16346898849107216
000270 02 b6 15 56 4e 28 c4 bf 27 59 e0 81 60 0d a8 3f
       -0.1574800415359477 0.04697705827145376
000280 12 88 9b 7b 58 f2 7e bf 24 cc 92 51 f6 95 98 bf
       -0.007555337558843094 -0.024009560326430215
000290 8f fc 28 8d 2d 3a b5 3f 4b 9a e9 13 3e 42 ba 3f
       0.0829189748410377 0.10257328020234373
0002a0 c7 5f a1 35 e6 d0 9e 3f 71 fd e1 64 b1 2a 98 bf
       0.030093762420022842 -0.02360036066283783
0002b0 37 93 f3 a5 75 31 be 3f ff cc 45 d4 a6 7d 90 3f
       0.11794219304608765 0.016104323106856274
0002c0 db 81 30 fb ce 02 81 3f f3 92 fa da e1 90 a4 3f
       0.008306138077444672 0.04016786382752526
0002d0 9b 50 ab b7 0c c7 91 bf d4 62 62 eb a8 a8 ae 3f
       -0.01736087676074814 0.05988052247375256
0002e0 c6 ab 8f a2 3a 30 c2 3f ee 05 64 15 56 52 c0 3f
       0.1420968335872585 0.12751270336597947
0002f0 bc f4 07 7a bd 6a b2 bf 5f 10 65 d1 12 dd c1 bf
       -0.07194122533106201 -0.13955912803988021
000300 c8 22 26 8a 75 26 cb 3f fc 02 ac de c6 4f a9 bf
       0.21211117978625382 -0.049436773950224805
000310 27 51 6d f1 19 45 c2 bf 47 a9 4e 59 a4 46 bf 3f
       -0.14273380554608048 0.12217166118958743
