port_results/Delage/10_1000/9/2_trained_linear.pth (torch, 17023 bytes, 17 tensors)

radius f8 []
000000 8d ec ad 90 a8 0d de 3f
       0.46958364609572173

shared.weight f8 [10, 30]
000000 93 ac ce ac 58 92 88 be e8 8c 3b e6 7f 88 70 be
       -1.8307317475644104e-07 -6.159097548255472e-08
000010 e2 8e 04 2c 5d 76 55 be 37 12 94 af 85 30 75 3e
       -1.9988379619129427e-08 7.89371873596074e-08
000020 e8 12 d2 9c f3 15 56 be 84 d9 95 76 a0 4e 7e be
       -2.0568956139477345e-08 -1.1290287961992502e-07
000030 1b 46 3b 32 4f f3 5c be 2e 4d 7f 71 5f f8 81 be
       -2.6962186385289714e-08 -1.3388847075347217e-07
000040 46 c8 6e 87 c6 a8 7d be 46 3e 2a bc 03 c9 6c be
       -1.1048942548280559e-07 -5.361663781455891e-08
000050 30 31 f0 16 dd e8 6a 3e 18 d4 76 43 5d 6a 6e be
       5.0123079790936947e-08 -5.665325669303709e-08
000060 b2 6e 45 c8 c2 1a 82 be 3a 0e f5 06 fb a0 64 3e
       -1.3488929452130997e-07 3.842419082436525e-08
000070 aa f2 d6 26 25 a9 4a be 20 b5 19 6f 1c 19 88 be
       -1.2414866658029274e-08 -1.7954476265754415e-07
000080 78 35 d2 8b 40 4e 40 3e d2 83 1b b9 e9 b7 66 be
       7.592920398567192e-09 -4.231633633583256e-08
000090 7c 1c 84 2f 71 b0 81 3e 90 a4 91 ca 31 51 75 be
       1.3179501202212213e-07 -7.94126317080573e-08
0000a0 95 e6 8d 3c 98 44 70 be 28 f9 22 64 bf d3 50 be
       -6.060282865634196e-08 -1.5671494554093353e-08
0000b0 99 d7 9a 0f 65 ae 4b be 18 bb 9a 90 9d 5d 47 be
       -1.2890076994810714e-08 -1.088049518828175e-08
0000c0 80 9e 49 b1 a6 1e 5a be fa bb 75 25 5d 3b 53 be
       -2.432589514753529e-08 -1.7911093356243165e-08
0000d0 39 25 82 10 6e 9f 50 be 21 60 59 4b 21 01 5c 3e
       -1.5481163934593116e-08 2.6081143208962657e-08
0000e0 b0 d8 4d 85 65 85 53 be e3 f3 8a 76 a4 30 43 be
       -1.8180422795226894e-08 -8.936044530527096e-09
0000f0 e4 8d 52 e0 01 67 a2 3e 86 b2 ae b8 d3 fa 9d be
       5.484334343508081e-07 -4.4673372972639984e-07
000100 32 74 89 c8 d7 a8 a2 3e 9e 88 0c bf 29 e9 99 be
       5.560977039510271e-07 -3.861009068452855e-07
000110 fa 53 b2 df f4 8e 42 3e ba 2c 80 b5 cd 4c 60 3e
       8.6419395999458e-09 3.036114176743015e-08
000120 c7 f7 75 e1 e6 4a 97 be de f9 7c f0 f7 53 88 be
       -3.4708657056087236e-07 -1.8125773970120725e-07
000130 69 aa 29 4a 7d f5 a0 3e b2 69 d2 5e 3e 06 87 3e
       5.054158872091046e-07 1.7154506740532106e-07
000140 cc 29 a7 41 00 73 86 3e f4 ba a0 88 38 8d 82 be
       1.6725974279062928e-07 -1.382205179768959e-07
000150 9e d3 2e 1d 71 2e 99 3e 1a e5 80 5c 48 67 7c be
       3.7523230139317267e-07 -1.0581108889151554e-07
000160 82 74 f1 3c 06 c6 4e 3e 0f ff b0 6b aa 99 9b be
       1.4330042845211555e-08 -4.1127587352764284e-07
000170 50 f4 f1 60 53 6f 93 3e 0c 05 a0 d5 4e b4 96 be
       2.896020711641382e-07 -3.3832085011294045e-07
000180 20 59 50 43 c8 ff 66 be 5c 33 22 f4 91 fc 87 3e
       -4.283925428992363e-08 1.787141120129104e-07
000190 26 1b ca d6 50 82 7d 3e d5 27 5a 6d 8e 15 53 be
       1.0992976280143657e-07 -1.777355048427744e-08
0001a0 c2 97 37 c6 5e eb 55 3e b6 27 d7 b3 e6 6d 66 be
       2.0414045910197542e-08 -4.177782962249684e-08
0001b0 6c d2 d2 39 df 49 4e be ef 1d 3d 1a 61 9f 80 be
       -1.4104210960916943e-08 -1.2384783786900133e-07
0001c0 26 48 6e 42 c5 05 77 3e 94 b9 b3 74 77 23 58 3e
       8.57656493448796e-08 2.2480768618995975e-08
0001d0 1e b3 1a 7a c9 3a 62 be f4 61 e6 98 3c 0e 4e 3e
       -3.3955344547675416e-08 1.3995735040348904e-08
0001e0 94 74 9c c5 28 50 6d 3e c1 46 54 27 75 73 40 be
       5.4599944744454936e-08 -7.660596804937154e-09
0001f0 2a 6d b1 79 6b f4 64 be 67 e5 fa 46 19 c7 41 3e
       -3.903129127603399e-08 8.278400381313636e-09
000200 fe 7a 0c 20 d5 37 55 be eb b9 34 46 d6 11 53 3e
       -1.9760891592432534e-08 1.776001957753747e-08
000210 e4 10 4f 7f 8b f0 20 3e 82 cc 19 fd 7a 47 7e be
       1.9720323104269985e-09 -1.1279888603183448e-07
000220 e1 2d e2 a4 54 50 56 3e ec 95 a5 02 c3 a4 63 be
       2.0781337810777542e-08 -3.658905741130912e-08
000230 1c 14 dd c2 75 19 55 3e 4b 99 c3 7d 3c 8e 57 3e
       1.965039702420613e-08 2.1937871839353574e-08
000240 ea ac 50 d6 8c 26 60 3e 38 f4 88 d2 4f 56 49 3e
       3.0082811610114664e-08 1.1798532443679135e-08
000250 17 d8 86 d8 d6 d7 56 be 82 ed 2e ce 0d e7 52 be
       -2.1274315227622618e-08 -1.7604375634101087e-08
000260 34 41 ad 8a 07 a6 69 be b4 10 b8 96 66 9c 2c 3e
       -4.7774152042909376e-08 3.330751832113266e-09
000270 cd 8f e1 7b 2c aa 65 be 04 7e 5e 36 4c fc 10 3e
       -4.0353725237041224e-08 9.886884310178144e-10
000280 cc 30 11 e0 92 22 20 3e c7 78 bd 7b f7 3b 53 be
       1.8783674620378362e-09 -1.7913286617383904e-08
000290 57 4c 6a e7 16 de 51 be e6 70 14 d8 00 67 2f 3e
       -1.6640440548566912e-08 3.655715453131423e-09
0002a0 82 53 5c 12 83 11 28 3e 7b dd 87 64 54 e5 3c be
       2.801931258960064e-09 -6.727832132107415e-09
0002b0 8b ed 05 f7 f6 5f 38 3e 54 15 7e 7a a8 a6 5d 3e
       5.675214840061225e-09 2.7614653369118666e-08
0002c0 44 7c e1 1e f6 23 41 3e 64 3f d6 ea 17 01 48 3e
       7.981655305600088e-09 1.117785982765198e-08
0002d0 89 69 53 37 39 03 9f be 24 1a 42 61 35 22 a5 be
       -4.6212362943072546e-07 -6.298311654586033e-07
0002e0 e0 45 8c 1a ac 3a 8e 3e d1 59 c8 07 bc e1 96 be
       2.2522500599994775e-07 -3.409650231335175e-07
0002f0 16 7f 24 26 b5 b9 83 be 68 41 5b 55 da 5f 8b be
       -1.4696583423237727e-07 -2.0395536164684226e-07
000300 63 79 5d c5 27 0c 96 be 80 65 c7 31 f4 ef 78 3e
       -3.285330810644047e-07 9.289875575000217e-08
000310 45 ef ea 64 fc 6b 67 be f1 f9 81 88 c8 55 9f be
       -4.362653937192301e-08 -4.669292441652218e-07
000320 0a 59 b5 d0 9b eb 96 3e d3 64 2e 87 a2 4a 82 be
       3.415397748692949e-07 -1.3628261149866192e-07
000330 45 b1 cb 9c 6d b5 7f 3e 03 eb 93 ae 71 21 8e be
       1.1812412665694298e-07 -2.2449076845356896e-07
000340 aa 04 c8 f9 8c 5d 77 be 94 d5 14 07 6b 5d 62 3e
       -8.704301852209743e-08 3.420731865337689e-08
000350 5c 2b dd 7c df 50 8e 3e 0b ca c2 8c 2b ac a4 3e
       2.2587113195979518e-07 6.160896872858065e-07
000360 39 56 8a b4 a1 33 71 be 0d 5b a3 0d 30 06 8b 3e
       -6.408127462895278e-08 2.0134576212443104e-07
000370 03 95 8f 8a a4 10 60 3e 38 89 b2 67 ff 63 74 be
       2.9923414253215373e-08 -7.596096367410572e-08
000380 a5 ec 03 50 8a 40 4b 3e 58 04 4c 03 05 e8 0b 3e
       1.2690252848982776e-08 8.121809948485556e-10
000390 c5 29 ff d0 a5 47 60 be a0 d2 e7 3f 7b 94 63 be
       -3.0323628163656647e-08 -3.647060252748942e-08
0003a0 2e af ae cf 07 df 7b 3e f2 58 96 30 3d 8f 78 be
       1.0382835917307721e-07 -9.149136927783956e-08
0003b0 16 92 06 95 bc 64 6d 3e 7c 5b c3 a1 17 3b 3c be
       5.4749664915661644e-08 -6.573002167041746e-09
0003c0 6c ea 51 9d a4 47 9b be 10 ee 4f 74 06 a4 7f 3e
       -4.065015251697297e-07 1.17870880236787e-07
0003d0 30 a9 b2 76 6d 45 52 3e 80 b0 2c 4c cc 2c 86 3e
       1.701638245298865e-08 1.652165676156195e-07
0003e0 0b 7e e1 c3 dc e6 83 3e 4e 56 49 10 97 bc 8c 3e
       1.4828001043946304e-07 2.1410495078487608e-07
0003f0 4a 54 e2 80 eb 52 9a 3e 84 5e 0c b9 ea 6d 89 3e
       3.922567665207476e-07 1.894635173408675e-07
000400 82 2e b8 d3 97 ab 7f be 3c 4e c1 71 05 18 a0 3e
       -1.1798100712378182e-07 4.796336017333758e-07
000410 e8 ea fa 1a 9e d0 81 be b6 f6 70 cc 39 1d 74 be
       -1.3273144138465782e-07 -7.49310969808158e-08
000420 8c 1d 69 e8 a8 4b 6c be 43 fb de df ce 94 7d be
       -5.270456164947558e-08 -1.1019886156283164e-07
000430 ef 53 6a f8 76 01 75 3e 2e ca 3e 7e a5 43 9d 3e
       7.825241086564088e-08 4.360712166875591e-07
000440 c7 49 e5 43 5f ca 91 3e 79 11 dc f8 28 4f 91 3e
       2.65099348602555e-07 2.57927461486355e-07
000450 86 d3 42 ea f4 a4 7d 3e 98 35 91 3a 48 ff 90 be
       1.104338545634498e-07 -2.532779555572731e-07
000460 11 7a 99 f8 3e 4e 69 be 59 1b 5a 87 1b 33 78 3e
       -4.713544317075589e-08 9.015067966621877e-08
000470 e8 99 8e 59 f2 00 46 3e 08 48 01 91 b0 89 48 be
       1.0246270319897886e-08 -1.1426327023583853e-08
000480 0c b2 7d ff 91 30 75 3e 8f 95 7c d6 b2 ce 7b be
       7.893788722479434e-08 -1.0359069834967751e-07
000490 28 70 2c 5c 21 8e 81 be 7f b1 ce 13 b7 80 60 3e
       -1.3079640667150122e-07 3.073884833419925e-08
0004a0 8c b6 4a fe c5 3a 74 be 9b ee 04 cb e9 b0 6c 3e
       -7.536107167013205e-08 5.34412775165267e-08
0004b0 94 cd 15 d1 4c 8a 60 be 3a 32 fd 8a d1 85 a3 3e
       -3.080858780148611e-08 5.818226522596739e-07
0004c0 52 b1 14 a3 fe 04 a0 be 2d a2 c6 aa f4 fa 79 be
       -4.774186150073069e-07 -9.678414398271154e-08
0004d0 bb d4 c5 f6 32 fd 7b 3e 06 18 b9 16 34 7a 89 be
       1.0426736957675537e-07 -1.89821104045428e-07
0004e0 47 cb 16 1f df 24 9c 3e d0 db 58 98 55 4c 63 be
       4.193787211628568e-07 -3.5945663373293976e-08
0004f0 8a 55 e8 d6 14 85 7f be 83 09 4d 14 4a 28 93 3e
       -1.1742058856513254e-07 2.854672128024717e-07
000500 d4 db 03 42 1a 7f 82 be f0 17 0f 37 37 8d 9c be
       -1.3780962238699648e-07 -4.2545234807086186e-07
000510 36 10 cb 90 47 cf 89 3e 88 8c 97 1a 1d 22 7e 3e
       1.9229714389422275e-07 1.1225512843537635e-07
000520 40 e9 1a 69 9a 98 3e be 00 24 4e b6 0d 6c 03 3e
       -7.1237110808186845e-09 5.65257046560777e-10
000530 7a bd 79 9f 8b 52 8e be c2 c3 5e 95 3d 5e 93 3e
       -2.2591980529698016e-07 2.88607585270539e-07
000540 88 a0 83 e7 d8 f7 93 be 68 1c 1e 87 62 e5 95 3e
       -2.9754867326851576e-07 3.262763420487333e-07
000550 b8 95 34 38 1f 17 66 be 1d 98 cb dc ff 09 40 be
       -4.114642762125359e-08 -7.468769513832291e-09
000560 ea a3 42 f4 fb 62 6f 3e 90 2b 20 7b ae 37 53 be
       5.8462204439759095e-08 -1.7897697275651975e-08
000570 98 35 7b 56 3d d2 70 be d8 00 00 d0 21 74 65 be
       -6.266403362460127e-08 -3.996052022614692e-08
000580 bb 4f 0f d7 35 f6 71 be c0 ad dc 27 27 1a 6a be
       -6.691276667410103e-08 -4.861906165021537e-08
000590 24 86 29 69 4c 9b 70 be d8 fb f8 5c 02 b5 20 3e
       -6.186453508632074e-08 1.9449586175820435e-09
0005a0 93 67 1e 08 26 bf 83 be d8 90 bb 08 d8 68 a4 3e
       -1.4712418666407952e-07 6.082518821640528e-07
0005b0 86 e8 61 87 0c 07 87 3e 25 23 d1 49 80 92 a0 be
       1.71568504906385e-07 -4.938921339760016e-07
0005c0 9c 18 23 3e 59 0e 63 3e dc 34 20 8e c8 07 86 be
       3.549465767272933e-08 -1.6413930042960282e-07
0005d0 f1 0b da 14 af 55 70 be 2e a0 a1 37 6a 63 a1 3e
       -6.085150979811987e-08 5.182128994920106e-07
0005e0 95 68 8a cd 60 b6 94 3e b6 13 6f b6 ce cf 9c 3e
       3.086390285928238e-07 4.2932850024781156e-07
0005f0 2e 31 90 be f9 4e 93 be 1c 40 51 9c c7 d7 7f 3e
       -2.877190455337079e-07 1.1862400757620339e-07
000600 ab 1a 37 ad 6d 63 7c be 00 7d 79 d6 ab ca 96 be
       -1.0575500235870964e-07 -3.396225651593486e-07
000610 87 d0 8e 4f 1d c5 85 be 72 4b 68 0e 59 35 a1 be
       -1.621989793844622e-07 -5.128499907545624e-07
000620 6a 1d 4f 91 ac 16 77 be 06 cd e9 ee ba 43 95 be
       -8.60116283327811e-08 -3.1686680205325915e-07
000630 ff 72 1f fd ab 50 83 be 39 bc da 7e 6a 16 94 be
       -1.439088906364676e-07 -2.993280066960176e-07
000640 0a 7e ce f0 56 c9 63 3e a9 4f 6a 05 aa 93 6e 3e
       3.6855196317754435e-08 5.695375253803348e-08
000650 1a 0e 31 b9 b7 e2 71 3e f3 f3 5f 35 4b 15 74 be
       6.662911138191539e-08 -7.48156712970385e-08
000660 88 5b de 3d f7 d9 7b be 32 ab 95 a8 4a dc 7b be
       -1.0375465772507123e-07 -1.0378850325501865e-07
000670 39 37 32 57 f4 94 87 3e 80 5f 0b 4f 14 30 7c 3e
       1.7569849894812034e-07 1.0500777470766075e-07
000680 00 55 4a 1e c6 49 02 be 28 52 dc 67 ab 4b 51 3e
       -5.322560695838327e-10 1.6107768000574374e-08
000690 46 f3 46 5e d1 78 a6 3e 91 51 8b 6d 71 8b a2 3e
       6.697161408147237e-07 5.526751137527223e-07
0006a0 a4 87 ca 40 5e 80 9f 3e 43 47 ba b2 39 65 9b 3e
       4.6940800827777825e-07 4.082234450276888e-07
0006b0 2c 6c 2f 2b 72 f4 61 3e 61 95 70 ec 76 90 87 3e
       3.344354606418735e-08 1.7556782536222364e-07
0006c0 92 7e 1e 56 bf 87 97 be ce 55 89 e1 3e f6 62 3e
       -3.506282465429667e-07 3.5319285444808726e-08
0006d0 e2 33 c1 7c 73 af 95 3e 81 35 74 bc 13 1a 9e 3e
       3.23136984507764e-07 4.485527224797371e-07
0006e0 fb 73 a1 22 1f 7b 65 3e 47 e7 4a 16 8c a6 69 be
       4.0011375838164384e-08 -4.777791920902347e-08
0006f0 af d9 95 a8 2c 44 9b be 64 40 00 06 22 40 70 be
       -4.0629962735159427e-07 -6.053790135873316e-08
000700 91 ff 91 fa 37 cb 87 3e 5c ab b9 91 f7 de 59 3e
       1.7727779536360883e-07 2.4094213831053534e-08
000710 94 f4 ff 69 a3 8f 97 3e e0 6b 5b ab bd 63 6f be
       3.5108755902497687e-07 -5.84677101575076e-08
000720 1c 65 22 29 71 be a3 3e 1f 31 f7 1a 01 38 86 be
       5.884144960332721e-07 -1.6554271329986804e-07
000730 49 11 27 9d 2e 2f 73 3e e8 8e 16 a2 d5 0f 2f be
       7.146710537866585e-08 -3.616075675617323e-09
000740 8f 0a 64 dd eb 34 77 3e 36 cb 44 fd 15 3d 6a be
       8.645178381856103e-08 -4.8873232268845185e-08
000750 0e d6 8b 38 79 95 7c 3e d8 58 a0 8b ce 6e 29 3e
       1.0648325433542882e-07 2.960772152632266e-09
000760 29 06 0b 10 99 9f 8a 3e 65 8e ce ef 38 13 45 3e
       1.9836000577336266e-07 9.813852392039365e-09
000770 44 6d f9 fe 5a 1a 6e 3e 43 2d 81 c7 4f 25 80 3e
       5.607111563658268e-08 1.202952011356992e-07
000780 ac 8e ef cb 66 65 a0 3e 77 c6 8d 84 6c 0d 86 3e
       4.88641852200137e-07 1.6430345997245225e-07
000790 ea dd 53 b2 39 7f 82 3e 0e 4b ae 1e a9 3b 89 be
       1.3781319655574937e-07 -1.8800086762064472e-07
0007a0 1c a9 11 bc d6 ab 7e 3e 02 fe 08 f6 bf 80 8b be
       1.1425929270924821e-07 -2.0491278986295474e-07
0007b0 bd de 43 98 25 b6 8b be 51 44 42 03 eb 55 9f be
       -2.064668472923603e-07 -4.6693708389509585e-07
0007c0 d8 5e 6b aa f5 47 9a be 6b 96 cb 33 9e ac 93 3e
       -3.916187928782264e-07 2.9316975140437757e-07
0007d0 ee 0e 89 03 7e 06 53 3e 97 12 e9 9f f1 9a 8c be
       1.7718747554483997e-08 -2.13125716146596e-07
0007e0 de 35 34 b3 e4 48 84 be 0f 51 1a be b8 8c 92 3e
       -1.5113308791290112e-07 2.764119796186287e-07
0007f0 02 56 e2 ba 7a 02 74 be 2c e6 5c bc c1 f1 a1 be
       -7.454188619340771e-08 -5.347836739895356e-07

shared.bias f8 [10]
000000 b8 25 f6 60 93 11 4c be 58 07 1e ea d0 3f 20 be
       -1.3070486053521153e-08 -1.8916653390745022e-09
000010 ee fc 01 e7 f6 69 3b be 4e 2d b8 54 90 40 60 3e
       -6.382801495782376e-09 3.0272085806908466e-08
000020 68 99 e4 89 10 a5 67 be b6 8d 0b 93 a1 55 52 be
       -4.404184149519772e-08 -1.7075330651935066e-08
000030 5d 89 a4 bc 14 d6 74 be 3c b8 b5 f3 be 95 7f be
       -7.762109458358446e-08 -1.1766308898538523e-07
000040 ff 55 f3 89 dd 2f 51 be b7 09 73 8b 03 95 55 3e
       -1.600661702908129e-08 2.009988328274076e-08

mean_hidden.weight f8 [10, 10]
000000 d5 d9 68 0d 85 49 47 3e bb b7 a3 42 1e c9 6a be
       1.0843941228565852e-08 -4.989210141021186e-08
000010 74 a7 d9 64 d4 ab 4d be 70 3b 2e e1 e3 a0 74 3e
       -1.381673366968626e-08 7.684706586199451e-08
000020 f8 fb 1c 5e 09 7a 77 3e 74 a9 d8 a9 17 71 59 3e
       8.745754301058722e-08 2.36944922486124e-08
000030 df 0f f8 9a 30 de 80 be f6 a7 87 35 43 c9 78 3e
       -1.2567586570044406e-07 9.233572251907832e-08
000040 07 c9 45 ed 36 32 66 3e ad 42 5a 23 6f b4 56 3e
       4.1343552278649685e-08 2.1145512194152832e-08
000050 3d e1 37 5a f7 e4 64 be 1a 14 37 1d 9c 58 79 3e
       -3.891885149912351e-08 9.442170006205297e-08
000060 08 f8 da da 57 09 3a 3e 49 7c a3 03 8c e1 89 3e
       6.062094310634691e-09 1.9282879454901156e-07
000070 47 3c 3f a5 d7 80 80 3e 21 a5 0c e9 b6 18 8d 3e
       1.2295909590376897e-07 2.167861237409395e-07
000080 65 6b de b6 84 d6 8d be e6 5e bf fa d5 15 89 3e
       -2.2231014490118382e-07 1.8690002201339952e-07
000090 f5 d5 6f 1f a2 18 8c be d2 5f 20 62 4c 31 6c 3e
       -2.0933317987330934e-07 5.251275704570425e-08
0000a0 9a 7f 88 15 28 da 77 3e 69 96 b4 c3 7e 73 90 3e
       8.885627290249266e-08 2.4514128301104783e-07
0000b0 d6 b1 81 77 ca 58 60 3e ee a9 0e 4c 4f 02 76 be
       3.0448361110948487e-08 -8.198999791481763e-08
0000c0 1b e8 3c af 74 cc 84 be de 79 01 ab ee bc 92 3e
       -1.5496205884609389e-07 2.79218208559376e-07
0000d0 e4 21 71 ad ec c3 95 be ac a2 c2 88 eb 50 42 be
       -3.2432869318370495e-07 -8.529095895112711e-09
0000e0 b8 d1 c9 b1 82 5a 91 be d2 fd db 4b af 9e 58 3e
       -2.585881462632112e-07 2.2929033552906527e-08
0000f0 e4 4d ec 89 1a 26 55 be d8 0a 42 af a8 f1 6d be
       -1.9696394400085166e-08 -5.5775009417444506e-08
000100 fc 92 98 5d 5e 77 4c 3e b5 de bd 1b 9d 95 7e be
       1.3255646291620926e-08 -1.1393587489953549e-07
000110 2c 76 a5 20 ce 73 81 3e de c7 b2 ca 10 34 6d 3e
       1.3003024463668496e-07 5.439553637502506e-08
000120 3e c7 56 dd 93 37 6d 3e d8 3d 10 aa 24 2d 44 3e
       5.442108956132704e-08 9.395340784907992e-09
000130 fa fc 13 50 0f f0 53 3e a8 46 65 ea 9e 3f 77 be
       1.8568461439443177e-08 -8.660748083047162e-08
000140 39 3a 1b b0 f3 25 8a be 93 dc 5c 37 c4 5c 93 be
       -1.9481964135541803e-07 -2.885217818995229e-07
000150 42 27 c0 7c 57 5d 5f 3e 63 29 f6 97 c0 9c 88 be
       2.9210575111548955e-08 -1.83376027234758e-07
000160 d5 69 fe 82 32 f0 78 be e3 0d 3d 53 13 28 81 3e
       -9.290229807530412e-08 1.2782622038120779e-07
000170 c4 64 92 40 26 c7 93 be 56 89 63 81 f7 67 70 be
       -2.9471408475587607e-07 -6.111756109845919e-08
000180 00 60 7e af 05 96 f7 bd a8 b0 17 44 7c d2 88 3e
       -3.432218255210627e-10 1.849398661291254e-07
000190 52 83 71 91 f5 f3 7e be 68 21 bb bf ef a3 83 be
       -1.1530878328689599e-07 -1.4633221200587454e-07
0001a0 63 c0 94 7f 55 a4 65 3e 4e 0c fb 29 f2 db 8b be
       4.031123519222086e-08 -2.0756694584485325e-07
0001b0 4f 0e 27 be 30 cc 97 3e d7 58 bb ce 87 e5 a1 be
       3.546121531106668e-07 -5.333603474110481e-07
0001c0 82 c0 f3 68 31 e0 a6 3e e0 01 3c ab 08 31 ad be
       6.817505936712042e-07 -8.69975642164895e-07
0001d0 19 63 d9 d7 27 4c 97 3e f1 d1 02 7b b4 d5 8b 3e
       3.4715954897383515e-07 2.073853102628824e-07
0001e0 f6 96 15 b4 db 42 62 be 61 1f dd 0b 35 f0 66 3e
       -3.401407023643607e-08 4.2725930778226845e-08
0001f0 3f 2d 06 96 99 ca 43 be 12 c2 2e 14 62 2e 5a 3e
       -9.216091612755048e-09 2.438312774925282e-08
000200 1e 5f f5 37 2c a7 61 3e 60 45 88 53 6f 8b 54 3e
       3.288130922634942e-08 1.913371258834332e-08
000210 78 11 2f 9b 02 52 58 be 8c 26 79 17 42 73 0d be
       -2.2650093089097173e-08 -8.571144201907015e-10
000220 66 82 ed 0d ac eb 50 be 6d 50 04 54 ef 8c 29 be
       -1.5758531253671824e-08 -2.9744728070661156e-09
000230 19 2c 9d 2d 03 8d 78 3e 37 98 42 2b 96 49 a2 be
       9.145896786887467e-08 -5.450084104199517e-07
000240 ed 28 77 f6 24 2c 58 be ed 0f 5b 02 2e 00 9d 3e
       -2.2512338130635147e-08 4.3214413590294477e-07
000250 1e 0c be ec e6 02 61 3e 24 ed cf d9 9a 16 8b be
       3.16860827290069e-08 -2.0182356488805385e-07
000260 c9 d9 51 95 6a ac 91 3e 7d 84 58 29 21 e7 8a 3e
       2.633556922046848e-07 2.0044185038238088e-07
000270 dd 70 ef 6e 00 18 88 be c9 28 7e 05 23 64 84 3e
       -1.7951247552231027e-07 1.5192597646276777e-07
000280 71 22 c5 b4 ff 75 80 3e e9 00 2e 90 bf aa 70 be
       1.226435081358698e-07 -6.208935947154024e-08
000290 51 2a b5 8c 4e 94 75 3e bb b4 2a 94 00 0e 9c 3e
       8.038924475155017e-08 4.1804755227909516e-07
0002a0 43 5c 3a ab 63 fc 69 be 20 28 13 77 0a 42 63 3e
       -4.840250280890527e-08 3.58707684749805e-08
0002b0 6c 8c 1a f0 2c 23 94 3e 0f ad 2f ba 47 47 93 3e
       3.000707097055734e-07 2.872711155055136e-07
0002c0 a4 72 2c 9e 62 ee 91 3e e5 1e d2 5b d2 70 81 be
       2.671955866994085e-07 -1.2994341417140017e-07
0002d0 42 7e 3c 49 96 ff 72 3e f4 f9 ca 28 9d 86 67 be
       7.077450653010276e-08 -4.3820283489912235e-08
0002e0 8f 36 d1 ed ac 81 6a be 78 86 7d 11 f8 40 87 be
       -4.9372287349273985e-08 -1.7325420098150216e-07
0002f0 4d d4 58 d5 27 4d 70 3e 27 67 fe 08 ee 77 7c be
       6.072740651385843e-08 -1.0605333699981434e-07
000300 2c e8 94 55 99 7d 45 3e de 3e 3c ee 2f e7 82 3e
       1.0007350214659918e-08 1.4083888465924867e-07
000310 57 2c b0 36 a8 23 71 be 90 14 35 a0 af 48 71 be
       -6.384881394442856e-08 -6.438765614177222e-08

mean_hidden.bias f8 [10]
000000 e7 83 30 82 3c ec 5c 3f 53 ce c0 b8 d4 e3 4f bf
       0.0017653075126491337 -0.0009732044868599555
000010 d3 6c c9 62 22 19 5c bf 82 ba 54 8d 50 24 5a 3f
       -0.0017149768638294218 0.0015955721513127023
000020 ea e7 a0 c9 99 a7 48 bf a6 c0 4c d9 2b 01 7b bf
       -0.000752401439292114 -0.006592913898927721
000030 74 8a f4 c3 cd 69 1f 3f 2f 81 6b 47 f3 3e 5e bf
       0.00011983221428527887 -0.0018460632106141563
000040 8a ba 69 86 c9 8b 5d bf 6a 49 01 a8 dd 0a 33 bf
       -0.0018033473985742698 -0.00029056464700718285

mean_linear.weight f8 [10, 10]
000000 0f 9d df 91 6a 33 5f 3f 3a e9 ae 2b 29 c2 3a bf
       0.001904348442161755 -0.0004083014024974966
000010 ff c7 a0 78 fd 94 28 bf 88 e4 3f f8 49 e1 48 3f
       -0.00018754572039508807 0.0007592784099862563
000020 51 49 d0 dc 30 82 35 bf f0 da a6 7d bd dc 60 bf
       -0.00032819455083301247 -0.0020583821289749046
000030 30 3c 34 09 95 9b 21 3f 03 6f 4b 50 74 ed 55 bf
       0.00013433641706980934 -0.0013383518100260068
000040 54 b1 87 e8 26 5d 4b bf 38 9f 8f 13 c7 8e 2a bf
       -0.0008350791914018365 -0.0002026193631359198
000050 98 c0 a3 bb 81 82 04 bf af 2f 50 c1 f3 d3 1b bf
       -3.911932386013831e-05 -0.0001061551595997179
000060 d4 2f 93 5e 35 02 39 3f 28 47 7b 2f d2 10 35 3f
       0.00038160136189157906 0.0003214371822482958
000070 2f 06 87 93 8c 4a 14 bf 14 69 71 f0 15 fc 52 bf
       -7.740481385722844e-05 -0.001158734726934234
000080 90 95 89 9c 38 13 fd 3e 12 5d e1 47 e8 3c 19 bf
       2.7728159496827993e-05 -9.627502183328179e-05
000090 3c 94 ef f0 62 0b 37 bf 84 e3 b8 88 93 16 ea be
       -0.00035163083606299154 -1.2439817758212871e-05
0000a0 16 3d 0d e0 5e 41 5b 3f 8f 5b 4a 64 ae 88 4b bf
       0.0016635347858090003 -0.000840268280245181
0000b0 a3 53 cc dd 95 e9 26 3f 47 df 22 67 a2 c6 59 3f
       0.0001748080675489069 0.0015732370343765777
0000c0 f6 74 62 b3 2e 7b 31 bf bf af b8 ed 7e e4 75 bf
       -0.00026674165872882184 -0.005344863715020353
0000d0 e3 47 cb 67 30 bd 12 3f 0e 33 36 a7 f7 2f 53 bf
       7.148368781464925e-05 -0.0011711042869563845
0000e0 75 3c b6 21 ad 51 4f bf 3b 40 2f 2d d0 8f 33 bf
       -0.0009557814950528336 -0.00029848892625939136
0000f0 54 b4 5f af 22 90 39 3f 58 c7 14 f7 03 28 2e bf
       0.00039006087115362365 -0.00023007439043847932
000100 0f 2b 65 06 87 e9 5c 3f e2 d7 ee 5b 8a 0f 53 3f
       0.0017646616557437966 0.0011633731044020591
000110 fc a2 78 3b 5e 2f 49 bf 80 45 2c f9 2e d5 71 bf
       -0.0007685861700724435 -0.004353698243691695
000120 d0 6a be 43 c3 4b 14 3f 8b 6d cd b9 20 83 41 bf
       7.742289829907744e-05 -0.0005344304841900389
000130 a8 7a 8b 96 82 54 53 bf c5 6b 31 7d 9d 33 25 bf
       -0.00117981674900817 -0.00016175553773475744
000140 cb 42 f3 83 b7 cb 30 3f ce 15 bd f4 bf 4f f2 3e
       0.00025628309590523525 1.7463228956479154e-05
000150 8b c1 bd e4 42 5f 36 bf 49 19 87 72 5f 4b ff be
       -0.0003413713754900841 -2.984468952307279e-05
000160 2e 95 e7 3f e8 af 12 bf ca 27 44 72 64 6b 02 bf
       -7.12857726977336e-05 -3.513241088810811e-05
000170 f9 27 ed 74 ff 66 d5 be 04 b5 d5 b2 1d 19 1e 3f
       -5.102714409963357e-06 0.00011481517568308694
000180 aa 38 ea d6 aa 9f 04 3f cb 39 5d d4 d7 ca e7 3e
       3.933658705533698e-05 1.1345079325456115e-05
000190 3c 50 45 fa 24 8e 63 bf 8f 8e 73 82 e1 8c 44 3f
       -0.0023871156901496254 0.000627145874116457
0001a0 bb 25 f6 8a ce cd 28 3f 21 16 cf 8b 94 cb 5f bf
       0.0001892389895881539 -0.0019406271596705898
0001b0 26 ed 94 00 e1 e4 51 3f 9d 91 8d 59 6b 13 7d 3f
       0.0010921666419808156 0.007098597846241364
0001c0 44 e5 83 61 37 10 28 bf 6e 1f 88 03 4d 2d 5d 3f
       -0.00018358875309569024 0.001780820091996173
0001d0 dc f2 71 32 31 4d 60 3f c4 ca 9f 31 7a 82 2f 3f
       0.0019899330978304496 0.00024039975761488118
0001e0 10 cd 7c 36 c1 95 37 bf 49 74 1c e6 16 5c 30 3f
       -0.0003598782263793546 0.0002496295838783675
0001f0 62 26 c4 27 da 5f 39 bf db fe d3 eb ff 16 43 bf
       -0.00038718296106363657 -0.0005825757613422093
000200 7b ea 02 5a 19 69 10 bf 84 07 0a a3 f1 7e 6a 3f
       -6.26012538330975e-05 0.003234359690680701
000210 b8 c2 1f 01 10 10 d6 be c3 fb e5 2d 7b 2c 39 3f
       -5.2601681250630594e-06 0.0003841210108461135
000220 a2 b6 c6 80 31 ac 43 3f 9e f1 0f 08 72 3c 23 3f
       0.0006003610338233998 0.0001467599104500007
000230 d5 c5 a1 54 a4 af 49 3f fa f6 70 e4 07 1a 29 bf
       0.0007838776011920798 -0.00019151064245364458
000240 c2 5a 7d d8 95 84 50 bf b4 8e 5b c7 fe e0 1e 3f
       -0.0010081733070898412 0.00011779360815072465
000250 24 8a 21 50 a1 3e 01 bf 92 a3 22 8f 27 07 48 bf
       -3.289155758136691e-05 -0.0007332747611786697
000260 9d 33 ef b8 0b 43 11 3f e8 c7 2d f5 9d 7f 41 bf
       6.584891364909283e-05 -0.0005340119626977531
000270 aa 95 51 20 1c d9 38 bf 75 a5 7c a5 95 00 11 bf
       -0.00037915169406795934 -6.485856408446572e-05
000280 fd 7c 23 dc f5 49 3b 3f 01 b8 61 cd 27 a8 3e bf
       0.00041639568747871264 -0.0004677865193859488
000290 3b 01 54 a1 0f f8 32 bf d0 35 36 e7 9e 24 53 3f
       -0.0002894437942160437 0.0011683990277079233
0002a0 c6 7c 23 15 5b a6 22 bf 78 ae 84 ab 2a 8e 52 bf
       -0.00014228689048587632 -0.0011325279902604495
0002b0 90 0f 22 b8 9c c1 fe 3e 56 61 23 20 cd 1f 41 bf
       2.933149108531836e-05 -0.0005225898351240248
0002c0 e2 ca b6 40 64 cc 45 bf 45 e6 92 6c ba 70 11 bf
       -0.0006652345195362309 -6.652963488109575e-05
0002d0 70 c8 7c f2 2a f6 56 bf 0f 7c 78 e2 2a 52 5c 3f
       -0.001401464405671262 0.0017285746379298616
0002e0 1c 44 e8 6d 17 6b 31 3f 0a c0 0f c6 ce b7 5c bf
       0.0002657825661183681 -0.0017528075479695837
0002f0 34 38 31 1b 79 8e 2c 3f 4a 34 6f 9a 70 a8 7e 3f
       0.00021786907527360374 0.007484855514985853
000300 ee e0 de 2c 7b a3 28 bf 14 61 79 12 a7 0d 56 3f
       -0.00018797758678857447 0.001346028477106802
000310 ae 2a c7 45 f4 92 5b 3f b8 4e f7 b7 cf 7d 27 3f
       0.0016829858278579013 0.00017922554614690166

mean_linear.bias f8 [10]
000000 0c 45 43 a1 f9 1b a3 3f cb b3 15 14 76 8a ab 3f
       0.037322808204075825 0.053790750457529755
000010 5f 3d da 09 3f bb 7d 3f e5 93 dd 61 46 31 bc 3f
       0.007258650058829501 0.11012687577529297
000020 66 d5 19 cc 77 ea b4 bf 3e d7 0b 44 5e cc 8a bf
       -0.08170269711430009 -0.013085113956076474
000030 c6 3f 2a ba 21 82 a4 3f 25 a9 30 9d 36 5f 9e 3f
       0.04005532643816383 0.029660085052605773
000040 41 dc a0 63 f8 2c a5 3f 39 00 77 8e 84 d8 9d bf
       0.041358720933594835 -0.029146262355198103

cho_hidden.weight f8 [10, 10]
000000 a8 22 8f 26 df cf 70 3e c6 42 d3 6e d7 f6 87 3e
       6.262957587191366e-08 1.785473879080069e-07
000010 4c 69 7b ef 32 99 71 3e d9 8b 5e f8 1b c6 77 3e
       6.555927345043854e-08 8.856454600121775e-08
000020 ad fc d4 7d f5 66 7b 3e c8 ee 4c 32 28 eb 89 be
       1.020810879896984e-07 -1.931084848918545e-07
000030 a0 1f af 11 55 9c 90 be c9 a6 88 d4 eb 80 83 be
       -2.4751831667309104e-07 -1.453131324308443e-07
000040 aa 70 64 ec e6 b4 70 3e 6a 35 a9 fe 2f 5f 69 be
       6.22371159924793e-08 -4.725870879751196e-08
000050 63 8d 79 ec c1 ae 7b be 18 b4 f5 99 aa 88 97 be
       -1.0312589459600422e-07 -3.5068173961130645e-07
000060 40 37 96 ce d4 10 65 3e 27 d4 56 9f 93 24 8d 3e
       3.923801179381631e-08 2.171313579331867e-07
000070 7c b5 a0 e1 3e 1b 7d be 5e 5a 0a 3f 77 62 78 3e
       -1.0842989475795966e-07 9.083983322010023e-08
000080 77 30 d7 7a f2 55 92 3e dc 55 18 1e 4f b3 44 3e
       2.732236862007149e-07 9.63938701345646e-09
000090 3f 46 3c 39 0d 55 84 be 19 1e 63 44 7c f0 52 3e
       -1.5148694087383368e-07 1.763868719901629e-08
0000a0 e1 d0 cc ca d8 00 5c be 62 81 e9 0e 72 ab 72 3e
       -2.6080112891516807e-08 6.955008633727344e-08
0000b0 80 81 81 6a 54 49 f3 bd 92 6d 2a 7e 60 3c 60 be
       -2.8065470304175e-10 -3.024162233586196e-08
0000c0 89 61 16 1d 4a dc 7b 3e 2a 04 0f 5b e7 d6 70 3e
       1.0378847228041405e-07 6.273190568310156e-08
0000d0 16 5b a3 9e f4 fe 50 3e 4a f9 b1 3f d4 b0 73 be
       1.58286840655835e-08 -7.335371769894519e-08
0000e0 8a da 85 92 35 a6 69 3e 35 b6 13 5d cf a7 6a be
       4.777546031263412e-08 -4.9649752429048345e-08
0000f0 55 40 a7 f1 44 61 57 be c1 98 75 bf 45 c1 82 be
       -2.1774282913018826e-08 -1.3973541943961813e-07
000100 54 71 34 de 1a 4e 2a 3e a8 88 e3 37 09 4b 70 3e
       3.0623163880031824e-09 6.069656241809528e-08
000110 60 16 99 ad a1 df 70 be a4 0e 20 1d 43 bd 71 be
       -6.285891220825183e-08 -6.608406202817627e-08
000120 c0 69 11 b0 3c 00 78 be 58 11 99 84 93 03 58 be
       -8.94104168631715e-08 -2.2364752083499134e-08
000130 ed f5 f3 8e c3 32 6d be ba 64 c3 b5 99 4f 67 be
       -5.438606531271387e-08 -4.342000778515051e-08
000140 40 5a 1e e9 1b e1 f7 bd 57 b1 ff 4c 15 26 82 be
       -3.474900168985757e-10 -1.3521881791991308e-07
000150 d1 b1 2c 8a dd 7a 50 3e 58 4e 7f 68 30 72 8a 3e
       1.534814287743537e-08 1.970384355664164e-07
000160 5d 5d 4d 01 ed 77 85 be 59 55 64 82 ca 64 87 3e
       -1.599524927185873e-07 1.7429675942178915e-07
000170 84 ee 2f 28 81 82 7e 3e a7 02 db 54 11 70 8e be
       1.1365779965793648e-07 -2.2677901727852633e-07
000180 d3 fc 4b ea 3b ec 84 be 66 6e fb 7d b0 09 69 be
       -1.5588692749838386e-07 -4.6636628556990056e-08
000190 44 3c ed ff 6f 3e 66 3e 2e d9 5a 5e 0f 66 81 3e
       4.143248587847879e-08 1.2963020805884025e-07
0001a0 bd ff e9 20 8d 59 59 be ff e2 7d f2 4b 6a 84 3e
       -2.3608850036830248e-08 1.5210525216768686e-07
0001b0 e5 33 1d 15 ca 67 7a be 25 17 ea 5b e4 5d 82 3e
       -9.836788208740745e-08 1.368430683943059e-07
0001c0 1b c7 dc a7 4e 39 86 3e 39 e3 3d 35 a2 09 84 be
       1.6558063358758673e-07 -1.4929198732438404e-07
0001d0 4f 02 9b 58 c6 50 77 be 86 d3 03 15 58 66 67 3e
       -8.685710475420194e-08 4.3585489552516326e-08
0001e0 80 9b 12 cf 38 1f 5e 3e b9 7e 8d 93 e8 d9 61 3e
       2.8053261884191396e-08 3.325046055743407e-08
0001f0 04 a3 5d 3a c6 4c 61 be 77 ab d8 b2 71 3b 74 be
       -3.222357429397345e-08 -7.537083198591395e-08
000200 3a 5e 30 67 eb d4 71 be 06 b8 25 fa 53 60 4a be
       -6.642832221824552e-08 -1.2282413146195693e-08
000210 6b c2 bf 10 df d0 66 3e 4d f2 9e 25 de df 70 3e
       4.249793236755343e-08 6.286234946381802e-08
000220 82 9c 5c 97 c4 32 70 be 15 88 0d 44 5c 99 62 3e
       -6.034341545596858e-08 3.464345655377984e-08
000230 b6 eb ac d0 b3 25 35 be 5a 09 93 7b a6 84 31 3e
       -4.923733652399282e-09 4.078765708159258e-09
000240 9e cd cb 5a 3d a1 38 be b0 a1 0d 5e 95 a5 6b 3e
       -5.734582070261815e-09 5.149619731228943e-08
000250 90 2a a4 92 92 9f 28 3e 55 e3 44 71 ef 2c 44 3e
       2.866532918264181e-09 9.394962620898168e-09
000260 32 b9 59 e1 cd 58 5c be f6 8e b3 31 c0 ad 52 be
       -2.6400099958938778e-08 -1.739590791979274e-08
000270 66 59 72 c0 ce f9 4d 3e d2 66 84 83 bf f1 26 be
       1.3958574752911307e-08 -2.6710713884963843e-09
000280 89 93 64 7c fb 76 2e 3e 0d 7e 47 3b 2a a9 80 be
       3.546566570928307e-09 -1.2413263807043646e-07
000290 99 2f 81 21 9c 77 51 be e2 20 d1 6f 3f 9d 7c 3e
       -1.6267621999723344e-08 1.0659638501151658e-07
0002a0 14 8f 08 9a 06 97 41 3e c6 50 9f 3e c3 fe 84 3e
       8.19095619201774e-09 1.5642618161774202e-07
0002b0 8e 76 47 0b e3 b6 66 3e 8a 3e 52 93 0b 65 71 be
       4.230887054914065e-08 -6.480033650141754e-08
0002c0 45 74 94 76 11 75 57 be 20 c2 00 ad e1 ad 58 3e
       -2.184631090362261e-08 2.2984319170302864e-08
0002d0 27 b0 2b 9e b4 3c 60 be e2 6a 67 32 2a 2e 8d be
       -3.024401331271427e-08 -2.1741041074284635e-07
0002e0 7d 2f b2 cd f2 df 68 3e b3 94 db 86 26 d9 9a 3e
       4.633292302003568e-08 4.000700134356607e-07
0002f0 3c 8c 36 c3 2c 3a 94 be 22 95 ad 78 b2 84 89 be
       -3.0140944603569624e-07 -1.901265103923219e-07
000300 cd 37 1a 6d aa 14 9b 3e 4c d3 6e 04 94 4c 91 3e
       4.03534255879391e-07 2.5777717776601573e-07
000310 f6 fc 25 0d 44 6c 95 be 6a 16 19 3e 15 af 81 be
       -3.1922628553750265e-07 -1.317554554782766e-07

cho_hidden.bias f8 [10]
000000 2f 6d f3 51 40 32 63 3e b6 fc e4 c5 3b 9a 89 3e
       3.5755883803876816e-08 1.90753300219662e-07
000010 9e 3e d1 28 f7 05 5a 3e 92 9d ca 97 ab 8c 7b be
       2.4236089180971294e-08 -1.0262986011954452e-07
000020 86 a4 8e 2e ea de 7d 3e c7 84 6e 2c 25 ef 31 3e
       1.11277255533881e-07 4.175622242859521e-09
000030 4f e7 e2 da 22 87 60 3e c2 a8 26 98 ac 51 62 3e
       3.0785567304996374e-08 3.412187067908385e-08
000040 44 96 2b 2e 23 de 84 be 56 0b ff 13 d6 11 4e 3e
       -1.554766618429067e-07 1.4002282555554877e-08

cho_elements_module.weight f8 [45, 10]
000000 36 dd 9d e5 2b 93 69 be 60 3a cd ae d4 41 84 be
       -4.76369421261343e-08 -1.5092754015529763e-07
000010 ff 55 a4 b6 7c 95 63 3e 2e e3 87 6d c1 fc 54 be
       3.647792008919928e-08 -1.9545970926838088e-08
000020 a3 1b 87 10 c8 e1 72 be 44 15 56 d5 10 56 61 3e
       -7.034077865237031e-08 3.2291178324179935e-08
000030 91 31 fa 01 65 ec 61 be 8c 47 ea 10 f9 6e 2d 3e
       -3.338496434605252e-08 3.426508971804092e-09
000040 eb 0d 8f 88 66 78 4c be 62 2b 40 10 70 7b 6a be
       -1.3257523316900947e-08 -4.932690170219156e-08
000050 60 bd e9 a6 6c d4 7c be e6 4e e4 bf dc 26 77 3e
       -1.0739931053672566e-07 8.624719780399668e-08
000060 88 39 82 3a ac 9b 74 be 73 02 ab 2e 03 2c 70 be
       -7.677114288921824e-08 -6.024510993807433e-08
000070 bf 66 1d 29 22 aa 81 be 30 1e 64 9c d7 bf f8 3d
       -1.3161140493649316e-07 3.601509337209215e-10
000080 70 a3 cf b9 ed e7 53 be 2f 93 d3 2e 89 ab 49 be
       -1.8538880309287165e-08 -1.1953554113943293e-08
000090 06 c0 39 14 49 91 70 3e 15 9e 07 6f be 5c 80 be
       6.171882654406298e-08 -1.2190849175908442e-07
0000a0 c1 b7 3b 31 f9 90 75 be 8c bb 7c 3c 23 51 72 be
       -8.034073700386393e-08 -6.823593345633688e-08
0000b0 3c 39 ee d7 1f be 67 3e 34 f5 48 4a c9 7a 6d be
       4.422417542510724e-08 -5.491009716751444e-08
0000c0 d4 4d 1d e1 4f 33 58 be 43 8b 34 1d e7 19 61 3e
       -2.2538413863818985e-08 3.1853435134593374e-08
0000d0 3f 5c 09 07 a3 ae 57 be 40 cd 74 83 06 b6 e7 bd
       -2.20557442885163e-08 -1.725204993864308e-10
0000e0 1a 3b a8 e1 1e 54 3c be dc 61 c8 8c b6 ef 79 3e
       -6.59576529028971e-09 9.66205419634088e-08
0000f0 9d 43 40 af 2b 1a 79 3e b7 01 2f 91 6a 34 78 3e
       9.35130904380425e-08 9.016972439459979e-08
000100 d1 77 db c4 5e 1d 6b be 14 de c4 99 8e ba 60 3e
       -5.050511529628399e-08 3.115970345846249e-08
000110 c0 b5 aa 8b 75 d2 6a 3e 42 46 b4 e7 51 37 50 be
       4.9960065825120446e-08 -1.5102413969636355e-08
000120 a2 25 5b 57 79 81 37 3e 5e 06 3b f9 a5 d4 67 be
       5.472860711231472e-09 -4.4388058698726186e-08
000130 68 06 d6 79 7b ce 54 be 1c 6b ed 23 0f 1e 77 3e
       -1.937762982495901e-08 8.611909495024675e-08
000140 c8 46 4a 9b ef db 42 3e f6 b4 54 61 88 c6 84 3e
       8.78196435822161e-09 1.5478967500243634e-07
000150 d7 d8 c6 ce d4 50 70 be c1 da d9 b9 70 0c 5e 3e
       -6.078089471211939e-08 2.7984934916680202e-08
000160 bc 7e f9 08 a6 45 79 3e 4d b0 a2 51 6e e0 62 be
       9.414577761259536e-08 -3.5160562643133124e-08
000170 63 97 15 78 c5 99 6a be e2 5a d8 2f b2 fa 4e be
       -4.954760780377279e-08 -1.4425852064157606e-08
000180 1a d3 b5 12 32 be 6b 3e 6a e9 32 b3 48 c2 73 3e
       5.167527413865751e-08 7.360771974138072e-08
000190 6d ef f8 52 89 62 78 be ac db cd 7c c6 56 79 be
       -9.084086082742434e-08 -9.439500488020629e-08
0001a0 6d ad e5 c7 74 cd 64 3e 76 12 6b b9 f9 d9 6d 3e
       3.8747793406865574e-08 5.560268972118481e-08
0001b0 cc b5 b9 bf a5 40 4f be ee a0 67 e4 1b 0d 74 be
       -1.4553092945330533e-08 -7.469656635556973e-08
0001c0 01 b4 f9 19 76 a3 5d 3e 6a 0f 93 2f c4 7a 2e 3e
       2.7603023532185738e-08 3.548287327670804e-09
0001d0 1c 75 12 11 e5 de 17 be f2 e4 cd a1 8e 06 52 3e
       -1.3894566090470026e-09 1.6787661139232284e-08
0001e0 2e 1a 14 af 5a 30 56 3e b4 5d e0 35 bd df 75 be
       2.0665008320015747e-08 -8.148692873276126e-08
0001f0 30 f1 05 c0 b5 15 66 be 24 68 9d ac ec 9b 6d 3e
       -4.1136154041244874e-08 5.51512094454221e-08
000200 9e 53 ba 3a c4 ba 69 3e 91 2c eb a2 d3 b5 6d 3e
       4.792503402216024e-08 5.533967272415827e-08
000210 ab cc f0 ef 1e a7 74 be 65 7d 2e a1 1c 50 5a be
       -7.69377343924622e-08 -2.4505832095878026e-08
000220 0f f9 87 4e 8c 24 32 be a4 a1 08 3a 49 c6 76 3e
       -4.224191864787065e-09 8.484182823702922e-08
000230 b0 39 d5 e2 d0 15 67 be 40 15 3f b6 1d b9 67 3e
       -4.2999570441283496e-08 4.418773505392637e-08
000240 30 21 65 72 c5 3e 42 3e fe 4e 34 3b 20 bd 51 3e
       8.496083458848715e-09 1.652051979685489e-08
000250 43 08 b0 d2 76 52 0f 3e 14 25 42 e3 01 2b 33 3e
       9.115938328634507e-10 4.462897208156989e-09
000260 0b 5a 4d c0 44 f0 52 be 97 4d 67 64 54 27 53 3e
       -1.7637898269815277e-08 1.7838209376482155e-08
000270 2e 8c 5b 21 a1 8a 49 be ef a1 91 6f 17 b0 33 be
       -1.1893697620046987e-08 -4.583936557679374e-09
000280 06 84 fe 4d 65 aa 27 be a2 e1 46 96 86 f0 55 3e
       -2.755039404904472e-09 2.043280157720153e-08
000290 d0 c8 5b af e3 57 64 3e 80 ee bf 2f 52 07 c0 3d
       3.789238249380188e-08 2.9155849582473814e-11
0002a0 7c c5 13 a0 38 4a 32 3e 60 12 5f de ae 83 6e 3e
       4.258455367184723e-09 5.683747499000959e-08
0002b0 3c fb b8 cf 3a 73 47 3e a3 d6 c2 29 17 04 4f 3e
       1.0919811269732392e-08 1.444294044808635e-08
0002c0 66 d4 8b 38 9a 7d 71 3e 00 51 8e 34 f7 08 70 be
       6.515769091968375e-08 -5.973511209143544e-08
0002d0 00 39 00 91 d2 ff 87 3e f5 26 75 44 41 7f 89 3e
       1.7880876912495836e-07 1.899681214368457e-07
0002e0 2a 87 14 ec ee d9 7c be ed 74 1c c2 2b ab 58 3e
       -1.0747947511551002e-07 2.2974458008870832e-08
0002f0 35 77 f5 b6 42 f0 75 be 0e d6 9c eb 07 c3 5f 3e
       -8.172734821317866e-08 2.9580518235574683e-08
000300 b0 c3 ae 93 f0 7d 1c be 01 84 16 6d 2e 77 6e 3e
       -1.6584498902054207e-09 5.674651294284591e-08
000310 3d 85 62 30 d4 01 41 3e d4 98 27 a4 93 27 a2 be
       7.919568567184164e-09 -5.410491399876273e-07
000320 a3 72 6a 0b 63 fd 95 3e c6 16 05 cc 5b 27 a0 be
       3.276734434150545e-07 -4.814191001754131e-07
000330 61 76 30 49 2f 3e 78 3e 40 1b c1 a1 2c a8 2b be
       9.031187379922175e-08 -3.2196905263731788e-09
000340 52 fd 1d 4f 23 06 8b 3e a6 21 07 2d c1 5a 68 3e
       2.0134431327407514e-07 4.5363810155835925e-08
000350 7f e0 6c 6e d2 2b 84 be 7c ea 8b 36 3a d7 66 be
       -1.5028699992272211e-07 -4.254417868516066e-08
000360 a6 01 f5 1f a3 73 5b be 21 4d 22 ab fa 77 94 be
       -2.5566395220725036e-08 -3.050069309420328e-07
000370 81 26 66 1e cb c3 7a be c5 88 6b 60 1c af 7c be
       -9.970671719350955e-08 -1.0685632654717907e-07
000380 59 af ba 66 2e 1b 56 be d7 af 4b 36 19 8b 75 be
       -2.0587981471267175e-08 -8.025524562597127e-08
000390 64 fb 3d 8d 57 54 72 be 9c cc 96 0a ff 14 33 be
       -6.828256299098826e-08 -4.442878212399798e-09
0003a0 f9 16 20 b7 8c 0d 55 be 86 30 60 83 6c 09 66 3e
       -1.9607067476576397e-08 4.104676103186438e-08
0003b0 08 fe 12 0a 6f 30 70 3e de a4 e5 67 da c3 7f be
       6.030944856276504e-08 -1.1833403765694127e-07
0003c0 04 f9 b8 a5 58 0b 7a be da 53 c3 2d 90 3f 8b 3e
       -9.702265784617962e-08 2.0301560866320322e-07
0003d0 e4 77 f0 12 2a ec 45 3e 2c a7 b2 fd ff 1e 6c 3e
       1.0208467486320355e-08 5.237961860891797e-08
0003e0 ae fc 7d 8f db 69 74 3e f2 e4 ce 2a 95 96 68 3e
       7.604623763860215e-08 4.5799116811038424e-08
0003f0 59 5b b1 23 d1 56 82 3e a8 ea f4 8a ee 89 56 3e
       1.3663715656377922e-07 2.0990889635181008e-08
000400 28 f1 a0 13 d6 f6 7c be f2 c4 65 e6 1a de 6b be
       -1.0790006835319049e-07 -5.1907446163294723e-08
000410 9b 71 c2 4a bf 62 8f be 66 30 25 75 3a e8 97 be
       -2.338419212753111e-07 -3.562441765094968e-07
000420 1a 52 77 62 4c 94 71 be f8 2d 77 12 a0 82 74 3e
       -6.548796049134975e-08 7.640665399611838e-08
000430 4d 06 dc 5b f7 99 68 be b9 76 3b b4 91 e2 6b 3e
       -4.582373545719233e-08 5.193992660771144e-08
000440 d2 9c 32 14 f6 f2 83 be f8 2b bd 0e 14 88 77 3e
       -1.4863213424374483e-07 8.766187747676394e-08
000450 fc b4 09 36 66 01 6b 3e 63 dc 0a 2d 5d 6e a2 3e
       5.0301600000625985e-08 5.492898598945312e-07
000460 58 c7 c4 91 13 bb 8b be 03 05 46 7b 37 21 a0 be
       -2.066103171965613e-07 -4.807040939054623e-07
000470 a3 a3 7d a6 d1 64 75 be 63 53 70 a6 cc e8 81 be
       -7.969820503345785e-08 -1.3343522484222542e-07
000480 0b d7 6e e0 35 ff 73 be 16 35 46 6b c2 a9 39 be
       -7.449431658933943e-08 -5.975161411129297e-09
000490 ea fb a9 28 e2 50 31 3e 03 e2 aa 46 fc e4 58 3e
       4.031683995875392e-09 2.3184786017011525e-08
0004a0 16 ec 81 5a 91 2c 5b be 06 27 2e af a5 ae a5 3e
       -2.530784618023966e-08 6.461803806350782e-07
0004b0 6b 83 0c a2 a6 a1 55 be 06 0a f2 b7 b6 33 32 3e
       -2.0145856652269438e-08 4.237984962205752e-09
0004c0 f0 8c db 14 88 f0 55 3e c1 2c 0b df fc 50 31 3e
       2.0432822814698786e-08 4.031778897457145e-09
0004d0 a4 54 14 85 31 39 65 be 80 40 9c 03 62 ea 20 be
       -3.9531685156403874e-08 -1.9692301373605502e-09
0004e0 a7 a8 af dd 1b 39 46 3e cc ee ea 25 5b 21 38 3e
       1.0348428716338209e-08 5.61827259601003e-09
0004f0 e2 38 22 b2 15 75 64 3e 06 da 5f 0f 2b ad 24 3e
       3.810480665818799e-08 2.4070542182676216e-09
000500 1a b0 5b 48 36 d0 63 be bf bc 85 f9 2d 75 51 3e
       -3.690519982481664e-08 1.6258780628631358e-08
000510 f0 53 ee 9b 62 e0 59 3e 9b b3 af a7 86 40 31 be
       2.409937293784516e-08 -4.016806993777576e-09
000520 10 25 9d e9 1b 09 65 be 70 52 5e 26 0f 59 0e 3e
       -3.9181825074879526e-08 8.832397701560257e-10
000530 07 2b 4d e1 6c e5 63 be 72 b3 54 45 80 cd 57 be
       -3.7059546687139044e-08 -2.216802770964938e-08
000540 81 b6 7d 2c 52 27 51 be a6 a6 83 1d 97 8f 24 be
       -1.5975532701776653e-08 -2.39360374239454e-09
000550 6a 65 e0 1a 25 69 77 3e 49 36 d2 00 ae 13 82 be
       8.721173713789275e-08 -1.346832053977302e-07
000560 e0 6b 6b bb a1 32 52 3e 8a 17 25 52 a9 b0 44 3e
       1.6948003634920927e-08 9.634570978381008e-09
000570 a0 45 e1 9d c1 4d fd bd 6e 01 27 58 05 3c 1c 3e
       -4.2642547642271545e-10 1.6434616728357358e-09
000580 7e 84 79 e1 0e 8e 43 3e 8c 51 38 a3 fc 19 6f 3e
       9.105966688313036e-09 5.793107895835029e-08
000590 c0 dd 3e 58 7b 2f 81 3e ba 33 3f 3e 09 2e 89 3e
       1.2804177284911728e-07 1.8760434194881405e-07
0005a0 99 12 d8 6b b5 0c 70 be 89 16 dc 24 f4 55 74 be
       -5.978958036313071e-08 -7.575659674235321e-08
0005b0 d8 cd 23 8f 7d 08 88 3e d2 28 ac b8 23 52 50 be
       1.7906103939140813e-07 -1.5199983087327166e-08
0005c0 3d 49 93 d3 2a 3c 6c be 48 c1 07 b0 7d 43 69 be
       -5.259183883669486e-08 -4.7057190147891446e-08
0005d0 28 21 b2 90 1e b5 57 be b3 9d 75 76 2b 0c 40 3e
       -2.207932773811252e-08 7.472717291052632e-09
0005e0 3b a4 ec 04 8b a5 58 be f0 ed 08 70 ca 16 51 3e
       -2.2953983876105086e-08 1.5915396114056826e-08
0005f0 c4 82 ac 50 fd ec 70 be 37 a4 56 9d 9d d9 31 be
       -6.305329606745465e-08 -4.15604125195761e-09
000600 7c fc 21 70 50 63 63 be 74 08 79 89 96 a0 13 3e
       -3.6112863825183845e-08 1.1424590491442886e-09
000610 4a f0 21 8c 54 36 66 be 2e f6 60 61 92 22 52 be
       -4.137349797567999e-08 -1.6889577812915024e-08
000620 a6 91 b3 0e 1f 41 3a be 6a 56 a3 20 12 e1 55 3e
       -6.1128242287633745e-09 2.0376576905680584e-08
000630 dc ec 77 db ee 5a 68 3e bd 44 06 8d 19 2a 6b 3e
       4.536510849955743e-08 5.0597735448630483e-08
000640 fa 0d 34 b3 13 e0 60 be c7 83 24 40 09 fb 8e 3e
       -3.14326968013188e-08 2.3082353101894693e-07
000650 65 ed 3f 23 18 49 7b 3e 86 21 2c 8b f1 85 41 be
       1.016464999392044e-07 -8.159883745706046e-09
000660 9a 7d 20 1e c1 71 90 3e 4e 75 be 21 aa c0 55 be
       2.4503995466222197e-07 -2.0258683716355276e-08
000670 be 44 c1 89 44 92 7a be 42 af 92 e9 51 e0 59 be
       -9.898602332357846e-08 -2.4099135663312827e-08
000680 44 50 d4 b2 3b a3 49 be d6 c5 1e 8c c5 5e 7d be
       -1.1938451639197094e-08 -1.0941252795331341e-07
000690 80 4e b9 83 69 ea 5d 3e 81 97 6b ed 11 3e 63 3e
       2.7861141156596218e-08 3.584187673547407e-08
0006a0 58 c6 cf f4 b3 0c 5f be 19 cd 3b a7 46 c1 58 3e
       -2.891721289153383e-08 2.3054875743699815e-08
0006b0 25 ed ec 78 36 1d 40 3e 25 9b 18 c3 2c 95 59 3e
       7.503718339060648e-09 2.382575931526117e-08
0006c0 d1 d3 b9 f5 ff 65 73 3e b1 d5 99 0b c7 da 43 3e
       7.226480874275872e-08 9.245518450854332e-09
0006d0 82 d7 b0 d2 cd 17 3a be 6a d3 06 30 c7 ad 87 3e
       -6.075246343367596e-09 1.764209614070926e-07
0006e0 ed 0a 68 ed d0 7c 77 3e f3 4c 3d bc 23 3a 82 be
       8.749799049887857e-08 -1.3580253554555073e-07
0006f0 40 13 d2 41 2f 2b 62 be aa 01 f8 95 e8 13 5b be
       -3.3841821991465596e-08 -2.521813635518596e-08
000700 e9 ce 66 6f 7c 3c 73 be 63 1b c9 61 80 ee 4c 3e
       -7.16607039045402e-08 1.3472347731457283e-08
000710 d9 43 7a 5c 6f 81 79 3e 33 88 21 0b 97 36 71 3e
       9.501578467965239e-08 6.412432432400738e-08
000720 02 04 81 31 d3 c9 59 be 77 06 f9 9a e9 14 64 3e
       -2.4017299343979526e-08 3.740506160063216e-08
000730 12 f0 50 fc c8 12 74 be 60 d2 88 ea dd e9 5d be
       -7.477916515256382e-08 -2.7859157344071187e-08
000740 84 c7 9a 3a f5 7f 4b be 02 40 83 42 f8 67 45 3e
       -1.2805608867866493e-08 9.96800693411058e-09
000750 ed b9 ae 13 b7 d8 85 be 44 ea 19 f0 21 8f 73 be
       -1.6276943334615468e-07 -7.286336869443818e-08
000760 b2 0a b8 32 61 05 61 3e 03 e9 eb 97 a5 11 6d be
       3.170410986174246e-08 -5.41451070558723e-08
000770 04 39 88 1b 98 3c 5d be 7d 0c 34 bf 42 20 89 3e
       -2.7228794970530767e-08 1.8720342574033013e-07
000780 ad ac e4 ec 3d aa 71 3e d7 9e 50 4c 4c fc 5a 3e
       6.58072807120957e-08 2.513224186067718e-08
000790 89 f6 03 a9 08 82 53 be 08 a3 f8 8f 5b 8f 24 be
       -1.816818923169764e-08 -2.3934979551889894e-09
0007a0 65 21 f0 2d b1 3d 6b 3e 9a 6d de e6 47 34 6c be
       5.07402881864138e-08 -5.2534457547366285e-08
0007b0 94 45 a0 36 7b 42 6d be 19 1d e2 2b 47 97 6d be
       -5.450042446520494e-08 -5.5117401740829186e-08
0007c0 9c 0c fd 82 a8 30 4b 3e a8 f0 b3 67 1c 7d 4c be
       1.2661363596135723e-08 -1.3266091550359373e-08
0007d0 0c 78 36 c4 87 b8 68 be d6 09 d0 1a 8a 54 6a 3e
       -4.604611849731924e-08 4.9043879492299834e-08
0007e0 5b 8a d8 90 c7 f1 6c be 47 98 ee fe 56 32 5b be
       -5.391324196478266e-08 -2.5328844740047433e-08
0007f0 3e 5e f7 bf 55 b9 60 be 82 f3 82 4a e5 d8 77 3e
       -3.115081170415943e-08 8.883792424175322e-08

cho_elements_module.bias f8 [45]
000000 9d 71 0c 0f 91 67 5d bf 35 7b 9f 12 16 ee 40 bf
       -0.0017947117414172993 -0.0005166633393363986
000010 47 be 2d e1 f8 49 41 bf 60 cf c0 28 23 52 5f bf
       -0.0005276169998591006 -0.0019116729117855877
000020 62 84 69 f7 1a a9 51 bf a3 1e 07 20 67 61 66 bf
       -0.0010779155105853579 -0.002731992164829071
000030 2a a8 cb 6f 03 3a 46 bf 66 df ac c3 3f 0a 5e 3f
       -0.0006783024578827003 0.001833498258475752
000040 a1 98 f4 01 e7 10 36 3f 4a cf 5d 22 98 11 2d bf
       0.0003367008193485653 -0.000221776791643808
000050 0b 38 3f 88 9e b9 92 bf 14 f4 bd 15 0b e2 81 bf
       -0.018286206308225455 -0.008731924630177836
000060 93 a8 7b 66 b0 08 90 bf f8 a3 de ad 8f 45 74 bf
       -0.015658146147793216 -0.004949151274481693
000070 4e 66 bf 29 d5 44 37 bf b9 9f 27 f4 7c a6 87 bf
       -0.0003550548951785957 -0.011548019600880243
000080 4b 12 d2 60 8f 76 6a bf 16 6d 04 c3 08 42 8c bf
       -0.0032303619723868296 -0.01379782529016053
000090 cc f5 23 97 15 06 58 bf 4d 74 cf a2 8d a4 3b bf
       -0.0014662943690945006 -0.0004217954436265867
0000a0 c2 35 fd 53 06 05 44 bf 62 b6 01 f5 24 eb 53 bf
       -0.0006109505556907634 -0.0012157307537806962
0000b0 18 26 22 d2 04 26 50 bf 7d ac bb 6b 33 56 70 bf
       -0.000985626895756991 -0.003988457548739108
0000c0 7a fb de 81 fd 24 68 bf e1 d9 24 57 0e 8b 95 3f
       -0.002947325831854139 0.021038269108624056
0000d0 e3 a3 cd 96 42 f9 a2 3f 60 6c 39 73 00 24 85 bf
       0.03705795374737144 -0.01032257415425003
0000e0 4a 3e f1 b3 22 ff 64 bf cc fa 3c 08 e8 5f 53 bf
       -0.002563064364529831 -0.001182533830572363
0000f0 db 96 b3 f3 b6 42 3b bf ff d8 b2 e6 d6 5e b1 bf
       -0.0004159638080650626 -0.06785338527956596
000100 80 f3 8a f6 c7 4a cc be be dd 71 b7 e0 5e 9a bf
       -3.372682773365753e-06 -0.02575255508096829
000110 d2 af 14 58 49 6b 63 bf 88 47 df 07 96 56 90 bf
       -0.0023704941273958524 -0.015955299597244316
000120 70 d2 e6 d9 a4 33 50 bf 57 68 18 f8 31 8a 73 bf
       -0.000988875377157996 -0.004770465080151074
000130 14 10 3d 9b 6d 68 17 bf de 3a 8b 28 35 6e 6b bf
       -8.929413780572908e-05 -0.0033484495400907107
000140 1c 5b 3d c1 2d f7 09 3f a4 cb e5 23 90 8c 5c bf
       4.952534086893041e-05 -0.0017424972171198117
000150 c8 9f 36 39 e5 16 84 bf 30 d3 00 c1 7d b0 36 bf
       -0.009809294518006953 -0.00034621305622133374
000160 d9 96 6f 44 dd 2e 78 bf
       -0.0059040683035839975
