port_results/worst/bi_2/30_2000/35/0_trained_linear.pth (torch, 679543 bytes, 4 tensors)

linear_mean.weight f8 [30, 90]
00000000: 9dc4 0530 a7f7 333f 25cf 2cbe ec6b 593f
00000010: cb30 4ec9 93dd 6e3f 6b13 2eb4 a617 773f
00000020: b67b ca04 5959 693f ce1c bc14 b626 66bf
00000030: d195 0092 08c7 8b3f f67e 047f e1e8 853f
00000040: 617c e884 c2d6 513f b256 b76a 237a 583f
00000050: 27ba cc5a 05e0 55bf 8ee7 471c 4cf5 7b3f
00000060: 081f a7fa 64db 47bf 71e6 654a 0be6 673f
00000070: 9da2 3993 ab64 5a3f 2a9d 850d 7750 7f3f
00000080: 2183 6512 ab3b 75bf 6140 e081 1d14 95bf
00000090: 97a8 eeb5 7043 683f 779c 3ff7 64a0 5f3f
000000a0: 3f5d 81e7 4131 65bf ec9b e344 bb77 753f
000000b0: 8108 851b d7b1 6e3f b685 ec36 591a 6dbf
000000c0: b03c 842a 6ead 863f 3086 0f87 86b5 8d3f
000000d0: fef7 7ddf e425 663f f465 6e69 f19d 6a3f
000000e0: e8f6 09d5 e1a9 54bf 8565 b0b0 9e0d 6e3f
000000f0: e4b3 c95a 734e 513f e318 69a2 e567 733f
00000100: 4e17 849a c19b 70bf 84a6 5550 ef82 7a3f
00000110: a950 549f b1d4 69bf 3847 672e 7019 8d3f
00000120: da6c e7d2 f4ab 723f a6cb c04b a0e8 33bf
00000130: 586d 1961 879a 783f 577b ecb9 1366 f53e
00000140: 7c98 d481 586d 4fbf e284 07ce e4ae 5cbf
00000150: c0fa fac9 f703 5b3f 6450 ba41 8738 603f
00000160: e0ea 81f6 ac64 61bf 15a5 95a7 1abf 49bf
00000170: 20e9 64c2 5c86 64bf 4d74 9a28 481a 7f3f
00000180: 5783 56df 3696 833f af94 a4e2 5c79 5a3f
00000190: 56d4 c808 dadb 58bf d698 2196 c8cf 8ebf
000001a0: c8aa 6e44 e1ce 863f 79fe c5a7 4fc8 7c3f
000001b0: 415b 7851 b899 54bf e9c6 401b e97a 78bf
000001c0: 05cd e530 dbdb 653f 7c78 431c eb6e 78bf
000001d0: 47e8 7baa 68c2 773f 0763 9412 ae3d 473f
000001e0: bb49 d070 7ba5 823f 8f1a 773e 6bb7 7b3f
000001f0: e9eb 9205 6ae7 7d3f 6bc9 e7cc 6ede 7e3f
00000200: 7ec1 4a06 9258 743f b1d1 eb92 7f5a 843f
00000210: 0805 f15a ec24 7d3f 2c3f 55a3 b71e 773f
00000220: b3f6 2ba0 b7b8 7c3f 6cdb aae9 88f8 7d3f
00000230: 8cc1 9f77 4162 813f 190a 83f5 2d9b 7f3f
00000240: 9608 27da b68e 813f 6977 d8c7 16c7 803f
00000250: b61d daf5 78dd 7c3f 50cf 2c7d 70c1 7f3f
00000260: adc3 d70f 5616 7f3f 895f f9e1 74d8 753f
00000270: 6c85 ffa3 6b22 833f 1b44 f9ca 8636 793f
00000280: d57d f4c9 000e 803f 432d a3bb 5fd3 783f
00000290: 17aa 6e0b 4e1a 863f 359a e31f 601e 7d3f
000002a0: 4b72 c8f6 5d15 783f 6ef4 bbe8 0655 733f
000002b0: b745 b5de a824 7a3f 4e6e be4f 6728 813f
000002c0: e5c8 7fec 9e59 713f 4789 14ea 3504 733f
000002d0: f5ae 73c5 627b 73bf 895e 88e3 84a3 90bf
000002e0: 4ef0 9bbf 75fc 953f d36c dd69 2c82 543f
000002f0: e21d 2677 20b0 9c3f a074 68e6 9682 6abf
00000300: b254 9366 7508 733f 623a a414 62df ecbe
00000310: e60c 1904 fe35 6a3f aa8b 0f1a d23f 8ebf
00000320: 362d aa77 4e73 89bf d2f6 5c1d a132 96bf
00000330: 7be0 a94d 4686 6abf 1f10 286e 1f11 7bbf
00000340: a424 5959 9206 8dbf b0a7 2160 ecba 933f
00000350: 3a36 82a1 ad31 86bf fd0a 2b66 8584 80bf
00000360: b24c 221b c342 813f ab18 dfb9 77e2 85bf
00000370: 13ac c180 0241 8bbf 6d2d 8aba e8eb 603f
00000380: 4b05 18ca 8a08 673f 299e 1ebe e1d6 86bf
00000390: bda0 79e2 93b7 70bf 5b3a cf47 da23 8b3f
000003a0: cb52 e5c4 3ed9 a7bf e314 5cce bffe 86bf
000003b0: 0ed8 b354 e88f 89bf a0ea f42e 7bff 8b3f
000003c0: 8147 c496 3b1e 953f 009e 246d b5ff 7bbf
000003d0: 61c2 01ae f579 88bf 1eb5 f9e6 fb4f 703f
000003e0: cb68 2cca d60e 6c3f d823 0f2f 25a8 943f
000003f0: 0f40 16db b73b 873f 7816 836c 74c6 89bf
00000400: 0384 a04a 19b2 953f 524c 41e1 658f 733f
00000410: c197 e08d b639 733f e941 2359 4e07 6f3f
00000420: d75d 1c30 ad08 9cbf 7f80 f860 221e 793f
00000430: 0b84 c680 1439 613f d13a bb3d db0f 76bf
00000440: 0813 bef3 6b9a 903f a62f f438 ab3c 893f
00000450: ef9a 1cb9 6a0e 943f 4617 27b7 7397 92bf
00000460: 6673 e8a5 7b3d 76bf 7386 0b40 f837 9fbf
00000470: a916 3ca8 b468 833f dcdd 19ac e812 7e3f
00000480: 646b 8338 4b64 773f d99a 1014 f27e 933f
00000490: 8fc3 bea0 3432 713f 6a2d e323 3634 7dbf
000004a0: 5049 b997 ea56 80bf 8b10 d5ec e641 35bf
000004b0: 811c 124d 4c74 983f 7194 12a7 7357 a33f
000004c0: 5550 6206 0728 9a3f 3b6e 4b29 2bf0 9d3f
000004d0: 5405 f213 e3cb 9b3f be19 da2d a8f4 9a3f
000004e0: c495 8856 c1ac 9a3f ddc0 ff24 c662 a03f
000004f0: 6aa7 44be 8b50 a23f 970c bd46 01bb a03f
00000500: 38ad b618 e81e 9d3f 26c9 c038 d191 993f
00000510: 40d9 d845 fbf6 9a3f 0952 9528 7a91 953f
00000520: 1caf cf20 f612 a03f 674f d8a2 5c07 983f
00000530: 9ddb 907a 4b28 a13f e119 8ae3 c61a 9e3f
00000540: f20e 21c4 5d48 9d3f 594e 6f3b 1b7f 9a3f
00000550: 8b06 fc97 58f1 993f d40d 58d2 666d a03f
00000560: c888 4949 25d1 9c3f 9d4e 6801 d725 9d3f
00000570: fe9b 9d01 0a2e 9c3f 93e6 7dc8 cd0d a03f
00000580: 0029 a044 bf2a 9f3f c39d a9fa bfa0 9c3f
00000590: 14c4 e78f 52dc 9d3f 4096 0105 af6d a13f
000005a0: 28eb 6643 e774 70bf 3461 b9be 6875 563f
000005b0: af5a 378e 4c55 603f 2ece e801 b687 fa3e
000005c0: f1bd b94f 8f9f 863f e893 e53a 32b7 77bf
000005d0: ec3b c1f7 8a8c 553f d761 285b 6ccd 613f
000005e0: 0342 bcbc 7b32 133f 41d5 1d11 e1e5 67bf
000005f0: 9579 dcc0 cba2 72bf 9bd4 0147 90dd 58bf
00000600: 4f59 998e 524c 303f 992b 4c5b 9556 59bf
00000610: cef9 9125 f573 7fbf bd1c 3c30 bf53 603f
00000620: f219 01f9 843f 5b3f 7175 c1b4 42ca 713f
00000630: 0d15 81d5 e1bc 4e3f c289 e192 09df 61bf
00000640: 7928 7262 b699 493f 9142 49c1 ee65 303f
00000650: 6997 b069 8bd1 533f 4d69 0d04 6831 3abf
00000660: cd14 d386 780f 46bf 6e3b 4a16 0b35 793f
00000670: 5d0b 4d7d 94f3 79bf daee 8ced 4ad0 4b3f
00000680: 9456 bd62 1acc 733f 1baf 0c59 c85b 53bf
00000690: da7b 6b0e e626 663f a638 befa 77c3 523f
000006a0: 4315 c089 9d18 643f 89ec ece5 ecda 603f
000006b0: 1b57 e386 dbdc 41bf 4de7 5509 9260 893f
000006c0: ac81 ccf4 3e94 4f3f 59b3 eb80 8e2f 49bf
000006d0: bc96 276d b651 643f 25d8 1ef1 a5a2 4b3f
000006e0: bbb0 b108 2df4 513f 6556 ccf0 96a0 23bf
000006f0: 7d40 f11e 6532 4bbf 2d57 9ce5 1184 653f
00000700: ef1a a043 15a0 45bf 7c95 0103 41e9 73bf
00000710: 9d8b 53f0 fad4 41bf 69c3 b71d 9924 423f
00000720: 522f 1a52 26cc 703f 3539 5711 a463 70bf
00000730: f885 85f4 c145 623f 8032 e33d 6f06 5cbf
00000740: ebda 54a5 1096 493f 2f67 7205 3e31 723f
00000750: ec42 353a 589d 76bf 6eb3 6b60 8242 703f
00000760: 5157 4b76 81d9 79bf 440c 041b ec44 82bf
00000770: 964a a646 dc73 80bf ade0 0bd0 32a4 5abf
00000780: 6284 34a0 5f7c 7d3f fbc3 7ead 472c 853f
00000790: 4579 ace4 a449 7e3f fefd 1483 776a 783f
000007a0: a474 ade2 91b2 7c3f 25da 437a 2e0c 803f
000007b0: 88a7 c550 14ac 813f 7b21 2af4 c46d 7e3f
000007c0: 0fbb c96a 1dd3 873f 5c04 f246 002e 823f
000007d0: 3303 6a7f 3b48 7c3f e6c1 011c adf9 7b3f
000007e0: 6ee4 b67a 3a31 763f 4ca1 e017 3ffa 703f
000007f0: df63 08a0 325e 803f 6fc7 9d01 380f 7b3f
0.0003046782658407495 0.0015516101781942262 0.0037677656604896185 0.0056377899044307385 0.00309436212985711 -0.0027040058392945104 0.013563219981800241 0.010698091210144405
0.001088800392274235 0.0014939638011716547 -0.0013351490299090636 0.006825730616123139 -0.0007280581533501704 0.0029173107643004005 0.0016109157121723457 0.007645096826627987
-0.005183857202013782 -0.020584546138764263 0.0029618455295877355 0.0019303308481484463 -0.002586964339609615 0.005241138000406469 0.003746910220940925 -0.0035526030036556423
0.011072979614736717 0.014506388661121056 0.0027036161590663346 0.003249141223432112 -0.0012612061874785422 0.003668603841572251 0.001056301737800463 0.0047377557844525435
-0.004054790748574023 0.006472525424536028 -0.0031531781375041157 0.01420867578136474 0.004558521597995491 -0.0003037825915754251 0.006006745171897997 2.04074273099057e-05
-0.0009590799487895342 -0.001750682298841171 0.001648895245963608 0.001980079816187129 -0.00212320119686403 -0.0007857208394571902 -0.002505475206956778 0.007593423718984371
0.009563854876263695 0.0016158492167701979 -0.0015172604791022968 -0.01504475315250568 0.011136779690635548 0.007026969102639329 -0.0012573528273429199 -0.005976591655824961
0.0026683121752114646 -0.005965155029313714 0.005800637103442758 0.0007092571223977503 0.0091046947291361 0.006766718789953287 0.007300771853972579 0.007536347211941278
0.004967279823788194 0.00993823687665771 0.007115290892273814 0.005644528709424706 0.00701209763314885 0.007317099395257692 0.008488189185272409 0.0077163501047743605
0.008572987110600654 0.008192232106974466 0.00704715013637929 0.007752837572116381 0.0075896608154701175 0.005333382199374522 0.009342995588613255 0.006155516180641941
0.007839208758524766 0.006060956913823748 0.010792360042462907 0.007109046446407909 0.005879752203807496 0.004719759930364649 0.006382617614990086 0.008377844925966074
0.004235859676543029 0.004642687418966957 -0.0047563417676703594 -0.016248775851720274 0.021470870799916768 0.0012517389036109008 0.028015620491286593 -0.003236098028777848
0.004646738621166312 -1.3767523928479359e-05 0.0031995736360684755 -0.01477016584425946 -0.012426960970762662 -0.021677510659393225 -0.0032378552544365924 -0.00660812642536615
-0.014172690726939337 0.019267743461035713 -0.010836941233971154 -0.008065263920234761 0.00842811991268486 -0.010685859069678413 -0.01330759005960228 0.0020656152231077114
0.0028116904002223656 -0.011152042021264812 -0.004081323313222804 0.01325197726864962 -0.04657932427895658 -0.011228083119485926 -0.012481513104358324 0.013670885439400593
0.020623141362257073 -0.006835659691467821 -0.011951369641083067 0.003982528679995738 0.003425044547282407 0.020172673222791676 0.011344372151853603 -0.012585553704762761
0.021187205486175042 0.0047754268344589335 0.0046937113784561455 0.003787663482491367 -0.02737684827942907 0.006132253925471897 0.0021024132203852955 -0.005386215601631065
0.016214071990833495 0.012322747874826078 0.01958624605972664 -0.01815586858153686 -0.0054297285082868015 -0.030486945065496273 0.009477054008594736 0.007342251659444323
0.005710882025790596 0.01903894660440639 0.004198270395065941 -0.007129870877359815 -0.007978279834024576 -0.000324362638668648 0.023881141857171165 0.03777657904110122
0.025543317570353292 0.029236482997346363 0.027144954769487598 0.026323917196828132 0.02604963389071259 0.03200358583115002 0.035770766235443244 0.03267673481470828
0.028438211925885443 0.02497031124966855 0.02633278478443768 0.02106276390743925 0.03139466429260393 0.023465583266513514 0.03351055022397207 0.02939902080336221
0.028596367927334172 0.025875497343646667 0.02533472468986146 0.03208466832804971 0.02814157733735881 0.028464660130409148 0.027519375179874565 0.031355314945313094
0.03043650490148142 0.027956962274769525 0.029160776170048378 0.03403994499312235 -0.004017737743590634 0.0013707659626530201 0.0019937987542378503 2.530109497396302e-05
0.01104652368596157 -0.005789943896478335 0.0013152463061663023 0.0021731487588676312 7.323150856231729e-05 -0.0029172321164262775 -0.004549785529688673 -0.001517668624754698
0.00024868979980876156 -0.0015465220032548686 -0.007678945164228469 0.001993058600308821 0.0016630934296856218 0.004343281336415359 0.0009380438523371185 -0.0021815478312856304
0.0007812634038526631 0.0002502162836082534 0.0012096272901173882 -0.00039967336129155957 -0.0006732309826921412 0.006154101666324558 -0.006335811650219761 0.0008488050326387012
0.004833319729944958 -0.0011815506479235297 0.0027040952003143217 0.0011452361750090927 0.002453143779350826 0.0020575167576715775 -0.000545127097008022 0.012391224775217724
0.0009637172130148495 -0.0007686086481420814 0.0024803698554361747 0.0008433637869902406 0.0010958137306956012 -0.00014974443947639578 -0.0008299821619264372 0.002626452402988108
-0.0006599525288500644 -0.004861120178337838 -0.0005441880499826749 0.0005536792409071958 0.004100942316323701 -0.004001274957273805 0.002230528658558436 -0.0017105184884257663
0.0007808285978743978 0.004441492338765048 -0.00552114929026069 0.003969678195727562 -0.006310945235517299 -0.00892052133031574 -0.00803348627667803 -0.0016260620324697703
0.007198689974104418 0.010338363630440375 0.007394451250347271 0.00596090969457874 0.007006234994006242 0.007835734468682418 0.00862899657723283 0.007428902960448953
0.011633138486300902 0.008876802601891658 0.006904823697028206 0.006829906662560314 0.005418041644071099 0.004144903619853157 0.00799216795808094 0.006606310629523423

linear_mean.bias f8 [30]
00000000: 83a1 459a b099 8b3f fb88 2522 c8c1 a33f
00000010: 0635 96dc 39f8 8b3f 4d9b 2a4a fb44 953f
00000020: d9f1 69dd f786 903f 5e39 0bc3 eb70 9e3f
00000030: 0155 74e5 f626 8a3f 1125 8542 7bc1 a53f
00000040: c019 7ac3 fce3 a53f e80c 524e 004a 8a3f
00000050: 71c7 9dde eb48 9c3f 544a d865 5af1 963f
00000060: df6d accb 0bf8 953f 20c3 8fb4 f379 a03f
00000070: 2096 2ed3 f488 7c3f 8a76 52e0 de66 223f
00000080: 005f ea50 63c2 863f 0c26 0596 3627 9a3f
00000090: cea8 53fe 23f9 a03f 38f9 22c4 3fc6 a43f
000000a0: e04c 2539 2bb9 a53f 43d6 b481 b729 a33f
000000b0: 5af1 5034 3c6c 913f f7ad 949a 9ec1 9c3f
000000c0: 15f9 2ee8 09b1 e33e dd61 876c 531b 953f
000000d0: 4348 a1e1 b8e9 1c3f 092a e916 bc26 a23f
000000e0: 6e6c 2376 e502 963f eff0 f1a5 abb3 7c3f
0.013476733882911379 0.03858781258419871 0.013657047313950798 0.020770956422576693 0.016139862908390732 0.029727634219676495 0.012769631268876315 0.04249177157414342
0.04275503050034812 0.012836458578254953 0.027621922933981084 0.022405064073675554 0.021454033190009155 0.03218041972275487 0.00696654925096632 0.0001403948846573809
0.011112953097196065 0.02554021158838364 0.03315079192710045 0.040575020496805114 0.042428351140779474 0.03742764910058984 0.017014446919561756 0.02808234995351985
9.389666279943418e-06 0.02061205243976071 0.00011029425550759899 0.03545177249596427 0.021495423637003012 0.00700728464209653

linear_cov.weight f8 [900, 90]
00000000: 1064 3810 559a 8ebf d673 ddde f33a 4cbf
00000010: 1e35 9bb4 3a59 80bf e2ba 0658 aa94 62bf
00000020: 44be 6066 451b 813f c990 e72d 7180 4dbf
00000030: 37b0 5093 2a11 59bf f4dc e6b7 885f 61bf
00000040: ec7b 36ef 8bf0 42bf f320 5c9a 9cbc 0fbf
00000050: ded3 3cd5 24b9 37bf 7d3d a0ea f835 12bf
00000060: 585e 3f40 d2fa 303f 4f44 ca93 b741 79bf
00000070: 878d 8f6c 9eec 34bf 5bf0 27c4 301f 58bf
00000080: d1c5 9a34 b52b 503f bb95 a711 fd70 50bf
00000090: d16d dfe3 f9cc 703f d6b8 10cc 4cfa 77bf
000000a0: a2ec bfc9 4991 843f 022b 4b9d b507 62bf
000000b0: ded6 7d89 7ffe edbe 37df 74c6 76b3 1f3f
000000c0: d9e1 6bfb ab64 643f 062e 662e 2e1c 6ebf
000000d0: 3049 4907 b560 6ebf 22e8 b95a a4d9 6c3f
000000e0: aefc 3e62 6b65 6dbf 1459 e2cf b5e5 2f3f
000000f0: f22e 2edb 7386 80bf 0a04 c4b2 ae57 6abf
00000100: 5b3b 6583 dad5 863f d83d bde6 153f eabe
00000110: ef96 4c41 7c23 143f 52ab 199f a48a 6ebf
00000120: 7ffe e14c 5386 47bf 91c6 7067 d693 11bf
00000130: 17bb f482 b9d5 603f 3010 b5ef 5415 0fbf
00000140: a5de c329 e5ab 2c3f 05a1 4951 f04a 5c3f
00000150: af73 a8de a476 4f3f 16e5 f3d5 510f 7abf
00000160: 70a3 7eed 10da f03e 8815 3d37 47e7 5d3f
00000170: 868b 4ae0 e546 5b3f 0593 76c4 e851 173f
00000180: c68d 0a9d 5556 6dbf 3aa5 6abf 7620 6a3f
00000190: fd3a 12bb 7229 13bf e077 7af2 f6bc 7e3f
000001a0: 9f11 ac85 93bf 2b3f dd23 4a25 c543 5ebf
000001b0: a27e 1dae 9110 7bbf d97b b314 dbdb 513f
000001c0: 87d2 8208 749b 23bf 5cbf 8a6f d310 3ebf
000001d0: e721 5dc4 76f4 573f 31d3 70ed ca1b 453f
000001e0: bfb9 56e9 1438 5b3f fb5f 88ed de96 633f
000001f0: 8f61 9757 b74d 673f b947 a056 4fce 613f
00000200: 5045 99eb 056e 513f 40db a061 8168 613f
00000210: 9ae5 f4bd de76 673f 89b0 5975 3a52 623f
00000220: 1432 bea5 a2e6 523f 3a92 6edb 5668 553f
00000230: d202 c961 6947 533f 7983 8c0a 94d6 303f
00000240: 1fd7 302d 1738 5d3f f713 ba10 d098 543f
00000250: a48b f334 cac0 593f 2f1f efde 5526 5e3f
00000260: 59c1 52fb 7a01 623f 39a0 481b 8d36 4c3f
00000270: 2481 2583 6823 683f 12a7 15eb dc35 703f
00000280: 95dc 2a0d f2e3 613f d2f9 c5bc 7f03 503f
00000290: 27c8 dac4 5029 543f 68bf 8c7c af9a 593f
000002a0: 4d8f 4adb e6b4 4f3f e5c1 488a 43ed 623f
000002b0: 2f17 31d1 a4f3 603f ae90 9fc6 fb60 593f
000002c0: 679e 0aaf 01f3 6c3f d749 e1c6 ecf3 693f
000002d0: 2612 e625 b08f 7bbf 1826 a7cd 0669 513f
000002e0: 909c 3516 fead 493f 9076 7168 e64e 7cbf
000002f0: a90a 6345 c093 763f ae3b 11dc 3c31 82bf
00000300: aae0 3108 e0f8 713f fb24 6002 2840 74bf
00000310: c1a8 0975 a962 5fbf a779 cdef 5361 64bf
00000320: f246 7107 b622 643f 6b73 7c76 e240 80bf
00000330: b687 3f32 f8b5 50bf 66b6 a7fa 7061 73bf
00000340: 4d8d e2e3 715b 5dbf dadb 76d4 7116 673f
00000350: 8380 1d68 0c5c 77bf c507 5d17 728e 353f
00000360: f80c 83ed e139 5f3f bd0b 57bc 7874 7dbf
00000370: 60bc 6b6b 69d2 3dbf 2e27 5874 8ec6 70bf
00000380: 0abb 89cf 9419 5f3f 8d09 36e4 fa01 50bf
00000390: 6bdf 5371 7805 263f ccbd 0303 9f12 64bf
000003a0: 8649 6ced fc04 4fbf cd39 5194 241c 733f
000003b0: 65cf 096a 28ec 50bf 9446 f9a0 9066 38bf
000003c0: 8bdb 935a 40b9 debe 669f 3d00 a8dd 60bf
000003d0: 4659 5303 618e 673f cb24 e2a5 c3b2 3e3f
000003e0: 8999 2bca 3076 42bf 3d96 9a88 aad7 6dbf
000003f0: a681 6cea b050 72bf cdb2 404c 7cda 5abf
00000400: 8a0a ddb3 23ad 5f3f 2e81 6b4d 04e5 3bbf
00000410: c342 ba59 1004 21bf fd4f 5470 085d 4e3f
00000420: 2bc7 60ec 78cc 4a3f 77c7 010a 6d90 5dbf
00000430: 2dc1 d93c 5c2c 33bf c496 23d7 9a49 583f
00000440: 2e73 71dd e522 30bf 2ef0 019c 14eb 4d3f
00000450: b4ac e5de a31c 363f 8fd4 9347 629d 2f3f
00000460: 6590 1661 cd4c 31bf 36c9 f519 1cc2 58bf
00000470: 6805 a68b 9bb0 003f f4c1 f705 89f8 66bf
00000480: 946a edeb b831 7abf 1b75 d4ff 74c2 4c3f
00000490: b371 be47 7e4d 48bf 9adc 30c3 bf3b 62bf
000004a0: 7324 6350 4f7e 333f 5791 9902 8cd6 f7be
000004b0: 811b 0fe3 f006 5b3f 5070 d236 8277 5e3f
000004c0: 2fc6 6780 3e04 563f 2b95 22f0 09b3 5a3f
000004d0: 09be 2570 8b5f 5d3f 8dee f5a5 b44f 533f
000004e0: d7df 1b2e e63f 5b3f 4ba6 7bb9 91b9 5f3f
000004f0: a3d9 34d9 b6ca 583f c7c7 f875 c786 603f
00000500: 8415 bf3e 941a 553f 567f d1f9 81b7 3b3f
00000510: bc86 557b 298a 503f 7eba 66e1 60f2 363f
00000520: cbab 8f44 1761 593f d7f9 ad73 d81b 473f
00000530: 3cdd 00a1 40dc 613f 09d8 1f80 a98d 543f
00000540: 83da f300 4ab0 583f 18e8 cf15 5c46 5e3f
00000550: 5b4b 0b71 5967 573f 1898 67e9 423b 5a3f
00000560: 85e8 8c64 48ab 573f 23a8 2ee9 db1f 4c3f
00000570: 6da4 a8a5 fe8f 513f 99d2 d00b 6612 5a3f
00000580: c2ea 968f b819 5d3f a9c4 8828 9e60 5e3f
00000590: 41ae beba db21 593f 5f26 d777 8ce8 5e3f
000005a0: 75cd 6948 9449 803f d53a 42e6 b242 2f3f
000005b0: 23e0 e284 bc87 623f 9464 5201 867c 5cbf
000005c0: 74d2 74fb f803 73bf a01b c90d 2cc6 6b3f
000005d0: 52d6 c69b 7ff9 5e3f 10a8 9de3 f5ee 6c3f
000005e0: eefe edd0 acb9 4a3f 1aab e8a2 c244 06bf
000005f0: 9d14 0fef 36c1 373f a84c e20f 0dfe 553f
00000600: bcb0 9299 95e2 2cbf e235 60dc 6c3e 6d3f
00000610: 7739 ba00 6812 313f 76a1 415e 8fdf 4bbf
00000620: 79ac 6d34 37bf 45bf 8827 ef6d 5351 533f
00000630: 6cbf 1b17 6f26 55bf 2555 9c36 4035 683f
00000640: 0662 6a43 3f8e 5ebf cab3 ef3e 9227 473f
00000650: e2ae 3539 b483 01bf 311d 0c07 1c1a 31bf
00000660: 1e39 0cda 27d1 523f c563 d261 5c25 603f
00000670: a439 bbbf 55ad 523f c8b5 7769 c50b 61bf
00000680: 8234 2f9f b961 553f ae1b bc92 f8b6 083f
00000690: 0e54 4eb7 2681 5b3f ae08 6e1d 4ee6 643f
000006a0: f548 5af8 b6e7 6fbf 16ea 53ea 5be5 3a3f
000006b0: 1297 9b0a 03b5 3abf c305 6298 515a 5d3f
000006c0: 98b1 e58e d24e 6d3f 19d7 1148 2409 4fbf
000006d0: 14ea d126 c04e 45bf ec8b c74d 6530 41bf
000006e0: 5555 cf35 9727 2cbf dc0a ee2b 20f4 55bf
000006f0: 6ddd 80af 4335 283f eabf d36c 5cf4 623f
00000700: 8ccd ad67 fdf3 fdbe bec2 be79 189c 44bf
00000710: e9eb 271a 7a1c 5ebf 4e59 191c 539b 4c3f
00000720: 5c10 9836 fdb6 533f fe95 f049 bdc5 553f
00000730: 75e4 386b b155 35bf 7320 321b a43f 67bf
00000740: 81ca cd21 a4ea 703f 3384 72fd f0c2 403f
00000750: 773d 07c0 f433 523f 6a42 5b30 7315 0b3f
00000760: 488b 4df6 78c9 a8be 8f49 c35d e5ae 643f
00000770: 37f9 3472 2f5b 733f ae43 8fae 0ddd 4dbf
00000780: b1ae dbc0 5727 4bbf a2f7 b6bd e0c8 59bf
00000790: ab3e 30a0 db65 55bf c4e0 3de9 fe83 56bf
000007a0: 47fd 1035 9f76 49bf d85d 98cf 9507 51bf
000007b0: 20a7 2394 e5ab 58bf e6cf 3f51 993d 51bf
000007c0: c66f f2ae 251e 4dbf 812b a3ec f4c4 50bf
000007d0: 136f adf1 f1e8 50bf 7136 8af6 ed2b 49bf
000007e0: 0937 a59e 0a60 50bf a7d0 fa18 04da 40bf
000007f0: 1164 d767 5f05 50bf 37b6 fc4b ac43 44bf
-0.01494280296087605 -0.0008615198873759232 -0.007982691418329465 -0.0022681548145649802 0.008352796732736263 -0.0009003212579128612 -0.0015299716735723953 -0.0021207495003313596
-0.0005779917977867233 -6.0533074515646804e-05 -0.00036198758356259335 -6.94688011721924e-05 0.0002590907390618061 -0.0061661883343201015 -0.00031927936339411943 -0.001472280143047142
0.0009869832596617232 -0.0010035010696979169 0.004101730473816415 -0.005853939045705489 0.010042740315830582 -0.002200941768341181 -1.4302317410157453e-05 0.00012092983671585239
0.002489410307472389 -0.0036755468347047264 -0.0037082229339741243 0.0035217485472545254 -0.0035883996333435286 0.00024335712800355928 -0.008068947912554834 -0.003215638358711197
0.011150080809469711 -1.2515272110795903e-05 7.682271855155206e-05 -0.003728219534243329 -0.0007179171314106307 -6.705280417020956e-05 0.0020550368568800314 -5.928674178304371e-05
0.00021874592210457014 0.0017268511629940375 0.0009601883915056809 -0.006362266226682031 1.6071148678218e-05 0.0018251605478821504 0.0016648526081232975 8.89585800139641e-05
-0.003581206525568456 0.0031893080989290586 -7.309687386423607e-05 0.007504429471422797 0.00021170306975916168 -0.0018472123385058139 -0.006607598364865604 0.001090015360027277
-0.00014959136411154072 -0.00045876657490405925 0.0014620933374819235 0.0006441822869250655 0.0016613201345126863 0.002391276746731561 0.0028446751500547716 0.002173571546344424
0.001063829213667173 0.0021250273685170795 0.002864298861507475 0.002236475159227484 0.0011536205629197925 0.0013066147055066494 0.0011766938324770282 0.00025693048751134585
0.0017833925565020126 0.0012571365249709457 0.0015718435932334596 0.0018401945669541222 0.0021979715334838165 0.0008609951970060043 0.0029465714698490176 0.00395761772356608
0.0021838882033438736 0.0009773967204577028 0.0012305535087020565 0.0015627588019917153 0.0009676100949786798 0.0023104018348691796 0.0020693034253182123 0.0015490015743973395
0.0035338433156828944 0.003168070273241268 -0.006728828504837503 0.0010626379431520946 0.0007836809785829613 -0.00691118243329715 0.00551200013996104 -0.008882976022645508
0.00438773643974614 -0.0049439967024309485 -0.001915612683797849 -0.0024878157986869156 0.0024579577689472993 -0.007936257592115322 -0.0010199474136176451 -0.004731599163716993
-0.0017918216904398599 0.002818319629763516 -0.005703018630669135 0.00032892499381287035 0.0019058901144013967 -0.007191154121246987 -0.00045504640313160337 -0.004095608198903906
0.001898188898987465 -0.0009770345794498398 0.00016800971267349625 -0.0024502855013605936 -0.0009466395375475202 0.004665511024610725 -0.0010328669233361173 -0.00037232428528453346
-7.325086167179062e-06 -0.0020588189380993825 0.0028755087647411052 0.0004684188514905817 -0.0005634058219044373 -0.0036428766951128997 -0.00447148425772107 -0.0016390050741492024
0.0019333695085640723 -0.0004256377700766642 -0.00012982081976932987 0.0009266177372944103 0.0008178320356419846 -0.0018044533572063295 -0.00029256107232013517 0.0014823925126220975
-0.0002462207025411442 0.0009130335456712985 0.0003374004435474185 0.0002412016363348185 -0.0002639771856485284 -0.0015111231258200914 3.183340727997802e-05 -0.002804057716041303
-0.006395075178114457 0.0008776732717340781 -0.0007416597941190456 -0.002225756202757956 0.0002974456441618485 -2.2733758817132295e-05 0.001649604073678396 0.0018595477697891556
0.0013437853209520392 0.0016296002436687145 0.001792799158092497 0.001178671278323859 0.0016631839611687038 0.0019363329974403539 0.0015131745938795425 0.0020173927039417202
0.0012880752283178374 0.0004229252170428929 0.00100950289682837 0.0003501402401537081 0.0015490271782663153 0.0007052237409508844 0.002180219868047976 0.0012544780042822465
0.001506874341257764 0.0018478297490660597 0.0014284490063587094 0.0016010430750781398 0.0014446455918020473 0.000858290079454042 0.00107192867165853 0.001591300634811754
0.0017761518814568976 0.0018540901675232846 0.001533951358377986 0.0018864986189889505 0.00795284124362781 0.00023849901038316157 0.002261989785520073 -0.0017386730808424443
-0.004642460429114526 0.0033903942515140645 0.0018905397583756267 0.003531913997837151 0.0008155912235991694 -4.247397406616765e-05 0.0003624686351567182 0.0013423087653208574
-0.00022037578745449048 0.003569805735429852 0.00026049651271699926 -0.0008506250419602474 -0.0006636638216667288 0.0011790575733691983 -0.0012909016481294734 0.002955079476019267
-0.0018649690443109947 0.0007066215601959577 -3.3406198009481585e-05 -0.00026095566049418305 0.0011484994103657174 0.001970940049954769 0.0011399590866179943 -0.0020808082297125476
0.0013050377572086107 4.71396072879085e-05 0.0016787412725751713 0.0025512242968384813 -0.003894669879465624 0.000410399379987021 -0.0004075176644689908 0.0017915531948634468
0.003577624556035452 -0.0009471347003812996 -0.0006502569427902526 -0.0005245680472935033 -0.00021480294063162356 -0.0013399423766890439 0.0001846928714728068 0.0023137860467770015
-2.8565488246324415e-05 -0.0006289596089939715 -0.0018378441242237148 0.0008730083283790353 0.0012032959733696757 0.0013288830302909944 -0.00032554227366039047 -0.0028379636001468144
0.0041300212295590786 0.0005115200718998125 0.0011110201013372048 5.1658227716470964e-05 -7.387102241958603e-07 0.0025248031434809757 0.004725632988366527 -0.0009113613897345685
-0.000828664635006379 -0.0015737719285051428 -0.0013060231001453075 -0.0013742436758246582 -0.0007770802859638292 -0.001039406108594201 -0.0015058271388234748 -0.0010522839775122194
-0.0008886035920059258 -0.0010235206450938952 -0.001032100938309581 -0.0007681762627542288 -0.0009994605739679938 -0.0005142707832051133 -0.000977843446312802 -0.0006184188168611497

linear_cov.bias f8 [900]
00000000: 7ab7 b61a 5f08 6f3f de8a 664e 1bf0 623f
00000010: 8ce6 12cd 2884 5dbf 8d70 4810 c689 733f
00000020: 1f52 a79d ae54 563f 1156 abb2 f489 50bf
00000030: dc64 54b5 d4ea 593f f27a 22ec d876 28bf
00000040: d593 02b8 aa23 51bf 5d52 dfe9 4af6 52bf
00000050: f810 e4b9 ae8a 5ebf 986b c023 57aa 41bf
00000060: 8f63 dc4d 136b 42bf 6fbb 613a 7310 6c3f
00000070: 1e7a 8467 9e01 3dbf 2ae4 121c d96d 213f
00000080: c877 4bbf 4688 e8be 2061 03f4 e0c3 34bf
00000090: a8b1 4166 46a1 1abf a48e 90e5 37d5 68bf
000000a0: c58b 7676 8eb4 5dbf 8918 c2b7 f123 56bf
000000b0: ecac 33c7 0099 3abf 71cf 21e8 ce54 41bf
000000c0: 8029 1f91 29ad 4fbf 05aa 64ac dba2 633f
000000d0: acd9 e18d 3f1c 493f ecff 9728 7671 4f3f
000000e0: 3220 1be8 2776 5b3f a46c 6f5f e5be 5bbf
000000f0: 6306 35a7 42c4 503f 38e0 70eb be17 873f
00000100: ffee a4fd 397c 753f 274f 5dee bc0a 7a3f
00000110: 177b 897f 496d edbe 403d 6e0b 2ef0 773f
00000120: 318b 6d6e 97c2 493f 626f 63e9 4e55 273f
00000130: 48ae 7dd7 82a4 70bf 1508 d6ed 5c25 743f
00000140: ffea e40b 5505 6fbf 8845 1ef7 f43d 653f
00000150: 64ec 5de3 6963 6dbf 422e 95d8 7006 73bf
00000160: 4eb4 8c8b 3c91 443f fecc 5308 d590 583f
00000170: 4071 4748 8ba0 59bf 960e eeb6 a963 793f
00000180: 5c2d ef95 785c 593f b2a9 5a50 92c4 56bf
00000190: d969 9293 ccad 41bf 54a0 28d3 27ef 49bf
000001a0: dcc7 a720 adb7 713f ce29 7a88 7d22 4f3f
000001b0: a7dc 9b8f 0087 60bf ff62 dce7 2d3a 1fbf
000001c0: 2096 32a0 946c 3a3f 2107 26d8 cf88 5f3f
000001d0: 1b15 f4bf 638c 5c3f 859d 027f ff40 60bf
000001e0: bcd3 07c3 b9f2 4bbf b77b a310 483d 17bf
000001f0: 8cea 6e82 1e14 543f 5888 f6bd 7c54 6d3f
00000200: a075 161f adaa 16bf 68d7 7dc5 3735 ff3e
00000210: 978e 9dfc 104f 3e3f 6bc4 5608 5c39 3ebf
00000220: dea6 4726 511a 0d3f b158 bb35 5da3 35bf
00000230: 0b6d b761 35f0 313f 20b4 7cfb d3fd 4fbf
00000240: ce8e d74a 5727 33bf c3d6 19fd d88a 563f
00000250: 3393 5817 d36d 45bf 75a6 c925 7b1b 5fbf
00000260: 4b70 83ad ddb4 453f 8a4e 9915 e763 523f
00000270: 2ea5 b0f6 cb86 533f 7156 ca95 a340 34bf
00000280: 8fe1 dc6d 5f27 593f c050 b43e 8e84 513f
00000290: 0106 cda5 f013 563f 337a a586 080f 33bf
000002a0: 1737 c4cd 1c6a 50bf 0183 121b 993d 193f
000002b0: 4c01 447d f244 4a3f 8b02 2945 a9a7 5e3f
000002c0: 57bb ac6b c099 683f 346e 4a50 04b2 20bf
000002d0: 255d 73f1 ac6f 473f e2bb d46f 1e01 683f
000002e0: 70e1 5a64 3d0c 5e3f f021 f45f 69fc 873f
000002f0: f254 e505 2aba 69bf b51c 9252 3c64 49bf
00000300: 9cd3 662b 8ba7 4a3f aff2 b5b8 3db2 1b3f
00000310: 2a40 3688 4f58 4a3f 0b72 3974 d0eb 243f
00000320: 1d21 c7df a5f8 54bf 4f3e 2efb ac9e 543f
00000330: 50cb 4dfe a37a 48bf db7a 0fef a265 413f
00000340: 8a8c 1322 624e 30bf 9908 c7b1 aa56 41bf
00000350: 45ad 8913 dc8b 4bbf 8ca1 64e3 ffae 623f
00000360: aef5 2602 9ce2 663f 71a9 9da3 6286 4abf
00000370: 837e a6d7 6068 563f 6387 b9f3 c061 573f
00000380: 9330 bf2f 399b 663f efd5 d527 99a9 583f
00000390: 84a3 3413 bce6 50bf db61 909c ea7a 3fbf
000003a0: 114a d9e3 338c 44bf 0e64 83ae 4193 643f
000003b0: cd7d 919a 9f31 5e3f 8546 a371 13ab 70bf
000003c0: 9a33 325e 92c2 3b3f 3e38 8fa9 3c39 663f
000003d0: 66a7 380e 3a8e 50bf eeb4 c319 47c7 633f
000003e0: e9f4 c82b 7172 483f 23d0 8634 3eed 04bf
000003f0: bccd fe23 8cb4 553f a4c3 5546 f537 5cbf
00000400: 03be 67fa ab06 303f 0cf2 bb56 b6e9 57bf
00000410: da26 6ba1 b35e 5bbf 4c4a c786 eaef 613f
00000420: 96e8 d3a4 ecce 593f 228b 1a77 2bd0 6e3f
00000430: 0ba6 2288 5059 233f a762 774a ff05 36bf
00000440: 7e3a 71c4 2b5d 423f 509c 4891 2b17 6f3f
00000450: 2870 c750 3b3f 4cbf 593a e3f0 e9d5 563f
00000460: 8714 718c 349b 333f 752e 368b 842f 63bf
00000470: 1b3f 3af4 b7aa 3abf f864 6450 3412 33bf
00000480: edb5 dd60 82ba 73bf e3a1 4bab 858d 103f
00000490: 5ff4 d31f 3061 443f 9b9e a6d2 aaaa 713f
000004a0: d0c1 4f4a 88cb 543f 7e10 735b 64e7 49bf
000004b0: bdc5 fe14 76a0 7ebf 8569 2438 9918 6a3f
000004c0: b3c7 6902 4b67 6d3f f1ee 78a3 26f2 7f3f
000004d0: 74f4 b36e 99eb 733f 7097 9ef0 edac 873f
000004e0: 98d7 900a f93e 223f 8eda 1dd7 75f5 7cbf
000004f0: 1ca6 1f7b 02cf 70bf 1332 b5bf 223e 743f
00000500: a236 bdd6 bfb4 6abf 1095 b6ec 7be4 70bf
00000510: 76de 61e6 a586 733f 66f7 c74f 3a16 7a3f
00000520: 791d 685a 92f0 823f 4b19 fd19 4879 763f
00000530: 8b96 d8a7 7352 3abf ff31 689b 4949 773f
00000540: 4880 8c5e 900c 603f 8be6 ff43 6d24 723f
00000550: 537b 3a44 e30c 363f f85f d29e 6343 66bf
00000560: 6226 4139 5460 623f c63b 0ccb 8695 80bf
00000570: 1bb8 2112 8394 743f b318 54aa e90e 883f
00000580: b9ff d30b ca7a 583f d57c eb90 0b44 483f
00000590: 1fc8 5fea f062 733f 52fa 436f 2b91 5abf
000005a0: 6f0e 9d6f 1d13 273f 9283 32be e9f2 283f
000005b0: 5c1f ef38 0f48 543f 2ea5 736e 8094 543f
000005c0: a0a6 f075 a1ca 113f 07ab 58ab 7891 363f
000005d0: 7158 f8b5 141d 263f b87a 5bbd 0b1d 1fbf
000005e0: 347a 23c2 37f8 3abf e076 ee69 a667 d23e
000005f0: 1aac 675e d4e1 423f 360f e1b2 0922 383f
00000600: 4cda cb3d 27e7 213f 2cf1 fa11 1838 50bf
00000610: 254b f6e0 77f2 44bf 8dc4 18f0 e76b 33bf
00000620: ba52 1778 4d4b 3e3f f271 7098 1a39 673f
00000630: 5dc5 419d 41cf 4cbf 96ec 10ba f19d 41bf
00000640: 2c60 acf4 c172 513f 10bf f06e 3d85 463f
00000650: 189a 501c dd43 42bf 3e08 ac56 9f8f 29bf
00000660: f371 a086 2807 70bf 2178 ce21 c2a9 47bf
00000670: 0c73 a24a 8f3d 363f 81bc 7f40 5e41 2c3f
00000680: aa00 1675 ef98 5a3f 1fbc c5bf fd3a 40bf
00000690: 89d6 0e63 e7bd 643f bee3 ca4f 3945 873f
000006a0: fde1 e6cb ee6a 7f3f 769e eb46 70a5 693f
000006b0: f4b2 944c 72f8 57bf eec4 139a 48fc 813f
000006c0: f89c 784e 80c1 5e3f 2f74 cdd0 923f 913f
000006d0: 227b c1a7 9c85 60bf 08be a897 dd05 55bf
000006e0: 22a3 4052 84d6 713f f0a2 869d d323 78bf
000006f0: 5a05 423b 9f12 50bf 1ab2 ca28 d6df 2cbf
00000700: eff0 d5be 9c0b 70bf 5a6e 780b 2593 583f
00000710: eae7 c673 5d81 68bf c072 ebd0 3a09 76bf
00000720: 4f6d 228e 4360 6cbf a42e d904 d024 80bf
00000730: 7959 dc45 ce75 66bf f896 1e3b 8b4a 7b3f
00000740: 3d93 a90f db47 753f a55c 8cf9 e7c6 35bf
00000750: b2c1 53de 5ebb 5abf 56fb 8deb 3927 803f
00000760: 4c5a f68e 882b 71bf f593 6adb 9c2e 40bf
00000770: 4c61 898a 4e5d 273f 011a 2a4d 75d2 6ebf
00000780: a8f6 5ed9 c4c8 423f b7ef 1f4a 702c 71bf
00000790: 67be 4d52 6c4a 42bf a10e 2419 bfb0 63bf
000007a0: 2872 e32e ff99 743f 2bb0 378f 37a8 75bf
000007b0: 1bf8 9222 8500 64bf de22 76ae 7717 72bf
000007c0: dbf9 8daa 4cef 983f 5124 f6be b11c 663f
000007d0: be04 7f22 c998 823f a908 f2bf 81d9 2e3f
000007e0: 61fd 756d e3b8 85bf 275e eb7d 4503 62bf
000007f0: 1510 e5c8 a734 7fbf 1863 998f cb0b 79bf
0.003788171530422821 0.002311757404826905 -0.0018015287826486396 0.004770063100775113 0.0013629632218129584 -0.0010094537380401817 0.0015818669538190588 -0.0001866473958828867
-0.0010461013007809679 -0.0011573535516521607 -0.0018641191778110949 -0.0005391049849124861 -0.0005620807894245338 0.0034258127735066683 -0.0004426013688475799 0.0001329734350628287
-1.1697926291128524e-05 -0.0003168510629740929 -0.00010158531364518628 -0.0030313579304833294 -0.0018130675542600155 -0.0013513432050174265 -0.0004058482074486686 -0.0005289087569182294
-0.0009666874850549484 0.0023969927307423444 0.0007663069079757909 0.0009595705934657395 0.001676119777060958 -0.0016934623688403061 0.0010233546170898215 0.01127576023110076
0.005245424772791329 0.006357896816400011 -1.403184067888317e-05 0.005844287740628673 0.0007861365710194243 0.00017801845814957156 -0.004063140011435325 0.004918444637384685
-0.0037867222846704736 0.0025930199125887045 -0.0035874431732146207 -0.004644814305105495 0.0006276651030013931 0.0014993744273937288 -0.001564155595693853 0.006198561618365203
0.001547925719694052 -0.0013896397444265016 -0.0005395172985516685 -0.000791449018213273 0.004325557975322494 0.0009501564936312214 -0.002017499061249223 -0.00011912255464742101
0.00040320042189487433 0.0019247083406245884 0.001742455875331678 -0.0019841184767590025 -0.0008529097595429895 -8.865120267696659e-05 0.0012254999107727286 0.003580325733950434
-8.646661424057409e-05 2.9762155775845718e-05 0.00046247639385497405 -0.00046118256463063026 5.550918720926915e-05 -0.000330171829529556 0.00027371695770535336 -0.0009763035841153823
-0.0002922618976681613 0.0013758772878679638 -0.0006539612501837766 -0.0018986418355332578 0.0006624300395077302 0.0011224514659219664 0.0011918060142853226 -0.0003090285661440989
0.0015352661061581484 0.001069201384614124 0.001347527511100899 -0.00029081304696446374 -0.001001861694990896 9.628531440110043e-05 0.0008016761808278621 0.0018710282353283948
0.003003001996510528 -0.00012737562805830024 0.0007152170609527093 0.002930221030190237 0.0018339728862156422 0.01171190570904998 -0.0031405277979198393 -0.0007748884719526369
0.0008134297884710875 0.00010565282553005416 0.0008039844837401989 0.00015961570362578478 -0.0012799854149410713 0.0012585343617707195 -0.0007470417736910959 0.0005309148383466315
-0.00024881263568783034 -0.0005291303128205526 -0.0008406471816448177 0.0022807119195428823 0.0027936026610564024 -0.0008094770084714887 0.0013676591612251938 0.0014271148965225515
0.0027595631526989377 0.0015052791271420415 -0.0010315739317070258 -0.0004803488523648349 -0.0006270650262172902 0.0025116236539415365 0.001842885840481634 -0.004069400742268696
0.000423584684718753 0.0027128395854339174 -0.0010104720066785532 0.002414358967249278 0.0007460644333786823 -3.991457066679384e-05 0.0013247841415989633 -0.0017223258267586661
0.00024453829465095905 -0.0014595299389262876 -0.0016705278591637091 0.002189596232917956 0.001575213525312457 0.0037613724642410343 0.00014762027791918905 -0.0003360508221397586
0.0005604232509400368 0.00379522809295766 -0.0008620299936938957 0.0013937744693525349 0.0002991679470521553 -0.002341994165993284 -0.00040690413536824545 -0.00029100205610317577
-0.004816540995177016 6.314400054530755e-05 0.0006219372732229159 0.004313151623513224 0.001269229026771613 -0.0007905235314855789 -0.007477246530400658 0.0031855576099932303
0.00358929300573948 0.007799292499438102 0.00486335691971106 0.011560305505394303 0.0001392058377704369 -0.007070026696843213 -0.0041036698257612934 0.004942069757202921
-0.0032600161411327636 -0.0041241493994779305 0.004767082258801394 0.006368854312766325 0.009247916587823412 0.005486756941371527 -0.0004016430246756928 0.005685126807759121
0.001959115954733224 0.00442927057155774 0.0003364615297218227 -0.0027176805220499 0.002243198870961292 -0.00809769923355742 0.00502444457570841 0.011747193823350299
0.0014941189868409156 0.0007405334925713278 0.004733029438272167 -0.0016215252081221054 0.00017604574514439332 0.0001903448420295354 0.00123788343965888 0.0012561086858176684
6.786928632665024e-05 0.0003443641283832764 0.0001687133580936004 -0.00011868843224814129 -0.00041152344978271087 4.3880660588726725e-06 0.0005762373883134748 0.00036823975358778475
0.00013658861180206245 -0.0009899363575832194 -0.0006392560334681259 -0.0002963486914238721 0.00046225205741494033 0.0028348464434328974 -0.0008791990644693538 -0.0005376272494069963
0.0010649580096409135 0.0006872701613982197 -0.0005574063912988118 -0.00019501514483272366 -0.003913076690903672 -0.0007221410665925223 0.0003393626053680855 0.0002155711702011877
0.0016233766985749667 -0.0004953135499316008 0.002531959464671389 0.011362502811026572 0.007670338438793054 0.003130645075873957 -0.0014630428507402234 0.008781974031509123
0.0018771889680325154 0.016844076151176942 -0.0020168361352682776 -0.0012831367481672701 0.004354969863961585 -0.005893541929631083 -0.000981002330292155 -0.00022029389619628096
-0.003917324339792068 0.0014999257817923856 -0.0029913735617954533 -0.005379895925867018 -0.0034638709485769535 -0.007882714412651488 -0.002741721035714292 0.0066628874500673715
0.005195480067958167 -0.00033229030081955775 -0.0016315866899355544 0.00788731813531533 -0.004191907340461553 -0.0004938379195961173 0.0001782568335950786 -0.0037624636691504514
0.0005732499291679254 -0.004192770606092403 -0.0005581883348053208 -0.002403615225490999 0.005029675301753168 -0.005287377385212048 -0.0024416542333645214 -0.004416911607571376
0.024350355062319067 0.0026992293930488205 0.009080478062858052 0.00023536404475882802 -0.010606552865964404 -0.002198825575174163 -0.007618575486336728 -0.0061147643660539805
