port_results/Expected/Adam_1/30_1000/23/9_trained_linear.pth (torch, 679543 bytes, 4 tensors)

linear_mean.weight f8 [30, 90]
0	0x3fc3c246b20361dc	0.15436633770038
1	0x3fc442b8f2a465bc	0.158286207654596
2	0x3fb321b8453b2230	0.07473327341279723
3	0xbfc8a28edb2fea0a	-0.19246087744234358
4	0xbfd019cd0144b425	-0.25157475589623096
5	0xbfc35ed9c77b421c	-0.15133211365038413
6	0x3f7dc8cc8b99782c	0.00727157497894208
7	0xbfd5552fd8f4034a	-0.33332439600785746
8	0xbfce169b192281c0	-0.23506487586293012
9	0xbfb86c5b5e3301b0	-0.09540339517389529
10	0x3fca1067e851f201	0.20362566798930007
11	0x3fbba9d3b1b5519c	0.10806010330754251
12	0xbf89e85b48aadd32	-0.012650216250547606
13	0x3fa808a518da600b	0.04694095543271722
14	0x3fcc790ff6bab82a	0.22244452998478553
15	0xbfcf0832759d64bc	-0.24243765585814525
16	0xbfc48c0c88be38e8	-0.160523955124922
17	0x3fc60e369e909f01	0.1723087572329334
18	0xbfa21aca7adf88d3	-0.035360648631255785
19	0x3fa39c922dde92be	0.038303917025847664
20	0x3fb2d9a9c4d22e50	0.07363377623749412
21	0xbfc8dfae42098aad	-0.19432619308925805
22	0xbfc27099899a849f	-0.14406127184796433
23	0x3fcad7e4e162ae92	0.20971356396818358
24	0x3fb09a78421367ae	0.06485702145746927
25	0xbfd30151a605340b	-0.2969555016796341
26	0x3fd3fde0d710e7e1	0.31237050058882515
27	0x3fa51dbeae1e4d84	0.041242560152706026
28	0x3faf6e9880303d89	0.061390653274538805
29	0xbfb8118060438b6f	-0.09401705122176705
30	0x3fa32ed9e7a7e1b4	0.03746682122067871
31	0x3fc554ecb0cba70c	0.16665419228166234
32	0xbfb9cb9e2cd7debc	-0.100763212154443
33	0xbf9ad00240073133	-0.026184115560498
34	0x3fbf4f18ff613232	0.12230068430762556
35	0xbfb2357616fb4c69	-0.07112825451922479
36	0xbf9c608fd5109041	-0.027712104205548597
37	0x3fb44f688a07d2b6	0.07933667535673802
38	0xbfd0ba790396bb1e	-0.26138139105289493
39	0xbfa4b655d68c1385	-0.04045360797866863
40	0x3fc428e7bf202a39	0.15749832947069978
41	0x3fa38730f62b0846	0.03814080243093136
42	0x3fb003c46ca07e59	0.06255748416924102
43	0x3f73b9aa374c7ae0	0.004815735727588616
44	0x3fb9b37733bcd465	0.10039467824101818
45	0x3fb7b1487aaa4ef1	0.09254887575871941
46	0xbfa4e24749de95a6	-0.04078886772849026
47	0xbfb5a07d855c961b	-0.08448013788127932
48	0x3fa64f06e4ca005d	0.04357167761645606
49	0x3fb4943647f164f8	0.0803865361825905
50	0x3fba36db00535c4f	0.10239952810239682
51	0x3fa597089863a6e8	0.04216791973324324
52	0xbf7cf225b65bdb40	-0.0070668671739813615
53	0x3fa819d77f723fe4	0.04707215719929517
54	0x3faf781a388e5dff	0.0614631837881312
55	0xbf73e3201c54eb85	-0.004855275566394539
56	0xbfc33c423364825c	-0.1502764464321612
57	0x3fc1a5f8abf3cf9e	0.13787754436600336
58	0x3fb55c0503e8e6d9	0.08343535752728871
59	0xbfc531eb70179a7e	-0.1655859277081681
60	0xbfd83bd947db18f8	-0.37865287797139
61	0xbfdad825717eebb2	-0.41944252093861245
62	0xbfd84bcd549edfcb	-0.37962659133654303
63	0xbfd9101363aaa58d	-0.39160618527474683
64	0xbfd807f90166081c	-0.37548661362245794
65	0xbfd982cc1936f7b9	-0.3986082311856723
66	0xbfd8d6a68b7de0e5	-0.388101230833412
67	0xbfd9dd902221b02f	-0.4041481335941652
68	0xbfd921530bedec64	-0.39265896000842404
69	0xbfda19956f2e1d50	-0.4078115068191055
70	0xbfd9995edd44d6bd	-0.3999859963254087
71	0xbfd73f3a4773d61d	-0.363234109666651
72	0xbfd9d3083011f4b7	-0.40350537008618964
73	0xbfd74a5d1637a7cb	-0.3639137951819264
74	0xbfd9a0dfd43b208c	-0.40044398999862874
75	0xbfd90b148c30f01f	-0.3913012856535278
76	0xbfda19defe52ab55	-0.40782904468749354
77	0xbfd77692211cc307	-0.3666119883883287
78	0xbfdaad6a184cd8a1	-0.4168343770319414
79	0xbfd82eddf9d7446f	-0.37786054037594047
80	0xbfd98546e77c8c08	-0.3987595806704012
81	0xbfd89fb7203690ab	-0.3847482504445547
82	0xbfda33d204730c8c	-0.4094128650141975
83	0xbfd955ede1ad88bf	-0.39586970366338997
84	0xbfd815b914e57a3c	-0.3763258651796695
85	0xbfd896161d650973	-0.38416054602216504
86	0xbfd94380984273d1	-0.3947450148496588
87	0xbfd92400b08b3a64	-0.39282243004428197
88	0xbfd822b5f0c62f8a	-0.37711857331373067
89	0xbfd995edaa4d7bd1	-0.39977590209121866
90	0x3fc8db7cfc97aefa	0.19419824918383438
91	0x3fb8abfea5564096	0.09637443100496265
92	0xbf86ca73ebadfc86	-0.011128335599776894
93	0xbfdd56eb572efc42	-0.4584301329995847
94	0xbfca16f9f6c3fdfd	-0.20382618474103245
95	0x3fbaf2c1a1dbf96c	0.10526666833536574
96	0x3fcc190d7ce5d39b	0.2195145473339409
97	0x3fbc64428aee708c	0.11090484516029359
98	0x3f89e3cc1fbea16d	0.01264152023198114
99	0xbfaaf63af9c0ff65	-0.052659838664566284
100	0x3fa04b7390f5782c	0.03182564873235125
101	0xbfc0e83727b3f828	-0.13208665312407786
102	0xbfc5a503205805e2	-0.1690982730797677
103	0x3fbe732658efe389	0.11894454642596321
104	0x3fc0945b0d6e8135	0.12952745586245276
105	0x3fa4091814acabf0	0.03913188221334696
106	0x3fb7e00da7209d52	0.09326253252276231
107	0xbf82c41a88c2f0a5	-0.009163100527409826
108	0xbfcae39d3c168011	-0.21007123407343944
109	0xbfc13467c1f09859	-0.13441178292959213
110	0x3fb3ffbc0f017c84	0.07812095037796679
111	0xbf6fcfd27c68842a	-0.0038832770399186605
112	0xbfc85f3f775f7171	-0.19040673569441993
113	0xbfb41dcc07e5afc8	-0.07857966606905997
114	0xbfa8a556d7f464dd	-0.04813643823781331
115	0x3f954042562d157b	0.020752941617748526
116	0xbfccb849886ded84	-0.22437400018302978
117	0xbf952f5e2e2065f7	-0.02068850666555552
118	0xbfcff75294b2f1fa	-0.24973518620198815
119	0x3fc46c035d1a4b49	0.15954629941969703
120	0xbf85061068719d73	-0.010265472590801327
121	0x3fc2971b31b8653e	0.14523639610050937
122	0xbfc449849e1252ec	-0.1584935924371601
123	0xbfc0db479f63c649	-0.13169188769056664
124	0x3fb10384c0a27f93	0.06645993903157281
125	0xbfad1f732c9f897b	-0.05688056869236654
126	0x3fd56ab826425a08	0.33463863121269855
127	0xbfd8c1a9ac2e2434	-0.3868202382514625
128	0xbf4ecbf83f12f7d7	-0.00093984242825917
129	0xbfcfb480b7926505	-0.24769600833386832
130	0x3fbab8c4885e3a02	0.1043818314485421
131	0xbfcf2fa17fa6899b	-0.24364107830940615
132	0xbfba5a43bb5d7566	-0.1029398281511554
133	0xbfc23e0e94528628	-0.1425188278417846
134	0x3fc9d6892cc672a9	0.2018596142414897
135	0xbfa35a21a553d022	-0.037797023231093144
136	0xbfb49831b506df55	-0.0804472987136909
137	0x3fc23cdf86611658	0.14248270093428306
138	0x3fa9c561ace0a293	0.05033402667351541
139	0x3fd330554ad4bd60	0.29982502277103684
140	0xbfcfdc8ac052dd77	-0.2489179076271559
141	0x3fa71ecacb17709c	0.04515680054802937
142	0x3fcf17af127c2e7e	0.2429102745303346
143	0xbfc856d3d154abf1	-0.1901497623560711
144	0x3fc6fda7bd1c19bf	0.17961594327807792
145	0x3fc1cd8149ea7fa6	0.13908401593380154
146	0xbfc4c33fa53e70e2	-0.16220851486730853
147	0x3fcc1f82cc567b59	0.21971163728172874
148	0x3f8cfdd3283b4965	0.014156007447500849
149	0xbfc9a22b0ba84b6b	-0.20026147908410094
150	0xbfa5d4a60ef4db6b	-0.04263800556730398
151	0xbfa8948d452df1a8	-0.04800836057163177
152	0xbfa757f295944a90	-0.04559286189955458
153	0xbf98a688a17efb88	-0.024072775704322008
154	0xbf8e54e3851ff976	-0.014810349941396277
155	0xbfb3d1d78eb0075f	-0.07742068513473786
156	0xbfa730de84c350a7	-0.04529471750871155
157	0x3f8fba0d2a7e35b8	0.015491583689960162
158	0xbfa8e488c137b749	-0.04861857756246352
159	0xbf8c3333ff22a7e9	-0.013769537185300567
160	0xbf8970728d97f7d4	-0.012421507783979914
161	0xbfb0d8d07ed4d519	-0.06580832573384433
162	0xbfa3da92205fb85e	-0.0387769379156999
163	0x3f83e2ff9a95c231	0.009710308938083308
164	0xbfaa4816800e552d	-0.05133123696502149
165	0xbf971f47840b4f37	-0.022580258783661846
166	0xbf788d2d9afbd4bd	-0.005994012971986593
167	0xbfa35cd75ecf7b8c	-0.03781769783358077
168	0xbfb12185d8ee5d5d	-0.06691776796502809
169	0x3fa1451a0377764f	0.03373032848660939
170	0xbf9cabd6e4376b73	-0.027999265364865033
171	0xbfb19e1b5d486bf4	-0.06881876971640094
172	0xbfad4561ae328002	-0.05716996432715861
173	0xbfa33ec77a913077	-0.03758834239178637
174	0xbfb4b1d6cd9354c1	-0.08083860892232321
175	0xbfa2809573ba344a	-0.03613726651847367
176	0xbf9d145bcbc66434	-0.02839797431224529
177	0xbfa65bf7ecf24412	-0.04367041366015924
178	0xbf80a653e0ccde2e	-0.008129744813785224
179	0xbf9100cb8ddae500	-0.016604595692773394
180	0x3fb4975220440d6b	0.08043397224178299
181	0x3fa8414d3f11a142	0.047373212765537534
182	0xbfa60826fd55ce87	-0.043030947136597546
183	0xbfb059235398d145	-0.06386013785305973
184	0xbfbc35974d54d8c4	-0.1101927341268008
185	0xbfc266f14eb2f3ca	-0.1437665590546245
186	0x3fa46ad40ee1ca3f	0.03987753564515061
187	0xbfc92707ffb3ff8a	-0.19650363908294494
188	0xbfbaea98d8eaddc8	-0.10514216705165957
189	0x3fc2a154a75727c4	0.14554842158241688
190	0x3f90fcf5c906902b	0.016589966196662125
191	0x3fb047446deb1ec0	0.06358745273166289
192	0xbfbcfb58c30b0108	-0.11321024667541135
193	0xbf82119e5f4adae7	-0.008822667391866058
194	0x3fa68b1c02f58e43	0.04403007064936706
195	0xbfa5ae965ed2e9f8	-0.04234762103574846
196	0xbfb752e87aade534	-0.09110882754420829
197	0x3fc5460d1966062a	0.16620029201662706
198	0xbfb646427d844ec0	-0.08700957836509371
199	0xbf928a00459e00bb	-0.018104557274910543
200	0xbf9b1ef742d9c835	-0.026485312896007158
201	0xbfac3df3f9deefb4	-0.055160164119541305
202	0x3f88a6629f5f6e4e	0.01203610466830365
203	0x3fbf6f79e1a3ed00	0.12279474028393977
204	0x3f940246c7c3f99f	0.019539934103698916
205	0xbfcba8744b459ce3	-0.21607831645380945
206	0x3fccfbb677bc7c5d	0.2264316639566201
207	0xbfae69f7e9382ef1	-0.05940222474973023
208	0x3fb91a77771be71b	0.09806009920057727
209	0xbfa5bc8553a6b0c4	-0.042453924619026334
210	0x3f8f03e7b3a82145	0.015144167108716142
211	0x3fb94301950beb7b	0.09867868317443922
212	0xbfb2da5c8231886d	-0.07364442995597793
213	0x3f95527332987295	0.020822334254364156
214	0x3fbec2b7d82da20a	0.12015866306104087
215	0xbf8df8d8fed96210	-0.014634795453432964
216	0xbfbc2b6a5e52dc17	-0.11003746798347468
217	0x3fc3afeae034ebde	0.15380607555002163
218	0xbfce64548e38812e	-0.23743683761950635
219	0x3faf81a1de767ebf	0.06153589096652245
220	0x3fba109e925a9ca1	0.10181609223455947
221	0x3f94dd071827b254	0.020374403809841304
222	0x3fbb3455cc0986f5	0.10626732093217213
223	0x3fbcfe6ea55822ce	0.11325732743001568
224	0x3fa5864b6760b731	0.042040211076125884
225	0x3fa119ffa934855a	0.03340147915356324
226	0xbfb5733c91d369d5	-0.08378962097359673
227	0x3f85bf0ba8270ad4	0.010618296689135866
228	0x3fa494da6abd9d15	0.040198159723155914
229	0xbf62ee65dc6dbea3	-0.0023109425996422225
230	0x3fb0ba281c1fdcbd	0.0653405254996526
231	0x3fbe1e56ddfd9fa4	0.11765044135756725
232	0xbf776d465f56d1c8	-0.005719447033176235
233	0xbfa83c999f3fbbe0	-0.047337341966219304
234	0xbf9c9565daa51730	-0.027913657636666034
235	0xbfb7476245bab8a3	-0.09093298151376188
236	0xbfbeb36642477ce7	-0.11992491834779494
237	0x3faabc0f42cbad9c	0.05221603098274416
238	0x3fd08c03d8153a3a	0.2585458383736384
239	0xbfa48be717f96e4b	-0.04012987296729572
240	0xbfcc927046828f7b	-0.2232189506804579
241	0xbfd0efa263fad009	-0.2646261192669504
242	0xbfcd781920bfbfcc	-0.23022760485718974
243	0xbfce8cd7ef5c9bad	-0.23867320239625425
244	0xbfcdaa189fd6054f	-0.23175342373364535
245	0xbfcf0c400dd7530a	-0.24256134677730073
246	0xbfce7cd7e4d8b316	-0.23818491624970112
247	0xbfcf56d6b056bcc7	-0.24483760462087487
248	0xbfce7b5dd916273c	-0.2381398496620991
249	0xbfd0e999764d7b0e	-0.2642577796267894
250	0xbfcefb768c32ec20	-0.24204904409074945
251	0xbfcbc92992b5926c	-0.217076489100822
252	0xbfcec5f7102c142c	-0.2404164151159035
253	0xbfcc26be3fd3b122	-0.21993234745549112
254	0xbfce4ce0fe58ad7a	-0.23672115725763004
255	0xbfcf78c0ccee43ae	-0.24587259298689673

linear_mean.bias f8 [30]
0	0xbfdf557681d69ae2	-0.4895912425949246
1	0xbfa604b9650057b7	-0.04300479276587004
2	0xbfd456ceed8d96fc	-0.31779835890334573
3	0xbfdb3ee28410d140	-0.4257131852821381
4	0xbfd7211c968767b7	-0.36139597606745205
5	0xbfd810d697ff7106	-0.37602772563492726
6	0xbfd37a034356a5c5	-0.3043220670320717
7	0x3fba439b5c8dbb72	0.1025940991364516
8	0x3f80a284c19d2844	0.008122479590060412
9	0xbfc8717aa152f356	-0.1909631049838036
10	0xbfc90336dbd8b071	-0.19541059240998807
11	0xbfd5b99b13f7f6c6	-0.3394534773832273
12	0xbfd1d1c00afcd5b4	-0.2784271342564708
13	0xbfd69a346075f155	-0.3531619016646535
14	0xbfd8e23b83e851f2	-0.38880813485709986
15	0xbfd55bde5fdec305	-0.3337322174293578
16	0xbfdd2a9977b46b40	-0.4557250660888492
17	0xbfd738bf762972ec	-0.36283861674546247
18	0x3fb3ee043263a24a	0.07785059194760283
19	0xbfcdf3ccdb5e5bb6	-0.23400269233090193
20	0xbfb70f55f8dc6162	-0.09007775617317784
21	0xbfd21fd5be17c475	-0.28319305003885314
22	0xbfd20325cb3490cc	-0.281442116205892
23	0xbfcafd8961537baa	-0.21086232425929313
24	0xbfd6168c282cb72b	-0.34512618945415124
25	0xbfd064c2a229ed49	-0.25614991985613195
26	0xbfd87ba97782fa80	-0.3825477282625016
27	0xbf846edf2d546024	-0.009977096148347249
28	0xbfd3b786935a3c65	-0.30807651891604443
29	0xbfd353d6933e6037	-0.3019920766760182

linear_cov.weight f8 [900, 90]
0	0xbfb3e6848da880c3	-0.07773617227985867
1	0xbfa19192c1a934f7	-0.03431376089120335
2	0x3f869ff92f5a09f2	0.011047312505302085
3	0x3fb3f7f0823e5344	0.07800200633785176
4	0x3fb9871ea8a01dee	0.09971801392395438
5	0x3fa3c8fade45abeb	0.038642730362731324
6	0xbfa07c8c03f5ecb3	-0.032200217708088806
7	0x3fc1be32ef051760	0.13861691161053624
8	0x3faa114f1b52329c	0.05091330727109275
9	0x3f9e54917bdc33d2	0.029619477448296135
10	0xbf9485de92e194cf	-0.020041921343722898
11	0x3f72e8ea82ae9c32	0.004616657311010507
12	0x3f9dca5d750d9b21	0.029092273969037245
13	0xbf9cea381be41ca8	-0.0282372252486566
14	0xbfb43ed992670261	-0.07908401321675164
15	0x3fa56e285f619c4d	0.04185606159517672
16	0x3fb096618a39699c	0.06479463219276343
17	0xbfae2fec183782d9	-0.058959367710263506
18	0x3f9367ead28f9521	0.018951100446334416
19	0xbf80475fe8dbb988	-0.007948636335154871
20	0xbfa094a023a20095	-0.0323839229104134
21	0x3fa85aabeb154e98	0.04756676907223073
22	0x3faa56929dfed660	0.051441747461848264
23	0xbfae5f3db058245a	-0.05932038095131338
24	0xbfa76117f02d0da7	-0.04566263968311129
25	0x3fb59fa9059939e7	0.08446747194941616
26	0xbfba61c2c6bacd34	-0.10305421211051141
27	0xbf9a3569e8e10233	-0.02559438213234184
28	0x3f7232055170f96d	0.004442234777398785
29	0x3fa3f3033cb33e16	0.038963414344490285
30	0xbf819a56026191d6	-0.008595153758684509
31	0xbfae2f521f560b29	-0.058954778981407614
32	0x3fa3caa29e0eee7b	0.038655359071950245
33	0x3f8dbd97e3bb8caa	0.014521776807163118
34	0xbfb121ab839b3dc1	-0.06692001307532448
35	0x3f9bfe222750be75	0.02733662953340717
36	0x3f537a621b3b0064	0.0011888464040765928
37	0x3f758a63cd6ac08e	0.00525893197361439
38	0x3fbf0cadc2197640	0.12128721226459849
39	0x3fa0e46deed3a27b	0.03299277820935217
40	0xbfa8011db746b595	-0.04688351499803926
41	0xbf874cdbe9b21549	-0.011377065724682682
42	0xbf9bf77c956f7a59	-0.027311274166886033
43	0xbf769aa3fa7c3e2b	-0.005518570462086407
44	0xbfa5a212f830edd1	-0.04225215224911561
45	0xbf93c73c283d88a1	-0.019314708667828587
46	0x3f80688e8a99720a	0.008011926274030596
47	0x3f9a04d517f3a8ac	0.025409059130574604
48	0xbf88ed5b4ad060da	-0.01217147180618421
49	0xbf950d2878b1e493	-0.020558006636268344
50	0x3f7315a0ef972594	0.004659298568591725
51	0xbf97c1fa62567e7e	-0.02320090508658134
52	0xbf693784f5979171	-0.003078231512278311
53	0xbf8ea82e879838b5	-0.014969218743342652
54	0xbf9ca2f96e9a9d8d	-0.027965447784166698
55	0x3f86fe6e7920d101	0.011227477141894317
56	0x3fb1c9ed68639d1e	0.06948741720735938
57	0xbfaa3696ba495ffc	-0.05119772933966257
58	0x3f5bbef5f4920689	0.0016934778125520542
59	0x3fb0505fe65b8d67	0.06372641920056808
60	0x3fc072fa1fe7b7c4	0.1285088210856299
61	0x3fc244b6a1ff83a7	0.14272196683944324
62	0x3fc046559019a739	0.1271464303602501
63	0x3fc0822f5b2dd6ca	0.12897293045141672
64	0x3fc0066c200f65ea	0.12519599500119166
65	0x3fc1362f3369af0c	0.1344660759963222
66	0x3fc068f9064d8aee	0.1282035141731152
67	0x3fc0d5fa27999977	0.1315300649031987
68	0x3fc08459748c245d	0.12903898421089624
69	0x3fc1bbe668f48731	0.13854675411953957
70	0x3fc0e019f21f03e3	0.1318390304786866
71	0x3fbe106107298203	0.1174374239431089
72	0x3fc1376a3098c32b	0.13450362561118231
73	0x3fbeb4d6658613a7	0.11994686106306905
74	0x3fc1093c37e08793	0.1330943367802858
75	0x3fc0aed54f0d7add	0.13033548698418587
76	0x3fc1a68418d37c2b	0.13789416515553063
77	0x3fbee21f110b6188	0.12063783804058492
78	0x3fc1f1f1d308085d	0.1401960640360497
79	0x3fc0a1d31ffd08db	0.12993849813398736
80	0x3fc13a7f7f77613d	0.1345977184671571
81	0x3fc039b20fadf20c	0.12676072850798936
82	0x3fc18bb2c44566b4	0.13707575400876737
83	0x3fc061136b22241d	0.12796251994248645
84	0x3fc01ddf01e2f10b	0.12591159431566043
85	0x3fc0670ef31d0248	0.12814509268538843
86	0x3fc0d749550c4fa3	0.13157002117861535
87	0x3fc12b29da785fbf	0.13412974517336626
88	0x3fc08d37b4e3656f	0.12930961925921333
89	0x3fc14e70f1326343	0.1352063348502047
90	0xbf7de15d0bfe55b5	-0.00729500147271749
91	0x3f79d5e92071e1f9	0.0063075167191688425
92	0xbf7957cd0802c4dc	-0.006187249091611249
93	0x3fa1f059805cd96f	0.035036847037576695
94	0xbf770fb0dbbc55d0	-0.005630198338413675
95	0x3f6da7d45b7c0542	0.0036200664143285774
96	0xbf850cc5abe888c3	-0.010278267201162433
97	0x3fa2a64c569fa397	0.036425004553002065
98	0xbf72f73057e54dc6	-0.004630268899137707
99	0xbf8818fccf742583	-0.011766409951195161
100	0x3f93cfec28c34085	0.01934784888072773
101	0x3f8f4df120f7aa19	0.015285381144129183
102	0x3f95a5e5cc59e2f5	0.021140661809542178
103	0x3f7f77671e1ffce0	0.007682230761928838
104	0xbf9baf9c859b2354	-0.027037091879523814
105	0xbf6a3d9250d677f3	-0.0032031877260143503
106	0x3f9e238247b81c1d	0.029432330729857726
107	0x3f767e063c45bde8	0.0054912799426882555
108	0x3f50ebad9912fc32	0.0010327525417748282
109	0x3f93a607626f4006	0.01918803728386822
110	0x3f9174420fbfd40d	0.01704505177618292
111	0xbf72d2c625771012	-0.004595541009113207
112	0x3f8edda360200f12	0.015071178790101256
113	0xbf6cfc417849b311	-0.0035382536610114664
114	0xbf7b1a3703256f05	-0.006616797343976581
115	0xbf76230b767e2ed9	-0.005404515053566172
116	0x3f87e937adcb3e99	0.01167529582144704
117	0xbf84c541756b8635	-0.010141860385775118
118	0x3f84594ff5e4fbbc	0.009935974780658323
119	0x3f8c67a256bccbd3	0.01386954142762945
120	0x3f71c81feae4375b	0.004341244390401257
121	0x3f88aac501df7534	0.012044467086463763
122	0xbf3208475dbdc540	-0.0002751516565161101
123	0xbf932275ae2b47df	-0.01868614078086483
124	0xbf7435896cdcb55d	-0.004933869187693088
125	0xbf4819c0c9117548	-0.0007354918799468502
126	0xbf5916d3af1ee76d	-0.0015313212611389418
127	0x3f93a8afd76bcdfe	0.01919817688299296
128	0x3f9e844ef706db4c	0.029801591708486883
129	0x3f7a3a5b42fd970c	0.006403309336610052
130	0xbf701763c3e43683	-0.0039285561636127645
131	0x3f882a4aef438b9e	0.011799416949036797
132	0xbf806f65e5fd58ce	-0.008024974900461859
133	0xbf8f31d53dd72ab2	-0.015231767606470246
134	0x3f8dbb1d8155b522	0.014517050275311198
135	0x3f755ea47693a014	0.005217211183868659
136	0x3f79982ea2f9481b	0.006248647856027768
137	0xbf80bf29ba3f549e	-0.008177114483183975
138	0xbf63193f1e104dd8	-0.002331374431841598
139	0x3f3851b1a467d2fe	0.0003710802742767221
140	0xbf7991c9ad674ddb	-0.006242549707582391
141	0x3f85282cb26cff9a	0.010330533213732274
142	0x3f7048ec5131c1d4	0.0039757949008251865
143	0x3f67956f121d66b8	0.002878872809486701
144	0x3f9260b34060d68c	0.017947006992662426
145	0x3f8e6e44834aea18	0.01485875631020854
146	0x3f93c8ff298a8f7e	0.019321429167248542
147	0xbf78a8c18c6487be	-0.006020313309166468
148	0xbf841a734ba22f0a	-0.009816075082447213
149	0xbf8991ce28e32c2b	-0.012485132811340524
150	0xbf836c9d09b4bcea	-0.009484507425979467
151	0xbf857013d5190835	-0.010467677059868044
152	0xbf7258f6ae7bc12f	-0.004479373550325057
153	0xbf7eabf66783598e	-0.007488214985832532
154	0xbf6d85e7dcf7f2b5	-0.0036038902833282712
155	0xbf78225a64272e9e	-0.005892136660303441
156	0xbf6b1afc4ca472cb	-0.003308766147837571
157	0xbf75e70d0700372e	-0.005347300422739383
158	0xbf5c8d92614ed428	-0.0017427377217533822
159	0xbf8059fe429fc457	-0.007984148414808141
160	0xbf6f571bba29ded7	-0.0038257161662008476
161	0xbf465e1eb4230b48	-0.0006826066894734884
162	0xbf88390d5af33c35	-0.011827568376615452
163	0xbf788a7ea25c9042	-0.005991453804913562
164	0xbf8523775568015f	-0.0103215525568891
165	0xbf71125e55e8c01b	-0.0041679081901264915
166	0xbf835e39694d2189	-0.009457062269249377
167	0xbf7286a72166c552	-0.004522946217933326
168	0xbf838ca4d7da1dfa	-0.009545600735932237
169	0xbf804bb682c2c167	-0.007956910958768671
170	0xbf821f08d63470e8	-0.008848256146443537
171	0xbf6a3bd4ecf2cd2d	-0.003202358122132451
172	0xbf783adfea20144a	-0.005915522257059777
173	0xbf740a6cbd7b9353	-0.004892754331852728
174	0xbf79585389ba6fc8	-0.006187750168148605
175	0xbf7a396878489d04	-0.006402404866583614
176	0xbf7adfc50b064a23	-0.00656105966517598
177	0xbf7fbc9031060d58	-0.007748187301675223
178	0xbf80448cecf07964	-0.007943249684157556
179	0xbf82dc7a02e1f422	-0.00920958825394719
180	0x3f810b22fa2bfa19	0.008322022685658447
181	0xbf82a8b971fb5bf4	-0.009110878745032004
182	0x3f934ac815504ddd	0.01883995657051495
183	0x3f788f4e053aee34	0.00599604107599876
184	0x3f7f1214000fe113	0.0075856000194039095
185	0x3f3cd126bac81f62	0.0004397124819495083
186	0xbf8f3ade7c4c8b77	-0.015249002617172753
187	0xbf8845e5fc3ad4ca	-0.011852070579474367
188	0x3f64bbbe3f0ed701	0.002530929159969442
189	0xbf759a87c702cad0	-0.0052743247799067056
190	0xbf881179f74de24c	-0.011752083644510546
191	0xbf843537f3294daf	-0.009867131336398353
192	0x3f8c79ad362cd9e1	0.013903954711719404
193	0xbf730c8193d51e1a	-0.004650598680491247
194	0x3f788a4148e9ebea	0.005991225260568259
195	0xbf82dc78ea9bd736	-0.00920958009690374
196	0xbf907df887ce5f03	-0.016105540551136787
197	0x3f6ef8d41cae706c	0.003780760079690684
198	0x3f8a55a718bc860d	0.012858682100673336
199	0x3f5d6ac7d851d08e	0.0017954780207931928
200	0xbf4499f3503ff93d	-0.0006287038854677973
201	0x3f8cde7c0236fcbf	0.014096230332937386
202	0x3f2c23d2517b3202	0.0002146906124295273
203	0xbf78891d7c21f862	-0.005990138221134785
204	0x3f90f03196079204	0.01654126623351894
205	0x3f6f84b6fc315286	0.003847463028743117
206	0x3fa0ad2e4c62cec6	0.03257126505323309
207	0x3f880cd2361b3754	0.011743204380220064
208	0x3f8473755d31e44a	0.009985844523031546
209	0xbf7759aa9515cf51	-0.005700746857986009
210	0x3f6c2c8f3d4b60dc	0.0034392163891930738
211	0xbf642977149252a2	-0.0024611783779369826
212	0xbf73e19ae7ef2a5f	-0.0048538256659847725
213	0x3f87729ec96c5b0f	0.011449089548063477
214	0xbf808bb06377cefa	-0.008078935657045861
215	0xbf73fcd8847a33ca	-0.0048798043932380495
216	0xbf65bf3521c299d9	-0.0026546514255471995
217	0x3f9e5e2f4459db6c	0.029656160876096946
218	0x3f870ec975c2fdee	0.011258672624875534
219	0x3f8798fa0102a840	0.011522248416742653
220	0xbf8337eb07aac337	-0.009383999034385233
221	0x3f8ec1e6d3b9f1e3	0.015018275581717816
222	0x3f5571dc9d7262d4	0.0013088850444430882
223	0x3f87a2d577cf0963	0.011541049689075938
224	0xbf88af1ce8e625de	-0.012052751405252356
225	0xbf78d586eeae4f83	-0.0060630102915587595
226	0x3f70866035056477	0.004034400757825122
227	0xbf672e1d5117c13d	-0.0028296063035143913
228	0x3f74e683858ba400	0.005102647549144912
229	0xbf8d1ff3a8248000	-0.014221099442295326
230	0x3f9bf2ca9a936464	0.027293363270335283
231	0xbf8e2c053e608c06	-0.014732399908160342
232	0xbf905e86b092124a	-0.015985588576329847
233	0x3f91bb06696b9923	0.01731500643190843
234	0xbf74c15c23146a60	-0.005067214880251386
235	0xbf8c3ae45a72273b	-0.013784202585401686
236	0xbf2186e7ad69376e	-0.00013372018902873699
237	0xbf84004c03e651bb	-0.009766191357621126
238	0xbf811ccaeaff452c	-0.008355698868316518
239	0x3f8229ed8055b54c	0.008869033316580975
240	0xbf8893ed58b0ba46	-0.012000898617853594
241	0xbf8465be8ea07adb	-0.009959686973215856
242	0xbf845506210c318d	-0.009927795299085296
243	0xbf895f5edbca976e	-0.012388936121464158
244	0xbf89d72287e4ba1c	-0.012617368480815343
245	0xbf852c57cfcfeedb	-0.010338483838487835
246	0xbf84c99e21b3f811	-0.010150180247816139
247	0xbf88885fe7cb34e8	-0.011978863965305966
248	0xbf853265e4b58f66	-0.010350032846595258
249	0xbf7fca2ce592fad8	-0.00776116884043062
250	0xbf8b17a23018eecd	-0.013228671162429784
251	0xbf79c9f9d9123bee	-0.006296134918684066
252	0xbf8890161bc79fa3	-0.011993572924396128
253	0xbf8aa3298ef1d2ef	-0.013006519961189037
254	0xbf80e86263602ea2	-0.00825573793192486
255	0xbf88f3497a18e842	-0.012182783163655956

linear_cov.bias f8 [900]
0	0x3fcbf94f2b60ab3e	0.2185458146862746
1	0xbf8c4862282ea429	-0.013809935427916713
2	0xbf8ac8a10e53811f	-0.01307798218698558
3	0x3f8567606396bd6a	0.01045108131333335
4	0x3f85ebf91d5e0a18	0.0107039892279817
5	0x3fabcf34dbf95782	0.054315234997075926
6	0x3f732b9e0c543673	0.004680268645882546
7	0x3f89def4e2eb5646	0.012632287192370428
8	0x3fb83125d6044b90	0.09449993586558336
9	0xbf955c82143b8566	-0.020860702977079447
10	0xbfadece1c4bd2580	-0.05844789053532917
11	0x3fa3a5901a3588dc	0.038372519683223166
12	0xbfa1be577ebd759b	-0.03465531751747194
13	0x3fb440712009de8a	0.07910830528441629
14	0x3f97177a90ec2dc0	0.022550501914379018
15	0x3fb37e340104e41b	0.07614445710068234
16	0xbf539b1205eefaa3	-0.0011966396339030759
17	0xbf71899f0c99abdb	-0.004281636510863297
18	0x3f925bde9fd161a5	0.01792857981158282
19	0xbfb0067b990f0bbf	-0.062598919742455
20	0x3f87e58c690537f2	0.011668297724693109
21	0xbfa229d3419c2de6	-0.03547535110382309
22	0xbf7fe4fcb5589403	-0.00778673853122758
23	0x3fc4af15a1e02984	0.16159315494617144
24	0x3fa85a1dd0a2aef6	0.04756253406352855
25	0x3f9329d001c6b48d	0.018714189632806955
26	0x3f819ab4b51283b5	0.008595859313858737
27	0x3f979231ad26cdb1	0.023018623536427977
28	0x3f8d532dc22fbc98	0.014318807114220442
29	0x3f89d6e20e3df480	0.012616888103133883
30	0x3fc4b505d37533aa	0.16177437615479323
31	0x3fa78f3facff48e3	0.046014776103804576
32	0xbf8b243aa5ca8912	-0.01325269525961351
33	0x3fab23510277cd18	0.05300381808401705
34	0xbf8ddc096959d6c4	-0.014579843070559824
35	0x3fc0dc06db3a1bc0	0.13171468452875779
36	0x3fbfaae62f5c5580	0.12370146423594086
37	0x3f8c780eff24d7b9	0.01390086856973115
38	0x3fc2ee77128ecb9d	0.14790237814085297
39	0xbfc1a81e013bad12	-0.13794302997789792
40	0xbfa85e8ed30b64c9	-0.04759641958453071
41	0x3fa73e147fe3e6b4	0.045395508395768586
42	0x3fa2f1dae1dd97e2	0.03700145728252814
43	0xbf7b883e9ae77b39	-0.0067217298041828905
44	0x3fa45c3f4b52b0a4	0.03976629061193762
45	0xbfaf7be413ae80cb	-0.06149208774809408
46	0xbf94ebdc7ec6e17c	-0.020430989492270055
47	0x3f8a7c2f6bc0560e	0.012932177043732753
48	0x3fadff45584df0d4	0.058588187245705164
49	0xbf87bec335ef4e87	-0.011594319423159817
50	0x3fa755179cca58b9	0.04557107724137794
51	0xbfc14d31f6727303	-0.13516830953167167
52	0xbfa9d477b5e0d514	-0.050449124290404296
53	0x3fc30f4947d0df74	0.14890399939190113
54	0x3fb74a5fb77996c0	0.09097860555047088
55	0x3fb2ce2ea0fc5813	0.07345858984294322
56	0xbfb204cfa3982bad	-0.07038591140751178
57	0xbf8df01a69c75bf9	-0.014618116715537243
58	0x3f9d12fd9784101d	0.028392755863947728
59	0x3fa77a2eaa776ff1	0.04585405188456083
60	0x3fbd2f444086d9a5	0.11400248122558894
61	0x3f6f761de499e695	0.0038405021521697538
62	0x3f325c14d4156984	0.0002801466799461571
63	0xbf504d2829b39ea0	-0.0009949581352034845
64	0x3f8411026c628d8c	0.009798067982336865
65	0x3fa23f959b0f9b14	0.035641360452976084
66	0x3f74255063bdf347	0.00491839792436794
67	0x3f8301662dae6a62	0.009280012387354823
68	0x3fb25207a17be06d	0.07156417553403722
69	0xbf8cd46d77840bde	-0.014077048501809072
70	0xbfa4f9e8e043d772	-0.040969159484958065
71	0x3f99fca4e2d124b7	0.025377823203858365
72	0xbf979cbcf1f064cf	-0.02305884577444744
73	0x3fa670d0fc1b7ede	0.04382947041972128
74	0x3f8d52a0d19707a9	0.014317757030656813
75	0x3f9dd6c8e674f840	0.029139651361440366
76	0xbf8549a583c72124	-0.010394375881233993
77	0xbf9198bf2107f7f7	-0.017184244528827688
78	0x3f80db7034ff0075	0.008231045358002323
79	0xbfa35425bddbac3f	-0.03775136892894481
80	0x3f7cd1878fce03b4	0.007035760438953643
81	0xbf9b0741efed1b64	-0.026394872921879822
82	0x3f8102e3b09b0c78	0.008306292368962284
83	0x3fbc2b6a90a16f25	0.11003747969646989
84	0x3f9f9ba52d75b264	0.030867176913874764
85	0x3f8bd1fbda3e384d	0.013584106061696266
86	0x3f82d40b5e48a434	0.009193505110561252
87	0x3f8b5f77133700e3	0.01336567904843417
88	0x3f826736ee7ad14c	0.00898592868120631
89	0x3f5ca3e19a94af2e	0.0017480567133345104
90	0x3fc285a7075c02c8	0.14470374926897578
91	0x3f7d198ad3af7182	0.007104437153398259
92	0x3f324ff9b2b395a8	0.00027942510742059523
93	0x3f7432abb3feffad	0.004931135859749175
94	0x3f60176bec0eb705	0.0019642932752138597
95	0x3fa130ea5b479398	0.03357632030728225
96	0x3f844bc7f3506f90	0.009910165894375017
97	0x3f840a018696b73c	0.009784709853956401
98	0x3fb850a7129ca9a9	0.094980661434113
99	0xbf916911aeefd936	-0.01700236921529915
100	0xbfa76cae57ebfeba	-0.04575104544892157
101	0x3fa2719c6c15c606	0.03602303332707994
102	0xbf9d2d9fcbbdc865	-0.028494355020889723
103	0x3fa4c58d11f5b01d	0.04056969494089933
104	0x3f8da4fb6fe9c231	0.01447483477861153
105	0x3fa325661af47082	0.03739470557249637
106	0xbf8af5942f58c936	-0.013163716978941236
107	0xbf9a5c7e10681b26	-0.025743455649741474
108	0x3f87e2d7f2a1972f	0.011663138477341654
109	0xbfa6664c22dca60b	-0.043749217277149276
110	0x3f89ba53863256c6	0.012562420399528828
111	0xbfa127c79f651c86	-0.03350662060489022
112	0x3f80469a4481a362	0.007947163787507431
113	0x3fc239d4248c9d51	0.14238979134209243
114	0x3f9fc471528e76de	0.031022806800698237
115	0x3f931f9557db5c1a	0.018675168502195395
116	0x3f9867a15e8597a7	0.023832818407207104
117	0x3f7d478bed07cde2	0.007148310266063858
118	0x3f880f35f9714345	0.011747762369994095
119	0x3f8af0b0d74c2797	0.013154393740041388
120	0x3fc016d56f30e334	0.12569683007475307
121	0xbf711fd0d811b2ae	-0.004180732533410376
122	0xbf7d72975d6aea62	-0.007189360875310942
123	0xbf4c37ce8e7953be	-0.0008611448838090547
124	0x3f733d5e17114a36	0.004697196521265703
125	0x3fa3dda1d0636563	0.038800293624897696
126	0x3f757bdd771ba9b7	0.005245080088324298
127	0x3f8446ecb087c82d	0.009900902879028528
128	0x3fb41bf693e606cd	0.0785516844826148
129	0xbf8664c0995cafbe	-0.010934357338179154
130	0xbfa7bf33832a045c	-0.046380624543424814
131	0x3f9a6cb9e42072e6	0.025805382298233058
132	0xbf972a8b322c1088	-0.022623228966964365
133	0x3fac4cc2f6ffae6a	0.05527314438935778
134	0x3f90e38ab1cc7789	0.016493002988788006
135	0x3fa81cef2abb0161	0.04709575077640938
136	0x3f8adbc073fc229b	0.0131144557376655
137	0xbf8d2c66aacf8c05	-0.01424484452031117
138	0x3f88d9f30844f067	0.012134455385073474
139	0xbfa5b8b7504f9f18	-0.04242489676818034
140	0x3f80183577fef89e	0.007858674740301826
141	0xbf9ea3b31391512d	-0.029921339101137413
142	0xbf61cdf81dafe8b3	-0.0021734090819310547
143	0x3fbd63efde91d036	0.11480616744830816
144	0x3f9649e2f1dc0ffc	0.02176622964090312
145	0x3f8a6dc497e531d3	0.01290467823550837
146	0x3f962341cf4b87f9	0.021618870045934078
147	0x3f2ec27e42e9dfd3	0.00023467818524003248
148	0x3f82e195d93ca45b	0.009219332401317162
149	0x3f8a1400f68d316c	0.012733466648250334
150	0x3fc1819406de8770	0.13676691375172423
151	0xbf6ba9c55ea69adb	-0.0033768515470059385
152	0xbf82015277dd6aeb	-0.008791584284769857
153	0xbf89be6cf101810a	-0.012570239167132975
154	0x3f9063e4bd9d0ecb	0.01600606353100779
155	0x3fa0cda63f36b740	0.03281898042346976
156	0x3f8d7f9613844b69	0.014403507681469656
157	0x3f843660169eef28	0.009869337740262177
158	0x3fb6f40e3040654b	0.08966149023071528
159	0xbf8298346bf4afb4	-0.009079370064306015
160	0xbfa5c13385fa85f9	-0.042489633660135646
161	0x3f9bdb291c12d05b	0.02720321878287311
162	0xbf92faa0e28c5dd2	-0.018534196689044276
163	0x3fa609494f539212	0.04303959935512948
164	0x3f90509f6f1c29be	0.01593255153333372
165	0x3fa8a16474171578	0.04810632626644468
166	0x3f92a9f25a140cd8	0.0182264201621479
167	0xbf8540bba4745281	-0.010377374607324132
168	0x3f8bcb28fac914e1	0.013571090844502755
169	0xbfa677af2473c9d1	-0.043881867599242626
170	0xbf7ae06c904d90a4	-0.006561683728112087
171	0xbf9bbd38c0de3559	-0.027089010974625214
172	0xbf5248f3dd9d4c21	-0.0011160260678095906
173	0x3fc0cc34ca6d3a55	0.131231879082821
174	0x3fa0c66c8b03dba3	0.0327638549514895
175	0x3f8b93eb55c67914	0.013465727381853067
176	0x3f8944c4a8bd157a	0.012338196181768114
177	0x3f821444c4f3758c	0.008827721844165713
178	0x3f8a039d9b5db2ca	0.01270220880879815
179	0x3f9498b158f32f2f	0.020113726667474182
180	0x3fbc0999ba1df8e1	0.1095214919459724
181	0xbf697cc2d3f181e1	-0.0031112485153672463
182	0xbf732ba78ae7400c	-0.004680304015394664
183	0xbf7a048a166c355f	-0.006351985363619888
184	0x3f8dad2d3a236124	0.014490464531647769
185	0x3fa2317314b0150f	0.03553352000748521
186	0x3f29d92b7214ed56	0.00019720702497659043
187	0x3f70de2782b310e5	0.0041181128864915305
188	0x3fb3e611c10ecba6	0.07772932971310684
189	0xbf8f7abc1d7a18fc	-0.01537081685024732
190	0xbfa3df32d5ed250c	-0.038812245000892615
191	0x3f99b77de86c0224	0.025114028273494196
192	0xbf988a3299d5d570	-0.023964682235108226
193	0x3f9f8cb25b704f5a	0.030810152846313478
194	0x3f90a7c012f427b2	0.016264916569560924
195	0x3fa400a55762e08a	0.03906742755629107
196	0xbf934882d6ee014f	-0.018831295364635733
197	0xbf8b68200670b0a3	-0.013382196613825953
198	0x3f84dbf6150d0013	0.010185167806071182
199	0xbfa32aaa10ccd302	-0.03743487792090684
200	0x3f66ca97a1657a91	0.0027821504146879413
201	0xbf98f140c46c7f4f	-0.024357807148703
202	0xbef90e199f5c7c90	-2.389438483085517e-05
203	0x3fbadac901c801ed	0.10490089696396128
204	0x3fa2181ff94732ab	0.03534030836053622
205	0x3f8ad91204d6c6c0	0.013109341404603625
206	0x3f7b96c2928d4dd2	0.006735572861390664
207	0x3f65298e02c9d5a8	0.0025832914018859184
208	0x3f6c4e360a87b276	0.0034552627077942223
209	0x3f88cea4046e00d6	0.012112885842498516
210	0x3fc07206dac661a1	0.12847982103700153
211	0xbfae2d177f52e602	-0.0589377730297649
212	0xbfa07905f8313d9b	-0.032173334643285055
213	0xbf8a709c3c4757f9	-0.01291009959178878
214	0xbfb2e1ded8f012f2	-0.0737590102799677
215	0x3f9a428da3c2195a	0.02564450561524132
216	0xbfb54393126f03e8	-0.08306235504188886
217	0x3fa4230f5c27779c	0.03932998657158679
218	0x3fb14fd9fb7886ca	0.06762468709396355
219	0x3fb46507a77556a8	0.07966659391726216
220	0xbfaef3aeb6ef3842	-0.06045289977156233
221	0x3fa7dd9c61215c1b	0.04661263166115522
222	0xbfb0525522a7d677	-0.06375629516682034
223	0x3f94b4e7a4016405	0.020221347222420877
224	0xbf933a10bf78ed2e	-0.018776189505144085
225	0x3fb1a308f850a3ed	0.06889396726968729
226	0x3f62e55cea935906	0.0023066344043442015
227	0xbf3aac993f2a6690	-0.00040701619506364976
228	0xbfa1b30a0d09f2fc	-0.034569086162241164
229	0xbfa7f20cc284369c	-0.04676856874912724
230	0xbf7d87d94f836c13	-0.007209633702781398
231	0xbf71c5c21ad46ec3	-0.004338987562075128
232	0x3fb2df969c6b21f7	0.07372418707667082
233	0x3fbe8d223407ff17	0.11934102793020106
234	0x3f9895404e04eb23	0.02400684810821042
235	0xbf9193b917205357	-0.017165081058993916
236	0xbf5691f95038b2d0	-0.0013775763226348443
237	0x3f993fb174f60a42	0.024657032741297387
238	0x3f883533e6936dd8	0.011820226167791256
239	0xbf9d8d42e20de0f1	-0.02885918144917893
240	0x3fb35f8c159f8ec6	0.07567668464576646
241	0xbfaf0a47a82f3bca	-0.060625304489455425
242	0xbfafaff1f965d07f	-0.061889230436379165
243	0x3f9d0f29db99ed57	0.028378156689070035
244	0x3fa360d6fa9e1aa3	0.03784820374771882
245	0x3fbcb6d307ab02a0	0.11216467797477003
246	0x3fb5408ff38195d2	0.08301639265990637
247	0xbfa73e5991e5ce59	-0.04539756685235536
248	0x3fc5798e10f95b7d	0.16777206257640023
249	0xbfb8c7829dfc27ef	-0.09679428441100389
250	0xbf7c6b366ac276bf	-0.00693818337108859
251	0x3f92d35d3d7577da	0.018384415508414388
252	0x3fa46a76fe0ce469	0.0398747620697087
253	0x3f94fd9afbbe9358	0.020498677840481733
254	0x3fa002347db41677	0.03126682314363632
255	0xbf662d9d6237f4c4	-0.0027072976970417845
