port_results/Delage_2/30_500/54/8_trained_linear.pth (torch, 173439 bytes, 17 tensors)

radius f8 []
00000000: 7510 e036 a9f1 3fbf
-0.0004874265786158968

shared.weight f8 [30, 90]
00000000: 03f6 80b7 264a 0cbf dc8a 9ada 6e2f f7be
00000010: 8e94 64e3 81b7 10bf 51a2 77ff 3bd1 f23e
00000020: e315 e0f9 7772 f4be 5318 a358 9acb 0a3f
00000030: b990 b0ee 55a2 19bf bee5 9eb7 b1ad 04bf
00000040: 2e8a 9326 91a2 1b3f 08c8 59e9 c70a 133f
00000050: 90ff 89f7 c362 103f 5c14 7bb1 3b00 133f
00000060: 57f5 7161 3729 0f3f 80de 36af b2fd f53e
00000070: 33bb 6350 9a05 f7be c881 cfd6 3612 e33e
00000080: 5870 2019 5152 12bf 1bb9 0878 22d8 123f
00000090: c862 7e43 c9ea debe 6e2b cb63 0c2f 133f
000000a0: cdc7 64ee ca73 f2be 90cf 4ab4 ae46 ed3e
000000b0: 32d0 8c8c 0425 15bf f830 a370 b4cf 123f
000000c0: 8569 79e2 6ee5 18bf bec9 12f7 7334 f6be
000000d0: ee46 bb28 2a2d 0a3f 364a ea52 22c7 0cbf
000000e0: 71dd a80b 5f10 f33e 146e 9e0e 2447 00bf
000000f0: 56db 8b5f 8bda 0ebf 5e80 f76a e908 103f
00000100: fc72 8de3 3bd3 fe3e d17f ef83 7904 1cbf
00000110: e110 4bb8 a3f4 e33e 0fdf 7e80 aca2 11bf
00000120: 34fe 7209 4a2e 003f a6a9 efce cd0e f13e
00000130: 0937 b47d 4385 213f 4c54 edc0 15f5 01bf
00000140: dab8 cd60 4bc1 123f 7ca8 0c56 9ad2 febe
00000150: 5e87 6c80 8219 e9be c8d3 9c2f 3b6a 943e
00000160: 6d6c f95e 9687 f03e 020c f062 38fa e33e
00000170: cf92 b127 b892 20bf e676 baf6 9d2e 0ebf
00000180: b065 178f 1459 db3e de43 cbbd 504e 03bf
00000190: a5f0 3d28 454d 12bf 9930 b0bc 6e3c 073f
000001a0: 2e71 ddd0 5f3f c1be 913b 3f61 ef38 213f
000001b0: 08d7 fcc4 4004 163f 4976 a6c0 6d5e 1dbf
000001c0: a8e4 c2c8 ef6b f2be 9a28 2c51 3abe f03e
000001d0: e9bd a9b8 4775 e6be c75f a764 5f01 053f
000001e0: d02c d9bf 525f 04bf 46b7 31a8 59ae 013f
000001f0: 6d38 4b7b e834 07bf 9c1e 13b1 0786 00bf
00000200: c24a b998 60b3 fc3e 7278 89c5 b97b 0fbf
00000210: 77b1 9a21 9f0a f3be 32b5 5e1a 4e35 00bf
00000220: 50a7 18bf 14bb 0bbf c031 16b4 2510 0fbf
00000230: b881 66d3 f5c0 fbbe c2d9 2bcb 353a febe
00000240: 5848 9150 7cef f1be 4e8e b488 4b07 02bf
00000250: 1fb0 912e 91fc fdbe 43c5 c682 a136 fbbe
00000260: 6593 3824 9d9c 02bf 5b26 62a5 35a1 0cbf
00000270: cf2d a60a 7726 fabe e397 91b7 4400 09bf
00000280: 1a4b 194f 1856 07bf a355 e44c 12e0 f0be
00000290: 54ef 22db 237c 09bf 2d8a 0694 096a 09bf
000002a0: 20db 2d81 c5fd d43e eeb6 eeec 540c 10bf
000002b0: f43d ec76 a71d 0cbf c602 69d7 b386 09bf
000002c0: 5559 ccb5 c37b 0cbf e8f9 4b3b 442d 0dbf
000002d0: cce9 3946 8765 d53e 38a4 e3c1 f7c9 103f
000002e0: 03a3 55bf aa83 ffbe 5c39 01b3 6b1d f3be
000002f0: 68a6 ce1a 335d f33e 8500 7723 ce8f fe3e
00000300: 00be a999 cf52 743e 83a3 d28f d966 f1be
00000310: 80bd db26 4f0c c83e 3c5b 918c 9a0d b73e
00000320: 9e85 4bcf 4076 063f d95e ae6a b7e5 21bf
00000330: 8967 a960 29f4 133f 24d7 84a9 e388 fe3e
00000340: 05f7 432b 7371 e33e a021 5259 8a60 c4be
00000350: f494 54ca b0ef 0d3f 0cd5 50e3 0e00 033f
00000360: f8fa 3c36 3a52 133f d159 2064 de4f febe
00000370: 1894 1e97 1ff5 b83e 6459 53a1 e2fe 123f
00000380: f8c7 a1f4 091a 10bf 8768 bc12 e4f5 e53e
00000390: a67b 31d7 f25e 10bf 3a61 a3b4 1244 f43e
000003a0: 5305 34d1 25f5 173f a274 af29 df7b 02bf
000003b0: 1956 96ce 9124 023f f884 344f 7edb 113f
000003c0: 0ea9 f2b4 43e5 febe 4aab 7b36 8a4a fbbe
000003d0: 654c a0bd 6a19 0bbf dad8 d623 6bc2 0fbf
000003e0: 0970 3fd2 a159 173f f1a6 dfa3 be33 1bbf
000003f0: 7691 a95d bfe0 f13e 80f8 a5ca 3e0f f63e
00000400: 4707 7579 f929 efbe 7542 35eb 0f47 f1be
00000410: a26d 8b27 669b ed3e 6a04 76af 8287 e03e
00000420: ba18 c889 99dd 053f cff5 1796 d4e3 fb3e
00000430: ec94 782f 8c0b 04bf b082 8d5e 168a 19bf
00000440: 2da7 c250 2abc 14bf d65f 297a e77e f93e
00000450: a5e9 c16c fda3 febe 638b 7828 2674 19bf
00000460: 164e ce9c d86f f7be 66b6 5210 b8e6 fe3e
00000470: d314 ab6a 2347 dc3e e034 4e8f 2640 f1be
00000480: e6e9 9cf3 639b 17bf 8121 4760 27b4 febe
00000490: 6273 a90f cae9 10bf 1ff6 67f9 5e76 fabe
000004a0: 1fb8 b749 f6df 073f 1a03 80a6 1311 02bf
000004b0: 2067 3df4 ece2 e2be 7432 ad21 3c05 13bf
000004c0: 5651 90d8 28b9 efbe 52c9 5440 1016 f0be
000004d0: b444 6a1a 7c75 0d3f 55a5 b0b2 e97a 14bf
000004e0: b955 e30f f990 f4be 46b9 5b22 0638 123f
000004f0: 5fd2 be70 18e0 0cbf f834 d167 ec13 143f
00000500: 91db 6d72 463c 0ebf 55a7 b3ca beb0 05bf
00000510: 848b d12d 36d0 fd3e 989c 525a 4ed1 c03e
00000520: c23b a39a 60c9 05bf dd11 c536 2335 f1be
00000530: cf2d 5c79 15a7 033f 6f7c 7eb2 da6c 0a3f
00000540: bda7 3f84 d7ec 08bf 2234 d26b d0eb 0d3f
00000550: 7500 ffa8 5d22 0ebf 906f 8c89 c045 e6be
00000560: 02b6 6148 90ca e63e 76e7 740d 3230 0ebf
00000570: 59ad 8e72 edb7 0bbf 919c c07e 2892 06bf
00000580: e91d 6e64 b9ce f73e 6ea0 7ceb 8eb6 ff3e
00000590: 1ab6 0570 50e8 ff3e 5d97 a50d 63d0 02bf
000005a0: 61fe 395b 56c6 fbbe 2e29 162c 805d 093f
000005b0: ce2d d706 2cee e23e 0072 ac3c 1537 e2be
000005c0: 1432 17f4 5227 04bf ebd8 e71a e8a2 06bf
000005d0: 1d54 588b 1afe febe 7147 bb9d a315 e3be
000005e0: 95bd 7385 20b8 16bf 0a40 074c 533f c1be
000005f0: 72aa 0ff6 3756 0dbf adcc b725 2c07 1b3f
00000600: a685 0605 6fa2 103f 6c43 9354 2d37 f6be
00000610: d45c 8c4c 0b6b e63e 9e17 2b69 f37b 153f
00000620: 38ad 643c 173b 09bf 3cf8 ddd6 4644 d4be
00000630: 07ad 2612 1ec6 20bf d2cf 8dd0 7228 013f
00000640: 99eb c931 0c07 e4be 9cc9 5597 fde3 f13e
00000650: f5ef a1ad 1b6a 013f 2d9f 8f92 0d84 06bf
00000660: 8cdf 1a68 075b 04bf 80ea 0755 9056 863e
00000670: e64a cb22 1e77 f23e 38f4 d286 7db9 85be
00000680: aad9 4d2e 14cd f8be 86cb ca84 2bcf fdbe
00000690: 282e a532 b09c f23e 9ad4 f76c f587 013f
000006a0: 691d a54b 5213 fcbe 6b15 bf15 fe54 20bf
000006b0: b9c8 2c26 97cd 0e3f 29ae cafb 16fa 22bf
000006c0: 179d b1ec 0ca3 1b3f e685 fc46 c336 f7be
000006d0: 98bd 84b1 6ac1 b3be 554d 20e4 938a fe3e
000006e0: 64b0 465d 52be 133f 30ec b52d 9f91 ccbe
000006f0: 0ffc 898d 3c08 ffbe 6702 3768 d73b ffbe
00000700: 364d 32d3 ec8e 01bf 2422 3b2f 22ea f13e
00000710: f4a0 171c 5024 143f 93aa 9702 3274 0bbf
00000720: fae1 0f3c 8365 e63e 504a 75d2 90da 043f
00000730: ac0a 9be6 0123 f0be ba2f 6d9f 4f25 eebe
00000740: fcc5 5693 edca e03e 4ea7 75a9 0786 0ebf
00000750: 3064 f656 dd98 c3be b51c 5068 4605 003f
00000760: 4ef0 a071 33dd f3be acad a4f4 2f25 f1be
00000770: ff8e 1a71 f437 fb3e b506 ebc5 495c ea3e
00000780: 774d 1ad1 d122 f4be c823 b8ca 0695 da3e
00000790: e931 1095 b72b 05bf 8b40 5439 6821 12bf
000007a0: 30e0 7c9c 5a92 d63e d5cb 2ef4 0ad1 15bf
000007b0: a881 4848 0b3b 04bf c669 e5ee 178f 10bf
000007c0: 126b 47e9 0d7f 08bf 7612 d9e1 a336 14bf
000007d0: a3d0 9ac7 bf59 12bf 4f35 422b 0fbf fd3e
000007e0: b272 d1e6 92a8 01bf f07e 072d d185 ec3e
000007f0: 4449 d702 661a 10bf 6c2e 27b7 72d5 0cbf
-5.39582314904412e-05 -2.2111211058227202e-05 -6.376962923988953e-05 1.7945596452325418e-05 -1.9499915303830105e-05 5.110802438106133e-05 -9.778642167696223e-05 -3.94410953527646e-05
0.00010541926316735207 7.263989604114351e-05 6.250687682474013e-05 7.248272265332603e-05 5.9434893210567434e-05 2.097225929073446e-05 -2.1955381293399522e-05 9.093832625540416e-06
-6.989116653283286e-05 7.188520795218085e-05 -7.371219048390213e-06 7.318032380536157e-05 -1.75974991176232e-05 1.3959933889175024e-05 -8.066025033032288e-05 7.175959413813552e-05
-9.497155462537793e-05 -2.1176237571205027e-05 4.992756757150699e-05 -5.4889426214139674e-05 1.8180799751214006e-05 -3.104761874725081e-05 -5.884874184929635e-05 6.116795224597865e-05
2.939713724302554e-05 -0.0001068782012079155 9.515582641291368e-06 -6.727388256322026e-05 3.0862459590160976e-05 1.6267612348666624e-05 0.00013367127289892086 -3.4250952117766646e-05
7.154486247682186e-05 -2.9394786341154365e-05 -1.1968444608326665e-05 3.0420669326912144e-07 1.5763891438741137e-05 9.525977558771593e-06 -0.0001264428900384002 -5.756778304298413e-05
6.520264137910138e-06 -3.682311919351427e-05 -6.98159656717401e-05 4.4319276263222666e-05 -2.0560688715321492e-06 0.00013139650456969442 8.398671456863124e-05 -0.00011203331829397993
-1.7568233076946258e-05 1.5967442844413116e-05 -1.0708868804359044e-05 4.006454817656563e-05 -3.8857186137686316e-05 3.372393714405493e-05 -4.4263214851279115e-05 -3.151617978286206e-05
2.7371113488004367e-05 -6.004963569659982e-05 -1.8159380579406297e-05 -3.091473199332908e-05 -5.289227545930578e-05 -5.9248114221952235e-05 -2.646803951622683e-05 -2.8827079129956216e-05
-1.710461677745969e-05 -3.438662778368057e-05 -2.859744100584826e-05 -2.595272251121784e-05 -3.549913938297767e-05 -5.4606866499784446e-05 -2.4938825541149554e-05 -4.768571575013128e-05
-4.45104759704466e-05 -1.609352039462986e-05 -4.86086313613287e-05 -4.847375612661675e-05 5.004714710979738e-06 -6.121891350005144e-05 -5.362670241570644e-05 -4.868732769525634e-05
-5.432787904717749e-05 -5.5650372280158765e-05 5.1013458662825955e-06 6.404471102751462e-05 -3.0054401539389267e-05 -1.8229412660547353e-05 1.8467007680966768e-05 2.9145945715348016e-05
7.571086372572098e-08 -1.659560893033401e-05 2.8667548609345793e-06 1.3740741897826978e-06 4.284272464417513e-05 -0.00013654579137488998 7.611753987060549e-05 2.912018189356944e-05
9.271222872527232e-06 -2.429140929797495e-06 5.7098944390690786e-05 3.624005731987277e-05 7.370453164144339e-05 -2.8907763642471905e-05 1.4875837135244553e-06 7.246263733704444e-05
-6.142316593285557e-05 1.0471587834671537e-05 -6.24500005854527e-05 1.9327078270987517e-05 9.139102285262339e-05 -3.5255191697316766e-05 3.460473983378179e-05 6.81205599915197e-05
-2.94643062345524e-05 -2.602688928636112e-05 -5.1687784164888136e-05 -6.057633843730018e-05 8.907365969385029e-05 -0.00010376788210888687 1.7049713145659996e-05 2.1037628053382097e-05
-1.4860135520880882e-05 -1.647719063885491e-05 1.4117730857624384e-05 7.88180248778772e-06 4.170536815100005e-05 2.6597940978581078e-05 -3.823300897591052e-05 -9.742509395272814e-05
-7.909782670148238e-05 2.4314612924264258e-05 -2.922113962753607e-05 -9.709818743223806e-05 -2.235116862754461e-05 2.9469724741096325e-05 6.741972962747219e-06 -1.645144307676073e-05
-9.005353504402228e-05 -2.928135474336699e-05 -6.451888831677862e-05 -2.523649853890784e-05 4.553766595082075e-05 -3.4459507162415244e-05 -9.005750719093578e-06 -7.255725396966025e-05
-1.5126838450320892e-05 -1.5340981936514987e-05 5.618844015942964e-05 -7.81254899925495e-05 -1.961355246112514e-05 6.949937286624295e-05 -5.507540308205961e-05 7.659082798846032e-05
-5.766954409740851e-05 -4.1371176246431336e-05 2.843220396576584e-05 2.0048143648146914e-06 -4.155469953703125e-05 -1.6410416195060624e-05 3.748449596060641e-05 5.0402092085060554e-05
-4.75409765668534e-05 5.7070062646415407e-05 -5.7476504593535165e-05 -1.0620340888993306e-05 1.0867721595721021e-05 -5.757954357439494e-05 -5.2868779966653685e-05 -4.305063325232243e-05
2.2704616891936888e-05 3.024398640075236e-05 3.0429341678786267e-05 -3.5884878985466556e-05 -2.6488070672402146e-05 4.8380350118187136e-05 9.026698729728158e-06 -8.685668850421692e-06
-3.843995956351681e-05 -4.31754191260613e-05 -2.9556839498640867e-05 -9.100212018084871e-06 -8.66670464920643e-05 -2.0560460997978745e-06 -5.595548896749216e-05 0.00010310370401338488
6.345560655642585e-05 -2.1186385571084402e-05 1.0689802722603515e-05 8.195565377907977e-05 -4.812397632955118e-05 -4.8319592290663e-06 -0.00012797467304657297 3.2726291528200856e-05
-9.549870406679906e-06 1.706179451361479e-05 3.3215493844246305e-05 -4.294554157252407e-05 -3.88251910527485e-05 1.6643211121755017e-07 1.760988577610258e-05 -1.6186067189851227e-07
-2.3652161775322755e-05 -2.8428323548278514e-05 1.7749846997801088e-05 3.343789796509643e-05 -2.6774858932013786e-05 -0.0001246032869614376 5.875222702513131e-05 -0.00014478235779812165
0.00010542646775634313 -2.2138516612040924e-05 -1.1775216020684737e-06 2.9126471652385817e-05 7.531526291043724e-05 -3.4056705381902588e-06 -2.9594587291455944e-05 -2.97868305219072e-05
-3.348980171682463e-05 1.7084678758635033e-05 7.683505011580103e-05 -5.2364135921430546e-05 1.0679499498054437e-05 3.9775414104288435e-05 -1.5389201883273903e-05 -1.4374611948440744e-05
8.007377440974281e-06 -5.821905977650023e-05 -2.3361596316992905e-06 3.055688015512465e-05 -1.894384977439738e-05 -1.6350996966325228e-05 2.5957654605903397e-05 1.2569666237086241e-05
-1.9203199434670325e-05 6.337674828945637e-06 -4.0380039202234635e-05 -6.916235573251239e-05 5.381511478046204e-06 -8.32236228649885e-05 -3.858688527125519e-05 -6.316741539561581e-05
-4.6722995793854524e-05 -7.710814721757241e-05 -7.000191717560166e-05 2.8368306360484094e-05 -3.368089969832867e-05 1.3600694189485712e-05 -6.142852426841312e-05 -5.4996074044658154e-05

shared.bias f8 [30]
00000000: e45c 6130 becb 063f a552 5b3c 5789 133f
00000010: ed93 0463 3717 063f 616f d3a8 25b2 16bf
00000020: 84c5 78ad 30f5 e3be 991a a0e0 29f0 d4be
00000030: 1442 4124 df90 053f 2673 ea4b be32 083f
00000040: 1e6f ac07 eea7 0a3f d210 b194 6b1c f0be
00000050: 9aa7 e103 d8fd f23e 06de 1c6f e8ef c83e
00000060: e2b7 369a d2be dd3e 6413 0d23 8270 0cbf
00000070: c48f 0acf 4227 11bf 2dac 80a8 1e94 ec3e
00000080: f8c2 cf07 7699 0abf c37c 0635 d5c0 f33e
00000090: db51 cb94 3d8b b6be d4d8 eea0 1780 70be
000000a0: d2a8 f5fc 59e1 f8be d2b6 d2c9 69f0 163f
000000b0: 4ecc 8b4f b517 17bf 5f5a e130 fdc8 f2be
000000c0: a08e c317 7915 ef3e ce8f e2aa d903 173f
000000d0: 98d1 57db 565e 09bf 801d b7e4 5cf0 abbe
000000e0: 8503 c0d3 0042 113f b85d 88fc e617 153f
4.347967301104332e-05 7.45257849204631e-05 4.213464524330927e-05 -8.657793860627823e-05 -9.516608243750507e-06 -4.9920413491890635e-06 4.113369917091797e-05 4.6154434575762426e-05
5.084223899684395e-05 -1.5364662697928845e-05 1.8111779575148355e-05 2.972738791930587e-06 7.091856250180844e-06 -5.424401422841096e-05 -6.543488758353674e-05 1.3627334979634816e-05
-5.073443842452079e-05 1.883817032110876e-05 -1.3437216523265426e-06 -6.14686330575589e-08 -2.3727683410448165e-05 8.750577622392987e-05 -8.809131749014482e-05 -1.7914880168080185e-05
1.4821948518712561e-05 8.779541051012684e-05 -4.838659826225943e-05 -8.326446247424959e-07 6.583337830080693e-05 8.046481446687722e-05

mean_hidden.weight f8 [30, 30]
00000000: 2471 aeff 3631 2b3f 0897 1891 7117 0b3f
00000010: 06eb 3714 a309 133f c80f 2da8 6cd9 12bf
00000020: 0b46 dde4 9819 e7be 3cd9 dbfa cb43 193f
00000030: 6a07 5edf 9e01 0fbf 8f1a e823 9a5f 263f
00000040: ea2b 5922 a1be 1d3f 9438 dc33 e76f ff3e
00000050: 89ef 7f06 b0b9 fc3e 0886 4542 5f05 0b3f
00000060: eeb2 4526 753b f4be cc27 6917 aa32 df3e
00000070: f8f2 2016 3050 0bbf d291 282f 90b0 2dbf
00000080: 752d 708a db82 f73e 5ecb 6419 8d8e 043f
00000090: 79fc 5342 6ce1 22bf 65ce 6dd4 1ee8 253f
000000a0: 4281 3641 66fb 003f 2fd2 8df5 d497 0dbf
000000b0: 555d cc17 9c22 14bf 357f 1276 ec65 253f
000000c0: cc03 fd82 2b8c 03bf 4b90 4cce 0862 153f
000000d0: c2db fa8c f451 1e3f d628 76af 30bd 123f
000000e0: 2758 1469 0339 053f 0fcd 08da 1153 163f
000000f0: aab6 e1cd 9a35 d0be d946 5fce ccb3 f6be
00000100: da34 0a00 a250 e0be 32f5 ef88 ee44 f83e
00000110: bbc7 07ac a2b3 df3e a89a db46 3475 d13e
00000120: 829c 600b d692 f13e c4a1 386a 0c65 b8be
00000130: 19cb 1e0c 3b4b debe 94ab b9be 5aec e2be
00000140: ebe9 8865 de74 e0be debe 271b e73b dabe
00000150: 8470 d4a7 774a e73e 3703 fd17 28d9 d3be
00000160: c519 0fdd 4bec f43e d419 e6b4 7946 bcbe
00000170: 9ae4 12d4 ca6a c8be eb77 8cc9 6f68 e8be
00000180: 40e5 c470 4fb1 eebe 7a37 533a aa02 f03e
00000190: e420 4907 12da f0be 14dd cfb2 68ac f13e
000001a0: 3e31 cd9a bf16 fa3e 2e9d 6927 a275 033f
000001b0: 7762 338c 75c1 e73e 1585 4070 e9c0 f53e
000001c0: 7406 b137 873e c13e b55e 7046 fa82 eebe
000001d0: b2a9 85f1 8f58 f4be 608a d84d 90b1 f7be
000001e0: 4a7c 340a a9cd d73e 59c2 7c38 1340 e83e
000001f0: 05a8 5480 1c28 cabe a3f7 f155 0ab2 e2be
00000200: dc6a 7a4f 6b0f a6be 343f 7f1a 5091 d2be
00000210: 37a3 e365 eb40 dabe e02d 182e ae73 913e
00000220: de85 722a 413a c3be f884 e479 e447 ce3e
00000230: a8f3 25ce 0178 c73e 40a3 d7e7 5cbe 743e
00000240: 9233 ea68 3906 d4be 8c66 9b82 544d ce3e
00000250: 47e7 4958 38f5 ebbe 6f29 6461 fea8 f03e
00000260: a8ce 9f17 160c cd3e 0bd8 8ef9 fcaa d73e
00000270: baa0 76a4 7172 d33e bd07 dc0f 4a5a edbe
00000280: 9436 5532 9955 de3e 9bcc a041 b10f f1be
00000290: fcf2 e9dc aee7 e5be 8c2c dc59 2d05 a13e
000002a0: 4374 2cf5 928a dabe 5e33 cc30 b83b 023f
000002b0: a927 90ff a5de f0be f64e 4546 29d8 d63e
000002c0: 2e51 26d8 6e98 e73e 84e3 9c3e 2516 e23e
000002d0: 1a68 38d2 295a fa3e 2229 7e93 79cd ff3e
000002e0: 466f 6ebe 6c41 033f af0f bb1c f211 febe
000002f0: 1806 ac6c a23d 843e 544b 70c6 f774 eb3e
00000300: 8e7f 800f 3361 f4be 0673 36a4 45cf f13e
00000310: 87c9 546c 3a3b 013f e6e3 d17e 3037 c03e
00000320: aea9 a41f 31f5 c9be 2060 6d8b 164a e2be
00000330: d51a 89e8 433b f5be ec6c b1bb 8208 fa3e
00000340: 8e63 ac1e c51f f1be 92fe 3cf5 1419 f93e
00000350: 7775 bbc0 a8c1 f93e 8fc0 dc5f 7ccf f43e
00000360: 963f 19e2 b411 c0be f3fe 9db4 616a e6be
00000370: d4a9 8837 5877 f93e 4462 d728 4b1b f4be
00000380: f35b 2dad 91d8 00bf 7fa0 169b 025c fcbe
00000390: 5659 d9c7 b694 f0be 92b0 b787 4366 f33e
000003a0: 98ba 04a6 75d1 f6be c132 6746 44f4 f03e
000003b0: ebf3 2df2 b26c f83e ce20 cdfb e6d3 fc3e
000003c0: eb76 0820 65b2 073f 1228 246a a950 1ebf
000003d0: 06df b265 4133 fd3e d1cd 0679 da3f eb3e
000003e0: dcf5 0254 e8cb c0be 540f 3f7d 5faf ffbe
000003f0: b62f 30da a517 1a3f 706a 049b 3c03 b0be
00000400: f070 adb5 b47e ddbe 98e0 1500 2472 043f
00000410: f641 c04d 374e 09bf f024 c3b7 7fa5 11bf
00000420: da02 0df0 7b40 0cbf 7541 7c31 2bf4 0abf
00000430: 66cd c4eb ee67 f83e ac88 0320 7b36 1ebf
00000440: 7eba 7c93 7ed1 003f d8eb 4bcc 0133 053f
00000450: 1836 47fe 556c 173f a830 8c2f 1888 dc3e
00000460: ea68 0834 c733 20bf 8e36 1c36 3dea 1fbf
00000470: d6ef 537e ea60 06bf ec1d 182d daa3 173f
00000480: 080e 583a ad77 09bf 788c 0283 99d9 00bf
00000490: 0079 beae 07a4 1a3f 2c97 d5f7 9ad3 18bf
000004a0: c6db eea8 3c43 163f 6ebd 9859 1c90 043f
000004b0: 312b 1e12 f384 18bf a0d4 e433 64e7 11bf
000004c0: 8f22 302f bb55 1dbf b80a 59a2 377f 1a3f
000004d0: 4ef2 0ce4 2eb0 003f 2814 2bcd b522 28bf
000004e0: e2f0 246b e03d 0d3f 63c3 43aa 6af5 24bf
000004f0: e718 0687 f46b 20bf 2440 707d 87e0 03bf
00000500: e717 7435 e80c fdbe 21cd af2d 6465 1ebf
00000510: 28e8 78dd 1048 fc3e 2090 7bda b073 fcbe
00000520: 5512 e7de 7352 0ebf e516 dab5 8a0a 12bf
00000530: 406b e4a8 202b 11bf 6614 257a 644e 09bf
00000540: 7b15 f281 fa3d 203f c6d6 6469 ab2a f53e
00000550: d42f e243 f1ab 0d3f 3055 7f75 7d08 09bf
00000560: e712 e603 ba3b 143f 2e1a 5470 3b40 16bf
00000570: 6c75 cc05 3c28 e4be fc0f 2165 ccea 123f
00000580: b06d 8875 5937 24bf 73d4 29b0 b15e 18bf
00000590: 9f34 0f5d 2786 1abf 634d d1d1 a4e8 1cbf
000005a0: 4ead 1081 db4c 0bbf 50d2 3c2a e661 043f
000005b0: 3766 1c09 7aa7 ffbe 6d62 15ab f383 f5be
000005c0: 3abe 159a 6ca6 e2be b1ea e195 566f 0dbf
000005d0: e2b9 c44d 0022 03bf d131 ac72 c3c6 03bf
000005e0: 4bd2 9904 cf35 03bf 0c00 ba19 2270 fd3e
000005f0: e48b dd5d 0b44 073f db8b c591 a54f 093f
00000600: 0d5b 2dc0 a309 07bf 52e9 3943 8620 08bf
00000610: b56c 851b 86d0 03bf 7daa 2e52 6153 113f
00000620: 54ba 2656 57a0 0abf c7fd b817 926e 063f
00000630: b30d b6f1 c614 febe e264 6151 875d 10bf
00000640: 60da b66b 1ff0 093f ec31 cc25 de7b 05bf
00000650: 429c e25d 0645 fabe 778a b28d 8e7d 00bf
00000660: 4d68 f1da cff6 06bf 6d41 a91c ead0 f5be
00000670: 40c0 92a3 9f10 11bf 553e e2ac f6f9 003f
00000680: 13c4 55bb dbaf 053f 034b 2d22 28a5 f43e
00000690: 3a19 1238 456f 26bf fa17 a4a7 5116 183f
000006a0: bf79 e52b d6c5 16bf 63c7 a60e 0e0a 17bf
000006b0: 42f6 feec 8e0e f73e 8981 9fd0 b123 2e3f
000006c0: 5cb3 2961 51c4 1cbf a22c 75a8 76a9 f23e
000006d0: a16c 0d3c dd66 263f c2f3 4c43 4aaa 0c3f
000006e0: 0608 91a5 68b4 233f 010d e150 a346 063f
000006f0: 8ee3 0b4d 3c03 24bf 13cc 7299 14bd 1abf
00000700: 363f af6d b87d 09bf 4265 6aba b95f 293f
00000710: 2e31 f9fc df30 11bf 24ed 64b2 8d96 243f
00000720: b4f3 f2f4 66bd 17bf fbda 05d9 d324 2bbf
00000730: 27c5 1dcb cff3 07bf e9b1 5377 33bb 083f
00000740: 2835 9c73 1816 1fbf b5bb 5114 7216 2bbf
00000750: bdd9 033a 4ef4 0abf 31f6 6e97 751b 00bf
00000760: e352 b523 0892 23bf 7ad4 024a 3454 203f
00000770: 6a93 3a0b 0bf3 1c3f 64d0 72fa d618 0fbf
00000780: 18da 3f30 c973 de3e 404b 32ef 7f4b 10bf
00000790: 785f 6487 5db9 0b3f d85a a1bb 0819 023f
000007a0: 27d3 39e3 786a cfbe 4456 5f55 d919 1f3f
000007b0: 46f3 a867 d6ff 103f 973d 3f72 7110 103f
000007c0: ef5b 1e5d 810a 0a3f 9897 ce3f cca3 d73e
000007d0: 8e0f 7097 b30a 10bf 86bd ad72 480f e83e
000007e0: 0844 ea25 bdbf fc3e 1c51 2cba 05b8 093f
000007f0: 5e6d 606c ba0d 1c3f bdf9 95b4 1903 04bf
0.00020746036883857136 5.167308166801997e-05 7.262285094348725e-05 -7.190442742649385e-05 -1.101493321767606e-05 9.637768263446184e-05 -5.913988199691865e-05 0.00017069584460234876
0.00011346682057326832 2.9980775472054024e-05 2.7394621071138588e-05 5.153843838702146e-05 -1.9294983205342163e-05 7.438160869963376e-06 -5.20958590332961e-05 -0.00022651443539801905
2.2421991754879037e-05 3.920906162804023e-05 -0.0001440472271170034 0.00016713501301134355 3.2390649859383963e-05 -5.6444345950011256e-05 -7.680967059930006e-05 0.0001632548474264029
-3.7283971663366536e-05 8.15694689433887e-05 0.00011566214674983615 7.148370410995099e-05 4.047910364073119e-05 8.5161175328353e-05 -3.864620536570747e-06 -2.1650642245968743e-05
-7.779584849455118e-06 2.314497447385606e-05 7.558274490270256e-06 4.16227076780485e-06 1.67594705190702e-05 -1.4540386609284125e-06 -7.222621379132285e-06 -9.02331335979836e-06
-7.847079516944271e-06 -6.254671847546776e-06 1.1105960988682053e-05 -4.732195861668207e-06 1.9953758797952728e-05 -1.6853388903073764e-06 -2.910751988407872e-06 -1.1638620252048918e-05
-1.4635380943250399e-05 1.526871678408186e-05 -1.6071164696180524e-05 1.6854736873708995e-05 2.488027682838564e-05 3.711606125450028e-05 1.132760042425847e-05 2.0745813358873344e-05
2.055674881457781e-06 -1.4549079606892551e-05 -1.940340652721037e-05 -2.2595985560989302e-05 5.675163410572587e-06 1.156344093508723e-05 -3.118119823360308e-06 -8.914694886504574e-06
-6.574461215048775e-07 -4.4268676119977805e-06 -6.259344074368431e-06 2.600532252600818e-07 -2.2921033920465217e-06 3.6097562336056935e-06 2.7976962979057102e-06 7.72759509365028e-08
-4.774168373200629e-06 3.61228832877482e-06 -1.3331361295987712e-05 1.5888339555161635e-05 3.4626975180475986e-06 5.64287247411221e-06 4.6365372052063946e-06 -1.3996454522938765e-05
7.232277117919694e-06 -1.627092215290543e-05 -1.0445123647112493e-05 5.072421804542677e-07 -6.3279402009705025e-06 3.477722029829906e-05 -1.6088219101851858e-05 5.4465245720896305e-06
1.1251183200035831e-05 8.624318030935189e-06 2.5131416931591188e-05 3.0329357485516945e-05 3.6727076625468885e-05 -2.867708262389829e-05 1.5080541112409661e-07 1.3092472910291503e-05
-1.943558251593608e-05 1.6984611887249492e-05 3.286621135102906e-05 1.933048216215267e-06 -3.0944086094792603e-06 -8.721068622527582e-06 -2.0247940968577363e-05 2.482723696704558e-05
-1.6330815849039145e-05 2.3935295146103467e-05 2.4563294615078412e-05 1.9846431306536557e-05 -1.915593899316736e-06 -1.0688568767624573e-05 2.428645118094672e-05 -1.9175162881387176e-05
-3.213114327731822e-05 -2.7045645486418066e-05 -1.5812791835345445e-05 1.8500774315131025e-05 -2.1761132644455313e-05 1.6168753427514173e-05 2.3293118953205473e-05 2.749227836609872e-05
4.519816502955388e-05 -0.00011564287209267523 2.7847496636395338e-05 1.299353951442805e-05 -2.002300476615659e-06 -3.0217219162200743e-05 9.953450948801856e-05 -9.544279287512193e-07
-7.032142856324761e-06 3.899738659191124e-05 -4.8266470656813736e-05 -6.731597926825142e-05 -5.388620593871846e-05 -5.1410263209319714e-05 2.3275365252218258e-05 -0.00011525274749460646
3.207843331975035e-05 4.043435322916678e-05 8.93523679856501e-05 6.802468072175109e-06 -0.0001236134212526171 -0.00012174604992428782 -4.268375031732357e-05 9.01796259072868e-05
-4.857537650695623e-05 -3.2138821894699945e-05 0.00010162636652786064 -9.470589971768685e-05 8.492524851431903e-05 3.9220681355418545e-05 -9.353383623371122e-05 -6.829785431679497e-05
-0.00011190371496650808 0.00010107781471283938 3.1830245012608006e-05 -0.00018413991218416245 5.5774127206893875e-05 -0.00015990187706152033 -0.00012528762773573248 -3.791249735496407e-05
-2.770463774217488e-05 -0.00011595176640337826 2.6971347180750196e-05 -2.713386280008012e-05 -5.783477887491966e-05 -6.882163639873212e-05 -6.549250449376393e-05 -4.826778537617912e-05
0.00012391741708854182 2.0186117205520428e-05 5.6594181374241805e-05 -4.77469718018021e-05 7.718394133433456e-05 -8.488047395269961e-05 -9.61168569229661e-06 7.216331985754326e-05
-0.00015423743276775153 -9.296378633812264e-05 -0.00010118117576425827 -0.00011027818659785841 -5.2071045623181865e-05 3.887637765701403e-05 -3.0187803139991426e-05 -2.0518719514003187e-05
-8.893058125208139e-06 -5.614264476690634e-05 -3.6492952604983355e-05 -3.772052726533674e-05 -3.664052981103681e-05 2.8074283916712558e-05 4.437598884867564e-05 4.82771303918145e-05
-4.394083955243907e-05 -4.601869332261872e-05 -3.779324782967592e-05 6.609231472391206e-05 -5.078569917614921e-05 4.278548564373322e-05 -2.86876303170599e-05 -6.242884077902218e-05
4.947276962801307e-05 -4.097720804993932e-05 -2.505266990540331e-05 -3.145304955267253e-05 -4.380056213255986e-05 -2.080542780397278e-05 -6.509756430506195e-05 3.237995189053477e-05
4.1364567929920566e-05 1.968874324671366e-05 -0.00017116279562774136 9.188531285894688e-05 -8.687133501925676e-05 -8.78878669599271e-05 2.198874318514442e-05 0.00022994561760382126
-0.00010973688794431224 1.779743845746181e-05 0.00017091227166585613 5.467452175487261e-05 0.00015033509660794547 4.2487963682913764e-05 -0.00015268431754813762 -0.00010199964741523818
-4.8620405969422594e-05 0.00019358770551462274 -6.557814708080666e-05 0.00015707473466784153 -9.056034945138688e-05 -0.00020709119827318892 -4.5685557224293183e-05 4.717112362037977e-05
-0.0001185848640512145 -0.00020666258402310197 -5.141128281309661e-05 -3.0722166165269764e-05 -0.00014931058272318114 0.00012457979483363244 0.00011043314844501125 -5.931287824392851e-05
7.260391388533401e-06 -6.216019009945301e-05 5.287949254489851e-05 3.4518794067286355e-05 -3.7450679657942358e-06 0.00011864079473807807 6.48474323634132e-05 6.128017827155271e-05
4.966933523958122e-05 5.636175953426923e-06 -6.119462146619693e-05 1.1472558602425612e-05 2.741716377358333e-05 4.905478933473121e-05 0.00010701608979995144 -3.81700725240355e-05

mean_hidden.bias f8 [30]
00000000: c1c2 2261 4b4e 1f3f 036c 8f2d 0dd9 e2be
00000010: 5287 4262 39aa e7be d159 df65 6ae8 de3e
00000020: 77c7 c57f 2371 17bf ec49 4607 498c 0e3f
00000030: 866b f771 1802 153f 25bb 6d65 6314 303f
00000040: fb96 efbb 3853 243f ada6 a3b8 3939 0cbf
00000050: 482c 0f70 9a2d debe 42cf 3b9a 28ea f23e
00000060: b4dc 7aa1 8fe9 063f 52b6 4c27 ab0b 153f
00000070: f4ba acca 34b4 e53e 307d 71d3 bf8b de3e
00000080: 8dc8 2963 2463 e3be 0fea a9a6 f2c6 0abf
00000090: 661e dc33 195d 183f e70d cf52 5786 d83e
000000a0: 58fc 9211 12fb 16bf b49f 3412 95fd 0e3f
000000b0: a6ec a001 931f 19bf 19bd 6494 cb2d 0cbf
000000c0: 01a5 75f1 432a 02bf e4b6 40f2 04e7 dc3e
000000d0: a895 0081 5c2f 0b3f 7772 74d6 51c0 31bf
000000e0: 6891 54e3 9d47 2abf b197 23f8 971c 323f
0.0001194222934681839 -8.987358727388308e-06 -1.1284321836338828e-05 7.3690112838060065e-06 -8.942393464453172e-05 5.826566567459002e-05 8.013986779735306e-05 0.00024535586037803737
0.00015506808810455256 -5.383212472216451e-05 -7.195028730098861e-06 1.8038446468928626e-05 4.370183540685618e-05 8.028251779698098e-05 1.0349240559285354e-05 7.282709069660832e-06
-9.244572628495473e-06 -5.107334148575861e-05 9.294000934911283e-05 5.847160804376101e-06 -8.766458303720423e-05 5.910979441586754e-05 -9.583792453409182e-05 -5.3746962793583225e-05
-3.4647177183108967e-05 6.890873724114367e-06 5.185128259225662e-05 -0.00027086256018708045 -0.00020049860328542478 0.00027636251628703883

mean_linear.weight f8 [30, 30]
00000000: 83d2 7415 f140 03bf b45d a384 f3b7 db3e
00000010: d60f 8520 2020 d5be e087 fd71 2f8a 97be
00000020: 9f86 c13b 5dbe e5be ae97 aa77 d6ee fabe
00000030: c89c bc37 dafb bdbe 5813 265b de72 fbbe
00000040: 5454 cef5 7903 f23e 7044 3c4c 75d4 dcbe
00000050: 8673 58c0 a565 f43e 5a46 7015 69fa 05bf
00000060: dc4b 6acc 3ef2 b73e da5a c854 021d f13e
00000070: 0605 322c a9a6 c03e 292f 9785 70ab f53e
00000080: 9fbd 7cdb 5bc5 e3be af1f 96c0 098a e13e
00000090: 6048 28df 5a40 f6be 6b3a 354c 4c37 db3e
000000a0: c593 d0de c80a e03e 989a 7170 b119 f1be
000000b0: c47d 5e06 d58f e6be e612 9df5 a9cc e73e
000000c0: b9cb 40f9 992e efbe d8eb 1b0f f69d d23e
000000d0: 60f4 9939 3b50 c13e 8d71 886e 9232 02bf
000000e0: 34f8 2d76 2df7 f13e c878 b529 5638 fa3e
000000f0: ac7e 8db9 b128 f53e d609 194d 5d3b e33e
00000100: be5e 9e7a a8af d63e b776 809c fa3b e6be
00000110: 7cb5 ab63 6cd9 e4be da7f 2fe2 a038 f7be
00000120: 3a7b d710 a71e b6be d543 a53e 07b7 0e3f
00000130: aaa8 00b3 5856 ecbe 1cee 5a94 0e52 fabe
00000140: 061a 2835 5fa2 e1be 3e0d 7776 038b fc3e
00000150: 6c3c 915e f026 d73e dd2b 11a2 a59f 03bf
00000160: 6152 4efc ac73 f4be 49fc 37d8 a84a 033f
00000170: d3bb 5d00 32ed f0be 1179 14a4 f68f f53e
00000180: e86d a5d6 296c d4be eccb 90e6 bf09 b33e
00000190: fb95 5392 c84f cebe 6d3e 831f 5601 06bf
000001a0: 04d5 d0b9 1ef6 d4be f0ec d7ef fab8 f4be
000001b0: 28a3 ad0d 5777 fa3e 640f 633f 5385 e4be
000001c0: 993d 0ea1 51dc f93e 4f2c 7589 3dd9 0abf
000001d0: d88d b977 4c84 023f 294a 4fed a049 0cbf
000001e0: fdbd 0e1a 255d fbbe a5fb e086 8d8e dbbe
000001f0: 9774 5146 52bf d0be ddd8 fd07 f04d d4be
00000200: 5853 2111 f683 ef3e 94e4 6dd1 ee80 09bf
00000210: 42d7 5f71 c4ef b6be 56b5 4c76 5f43 e0be
00000220: bc7b 1a14 fac3 e83e 20f4 65e5 a01c b4be
00000230: c30b 9656 ab72 e0be 1a08 1719 c7ba 103f
00000240: b84f 80eb 66e0 d23e d8c4 9d3e fde0 cabe
00000250: 80f3 73bf dcc8 e5be 33cb 14cc 73af ff3e
00000260: bab4 da4b 7b8d eabe 1a35 c4ec c03f ea3e
00000270: 4fe3 062a 5669 e7be 878d c9e0 5f16 c7be
00000280: 80bc de73 f015 633e 2610 90cf c7ed f4be
00000290: 9f33 0edf 6da7 fbbe 02cb 95bc 7b66 efbe
000002a0: 1357 eeeb 472a e13e 4478 14b1 a20b bd3e
000002b0: 0e86 330d c0dc f13e 7808 3b77 f5aa 0e3f
000002c0: 5c23 c75a c271 ffbe 8c9d 6e91 0066 03bf
000002d0: 1f6a db74 d5f3 ff3e 9446 5b52 26a3 b13e
000002e0: 7af7 9204 8c44 ddbe 2a69 659b e853 c7be
000002f0: c601 a048 14a7 003f 63c0 1d34 6851 043f
00000300: ae74 4426 53e1 debe d805 e796 1786 0dbf
00000310: 7d23 f19d 7a9c ffbe 6160 1bfd e029 04bf
00000320: f026 4b9b c742 afbe 2954 7b45 0b49 0f3f
00000330: 000a 65a6 1315 753e 75b8 68de a4c0 02bf
00000340: dddb 5015 b647 02bf 9801 e840 6784 013f
00000350: 2454 fe14 a60e e0be 4df7 fcb7 035d e33e
00000360: 107a e8fa 0df2 f93e e0dc b546 d842 903e
00000370: 981d 2fe6 f948 f3be ab22 9296 4a2a 01bf
00000380: cad0 d639 fa5e d83e 1c7f 5a44 e06d f03e
00000390: 8c68 fd26 49ee f33e 1793 682f 55ce debe
000003a0: 6a34 9fae c70d f0be bb9e 7fe8 93ca 14bf
000003b0: baf0 7fd4 5996 0abf 92ab e3ce 07f2 003f
000003c0: 852e 5063 517c 0e3f d13b 68d1 50f8 e13e
000003d0: 2890 2190 a2d5 e5be 8eeb d741 e79f a9be
000003e0: 402f 9fd7 b494 d2be b5f8 43d9 16a7 0a3f
000003f0: 6465 5158 2b64 bcbe ce32 7feb 5f32 0bbf
00000400: 3e40 7765 1bc8 c93e c5aa 2819 d5ba f2be
00000410: 48f8 c7d1 fb22 e03e 781f 162d 52eb 153f
00000420: c23c 567b fbad e2be a495 bbd9 b6cd 09bf
00000430: 3500 b346 e7fc f2be 430a 582e dd1e 04bf
00000440: e420 4ead 1891 f2be 12b4 b69c 3665 d3be
00000450: 289b 04f3 f00a 063f 9353 c211 b7f8 d1be
00000460: 92d8 549e c92c c73e 3483 e9a5 4a2f debe
00000470: 459b 092c 2728 fe3e 7084 22e9 304b ee3e
00000480: 0c58 fcd4 a171 f23e d803 d151 491d be3e
00000490: e0da d9ad ca45 edbe 98ad 6884 d33d 073f
000004a0: 1cb0 5faa c16e fdbe e000 8ada 0594 013f
000004b0: d226 1da7 e339 ea3e 5ae6 c9c0 8c85 d7be
000004c0: 1f17 e695 4e78 d3be 410b d1a8 f035 cfbe
000004d0: 3248 cb63 64e5 f6be 30e6 c933 6546 d83e
000004e0: 1c2b 0009 9bd9 d8be aa12 9080 d44f d5be
000004f0: a766 75ab 866c b8be c362 f8a2 a907 d93e
00000500: aa5f 36b6 b689 b23e 6d68 2eeb 8654 ec3e
00000510: a049 7715 44d8 ba3e ecab f77c da4e e0be
00000520: 8c81 47c1 ea2f cdbe 74d4 a8c8 7bcb e7be
00000530: fef5 07a6 f603 d33e 1825 340a 07f3 91be
00000540: 4432 6b5d 7848 d6be cc9d 63ec b366 e7be
00000550: cdbb f763 3983 e6be f980 bcb9 cee3 cabe
00000560: 5436 899e 9e23 b2be b42f 2813 bc87 d13e
00000570: e00d 1b70 fdb1 d7be 9fba 8d0f 5012 e2be
00000580: bf38 8ecb 79d7 c13e 983a ba8a e769 003f
00000590: 1a08 d080 c0b6 f6be 77f2 73bc 872a f63e
000005a0: 3e16 87e1 8f2a 183f f40b 9f6a 8d1c b4be
000005b0: 9d61 5568 529b d9be 0a20 6f74 8d45 c63e
000005c0: 63e9 bfdc 9470 f0be 9a70 d8e1 c555 02bf
000005d0: 5b5d 0ee4 d324 e33e c46d 0f9a b32d 133f
000005e0: a042 ef49 856f a9be 8595 37bb 367a f13e
000005f0: f113 210b cd27 f3be be11 28ac d37d f13e
00000600: f488 aae2 2d43 e4be 0518 9a2a da54 08bf
00000610: b80e 3c31 db80 ccbe ec93 cc1f bb5e f0be
00000620: ba43 647d 6a42 fc3e fa40 f781 4471 e7be
00000630: f490 3424 dbdf f73e 5edf 3d16 30ce a6be
00000640: dc39 c1c2 d144 b13e 78dc 3c57 415d ddbe
00000650: 3c70 5315 755a d6be bc4f 8637 2866 db3e
00000660: 8842 e0ef 031b f5be 9d29 b184 3cb3 cfbe
00000670: aa21 45e9 928c d33e 7570 7f60 6133 0d3f
00000680: 8e85 1fb0 9a39 0e3f 3b39 f4a8 cf78 153f
00000690: 12e2 a358 48ab 0dbf 188a ebac 0009 d1be
000006a0: 24e9 8a92 e004 b3be 6a02 5a1b 573f db3e
000006b0: bc3a 4cb3 5f05 c3be 7680 832d e731 e63e
000006c0: f315 b0d2 a4c7 d03e 849b a32d 5b75 053f
000006d0: 462d 1ae5 12ec d63e 76ed 943f c2e0 cdbe
000006e0: 4149 6db9 806f e13e 4c56 7d3c 16bc ee3e
000006f0: 40b0 ef4d aa42 cebe 8729 2827 7c22 ec3e
00000700: b056 484c 4df7 c1be b854 1b54 297f ebbe
00000710: 708e 994c b014 e3be 67a0 e31b 6df7 cebe
00000720: 84f3 590c b58f d43e 11b4 a627 eead d33e
00000730: 2657 d212 6b3a d33e 6907 acfa f8d0 f8be
00000740: bcbf 3d49 f555 eebe 8c5d 0dc1 72d7 f0be
00000750: e5c7 570e 0ad9 d23e 3f9f 5a6c 544f d53e
00000760: 2c3f db60 af66 f3be 40d5 ad68 f2e3 ec3e
00000770: 2c4d 6756 ae08 0c3f f0de 77f0 3b68 ccbe
00000780: c63e fac2 824f e4be 0a3d 0725 6075 e8be
00000790: 7cd2 d0f6 9bcc 0b3f 95e6 e671 2a38 dd3e
000007a0: 8b63 2228 858a fb3e de54 f5b8 6a77 14bf
000007b0: 6048 9d18 f71f 20bf 006a 33cf 51ce 00bf
000007c0: c9a8 72aa ce48 e13e 5271 8a74 6ff7 f3be
000007d0: f891 4899 6e5a fcbe a4b2 217b 7617 113f
000007e0: 2418 b581 7987 053f 1826 cb57 d4c1 da3e
000007f0: f1c0 ca1f 89bd f43e 3d2b 79ef f4f7 fb3e
-3.672347764408382e-05 6.608619580648402e-06 -5.036709360976103e-06 -3.507701524710734e-07 -1.036816126304417e-05 -2.5685272229701294e-05 -1.7871736579052115e-06 -2.6177125343379695e-05
1.717908832040247e-05 -6.873587327553129e-06 1.945215264785888e-05 -4.192002477777504e-05 1.427308960498479e-06 1.632053072072701e-05 1.984956129741911e-06 2.0665822693818163e-05
-9.42751545060413e-06 8.363347677300821e-06 -2.122057589743658e-05 6.4888019467150945e-06 7.649482507041364e-06 -1.630817771705126e-05 -1.0758325696801493e-05 1.1348470866709295e-05
-1.4868753886875895e-05 4.438647225542062e-06 2.0639185550051672e-06 -3.4709066145863136e-05 1.7133271636542334e-05 2.5005402318861015e-05 2.0178758492915796e-05 9.17048092497357e-06
5.408803113747256e-06 -1.0602136981725933e-05 -9.941725797680703e-06 -2.214546669765381e-05 -1.3184390498172293e-06 5.8584126082401586e-05 -1.3512273284350545e-05 -2.5101218190866107e-05
-8.408672930404665e-06 2.722074660056511e-05 5.51989203596759e-06 -3.742908689526707e-05 -1.9504411983799884e-05 3.6795881012346094e-05 -1.6142410479809952e-05 2.0563466255224076e-05
-4.8691066275268936e-06 1.1347582591469475e-06 -3.613430765813826e-06 -4.197162701446715e-05 -4.997588715351503e-06 -1.9762591355371292e-05 2.5240108566224013e-05 -9.785080674957771e-06
2.4662609635903857e-05 -5.12096314034474e-05 3.531797753166991e-05 -5.395433769419075e-05 -2.609619844279146e-05 -6.570064313092982e-06 -3.992879190920253e-06 -4.840956648757673e-06
1.502774879128816e-05 -4.864434065771878e-05 -1.3671273726401208e-06 -7.754886334499871e-06 1.1809127161753012e-05 -1.1987584876687276e-06 -7.842982727939812e-06 6.381836126137554e-05
4.500525101053887e-06 -3.2042103059118066e-06 -1.0387715504206604e-05 3.0217514681750434e-05 -1.2661296178018806e-05 1.251651647085155e-05 -1.1163459306172455e-05 -2.752232609192019e-06
3.55498870197106e-08 -1.9959287758567052e-05 -2.6372928860807586e-05 -1.4972842012216714e-05 8.184986084274219e-06 1.7312438028226044e-06 1.703482196269671e-05 5.8494201679263594e-05
-2.9987689843999493e-05 -3.6999599778038313e-05 3.047225555162004e-05 1.0512652094851151e-06 -6.977978111053868e-06 -2.7808866562120892e-06 3.176241541780508e-05 3.875350240789622e-05
-7.362407448388885e-06 -5.63121746952712e-05 -3.014683340677196e-05 -3.845899449367373e-05 -9.316461758387413e-07 5.9672028042058734e-05 7.853780345949609e-08 -3.576758517841251e-05
-3.486656593348185e-05 3.3411408470132564e-05 -7.656679968973531e-06 9.233159061868392e-06 2.4743581599756938e-05 2.423094602391998e-07 -1.8391669424547974e-05 -3.274002194425992e-05
5.810500537096507e-06 1.566810921949025e-05 1.9007495608882238e-05 -7.344719725331493e-06 -1.5310123593615886e-05 -7.931258926385358e-05 -5.0711265942000744e-05 3.232084587686321e-05
5.814669967926532e-05 8.568755714781069e-06 -1.0411506540637728e-05 -7.636732594623617e-07 -4.430028065226775e-06 5.083597639731053e-05 -1.6922525401169016e-06 -5.187373375257141e-05
3.0734143299030166e-06 -1.7862142678885433e-05 7.694556694023397e-06 8.36151987383386e-05 -8.907136229278893e-06 -4.921640649317306e-05 -1.810827636172814e-05 -3.837692728938084e-05
-1.770666388581443e-05 -4.624215260856845e-06 4.204318827510093e-05 -4.284749845724715e-06 2.7626694981920934e-06 -7.196601102239104e-06 2.875981113206339e-05 1.4445169004342044e-05
1.758945046422687e-05 1.7949581157113844e-06 -1.3958274787768119e-05 4.432965993247522e-05 -2.806915531287933e-05 3.352778305032596e-05 1.2505593278827791e-05 -5.608005278484585e-06
-4.641997604420429e-06 -3.7206057812723115e-06 -2.1835387303444256e-05 5.787606650481346e-06 -5.924706911751198e-06 -5.081137723021595e-06 -1.4557796655573355e-06 5.967600869926414e-06
1.10494757952181e-06 1.350888428479723e-05 1.6000741050915479e-06 -7.776270563438944e-06 -3.479382494328721e-06 -1.1346272249838074e-05 4.53364427288388e-06 -2.67465802575809e-07
-5.312701850623622e-06 -1.1158553558889438e-05 -1.0734841565855202e-05 -3.2055226720923924e-06 -1.0811769418807601e-06 4.179528604552415e-06 -5.649393416798609e-06 -8.617178979012262e-06
2.126896643201472e-06 3.130662784399835e-05 -2.1661639085131334e-05 2.113927237433691e-05 9.218695811971046e-05 -1.198740771077937e-06 -6.105119273535148e-06 2.6549923037612375e-06
-1.5678187807546632e-05 -3.497133387162059e-05 9.128502940032831e-06 7.316025450115118e-05 -7.580407731470913e-07 1.6667745240802403e-05 -1.8268082108602956e-05 1.6681204906292392e-05
-9.661874249393129e-06 -4.640856543595976e-05 -3.397863460709513e-06 -1.561168936627451e-05 2.6950299649778255e-05 -1.1178231999503942e-05 2.2768437941370894e-05 -6.796545162076654e-07
1.0293022212507776e-06 -7.000989501729849e-06 -5.329453718529909e-06 6.532442846558043e-06 -2.0127800773708213e-05 -3.7789514287001766e-06 4.660872623248408e-06 5.569592400409075e-05
5.764964409117188e-05 8.190886932288737e-05 -5.658926518664979e-05 -4.061500205240178e-06 -1.1336238207442049e-06 6.496291850788784e-06 -2.267478885882008e-06 1.05833691325665e-05
4.0006300805520556e-06 4.0928692856038166e-05 5.465069607200992e-06 -3.561730861049372e-06 8.313921893741821e-06 1.4655453824434461e-05 -3.6073221134549493e-06 1.341567369641108e-05
-2.141716864532645e-06 -1.3111459910156823e-05 -9.098441654482192e-06 -3.6914954924978808e-06 4.9022093598889e-06 4.691938210771484e-06 4.584359243461368e-06 -2.3666667099859528e-05
-1.4465224275034157e-05 -1.6061396368752904e-05 4.493668006132536e-06 5.080671774550075e-06 -1.85023437129776e-05 1.3776024635462681e-05 5.347044025296797e-05 -3.3863979103063393e-06
-9.684843546936018e-06 -1.166272082367286e-05 5.302287068112852e-05 6.966447271877824e-06 2.6265234290254478e-05 -7.807339556127914e-05 -0.00012302295027183646 -3.205477869424114e-05
8.24184583188662e-06 -1.9041580602606225e-05 -2.7039766410068598e-05 6.519947672396304e-05 4.106368597915657e-05 6.3794008126699e-06 1.9779561614086933e-05 2.6672917526486572e-05

mean_linear.bias f8 [30]
00000000: a3f8 1d03 0ae8 3dbf 35ee d693 befe 41bf
00000010: 5cbd fa5f 226d 3ebf 7f2d e7d5 a823 3abf
00000020: af31 9c20 351c 38bf 0503 1233 13ac 2abf
00000030: be8b eb18 f449 1cbf 03fc ea8e 66be 38bf
00000040: a911 0478 10ed 38bf f8e4 8020 947d fdbe
00000050: a876 e1b6 a84a 34bf c6ac 3e60 6f66 3ebf
00000060: 8076 1632 7934 36bf 56e9 1d8f 5488 22bf
00000070: 8205 a3c7 6dd5 3bbf 61de 40d2 c7fd 2abf
00000080: 77ea fcdb 56b1 32bf c87e 5b28 48aa 27bf
00000090: 6ca9 7325 2b64 3bbf e042 a920 c57d f83e
000000a0: 9dd8 95c4 7a6c 743f 4499 bd67 a953 0e3f
000000b0: 72be 00bc c6c7 24bf cb35 94d7 7194 4c3f
000000c0: fa4b ef37 601e 1bbf 9f18 b3b9 37d7 3abf
000000d0: 4bea 68e5 a8b8 3dbf 7807 4cbc 3c63 2fbf
000000e0: df01 e2cb 4ba7 2dbf fa05 bb2a 5122 37bf
-0.0004563354915417905 -0.0005491667322341023 -0.0004642685816902048 -0.00039885398828395224 -0.0003678922372365679 -0.00020349249237840858 -0.00010791351654008873 -0.00037755969871605693
-0.0003803410727558862 -2.81243719941525e-05 -0.00030962580684055574 -0.00046386927737769275 -0.00033882101896574174 -0.00014139206137626464 -0.0004247086541334309 -0.00020592750763780406
-0.00028522844876347576 -0.00018055086928025197 -0.0004179578149449334 2.3356713464930674e-05 0.004986266672281439 5.7843787515209885e-05 -0.00015854168850769655 0.0008721881742147995
-0.00010344946166122851 -0.0004095564888299072 -0.0004535114616463261 -0.00023946873093199836 -0.000226238253109314 -0.0003529976045052171
