news_results/Adam/1/23/7_trained_linear.pth (torch, 2807 bytes, 4 tensors)

linear_mean.weight f8 [2, 4]
-0.4566792090842452 -0.02139802517455539 -0.036392815692049864 0.04955823395523749 0.01959326499261447 -0.381876171626109 0.007094370648856604 -0.06731281224225312
00000000: 2eeb f16e 3b3a ddbf 0978 4b29 5de9 95bf
00000010: ddd5 6942 14a2 a2bf 6ea7 2b64 b25f a93f
00000020: 7ae7 75c1 4110 943f 605f 10c1 a870 d8bf
00000030: c9ba c29e fc0e 7d3f f5a8 2e97 693b b1bf

linear_mean.bias f8 [2]
6.1519220363871225 6.762859333010514
00000000: 334c 4773 919b 1840 04ea 3aff 2a0d 1b40

linear_cov.weight f8 [4, 4]
-0.008107202060556679 -0.008261207645096955 -0.007927703007638252 -0.008016248537309135 0.005065711122154025 0.003071740412352909 0.005638770921359218 0.004661371180912125
0.005519392869984405 0.003928424650992638 0.006682890030754882 0.0043923654969568226 -0.007617841437562285 -0.006192204876708941 -0.007387946597569751 -0.005248599694745809
00000000: 307e b23d 829a 80bf 780c 4a85 40eb 80bf
00000010: cc9f 3349 663c 80bf 5a4f 6faa d26a 80bf
00000020: 7233 9c79 c8bf 743f e986 9c13 e829 693f
00000030: f664 260b ae18 773f 6aaf 6c4c cd17 733f
00000040: 24fd ecbd 809b 763f 84bb 6976 4017 703f
00000050: b069 ffa1 845f 7b3f c589 95a2 bafd 713f
00000060: 0875 72bd e233 7fbf 2834 f856 ff5c 79bf
00000070: 41a8 56d0 d242 7ebf 20a2 9e40 8e7f 75bf

linear_cov.bias f8 [4]
1.8115290554370092 -0.13328101559003055 -0.1330631208674075 1.5833237009574876
00000000: 0db1 0de4 05fc fc3f 3784 9131 5a0f c1bf
00000010: 5df0 365c 3608 c1bf 6881 a93b 4b55 f93f
