port_results/2025-05-05/10_1/10_3/15/0_trained_linear.pth (torch, 29815 bytes, 4 tensors)

linear_mean.weight f8 [10, 30]
0	0x3fa8e9f33731ad7f	0.04865989731555497
1	0x3fad764117f96e9b	0.05754283349662367
2	0x3fca6aba6477b17e	0.20638208299295607
3	0x3fa901d345007af4	0.04884205071743067
4	0xbfbe486830ea0f52	-0.11829234308430372
5	0x3fc612ceb9c410bd	0.17244896002387647
6	0xbfbb110679f69882	-0.10572853543871655
7	0xbfa23a0a83d1d58a	-0.035599068251865054
8	0xbfc39cd91295625a	-0.15322411925696394
9	0xbfb9f5cd35d5fd3d	-0.10140688480713762
10	0x3fac2ea9d8cad2d1	0.055043513978863985
11	0xbfc552ad20f0432f	-0.1665855799515383
12	0xbf53277cd4ec8186	-0.001169082551946672
13	0xbfc423bca4bfbc46	-0.1573406032980264
14	0xbfc6bbdbe9e07ce7	-0.17760800285120767
15	0x3f9fd265cd7acdfe	0.031076040903554862
16	0xbf922ee7277e8a0b	-0.017757045541324994
17	0xbfb7ea5a9f318509	-0.093419708123765
18	0x3fb441a97db573db	0.07912692374289014
19	0xbf5b44d2f02798af	-0.0016643581335471882
20	0x3f919056150ccc8f	0.01715216163138372
21	0x3f9043d2e6aa4111	0.01588372738712091
22	0x3fa0afabeb11f633	0.03259026760586572
23	0x3fbb5be5cd65a57c	0.1068709970910699
24	0xbf8a0f7c31d12224	-0.012724848051349609
25	0xbf8e4b0973c91070	-0.014791559072485166
26	0x3fbd69b1b2db3c21	0.11489401451693528
27	0x3fd8d6ca1bfcb45e	0.38810971005552186
28	0xbf827a801ab7d99e	-0.009022713485120456
29	0x3fca388762d422da	0.2048501236497689
30	0x3fb7c7416f269b95	0.09288414920466288
31	0xbfc751dd5043601f	-0.18218580645657398
32	0xbfa8dca8ca518238	-0.04855849713999699
33	0xbfd1331499602a79	-0.2687427041825355
34	0x3fce89b791983f62	0.2385777913009362
35	0x3fb4ac5055e9f6e2	0.08075430009372611
36	0x3fb9c7f733d1566d	0.10070748343545129
37	0xbfa1fc690f28eb20	-0.035128863430563095
38	0xbfb6c53faf8c9efa	-0.08894727741119005
39	0x3fa5becc839ebb6f	0.04247130495729478
40	0xbf8dfb9d9240153e	-0.014640074754434292
41	0x3fabec9a6ca85296	0.05453951431642172
42	0xbfc296807263ac53	-0.14521794877450364
43	0xbfb71104127b7b6a	-0.09010339213589949
44	0x3fcb43cf20e66261	0.2130068693775398
45	0x3fbb9f27a58e02a0	0.10789726058829752
46	0xbfb8d301d52768a9	-0.0969697137256015
47	0x3f8f472596a480ae	0.015272420558688129
48	0x3fc964e246d01387	0.19839123208671713
49	0x3fd0f261a329b232	0.26479378637194195
50	0x3fc463fa470929df	0.1593010756353825
51	0x3fb8077dbbe4c48d	0.09386430585142787
52	0x3fc27d586b47ff84	0.144450237639827
53	0x3facd6e8973bb1f3	0.056327122174341236
54	0x3fc8c77ec6435526	0.1935881107407706
55	0x3fa28db5d023d53e	0.036237413079940314
56	0x3fbed5f011619903	0.12045193123194413
57	0xbfca1b481877121e	-0.20395756907068202
58	0xbfa9a45414b4b8da	-0.05008185150869489
59	0x3f975fc108fd2acb	0.022826210187569623
60	0xbf7741e09acbf2fc	-0.005678059923181374
61	0xbfb97c454633429a	-0.0995524689090054
62	0xbfb3c6e313f12889	-0.07725352513185348
63	0xbfc6d180ac64e968	-0.1782685128944863
64	0x3fc1ab42366520c2	0.13803889900214555
65	0x3f7e7a75647fa066	0.007441004338012735
66	0x3f8c550b85ab5f91	0.013834085480467969
67	0x3fcd74ddfa2d484c	0.23012900081318077
68	0xbfbbb6cfce5ff348	-0.1082582358212224
69	0x3f8a57c01c6f63f6	0.01286268317010018
70	0x3fa7f81a786c3423	0.04681475372317603
71	0xbfb7c41d7a9b4763	-0.09283622973751231
72	0xbfc12d601099337a	-0.1341972428366736
73	0x3fa862ab2679bf57	0.04762778134033734
74	0xbfb053091fb690a7	-0.06376702331778238
75	0x3fcfb651b4c91085	0.24775143935596958
76	0x3f90cbc306fcf866	0.01640228967811943
77	0x3fa597fbc1e2bb3f	0.04217516652840069
78	0x3fd4646e6224daf0	0.318629833072392
79	0x3fca770a73bf5aed	0.2067578377888916
80	0x3f70163879fc719d	0.003927441226349163
81	0xbfa13b111c3d79c8	-0.03365376920440927
82	0xbf7a0f9b515e39cd	-0.006362539968803605
83	0x3fc00529613969ce	0.12515752074507563
84	0xbf906622856d4f5f	-0.01601461352704747
85	0x3fa767b5eb1d9f8e	0.04571312422814265
86	0x3fc27941199097e5	0.14432538746149173
87	0x3fa03e0f7ca53a8f	0.031723484006410556
88	0xbf98facb606e0b0c	-0.024394204865084965
89	0x3fa1c0eb7c90a5b1	0.03467498679703896
90	0x3fc42ffc4863d5a3	0.15771440062205241
91	0xbf9fe809cf876023	-0.031158593455842386
92	0xbfbf2041a586e8f4	-0.12158594409166651
93	0xbfb44c29642dd59d	-0.07928713508393632
94	0x3fcd494e89e86789	0.22879964574604753
95	0x3fb87768b0df3db0	0.0955720359627239
96	0x3fbebee1beb4c932	0.12010012536919559
97	0x3fc0f74d0e555675	0.13254702758665685
98	0xbfb3d7a1bea952a3	-0.07750903038806682
99	0xbf91e3b85423e83d	-0.017470245490564407
100	0x3f8573c5b02274dc	0.01047472423334244
101	0x3fb2b602a8ea9f50	0.07308975814760044
102	0xbfb37c89ae09888d	-0.0761190462012868
103	0xbfa7f6f86203d2b3	-0.046806108441079707
104	0xbf9538a8b4dbcad5	-0.020723949469309517
105	0xbfbe1848f77356a9	-0.11755806008599258
106	0xbfa50e7b92aa6cc1	-0.04112611928322841
107	0x3fb9452d08e030d6	0.09871179072087286
108	0x3fb92e7ffab6bd8f	0.09836578246062387
109	0xbfa4d24285d976bf	-0.040666655386969
110	0x3fbc1c8e569745c7	0.10981073011432506
111	0x3f91dafcd4bc8c3d	0.01743693397942202
112	0x3faa64962135f00e	0.05154866366771681
113	0x3fbcf9556967e73d	0.11317952941308547
114	0x3f7efa1b2f6238bb	0.0075627386014628884
115	0x3fbe8d4720d1bd05	0.11934322882892807
116	0x3fc04d003da9d6f7	0.12734988222990015
117	0xbf97219592c568af	-0.022589051325987593
118	0x3fb35fd10567098d	0.07568079358956066
119	0x3f96debc1171cf8c	0.022334040226680993
120	0xbf96d4de7052ed62	-0.022296405416211036
121	0xbfb05fb8bf45cdd5	-0.0639605967497155
122	0xbfa0a06498baffbe	-0.032473701137404984
123	0xbfb57e105be77165	-0.08395483249427611
124	0x3fba42fdd92aa452	0.10258471061628541
125	0xbf9d5e393d5d9ce4	-0.028679746981109214
126	0x3fae314ec187e99f	0.05896993744314049
127	0x3fabb8ddf0c75d2d	0.054144797937335155
128	0xbfa2fd7640b2697b	-0.037090011022160994
129	0x3fcbc675f16d692f	0.2169940403790149
130	0x3fa4039bb78b98cd	0.03909002891104905
131	0x3fac0cf9124d6af8	0.05478647564333089
132	0x3f9fc9c00f621402	0.031043053568755148
133	0x3fa37b1888abdebe	0.03804852169372229
134	0x3fa7b2e9d39f266c	0.04628687580368482
135	0xbf972256c2ecaa04	-0.02259193005299133
136	0xbfac01681a382f0b	-0.054698231888407355
137	0x3fb4787164199cff	0.07996281331871911
138	0x3faa0576d20aee29	0.05082293809888611
139	0x3fb1dc0f27209705	0.06976408677345709
140	0x3fb568652df4e4b1	0.08362419483173046
141	0x3fba733bec10e897	0.10332083237963939
142	0x3fb3c1a3a1903c52	0.07717344946307605
143	0x3fb117a0fa1bcc9b	0.06676679712454574
144	0x3fbd125aa221bb62	0.1135613103703981
145	0x3fb5a883bb35ae72	0.08460257835911891
146	0x3fad294fe122f99d	0.0569558107686021
147	0xbfa7a604fcf8eaad	-0.04618850315133236
148	0x3fb128e9427f7d85	0.06703050492750691
149	0x3faa03e924ffa817	0.05081108643192083
150	0xbfc02c5a02c14fae	-0.12635350355651326
151	0xbf97b60649f47e0d	-0.023155306114061292
152	0xbfd1eebcde11b0fa	-0.2801963966983433
153	0x3f8183fe75540c0a	0.00855253978307326
154	0x3fb9cc2b62c21df3	0.10077162896242679
155	0xbfbe0376802e130e	-0.11724033955949784
156	0x3faf3d1ea997f226	0.06101318187936426
157	0x3fbace901c14b557	0.10471440015381482
158	0x3fc0a2a40be4b782	0.12996340351804397
159	0x3fb7ea238beadd16	0.09341642538025882
160	0x3fbc4e4c6c312ba7	0.11056974069030777
161	0x3fb2a997d1f8627c	0.07290028454043268
162	0x3fc4084510bf773a	0.15650237386483373
163	0x3fbab4d63de3a19b	0.10432185183493063
164	0xbfa48289c7f40d1c	-0.0400584274848603
165	0xbfc5f90f3e72e29b	-0.171663194172443
166	0x3fa0bc2bd50a2574	0.032685632472815224
167	0xbfadb91c0e41430d	-0.058052899112800295
168	0xbfc314eda9006166	-0.14907618286157315
169	0xbf9f38e3faf0da12	-0.0304904577171446
170	0x3fbf08616790bc34	0.12122162607623538
171	0x3fc53ac0ba6d056b	0.16585549452615153
172	0x3fba2f7de7bd02fa	0.10228716762231818
173	0x3fb2cf5f02ccea40	0.07347673242922159
174	0x3fbbc136cfd678aa	0.10841696333088416
175	0x3fca19910b71f8b5	0.203905230129697
176	0x3f9a7b741c4200ec	0.02586156294319235
177	0xbfa4471e5d836eca	-0.039605091967784015
178	0x3fc950501831923e	0.19776345425920455
179	0x3fb09cd08d6086fc	0.06489280177677509
180	0x3fc788a64eb05f4e	0.18385771600946516
181	0xbfc7624bd5ecf8b4	-0.18268726296986915
182	0x3fbfb0e21351c39c	0.12379277202286548
183	0xbf963718668b3daf	-0.021694546946319167
184	0xbfbd8640b0186310	-0.11532978343201372
185	0xbf9ea43c01f26104	-0.02992337953455239
186	0x3f9f046f9967a1b7	0.030290359247290257
187	0x3faad9a5d98da688	0.05244177132301525
188	0xbfc28bc521f1014b	-0.14489044339462462
189	0xbfa066738111bc9f	-0.032031640534904364
190	0xbfc833c58fefb456	-0.18907994774000042
191	0xbfab8081e2ff7cfa	-0.05371480842563332
192	0xbfcf5e4e26b2ec66	-0.2450654686889237
193	0xbfab2fb3732202c5	-0.05309830456190449
194	0xbfc3b3d313137cd5	-0.15392530852748246
195	0x3f8e338756c848e9	0.014746720634353188
196	0xbfaa03a709176774	-0.05080911622981335
197	0xbf55ca405ccff019	-0.0013299587765223163
198	0x3fc406a733ab2b55	0.1564530374801857
199	0x3fc455c3b871e43e	0.15886732584093183
200	0x3fb23d776f2b8ad8	0.07125040496934376
201	0x3f82004132bde404	0.008789548264518394
202	0x3fa65f5170eab6b7	0.043695969613833645
203	0x3fac4187174e1c23	0.055187436671126265
204	0x3fad996664b9cd4c	0.05781097392618992
205	0xbf9f0da4a0ff6e9c	-0.03032548172619319
206	0x3fc32f636e1b9ff0	0.14988367916453127
207	0x3fbafcbcd7929004	0.10541897070885403
208	0xbfa55ec4f6c0e59a	-0.041738658067014
209	0x3f95072c3874266b	0.020535174317990384
210	0xbfa30cffc08be7c3	-0.037208549741947226
211	0xbfc3638362cf4ece	-0.15147440266320306
212	0x3fc3f10ff4eb7c40	0.15579413851716772
213	0x3f8ed4ff54f25403	0.015054697780479747
214	0xbfd1c87ca1739c48	-0.27786174551733156
215	0xbfacc4f90f66cc95	-0.056190283899377004
216	0xbf89cbf2650152ff	-0.012596029002602814
217	0xbfb203db636d512f	-0.07037135293405038
218	0xbfc387c558fc5b72	-0.15258089871414487
219	0x3fbb997c00752201	0.10781073580904633
220	0x3fc7b1386e528a00	0.18509583842121913
221	0xbfa11044f1ebc797	-0.033327250033735094
222	0xbfd35b18b0854d31	-0.3024350856623697
223	0x3f9f4872be2205de	0.03054980550269259
224	0xbfc6795708964b4e	-0.1755780021599897
225	0x3fb1da965dc53ff9	0.0697416285449889
226	0xbfbaaa06e27a8e2a	-0.10415690449968254
227	0x3fb632bd9d79c9e9	0.08671174139616479
228	0xbf81b321da1820ec	-0.00864244887181128
229	0xbfa0d8a16c025e36	-0.03290275996658602
230	0x3fa5cd9fa3bfab83	0.04258440851102476
231	0x3fb395388a5a6029	0.0764956796432449
232	0x3fb569ed30c9a145	0.08364756051162654
233	0x3f8cff22e2667e45	0.014158508810225299
234	0x3fc32ab23b935f1f	0.1497404852768733
235	0xbfa2916b1289b804	-0.03626570321362979
236	0x3fa4a72b105c0fbd	0.04033789229109128
237	0x3fb51fa9ce9b1d17	0.08251439375009216
238	0xbfb355202c659a7b	-0.07551766475590142
239	0x3fbbc971fc1b0763	0.10854256062432692
240	0xbfaac37ac4a816a3	-0.05227264071076589
241	0xbfcb55cae2b3a941	-0.21355567998336691
242	0x3fc3249b25e92950	0.14955462790596608
243	0xbfd064d74b9406ff	-0.2561548460072202
244	0x3fcf4775d6ef8f62	0.2443682956210252
245	0x3fbe058b1210192c	0.11727208319652921
246	0x3f97da7eb133b6ec	0.02329442936473118
247	0x3fc3799ebbdd4cf1	0.1521490495020781
248	0xbfd622814873ba6d	-0.3458560187854463
249	0x3fbeb7c82509685c	0.1199917879506826
250	0x3faec8e94393d10f	0.06012658071441212
251	0xbfbc168b2974566d	-0.1097189880568636
252	0xbfe0d08a2869c9af	-0.5254565038033457
253	0xbf9f51ad9800115e	-0.030585014726982045
254	0x3fa2b6bb06d7b956	0.03655037363556583
255	0x3fd66dc0e1854eaa	0.35044881843098585

linear_mean.bias f8 [10]
0	0x3fbb060eb0182fa0	0.10556117819959221
1	0x3fc677ba3b32af71	0.17552879229094345
2	0x3fb6300b6dc2ff8b	0.08667060308198253
3	0x3fbf186149239a56	0.12146575961706083
4	0x3fbc47ff9546e64d	0.11047360796410395
5	0x3fbbfcde55a669ff	0.10932721701684754
6	0x3fbed49432750596	0.12043119651663967
7	0x3fbfcb03311ef461	0.12419147443047641
8	0x3fce40c153086c42	0.23635117105809128
9	0x3fc08cbf364fffc2	0.12929525520303115

linear_cov.weight f8 [100, 30]
0	0xbf97ad34ddf0006a	-0.023121667905798317
1	0x3f93263fd37a47e9	0.018700597078868873
2	0xbfa0e7707ddf737c	-0.0330157426503552
3	0xbf9a73875c45387e	-0.025831332213151807
4	0xbf92ba61297456b8	-0.01828910651700852
5	0x3f8838dda28db7a1	0.011827212832681346
6	0xbfac369329914067	-0.055103873085159454
7	0xbf5b557f067387b0	-0.0016683330994102623
8	0xbf773fa902ec92a6	-0.005675945473545474
9	0xbf97ae9f0db39d96	-0.023127064906388016
10	0xbf8b388ff4caebec	-0.013291477830867003
11	0x3fa266b2e6a20b83	0.03593977990478605
12	0x3f5eb3baba9fc188	0.0018739055180923853
13	0xbf8bcd2e3b0570f8	-0.01357494466417862
14	0x3f97e3d22934e14b	0.023330005421685212
15	0x3f43357fc720149e	0.0005862115779115167
16	0xbf94963ccca24a3a	-0.02010436057077867
17	0xbfa1b973b3f083b9	-0.03461801120307179
18	0x3f98375d4c7bc5b2	0.023648698609525183
19	0x3f8acf3b2013caa4	0.013090574184820021
20	0x3f8b486e22259733	0.013321743409231956
21	0x3f9103a693ed8cc5	0.016615488795093798
22	0x3f8939c6e00c6164	0.012317231857694018
23	0x3f9449171814023d	0.019810067028631407
24	0x3f918dc1ddfcc7e0	0.01714232365993229
25	0x3f907e170dfec72a	0.016105995396805607
26	0x3f9395651340d923	0.019124583530549032
27	0x3f9109b98c193d80	0.01663865964502298
28	0x3f9288cf69ade157	0.01810001451983231
29	0x3f926cf641b4846e	0.01799378181488403
30	0xbf93d30ed7144900	-0.019359809758562996
31	0x3f82b9faf17ee138	0.009143791670667242
32	0xbf883cdebcdf1c82	-0.011834850443746218
33	0x3f65ee85851c1ff0	0.002677212506458908
34	0xbf7e88cddd053a0a	-0.0074546853578128045
35	0x3f6e9a381af81709	0.0037356468017176775
36	0x3f84a3bff3d1aa06	0.010077952984109306
37	0x3f89cc43a65e9f9a	0.01259663440198704
38	0x3f8a071749789cb2	0.012708837442075047
39	0xbf9c7d765966da48	-0.027822350699091808
40	0x3f8079c55c5dbf64	0.008044759637158179
41	0xbf57bd44b04eccbf	-0.0014489336765393516
42	0xbf8eec78f9f53a25	-0.015099473121748261
43	0x3f9b75558a11519d	0.026814781715374648
44	0xbf92aec8745c41c2	-0.01824486932952297
45	0xbf841fd438f7a726	-0.009826333988673119
46	0xbf69c23e4e0bb3fd	-0.003144380273047974
47	0xbf75bb07c5d2b897	-0.005305319177905463
48	0x3f8fe1657dc1580c	0.01556662836098257
49	0x3f83642bf180a60e	0.009468406016895716
50	0xbf6e4bab60682312	-0.003698191375637435
51	0xbf5b2f737246c57d	-0.0016592624097991609
52	0xbf723dd2032d41ef	-0.004453487740491798
53	0x3f6768ceeb783405	0.0028575936701202864
54	0xbf6ba9a8d5e3a9dc	-0.003376798397870957
55	0x3f400df338428303	0.000489944228792977
56	0xbf441819eb8aebe9	-0.0006132246554310081
57	0x3f6544e98c224be4	0.002596336505186413
58	0xbf7346fd6efbad75	-0.004706373190610837
59	0xbf26e6e8dc094c4c	-0.0001747283222522676
60	0xbf7c4ce858b353ad	-0.00690928230615821
61	0x3f83c788c5e8da46	0.009657925166817748
62	0xbf69cd8874a1dacd	-0.0031497635982832063
63	0x3f60c59664e87f5d	0.0020473420511421384
64	0xbf81a27203e6a23e	-0.008610621208235188
65	0x3f75930d78cb7bcd	0.0052671934360821295
66	0xbf8292863a9d143f	-0.009068535484070604
67	0xbf90672866c8ee7f	-0.016018515847675104
68	0xbf920fd93b324d4f	-0.01763858245665278
69	0x3f941cca8b9ebea3	0.019641079684957884
70	0xbf74f3704ef37ffb	-0.0051149737402909025
71	0xbf79bcabf11e0018	-0.006283446929842305
72	0xbf64b953d10a44c9	-0.0025297772447819594
73	0x3f86b8eb3efdecda	0.011094892368183219
74	0x3f7531ace7b1ec56	0.005174327288041422
75	0x3f728fd4c54893f3	0.004531699309642245
76	0x3f3ceed3cb98d046	0.00044148131164268125
77	0x3f83f2ae047c50bd	0.009740218650712834
78	0xbf80f2b4e4c694b7	-0.008275426131897452
79	0xbf8ce38ee80d3e9e	-0.014105907875687603
80	0xbf78459f7308d6d2	-0.005925772522962185
81	0xbf6f00482025dcb6	-0.0037843140318574954
82	0xbf706d1da3f18a0f	-0.004010310919599038
83	0xbf7ca8144a32da6e	-0.006996230370694618
84	0xbf5a9487eba3f550	-0.001622326598009611
85	0xbf81312c8f49067d	-0.008394573328703853
86	0xbf775ef196974a8b	-0.005705779747091309
87	0xbf7cad7958a81e22	-0.0070013752069893204
88	0xbf77d3303c322abc	-0.0058166393456626185
89	0xbf66f4d52aea888a	-0.0028022921972744074
90	0xbf444d6b48e31ed1	-0.0006195806361341765
91	0x3f60c98cec57f6ad	0.0020492317587457926
92	0xbf89e8f87c6e04ab	-0.012651387498183139
93	0x3f83a69739ea4386	0.009595090346268053
94	0xbf811d4a450182c7	-0.0083566477116518
95	0x3f76661c0e00b11c	0.005468473042167934
96	0xbf4c507498b448ff	-0.0008640832251407825
97	0xbf8e00ba5a88cc7a	-0.014649825942887985
98	0xbf605adff1076d27	-0.001996457467823415
99	0x3f8d703974b21716	0.014374207376259867
100	0x3f732d7374bea177	0.004682017326480873
101	0xbf9dfd7d7fec6c48	-0.029287300999481652
102	0xbf82e8ca2f3c721e	-0.009233073774844999
103	0xbf5f0848752ada17	-0.0018940646738606676
104	0x3f96c0a320d3288f	0.022219227674931615
105	0x3f8a74af1eecfb5d	0.012917869693067347
106	0x3f9f13af079bc74d	0.03034852489412936
107	0x3f846518eed1444e	0.00995845297635092
108	0xbf66a4b53bd33590	-0.00276408574300175
109	0xbf83a896d351f76e	-0.00959890205762878
110	0xbf7acfea5fc887fa	-0.006545939945256757
111	0xbf7a9ec4f4af23c1	-0.006499070509513539
112	0xbf691c7448596275	-0.0030653258461764096
113	0xbf87c97ef8062ea5	-0.011614791816803314
114	0xbf7228ca78285dc6	-0.004433432479820925
115	0xbf85a8a9c7f11d95	-0.010575605787507306
116	0xbf75254d81548b86	-0.005162527804062905
117	0xbf809df16cef596e	-0.00811375249569998
118	0xbf8715021a886e64	-0.011270538744660281
119	0xbf6e6d3cd854deeb	-0.0037141979579721116
120	0x3f76163310e7d01c	0.005392264820773842
121	0x3f7346b365fec2c7	0.004706097388336778
122	0xbf913f522a1ddd77	-0.016843112774464566
123	0xbf67ef2d1059f336	-0.002921665206314118
124	0xbf941c0c0df6eb5c	-0.019638241150214383
125	0x3f7ba89e8ec5229f	0.00675260483360121
126	0x3f6a3920863177a8	0.003201068424046622
127	0xbf635acb1a8d0ac4	-0.0023626295918871294
128	0xbf7ede545de1ce1c	-0.007536248738790909
129	0xbf70849c3c855cc3	-0.004032717035747871
130	0x3fa066e2878c263a	0.0320349493468481
131	0xbf737be7f9bf2682	-0.004756837992269449
132	0xbf9e7e05274848ae	-0.029777603647808952
133	0x3fa1b2d3e3682ccd	0.034567471990237665
134	0xbf924d37ba5cd8a2	-0.017872687101054503
135	0x3f79b51f73e409e0	0.006276247846701527
136	0x3f9aba7c27d8d78e	0.026102008754797228
137	0xbf7a1746b9e74daf	-0.006369854234850632
138	0xbf47fa9202d02434	-0.0007317746109275548
139	0xbf813f23885f46e6	-0.008421208953140757
140	0xbf907ce433541d94	-0.016101422913406063
141	0xbf92cdd84e150078	-0.01836336113524381
142	0xbf90c6dfac17a85d	-0.016383643034636786
143	0xbf93c3215d4d62b5	-0.01929905063602418
144	0xbf908326e0b2fbcf	-0.01612530466513445
145	0xbf9288f6133a6700	-0.0181005906330034
146	0xbf90c3ec856ad061	-0.016372390406744212
147	0xbf92aab0280cf6e4	-0.01822924847078057
148	0xbf9696e603cc424c	-0.02206000707798443
149	0xbf8a613b27648d61	-0.012880766048118887
150	0x3f784b9a6718f577	0.005931475768702447
151	0x3f82ea64e3814be1	0.00923613375940663
152	0xbf5f463ea9c11260	-0.001908837503848869
153	0xbf681c8244437f09	-0.0029432815809825636
154	0xbf710a31cf29825b	-0.004160112921994664
155	0xbf83375a789b8df6	-0.009382921987202569
156	0x3f76bd83cb07b96c	0.005551829163307747
157	0xbf873ceb693f5145	-0.011346663617509587
158	0xbf8ca7f83cc5605b	-0.01399225173433665
159	0x3f835d2afd2799cc	0.009455047465007825
160	0x3f8d83af074a08c1	0.014411322984646426
161	0x3f964980e6498962	0.021764768653505746
162	0xbf65e6a5be51bbe2	-0.002673457830091306
163	0xbf6d7292fed58bfb	-0.003594672298889543
164	0xbf8afe2d5e734109	-0.013180117077724167
165	0x3f9142aa7fdd9579	0.01685587315968948
166	0x3f753426063d732e	0.0051766858412889815
167	0xbf68996f270a48c4	-0.0030028506228712854
168	0x3f7a84532f17c103	0.006473851144150669
169	0xbf89dbc227ef2eda	-0.012626187175463089
170	0xbf72daa9e9e34d17	-0.004603065228553824
171	0xbf73f76b378f2af0	-0.00487462884570776
172	0xbf75d66963a8b5c8	-0.0053314320344219415
173	0xbf79c0f0c9cc9869	-0.006287518099986491
174	0xbf7e257e07ca7ea0	-0.007359974199658531
175	0xbf6d5da5f12dce40	-0.003584694009470174
176	0xbf70f77fa75723b9	-0.004142283103143401
177	0xbf80c9f5714315f8	-0.008197705763801175
178	0xbf607a711e59a750	-0.0020115098330294803
179	0xbf70b8d7039868bb	-0.0040825270639521195
180	0x3f3575d1a737b689	0.000327457127439292
181	0xbf7f013d44c9f1f9	-0.007569541293034104
182	0x3f6b406002c590bc	0.003326594849726387
183	0x3f52116e6db09bc2	0.001102788772877381
184	0xbf7264176792c8f0	-0.004489985870508514
185	0xbf887e122817a817	-0.011959211205027782
186	0x3f569c30b155ef73	0.001380012084466889
187	0x3f81063cd303e092	0.008312678517981707
188	0xbf841f8d8deff045	-0.009825807470399303
189	0x3f7402c6211dbbe2	0.004885457938015288
190	0xbf49bca0b16854ae	-0.0007854256280689553
191	0xbf58127093ddf353	-0.0014692401304891758
192	0x3f6428fef9c98f53	0.0024609546656381514
193	0x3f23eb1719abd0ac	0.00015196473108114916
194	0xbf8347add03ddfd9	-0.009414060514003996
195	0x3f6f248d05870c65	0.003801608498379449
196	0xbf82b0176734a0b5	-0.00912493022640635
197	0x3f5b1c3d39eccef1	0.0016546819603719366
198	0xbf806281deb98d07	-0.008000387773057683
199	0xbf66e5b7dd1be6a9	-0.002795085057070452
200	0xbf6532a6e25fd102	-0.0025876292665946163
201	0xbf5e232b6c2a6d95	-0.0018394397781439132
202	0xbf6157ef1238c5a5	-0.002117125450035134
203	0xbf534579d268431f	-0.0011762323061967406
204	0xbf108beb89ae9b8b	-6.312012776153572e-05
205	0xbf45a1ef50f30ea5	-0.0006601732765365199
206	0xbf66acbc16cde13b	-0.0027679132094215165
207	0xbf520e021dea220a	-0.001101972644081186
208	0xbf307fd1cc3c6613	-0.0002517592622424968
209	0xbf63acebc8b09a0f	-0.0024017911105318544
210	0x3f94e55829284034	0.020406129371679252
211	0xbf95c780bb8d8479	-0.021268855521502126
212	0x3f6b64cab867b93d	0.00334395974936466
213	0x3f9521ccfcec51fc	0.020636752068712724
214	0x3f64ca63225d01b5	0.0025379120078527725
215	0x3f8af650309996be	0.01316511772456452
216	0x3f793473b36c2098	0.0061535377087766005
217	0xbf7b6a3e20c87ec2	-0.006693117797595684
218	0xbf418f6df7002d8c	-0.0005358969629027251
219	0x3f87189765df51fb	0.011277373119733083
220	0x3f97b48a01e0db7d	0.02314963947739156
221	0xbf90368928f63c70	-0.015833037495721347
222	0xbf9da912e3883605	-0.02896527780290194
223	0x3fa32c731d0ffe86	0.03744849900976725
224	0xbf7026b5df11890e	-0.003943167147641325
225	0x3f91fb6708cd5a26	0.0175605868456278
226	0x3fa3719a939b13ad	0.037976103323252054
227	0x3f7628892388ab63	0.005409751604512933
228	0xbf9141764f198776	-0.016851280763496367
229	0xbf940860f75059c1	-0.019563212485161467
230	0xbf97bace257d23d2	-0.02317354301274916
231	0xbf9f4dfe9078aa56	-0.030570962493735664
232	0xbf96012bfd8804a7	-0.021488845204662124
233	0xbf9c3805aa986df5	-0.027557457482641785
234	0xbf9cef6c158eec30	-0.02825707322675103
235	0xbf9a32f8741f7f7b	-0.0255850621105078
236	0xbf98e41216045e6e	-0.024307520479025894
237	0xbf9d7b651f3a9a0c	-0.028791027098714436
238	0xbf9e5680cb08a594	-0.02962685813159778
239	0xbf9a6177c754e9a9	-0.025762435475579135
240	0xbf92ccee78faa5a1	-0.018359876760461472
241	0xbf8388d3e5fb9488	-0.009538321929946983
242	0x3f41a82d15381582	0.0005388469821247385
243	0x3f749bfe8835ccd4	0.005031580224897431
244	0xbf80b190722cfd46	-0.008151176914565138
245	0x3f4ee0e59b74a8e4	0.0009423371438164433
246	0xbf9e673ddd10dbf0	-0.029690710656918584
247	0x3f99916655a137e1	0.024968718506265367
248	0x3f9dbb80385afb91	0.029035571517620765
249	0x3f9a1ee89898575d	0.025508531869568574
250	0x3f7eda933f867979	0.007532668293065086
251	0xbf9f805a881c57aa	-0.030763067777193655
252	0xbf72198756a7cc3d	-0.004418877283103359
253	0xbfaf8803b942c302	-0.06158458363041143
254	0x3fb09519a2915cc8	0.06477508753720251
255	0x3f8b61472693b47c	0.013369136681342868

linear_cov.bias f8 [100]
0	0x3fe4e774c0710b5d	0.6532539137482264
1	0xbfb810c97f05b66b	-0.09400615073328715
2	0xbf9468fe49d367a6	-0.019931767707795388
3	0xbfb86b06d53f31bf	-0.09538309770795815
4	0x3f8b144d1d01435d	0.013222315261516899
5	0x3fb14620cd49e368	0.06747632038049078
6	0x3f90cf1a5d66e748	0.016415035200885414
7	0x3f8b693cd00259c9	0.01338431844514511
8	0x3f33f3c3de059199	0.00030444652477104036
9	0xbf8cc87f312006db	-0.014054292380027025
10	0xbfc292e4da30f8cd	-0.14510784772750754
11	0x3fe56ab60e322bcd	0.6692762639298678
12	0x3fb5f2459429adbc	0.08572802417045627
13	0xbf8e83ba6dc25193	-0.014899689173298458
14	0x3fa52972ba066a02	0.0413318492967001
15	0xbfaa7ff278a6835a	-0.05175740931304658
16	0x3fa882cc5ddca502	0.04787291188979205
17	0xbfa107cb001ac4bc	-0.033262580645336354
18	0x3fb010ae123e207e	0.06275451608064661
19	0xbf9fcf43a180add9	-0.031064087612476008
20	0xbfa49078e318632e	-0.04016473552855469
21	0x3fb7a02fff2ba4df	0.09228801707981259
22	0x3fe10b1d59df2c01	0.5326067691142954
23	0x3fac1f07e7a48697	0.05492424681348245
24	0xbf74cad57121c41e	-0.005076249845033435
25	0xbfc58376c05a576f	-0.16807445900183945
26	0x3fb873403aab2db1	0.09550858909931638
27	0xbfaa86fc690e94d7	-0.05181111128266885
28	0x3fab8519e7cb6c17	0.053749856515161
29	0x3fad3cb1809380a1	0.05710367865117517
30	0xbfb42e1b1be9ad6c	-0.0788285201212397
31	0xbf88224d1a872d67	-0.011784174320289066
32	0x3f9df95415fcac0c	0.029271425096492762
33	0x3fe48192ab782be8	0.640817007924281
34	0xbfa2767a30cae461	-0.036060160118218894
35	0xbfb41e1310e28b61	-0.078583900091457
36	0xbfb5b4082ec2b918	-0.08477831975571737
37	0xbfad0d152a521a96	-0.05674043790445642
38	0xbf802a39223f3a0b	-0.007893034322390432
39	0x3f934ac6395b3b73	0.01883992886615311
40	0x3fa731512e8d485a	0.045298134739497356
41	0x3fb189c09dda1a22	0.06850818494613312
42	0x3f9aa778bee46e3b	0.026029478694097313
43	0xbfa18c0dd772b783	-0.03427165274602741
44	0x3fe3800f5200c321	0.6093823052998212
45	0x3fb4d63ab8bad820	0.08139388093954425
46	0xbfb64a8a70b82df9	-0.08707490207614645
47	0x3fc0cd14991abefc	0.13125855899624372
48	0x3fa0d8a1e5049744	0.03290277405385081
49	0xbf94b28928c54b42	-0.0202123099455307
50	0x3fadec70c03ec859	0.05844452234977444
51	0xbfb291b4c5dfa322	-0.07253579932115575
52	0xbfb6e087fc2b9b9b	-0.08936357409002797
53	0xbfbbc4ddf4dcc87d	-0.10847270229422352
54	0x3fa9c266e6f36630	0.05031129426215519
55	0x3fe6f6b4d95918bb	0.717615532405737
56	0xbfb2124b364069b4	-0.0705916411829211
57	0xbfbc3c6a9a3f2c9e	-0.11029688134947199
58	0xbfafa2c547a95b0b	-0.06178871631407475
59	0x3faed8a86df4e972	0.06024671880955425
60	0x3f892e76f2a45de1	0.012295655517433115
61	0x3fafbcaa0d50b4a8	0.06198626911678079
62	0x3fbd74117fc2289e	0.1150523125562892
63	0xbfb01ed3050540c6	-0.06297034142085342
64	0xbfb7f3ead082bd69	-0.09356563177674605
65	0xbfbcc56fdf0a2dad	-0.11238764949137332
66	0x3fe79ccd7602821f	0.7378909401778094
67	0xbf9a821cfc3e518d	-0.025886967559544827
68	0x3f9888cf14648429	0.023959384555500094
69	0x3fa377809e8eaf3d	0.03802110610499063
70	0x3f9c273bfa224e3f	0.027493416921585242
71	0x3f97bb0b1b2a4cd5	0.023174451382669787
72	0xbfa260c4f5323a22	-0.03589454167478247
73	0xbfa4528278fcf43a	-0.039691998738341686
74	0x3fc063e95a980d2d	0.1280490581849362
75	0xbfbb17c2fe92a337	-0.1058313247218735
76	0xbf9c2b10d3809a06	-0.02750803271205806
77	0x3fe7f26bac4d1f72	0.7483423581370359
78	0xbf98867880e2f6c7	-0.02395046507512324
79	0xbfbd6aeb4d4d28a7	-0.1149127067302823
80	0x3f9707b6ec21e9cb	0.022490366136915612
81	0x3fa41ac88c256523	0.0392668410374404
82	0x3f942dc4b45b3dce	0.01970584250267198
83	0x3f907cc67329cd17	0.016100979594239364
84	0x3fadc7e554a171f9	0.058165709095849345
85	0xbfa9c90fc56a29f6	-0.05036210331771322
86	0xbf8c88d2911a30cd	-0.0139328432590208
87	0x3f8351a3dff6225d	0.009433059952031525
88	0x3fe58977680ef013	0.6730305702581084
89	0xbfb25cd52c0ce669	-0.071729014639368
90	0xbf9ab1f2d457b76a	-0.026069444856993064
91	0xbfb3ec726cf2f251	-0.07782664451492251
92	0x3f962ccaf9c2c187	0.021655246252238605
93	0x3f91b9ea61cf3309	0.017310774059114773
94	0xbfa0fa98e5c50840	-0.03316190533452401
95	0x3f9f1471b25740b2	0.030351425657330018
96	0x3faa80f5092eb333	0.05176511513795958
97	0xbfbde80c4efdfa2b	-0.11682202271001844
98	0xbfaa6fdf6ded8848	-0.05163477150814849
99	0x3fe2da00415f095e	0.5891114498884169
