port_results/2025-05-06/30_500/51/4_trained_linear.pth (torch, 679543 bytes, 4 tensors)

linear_mean.weight f8 [30, 90]
0	0x3fa93144eb5a5acf	0.04920401928864281
1	0xbf96899f5a56f232	-0.022009363068479178
2	0x3f92a8a69118afb7	0.018221476179107046
3	0xbf75d5295a16ce0f	-0.005330239802265448
4	0xbf72cd52c99a437d	-0.004590342892371588
5	0x3fa4edd7b9289d0a	0.040877095558522994
6	0xbf8c1f90d9aead81	-0.013732082026612915
7	0x3fae9698732f03fd	0.05974270254183265
8	0xbf8602de4d279b00	-0.010747658471655708
9	0xbfa3dd31c80fa250	-0.03879695479537715
10	0xbf918349f17225af	-0.017102389680564375
11	0x3f7fd6bf17d5ad8f	0.00777315755599818
12	0x3f513993b2ef659c	0.00105132507063952
13	0x3f9f0050cbc80a2d	0.030274641454534446
14	0xbfa4eaeeba69c94c	-0.04085489297439668
15	0xbf9fa43555dc457f	-0.030899842610840885
16	0xbf77558eb9e5a31c	-0.0056968283882745906
17	0xbf99f0e8133806a7	-0.025333048031831364
18	0x3f8b57ef3f9cf446	0.013351315621202297
19	0x3f981f8ecbc79eeb	0.023557883441667576
20	0x3f79a535c689aca2	0.0062610722166979455
21	0x3f32b12fa9c4c551	0.00028521932269417067
22	0xbf6bf52b8c69827a	-0.003412804656634014
23	0xbf8367ba8a8a0061	-0.00947519049918827
24	0x3f750c1db4ac8c5d	0.0051385078793685065
25	0x3f7c30dfb83261f1	0.006882547287340377
26	0xbf99a372f8d8fc01	-0.02503757137150942
27	0xbf9ce9a4711ae145	-0.028235024836903894
28	0xbf970ae34454bd3b	-0.022502471013635655
29	0x3fa789cf44d504bf	0.045973279144627004
30	0xbf8ede0f79a220b2	-0.015071984195188601
31	0xbf9a41fd7cefed29	-0.02564235758835057
32	0x3f86324a55696946	0.010838108760414255
33	0x3f9268e516b2c5a0	0.01797826720275497
34	0xbf64fc817d483425	-0.0025618104066382924
35	0x3f80790769873336	0.008043344409907154
36	0x3fa3e390f4a87adc	0.0388455675749719
37	0xbf88f0dd7cab7b92	-0.012178163878557222
38	0x3f792d3ae065ddfb	0.006146650301495078
39	0xbf9ef43e29732c0c	-0.03022858741750771
40	0xbf921f86161b24e6	-0.017698378657574752
41	0xbf8501e9768cd24b	-0.010257553034173436
42	0xbf9d8f0f13f87ce8	-0.02886603888884745
43	0xbfa452dbe20add1d	-0.03969466337496839
44	0x3fa203f5a37e929b	0.03518645878583478
45	0x3f9163d1e41e9d26	0.016982345150293864
46	0x3f9006a6dd8ef909	0.01565037467275324
47	0xbfa06012438750b3	-0.031982966178163784
48	0xbf92ec94c067e393	-0.0184806101260367
49	0x3f9f049f917cfe59	0.030291074042223396
50	0xbf446118667edc2b	-0.0006219262258956351
51	0xbf8718dc4395ecd5	-0.011277886211919977
52	0x3f963e0801a06ebb	0.021721005534444098
53	0x3f95b9e241d73a4a	0.021216902989005505
54	0xbf97fe1546095454	-0.023430187606511346
55	0x3f90598c5254f179	0.015966599011549818
56	0x3f6a3f88cfdf7fbc	0.003204123698182541
57	0x3f6a40f8f7da682b	0.0032048094424910376
58	0xbfa6ee183ae4c2eb	-0.04478526801029211
59	0xbf814d096a048777	-0.008447717235472869
60	0x3f8fbc792898f47b	0.015496202994763167
61	0x3f9b919fc99dd892	0.02692269962377531
62	0x3f943b08e086a50c	0.019756449417092134
63	0x3f920ed56e3e7da0	0.017634711126104485
64	0x3f978f33a32b69ad	0.023007208665924917
65	0x3f94917ddb934335	0.020086256529626218
66	0x3f90fcee0d828e5e	0.016589850973686253
67	0x3f93b39c9bd049bd	0.019239851961239774
68	0x3f9a6534c9fcb450	0.025776696041408365
69	0x3f9648fe989c195a	0.021762826981125506
70	0x3f9401dbfff5739a	0.019538342950329836
71	0x3f913605e528036e	0.01680764399680206
72	0x3f96674a3b573053	0.021878394958364144
73	0x3f9626d64ecf8a84	0.021632526931976162
74	0x3f8d47be80559422	0.014296997348262567
75	0x3f9d1e2b184574d3	0.02843539558067649
76	0x3f932bb7793d31a8	0.018721453451961217
77	0x3f9425ba3e7f4f3e	0.019675169052631995
78	0x3f958b90bb7e7ec8	0.021040212100728067
79	0x3f9673b95b29cd5f	0.021925827206769607
80	0x3f9849e5fda321ab	0.02371940002993404
81	0x3f8b805266824a55	0.013428348306011953
82	0x3f95b01b76661770	0.021179608441819153
83	0x3f9a4e21d0b54fa0	0.025688675273456973
84	0x3f87abffdeaf4860	0.011558531745240852
85	0x3f9493c270168571	0.020094907847697244
86	0x3f93d14807148950	0.01935303252424464
87	0x3f877ec28c2a3149	0.011472244169703176
88	0x3f97be160da394da	0.023186058599908722
89	0x3f9be48db40f996e	0.027239050021216675
90	0x3f812b0a8ee274a2	0.008382875905505852
91	0x3f8239f6f404f296	0.008899621316794264
92	0x3fb18754bd8d84e9	0.06847123744730123
93	0xbf98fa1a84e9bd46	-0.024391569483154706
94	0xbf8f9331c8988537	-0.015417469915578337
95	0xbf8a153a0b7f68f1	-0.01273579928959065
96	0x3f96ed3c146f9e3a	0.022389353511156986
97	0x3fb0672c7e7f12d2	0.06407430733004141
98	0x3f59c7a6b7b9adef	0.0015734794714273822
99	0xbfb2db782c52b858	-0.07366133768184235
100	0xbf9043f9d4202a3a	-0.01588430745327172
101	0x3f69e83e2520db43	0.0031624997873466467
102	0xbf3d1d98780ff31c	-0.00044426891696485045
103	0xbfa94c495be4386e	-0.04941014525148622
104	0xbfa5a5ba3d31e8b4	-0.04228002545365098
105	0x3f73a9d25553be4d	0.004800626387108387
106	0xbf6397d2eb170900	-0.0023917312143747482
107	0xbf6e22d656fc54c3	-0.0036787210773448777
108	0x3faec3511b236eba	0.06008389908103369
109	0x3fa6e3f566bcc205	0.04470793608777871
110	0xbf898a6cac5cfae9	-0.012471055040462047
111	0xbfa67c387eadeaaf	-0.043916478599347435
112	0x3fa54f50aac174cb	0.04162075123233818
113	0xbfa32b4772b50a75	-0.03743956828340781
114	0xbfa8e704683f6db2	-0.04863752148204571
115	0x3f9b1b57df0fcb45	0.026471493711095268
116	0xbf97afa02772d5ed	-0.02313089600348477
117	0xbfa279e8307938c9	-0.03608632652013594
118	0x3fab17452dba5121	0.052911912757880104
119	0xbfaf89761b8e4ddd	-0.061595621932749124
120	0x3f77021b0fd5117f	0.0056172425368611325
121	0xbf8b77d517b9f9cc	-0.01341215590150293
122	0x3f972dde72fd9c3d	0.02263591362807581
123	0x3fb2af30e86be24d	0.07298570322371596
124	0x3fa1ee4951218718	0.03502110591285951
125	0x3fa6a73f4210a525	0.04424474412400973
126	0xbfa71e0e5cf2e0fe	-0.04515118488910906
127	0x3fa2b0e22488647b	0.036505763015335334
128	0x3f89928bdae6c107	0.012486546151962331
129	0xbf9dd12c07d05768	-0.029118240334433138
130	0xbf8b95d29701c108	-0.013469357713092225
131	0xbfb056b840571236	-0.0638232380943656
132	0x3f91bc0e043b3ac3	0.017318934448492095
133	0xbf698a4745598fd1	-0.003117694092724201
134	0xbf77c3c96266267c	-0.005801951081943476
135	0xbfa37d00e7950dbf	-0.038063076276127365
136	0x3f9c4d72276e2989	0.027639182716975994
137	0x3f43b1eb44806e86	0.0006010435836318474
138	0x3f3531491609ae33	0.00032337221458675624
139	0x3f7a9d2ab313e118	0.006497542185791148
140	0x3fa2653e9d910173	0.035928684934790754
141	0xbf9fc016878ade2d	-0.031006195090155387
142	0x3fb0b3a79428ff20	0.06524131171408643
143	0x3fa0fa308dda6cee	0.03315879565817591
144	0xbf98e8b6d8f15604	-0.02432523440469049
145	0xbf946dd56b3a993d	-0.01995023219083091
146	0xbfa8eb14f97876be	-0.04866853280348725
147	0xbf9c5af86e581e32	-0.027690774664760727
148	0xbf952b3a84695feb	-0.020672716457141787
149	0xbf9ad3ed2553d7f9	-0.026199059870997108
150	0x3f9eff89426a6811	0.03027166812771759
151	0x3fa25fe8afe95969	0.03588797709805897
152	0x3f95e0b52f4b4074	0.02136500455054642
153	0x3f9479766513da0b	0.019994592589649012
154	0x3fa464ed3f499662	0.03983250997115985
155	0x3f9aec151efa435b	0.02629120828220564
156	0x3f9d76281ee69d5e	0.028771044622457047
157	0x3f9e4515b5d575b6	0.029560412619834962
158	0x3faa728c7148eded	0.051655186489792594
159	0x3fa58e9edd533e39	0.04210373355601544
160	0x3fa092c8ab76f7a6	0.03236987202716017
161	0x3f961a414c2668b2	0.021584530136899267
162	0x3f836ea0bbbdddca	0.009488349656506485
163	0x3f79ccd7e9025ef3	0.006298869513692062
164	0x3f9a605aa158a4e7	0.0257581864335962
165	0x3f9d029795fc5487	0.02833020070018624
166	0x3fa2b4bdbca9d632	0.03653519561786957
167	0x3fa1395c47a31b11	0.033640750641600665
168	0x3f958b754b3397f3	0.02103980323308714
169	0x3f9416eda291b702	0.019618714377819486
170	0x3f99314ce6ca18ce	0.02460212858797988
171	0x3fa5268ab97c3059	0.041309676305986094
172	0x3fa2f386a5191acb	0.03701420560223808
173	0x3fa10bdf3e547ea6	0.03329370151390991
174	0x3fa12602d4b8a848	0.03349312636085294
175	0x3f9eb3538c486723	0.029980950772461
176	0x3f9fc94092742eb5	0.031041153849442355
177	0x3fa0008f3711433d	0.031254268142794285
178	0x3f92cbcf4d04ef34	0.01835559756840084
179	0x3fa2ded09e9d66f9	0.03685619293419324
180	0xbf924c600b73330c	-0.01786947317013969
181	0x3f8530314568091f	0.010345826082816032
182	0xbfb46576f1a3e968	-0.07967322730465798
183	0x3f6550388eae43dd	0.0026017288814235
184	0x3f3e752972f3104f	0.00046474706591604227
185	0xbf847b71e404c61e	-0.010001077433659463
186	0xbf8224157a19453c	-0.008857887066514018
187	0xbf93147d8faac489	-0.018632852452985325
188	0x3fa12f24858b59e5	0.03356279497318208
189	0x3f86244253f7d30a	0.010811346232892944
190	0x3f7a2afa124a5875	0.0063886421600242065
191	0xbf846083363a7dae	-0.009949708073064691
192	0xbfa14d2ac24ba793	-0.03379186269542269
193	0xbf9150113d7866e0	-0.016906995179033824
194	0xbf966119ab52311e	-0.021854783135993754
195	0x3fa700640dd27f09	0.04492485684136056
196	0xbf73d2efc0eab1a7	-0.0048398366331351755
197	0xbfa90f5fbfd25512	-0.04894541946957011
198	0x3f68714e19a4f886	0.0029837155717862855
199	0xbfa89010538d22d5	-0.047974119376311165
200	0xbf4bb9eb5cf55654	-0.0008461379274346628
201	0xbf821e50c4a15ecc	-0.008846884728128578
202	0xbf83b3801fb5d840	-0.00961971375248194
203	0xbf84b593400eb001	-0.010111952202201737
204	0x3fa7a197afa8819f	0.04615472811952092
205	0xbf8aa76c9c05aef3	-0.013014648925227834
206	0xbfa4b68a30264b87	-0.04045516813052701
207	0x3f68d187244494c4	0.003029598187043266
208	0xbf94f1e8aa706940	-0.020454059031274285
209	0x3fa17fef8ee316c6	0.03417919749476321
210	0x3f8f63d7ee1fde89	0.015327155069811542
211	0xbfa0809113bd093f	-0.032230886134601004
212	0x3f6a58bc9cf81135	0.0032161411143098125
213	0xbf7aeda76d1b3f35	-0.006574300774175691
214	0xbf78d52d5916588b	-0.006062676563848633
215	0xbfa835d9840346c9	-0.04728584038242684
216	0xbf92374bc1beac4d	-0.017789062214131502
217	0xbfa8794a71aab00a	-0.047800375342689064
218	0xbf922c9d8c3fc169	-0.017748319325563786
219	0xbf73a832aeaf3570	-0.004799077966663887
220	0xbf86e172e4f0222c	-0.011172196971544222
221	0xbf8d6905d1ee4d68	-0.014360471219140705
222	0xbf7ebda784bd66a0	-0.007505087250899628
223	0xbf9dd8f05103537d	-0.02914786810363833
224	0xbf815f311fb8a0e9	-0.008482345371775018
225	0x3f851c86ba46337e	0.010308315810812149
226	0xbf72bc413ac66c9f	-0.004574065020643974
227	0x3f840da86db21cc8	0.009791675422333404
228	0x3f90226a993b4352	0.015756288149364757
229	0xbf80747cadcc7db2	-0.008034681371610872
230	0xbfa4a11139fb2117	-0.04029134590888555
231	0x3fa0b09dbd9b99c0	0.03259747447536965
232	0xbf97f1bb81461bed	-0.023383073582888093
233	0xbfa2c7311ee652d1	-0.036675963422714404
234	0xbfa0b97024750fb6	-0.032664780092573606
235	0xbf9ef9eec8547e3e	-0.030250292756248458
236	0x3f8562db23ba6321	0.010442459132990191
237	0xbf9d6620fd1901c1	-0.028709903190476064
238	0x3f9abfd348b4c077	0.026122380554796067
239	0x3f92e2f95756ed99	0.018443962055000183
240	0x3f9c3d05b52aa8a3	0.027576531584295193
241	0x3f9dbc619f8e87e1	0.029038930285999135
242	0x3fa04fef9e3f7108	0.031859863345490125
243	0x3fa1be494cf1dab4	0.03465489448801887
244	0x3f96f952b02ecc7f	0.02243546676954766
245	0x3f9998897fc33f08	0.024995945380225343
246	0x3f9a35db7738a064	0.025596074248966608
247	0x3f9ef69b761903e5	0.030237607081520585
248	0x3f93496e77ee5115	0.018834806509020547
249	0x3f97c2faadbd4a52	0.023204724172794684
250	0x3f9eb89523b828f9	0.030001001649034163
251	0x3f9323e58a4ed5bc	0.018691622320792453
252	0x3fa156c4499e3238	0.03386510275513327
253	0x3fa01987a83669c7	0.03144477775932191
254	0x3f969aa267624282	0.02207425838475042
255	0x3f9771afd31dd217	0.022894618282821435

linear_mean.bias f8 [30]
0	0x3f9ca066eed2cfb3	0.027955635382298016
1	0x3fa261fe3b0ad376	0.035903877932844816
2	0x3fa3ecdbc3fafe90	0.03891646163310469
3	0x3fa15336e349b2b8	0.033838000531294765
4	0x3fa08d2c1cbcc901	0.032327059276569876
5	0x3fa02c6dca1a4e73	0.03158896534037305
6	0x3fa27d15acfd2a3d	0.036110570303737856
7	0x3fa627d657cdcb33	0.04327268430542688
8	0x3fa757b374286a92	0.04559098046248268
9	0x3f99048de47375a0	0.024431435650389965
10	0x3fa3a1de4aac727e	0.03834433232825506
11	0x3f9da3478dcf7dfa	0.028943174391200067
12	0x3fa123eb6245aa37	0.03347716879473633
13	0x3fa66e099fc8fa7d	0.043808270220769586
14	0x3f9a1208df67f167	0.02545942176401308
15	0x3fa0367274b179e5	0.03166539835432384
16	0x3f953cc53a5319f7	0.020739633259632097
17	0x3fa1bcefd239fce9	0.0346445984005131
18	0x3fa4d8dd1939b513	0.04071703846862298
19	0x3fa3ab8436db7b8c	0.03841794175763544
20	0x3f9ae320118006e7	0.026257039135095275
21	0x3fa059d7702c61b9	0.03193543667129312
22	0x3f9d9f33000837a8	0.028927609326323683
23	0x3fa2c23ca19fda48	0.03663815949396515
24	0x3fa00182c7fc33c8	0.03126152697777901
25	0x3fa23367a34cc699	0.03554843777091072
26	0x3f9b9981bda49a47	0.026952769470108853
27	0x3fa4a1baf9da4a5e	0.04029640483817752
28	0x3fa11ddd725d8c64	0.033430977068541506
29	0x3f9f29fc2ea567fa	0.030433597895672883

linear_cov.weight f8 [900, 90]
0	0x3f5ff85071862a2f	0.0019512925701713581
1	0xbf5afe540d692e91	-0.0016475506614765138
2	0xbf6132007a6c3270	-0.0020990380611521295
3	0xbf6b186524d82bc9	-0.003307530924535372
4	0xbf51379135329460	-0.0010508459134055612
5	0x3f4c4150cb923cf6	0.0008622784145177187
6	0x3f565aed4129d346	0.00136445207013232
7	0xbf61977653c76dca	-0.0021474181250888723
8	0xbf520ea6f5d8dd80	-0.0011021261665414561
9	0xbf55f80ba6620fcb	-0.0013408769387135307
10	0xbf6c54519015f828	-0.0034581749939084534
11	0x3f5edfb719582cad	0.0018843925548733085
12	0xbf6521b58e9051d4	-0.002579550364780506
13	0xbf523c21d152e830	-0.0011129694224068058
14	0x3f31c4349aa99d5b	0.000271094172296723
15	0x3f694a619177d1bf	0.0030872254972058306
16	0xbf5aec73db7c7bd9	-0.0016432887477504292
17	0xbf75e3c4c0f0c3c5	-0.005344170159376331
18	0x3f575b2eb4ae118a	0.0014255481825965221
19	0xbf2df4636c707380	-0.00022853578249817583
20	0x3f44ea0b5b593492	0.0006382518246909211
21	0xbf6f61be0315a7a5	-0.003830786816867398
22	0xbf3fc86f486b6e83	-0.00048496929995931625
23	0xbf152689f62bd301	-8.068291712588425e-05
24	0x3f52abf31475611f	0.0011396287753396362
25	0x3f61da06324cb244	0.0021791573548368987
26	0xbf773a3d5dd42e04	-0.005670776093448907
27	0xbf60f16d8eb4cc0c	-0.002068246821772762
28	0xbf76ca0167ae6de0	-0.0055637411959667815
29	0x3f618293d732df54	0.00213745951768011
30	0xbf4bea7347b19b07	-0.0008519232645881344
31	0xbf4879148e78f179	-0.0007468557714172395
32	0xbf4e1f972064b661	-0.0009192932055037234
33	0x3f60bbbf9d058e42	0.0020426504562907353
34	0x3f6d3e0f9e04f9dc	0.003569632055728562
35	0x3f6490868b97b22c	0.0025103214109008145
36	0x3f6cfbdb42175c41	0.00353806327687381
37	0xbf6f4cd8a7849ead	-0.003820822861729875
38	0xbf566e7a96464cdc	-0.0013691136492511224
39	0xbf5d9ced9385768d	-0.0018074340897195368
40	0x3f41349e42b9bffb	0.0005250714070381685
41	0xbf608dfa0841d6ea	-0.0020208247606728806
42	0xbf5e740a73fcad98	-0.001858720977859862
43	0xbf50d26a8312c5fc	-0.0010267295986462468
44	0x3f6fed723e240c84	0.003897402887675096
45	0xbf6000ac48b61d82	-0.001953445904010643
46	0x3f6d5b1b2a3608e4	0.0035834818424414928
47	0x3f59a709334e6e8d	0.001565703377514635
48	0x3f5a680c9fd4986a	0.00161172135205725
49	0x3f63ee37d92a8584	0.0024329272067268887
50	0xbf6ed3d196e963ac	-0.003763112406244015
51	0xbf0c47cfc52b0740	-5.394079984945158e-05
52	0x3f70129441024a96	0.003923968426664223
53	0x3f57999d7218efb4	0.0014404332690807044
54	0x3f66a49fe15bfa20	0.0027640459692286484
55	0x3f33eed2f9544ee5	0.00030415201884291385
56	0xbf65a696b9e5460a	-0.0026429122801026094
57	0x3f4a782d180a89e2	0.0008077831444846496
58	0x3f628cc9a1996c63	0.0022643983946131637
59	0xbf633eb65459bd8f	-0.0023492394564567707
60	0x3f5aad41a8ee8ded	0.0016282216272224218
61	0x3f657982bb3f6eb2	0.0026214173649189093
62	0x3f5e80415b41d920	0.0018616331335841799
63	0x3f63b6c27c9de19f	0.002406482560157921
64	0x3f5be41f3ff71b05	0.0017023377584892152
65	0x3f5aaa305d3d1522	0.0016274902636309115
66	0x3f5a405dae406a82	0.0016022600984856587
67	0x3f6416fab925287e	0.002452363675876034
68	0x3f65f634c5526095	0.0026808767966706817
69	0x3f610986abd98a9b	0.0020797376917454763
70	0x3f637bdc679bc44c	0.0023783974437426077
71	0x3f54094d9d69b9d9	0.0012229211767152885
72	0x3f5e25015895aa73	0.0018398774285183466
73	0x3f60a01e08d00387	0.002029474888786745
74	0x3f5a0868e4127002	0.0015889190984017536
75	0x3f59e458404341ee	0.0015803205324581532
76	0x3f63d632bce896ca	0.0024214735961035393
77	0x3f5ff4ef1d0f6b7d	0.0019504866688666294
78	0x3f5e74c2ba1f2a18	0.001858892596362188
79	0x3f63a00043c08cd4	0.0023956303757742634
80	0x3f6060f254b86526	0.0019993527437348778
81	0x3f5bf637c7bb0db1	0.0017066521385665607
82	0x3f6220173db441cf	0.0022125677038575607
83	0x3f6194795242717b	0.0021459931904940755
84	0x3f5bf5e331964668	0.0017065733612508186
85	0x3f6415fd333c700f	0.002451891452336603
86	0x3f5fe21313e38e86	0.0019459902101112438
87	0x3f5d165faf4b391e	0.0017753538533500988
88	0x3f638535e5b404a1	0.00238285567104464
89	0x3f68621640259f10	0.0029764589864277394
90	0xbf40cec20e212d60	-0.0005129287276387888
91	0x3f53b81da12668b3	0.0012035645819197637
92	0xbf320f43da4a8cce	-0.0002755680709844555
93	0xbf62e225648ac4ac	-0.00230510047216422
94	0xbf4939ce8575efa8	-0.0007698305516181574
95	0xbf4fc7f55d0bbff2	-0.0009698818267604976
96	0xbf354e848d0fe0e7	-0.0003251145945451076
97	0x3f4d1bb0d7190d47	0.0008883107640901632
98	0x3f247398d07451b7	0.00015603294762257604
99	0x3f335f49ce77219d	0.0002955966178572968
100	0x3f48e6b7691230df	0.0007599254187353985
101	0x3f52502c88981996	0.001117747773947996
102	0xbf3530ef43271489	-0.00032335130086053786
103	0xbf545a47a79f8430	-0.0012422275308312629
104	0xbf2c2cee1660918d	-0.00021496206608263534
105	0xbf40f7ece98bc0de	-0.0005178362654003862
106	0x3f575607cc80d7a1	0.0014243198547893925
107	0x3f52060228c44266	0.0011000653349279243
108	0x3f426ec5a55658d6	0.0005625214641209696
109	0x3f111b364d85ce4b	6.525534570816468e-05
110	0x3f4504639b6d30b8	0.0006413923609698479
111	0xbf5016f68b69ee5a	-0.0009820373212780149
112	0x3f548529849cdd50	0.0012524514626884482
113	0xbf4c470d6fa5527d	-0.0008629623037373493
114	0xbf31fe4dd1b99aec	-0.00027455711253880524
115	0xbf58712187eb9a90	-0.0014918162775587086
116	0x3f4d19d9a6c1bd16	0.000888091349691952
117	0x3f39dbdde61c4702	0.0003945748086248009
118	0x3f5e08acefafd8b5	0.0018331230955915105
119	0xbf48766852fe2bc6	-0.0007465371509039968
120	0x3f4983fb202abf23	0.0007786728095506606
121	0x3f53f3a95da76e44	0.0012177614176981525
122	0xbf1ff9feedef7bf8	-0.00012198084321778091
123	0x3f502660c9d58a2a	0.0009857125472413444
124	0xbf425af9590ade47	-0.0005601613539373906
125	0x3f0a22a14524c0f3	4.984907777083767e-05
126	0xbf548d9750b45084	-0.0012544610679628152
127	0x3f51228bd757f020	0.0010458341251924422
128	0x3f28c0d6c8811fb0	0.00018885251870614855
129	0xbf2850fa360978ea	-0.00018551878294465553
130	0x3ecda8d598935587	3.5356890220976126e-06
131	0xbf5f1246009f1193	-0.0018964465730145527
132	0x3f3ee43c024d2219	0.00047136750281542985
133	0x3f349122df0c6ce6	0.0003138265738457782
134	0x3f035a0e0897ea08	3.691058470774519e-05
135	0x3f12c4ef0351f504	7.1599090761116e-05
136	0xbf42418eae416f1a	-0.0005571314509426912
137	0x3f507a1bcb802ac2	0.001005675452690966
138	0xbf20249777bb613c	-0.00012316082926734108
139	0x3f53bddccce1e86c	0.0012049347165246317
140	0xbf372fcfb9fe8a66	-0.0003538019318460095
141	0x3f596f8d2954c6b2	0.001552474835375167
142	0x3f53304e4f95dd1b	0.001171184993237712
143	0xbf4b0e1c84e15572	-0.0008256568196524496
144	0x3f34432527e48996	0.00030917794346598784
145	0xbf561f366dc7544d	-0.0013502151042435074
146	0xbf492571567f2180	-0.0007674029739002525
147	0x3f3e8fff158d4fe5	0.0004663465274934427
148	0x3f41b501dfdb14a0	0.0005403765823862768
149	0xbf4555910a64a031	-0.000651069470028359
150	0xbf42f8f264f304d4	-0.0005789931837158154
151	0xbf4e6cdbe767f996	-0.0009285043477687434
152	0xbf426228042a2967	-0.0005610175506530036
153	0xbf4d18044bf7eee3	-0.0008878727894052442
154	0xbf38cbc039ee7507	-0.0003783554365613538
155	0xbf438f4ede4e5c5b	-0.000596917638733606
156	0xbf41175b5b8e2ce8	-0.0005215831835000658
157	0xbf3f09c896e37c04	-0.0004736056061016016
158	0xbf42ba6890460856	-0.0005715380253124107
159	0xbf3e197232a28c88	-0.0004592803767399863
160	0xbf43c63c734eab8b	-0.0006034655731260592
161	0xbf4df6fda2c61e2d	-0.0009144533592441766
162	0xbf50d89f7a1d94da	-0.0010282094376290935
163	0xbf45c1ddc0571810	-0.0006639797945176013
164	0xbf48b20cce653de5	-0.00075364709190667
165	0xbf3f57dbc47704d8	-0.0004782592336277209
166	0xbf430fcd487181d0	-0.0005817177160559132
167	0xbf470e2adf858751	-0.0007035931912861925
168	0xbf4ae41b4f8ce5d6	-0.0008206494668236374
169	0xbf40ce136ef70a6b	-0.0005128474130560839
170	0xbf44c9c1ff78e982	-0.0006344029670295878
171	0xbf454f91b3be10ee	-0.0006503545223357757
172	0xbf4320ea1c31838f	-0.0005837576976653757
173	0xbf44202ed8ce4002	-0.0006141880745520469
174	0xbf3fb212c3a2a755	-0.00048363645658843396
175	0xbf46eeb0e3dbb7f6	-0.0006998409005214412
176	0xbf3dd1b99f180a16	-0.0004550054719346953
177	0xbf425f45811c7294	-0.0005606736542379137
178	0xbf485a588c2acb62	-0.0007431919442154428
179	0xbf4520f999138d1b	-0.000644800065995463
180	0x3f524e5d90bab959	0.0011173166011918172
181	0x3f50f0c4580f28b7	0.0010339658185665576
182	0xbf5a8a45cce5ac51	-0.001619880833085192
183	0x3f36ff0f4322af88	0.0003508960973117527
184	0xbf58484d0efe77cd	-0.0014820816540814686
185	0x3f4150a3f6585d8b	0.0005284119221781609
186	0x3f52cfba32ea32b6	0.0011481588695999973
187	0xbf5834244b37d99f	-0.0014772753173680553
188	0x3f40030c6162fc00	0.0004886446429493985
189	0xbf4a5991ff7720dc	-0.0008041346435954349
190	0xbf5c2ed5aa9fd165	-0.0017201506220746118
191	0xbf561d466a30731c	-0.0013497531551884328
192	0x3f408e0a1bcb0ff4	0.0005052136762846425
193	0x3f3c0166a0eba834	0.00042732959347680237
194	0x3f1ef45476e08efa	0.00011808171777310728
195	0x3f3ea45b814b9233	0.00046756013880003554
196	0xbeadc6bcef787422	-8.874035008519635e-07
197	0xbf37c3d153efd9de	-0.00036262379211340716
198	0xbf31794ff3a49ee0	-0.00026663019129323333
199	0x3f11ab71145113e7	6.740453416494118e-05
200	0x3f4b048029f2ec6c	0.0008245111274826195
201	0x3f37a27e64fb8d3b	0.00036063752939537495
202	0xbf4f5b1574a181e9	-0.0009569029582615049
203	0xbee2cf87bd9ffe7c	-8.969624037290966e-06
204	0x3effb83897ee86fb	3.025018076708347e-05
205	0x3f02df13a752b09e	3.599432685894129e-05
206	0x3f4c5778690b7b3a	0.0008649194661208622
207	0x3f429caac55a6f28	0.0005679925768222504
208	0x3f39275fb5c8ae99	0.00038381659195139414
209	0xbf50632dd596f7a5	-0.0010002086258817735
210	0xbf410ec79814141a	-0.000520560701403941
211	0xbf143b2091829e17	-7.717500955328086e-05
212	0xbf02828e699ae768	-3.530499561805908e-05
213	0x3f414270299a078b	0.0005267188709725407
214	0x3f5407b0011e5b05	0.0012225359718962003
215	0xbf17cc5dbc2c6a7f	-9.078333009108519e-05
216	0xbf341dfc99e8d6e3	-0.0003069631292505882
217	0x3f3e075096d5af85	0.00045819966802328915
218	0xbf6656c8b091778c	-0.0027269286843382753
219	0xbf448a9dee855774	-0.0006268759871470423
220	0x3f3e71b060ade984	0.00046454006285725374
221	0xbf3630ca75945878	-0.0003386015210521463
222	0x3f56112e3e7cc6ef	0.001346869621511034
223	0x3f414da663b539d3	0.0005280554245617415
224	0xbf4ac4832a0c019a	-0.000816883130113455
225	0xbf4db52f3c190c4c	-0.0009066086424315361
226	0xbf11bc7ea4a68aeb	-6.765864342254582e-05
227	0xbf31f8f6d7fbc3fa	-0.00027423883874094746
228	0xbf062f18a901bb14	-4.2312564915705575e-05
229	0xbf5c449152c9eb7d	-0.0017253321813359417
230	0x3f4a79239f3760b7	0.0008078979430434983
231	0x3f4a27dc2e95888f	0.0007982087237616997
232	0xbf473b0289828c77	-0.0007089388264102232
233	0x3f4be4119877d546	0.0008511625209723171
234	0xbf39b4b6497c4e02	-0.0003922410046339476
235	0xbf3fc84becef7e8a	-0.00048496106768245644
236	0xbf4cd130ab380e07	-0.0008794295922033853
237	0xbf4167b579e3b2e1	-0.0005311618913573479
238	0xbf1d4b7280ad9f1a	-0.00011175047272404503
239	0x3f2e729252a0b84a	0.00023229633490146263
240	0xbf3c4840f88da30b	-0.0004315527553929033
241	0xbf48a4a43220a2db	-0.0007520486581188106
242	0xbf456dcc06fcd7cc	-0.0006539579607991396
243	0xbf4409b7ff1a0ce4	-0.0006115101261489311
244	0xbf47d07411aa2fb9	-0.0007267538779429573
245	0xbf486f5bb82e3ae0	-0.0007456968163398157
246	0xbf415c214b6ea1d6	-0.0005297815867964472
247	0xbf4af4d567c72bb4	-0.0008226434725256888
248	0xbf40d97d3a215ebd	-0.000514207979231927
249	0xbf49d87e3e061349	-0.0007887474458106804
250	0xbf427c91d8eadaf8	-0.0005641662736114153
251	0xbf4197a4264d93db	-0.0005368758689711055
252	0xbf404e97f3f99741	-0.000497650333227219
253	0xbf43c025ee01ed83	-0.0006027398303695561
254	0xbf410dc7a3f82f48	-0.0005204415137440655
255	0xbf45e21dcec5c9dc	-0.0006678243203579975

linear_cov.bias f8 [900]
0	0x3fe369ffe1248cb1	0.6066893956489335
1	0x3fa544c63ed5f390	0.04154033200300156
2	0xbfa6a368a1c02e63	-0.044215459580382775
3	0x3fbfd4eee7b71634	0.12434285313710164
4	0xbf59e523d4e4cb11	-0.0015805101316572238
5	0xbf84b1aef4f76794	-0.010104529238492956
6	0x3f9a00033b20f3a2	0.025390673145227922
7	0x3fa26d465fea894a	0.03598995133258372
8	0xbfa4b3b64468e728	-0.040433593607714535
9	0xbfbbacbf7a4ebc07	-0.10810467468284922
10	0xbfb490d7239648df	-0.08033508890938233
11	0xbf275c5c743e995b	-0.000178228650949917
12	0xbfa5f171a3d348fa	-0.04285769581623984
13	0x3fb34f56df2d9581	0.07542937229808012
14	0x3fb4e4908c809a5f	0.08161261968835153
15	0x3fb2682eeb2130a6	0.07190221062154709
16	0xbfb0117f2d0c8fce	-0.06276697969275277
17	0xbf70909c123493f8	-0.004044160511772248
18	0x3fa64330efffa7f2	0.04348137788458918
19	0xbfb0280d341a4252	-0.06311113855395803
20	0xbfaf8003246348f4	-0.06152353114306833
21	0xbfb45158ca1f3489	-0.07936625418297373
22	0x3f99954d8516184a	0.024983607528632747
23	0xbfa0c4fe4e187bac	-0.0327529402095402
24	0xbfabcc42da34691f	-0.05429276384002634
25	0x3fa978350500556e	0.04974523244906491
26	0x3f8e5ffeed1a0e4b	0.01483153496815883
27	0x3fb60a26b4687039	0.08609239487162847
28	0xbfb1f0eddca5f831	-0.07008253704950175
29	0xbfa3e6662e303621	-0.038867180956099874
30	0x3fa50dfebc984185	0.04112239887411121
31	0x3fea4aedfabfb5dd	0.8216466805876582
32	0x3fb7c9ddee76ad38	0.09292399474968682
33	0xbf9a7be58685e8cd	-0.025863252959859296
34	0xbfaccde6e493a117	-0.05625840702288281
35	0x3fa664c2fb0525b8	0.04373750032625473
36	0x3fb6cad3afe00f9f	0.08903239291981756
37	0x3fb80ae957a006ae	0.09391649617466655
38	0xbfa64d2e14558e2e	-0.04355758665294861
39	0x3fb4c06a836a57e2	0.08106103618987917
40	0xbfb8b78fac5acd3b	-0.09655092199209474
41	0xbf95b295eb452dab	-0.021189062580828793
42	0x3fb3cca2bb0ada6e	0.07734124247040494
43	0x3fb61bd581312e0f	0.08636221317390656
44	0x3fa129a03208745d	0.033520704371974054
45	0xbfa93c241e9ed9cd	-0.049286965120177585
46	0xbfb47072378fe1e7	-0.0798407922410501
47	0x3f9f1a4356162a36	0.030373623017604788
48	0x3fb956ebdb057ce2	0.09898256394579932
49	0x3fb07e20b0bc9c7f	0.06442455592024209
50	0x3fb8f5db7521f00e	0.09750148400956979
51	0x3f7d8ffe3ed54468	0.007217400690323485
52	0xbf6b80ee25a36079	-0.003357377177149398
53	0xbfbe64acae6bb647	-0.11872367151564688
54	0xbfb11417cace4d89	-0.06671284390750122
55	0x3fbe45c7220cdc59	0.11825222569756146
56	0x3fbb270aa8c9da00	0.10606447811901631
57	0x3fb28c3409723200	0.07245183210961414
58	0xbf9ab92a7a0689e8	-0.026096976945732125
59	0x3fa5db87cbd3d0a0	0.0426905094444987
60	0xbfa66533f1f6dee9	-0.0437408669344544
61	0x3fb840fd37ecb94e	0.09474165549611266
62	0x3fe730ab85c4e3f3	0.724691163318424
63	0x3fb65345cfa27296	0.08720814055636547
64	0xbfa1a9e2378d071a	-0.03449923446761556
65	0xbfa191f9bb9f446e	-0.03431682982739735
66	0x3fb0d6873c164cb3	0.06577344147653967
67	0xbf8c8b131666b4d6	-0.013937138672952914
68	0xbf9cad8f0df43db6	-0.028005824305237424
69	0x3fb04acb4ebe06a8	0.06364126846713225
70	0x3f99d7ac5d34d644	0.02523679083716092
71	0x3f619e8b1265cab0	0.0021507946250321694
72	0x3fbd5d63ad2d82f2	0.11470625856373909
73	0xbf9444ca67e76cfe	-0.019793665496632855
74	0x3fb15c0829601693	0.06781054506435628
75	0xbfa3f1ab1f2555a1	-0.03895315890501228
76	0x3fbf5dddb97367aa	0.12252603318793712
77	0xbfb207c344b54a4e	-0.070430950426535
78	0xbf701683a71a4e00	-0.0039277212796551275
79	0x3fbd1fe1835c11f8	0.11376771409056363
80	0xbfa67c454ed036c4	-0.043916860457199586
81	0xbf9a8ab86da20eac	-0.025919801417798524
82	0xbf9a8633314f0bea	-0.025902557262963123
83	0xbf9429a8b1694cd8	-0.01969016630966966
84	0xbfb7f91e7f10e875	-0.09364500620077527
85	0x3faeb440ac025dfe	0.059968968388769625
86	0xbfa45cd49f106276	-0.03977074090670822
87	0xbf743dc085d6a545	-0.004941703836644
88	0x3f9cc9fe8a34575e	0.028114297089892097
89	0x3fa05ae8709a1875	0.031943572755197026
90	0x3fbf3c7382d017bd	0.12201616233514208
91	0xbf99d2ed615c22b3	-0.025218686168076498
92	0x3fb5f4167948dce4	0.08575573407221132
93	0x3fe940cb681ee6e1	0.7891594918830515
94	0xbf9bb23eb0919c3f	-0.027047137762931547
95	0x3fb3826b34e34365	0.07620878258900417
96	0x3f8933996d62c890	0.012305449152652664
97	0xbf9311d7bc4d9431	-0.018622752063851947
98	0xbfabd655e544bee9	-0.0543696253174611
99	0xbfa4bc0a7c7bc6b3	-0.04049713868688567
100	0xbf8fb5e2d0ecf470	-0.015483638764289348
101	0xbfa18f8e6625ebc7	-0.034298372239355106
102	0xbf5ed79416699e5e	-0.0018824525992843437
103	0xbfa91657cc37589e	-0.0489985882556294
104	0x3fa5a5c62e1ea71b	0.04228038132653308
105	0xbf9ed4ad3015b2a6	-0.03010817152010028
106	0x3faf5a5e16832cf9	0.061236324546905814
107	0x3f9d8d3fe43f123d	0.028859136873295766
108	0xbfb51f5b9532e82b	-0.08250973122167753
109	0xbfbec98f4be89992	-0.12026305773961202
110	0xbfb3739b0d6f2409	-0.07598275259000799
111	0x3f9d0b15f110bb2f	0.028362601126157457
112	0xbf9105e372227037	-0.016624025193422844
113	0x3f92fd19833fe5ce	0.0185436235769652
114	0x3f9f59291c06f29f	0.03061355813564381
115	0x3f8f18fabca965e9	0.01518436325311519
116	0x3fbb59d50f3ff7fe	0.10683948156653852
117	0x3fa2ebc7c91552a6	0.036955111786175096
118	0xbf87d7294e003161	-0.011640856449979866
119	0x3fbf67aca79428e9	0.12267569628980692
120	0xbf64fd4fe8269470	-0.002562194889110851
121	0xbfab92581bcb59d6	-0.0538508924416196
122	0xbfa11a319fa95d89	-0.03340296815866412
123	0xbf9ab85eec5cd785	-0.026093943764144995
124	0x3fe109a415ca0fef	0.5324268746921897
125	0x3f82f2cb25a69dcf	0.009252154432785624
126	0x3f92a204119972d9	0.01819616658609644
127	0xbf9c7b9c153f8cd8	-0.02781528358162863
128	0x3faf3ba64d7891e2	0.06100196548166871
129	0x3fa2ccdf1ba53692	0.036719295620611395
130	0x3fad716835d96c3c	0.057505852292444065
131	0x3f9773f32e10718f	0.02290325134900822
132	0x3fb028e04a2211d0	0.06312372026338342
133	0xbf92695ba7710a00	-0.017980033964940745
134	0x3fa17b7e38e9fcfe	0.03414530224562816
135	0x3fa53a5582027a36	0.04146067821533388
136	0xbfaacd1c8c21cdfa	-0.05234612665745071
137	0x3f8b4442273a35fe	0.013313786337017849
138	0x3fac119853d28068	0.05482173941823093
139	0x3fa044048bd80ae7	0.03176893431738908
140	0xbfb1a3869d93e11b	-0.06890145632849391
141	0xbfa58db1c2a42947	-0.042096667299193195
142	0x3f897109d02dd815	0.012422634759541787
143	0x3fa6ce408b9b019d	0.04454232887428875
144	0x3f952c64c9b5d9a4	0.020677161036894667
145	0x3f8c152e2ea02320	0.013712273404978215
146	0xbfabb206e4aa8516	-0.05409261266073366
147	0x3f9dfda4d126e5c0	0.029287886872884306
148	0xbf913dba608442e1	-0.016837036267193354
149	0x3f903251e4ecb8de	0.015816955182509022
150	0xbf8722c58c073f39	-0.011296790443253367
151	0x3fa56aec9ad666c8	0.04183139219385407
152	0xbfa1e4d9e5abd392	-0.03494912079432945
153	0x3fb355e8560adfcb	0.07552959538122576
154	0x3f85bc9247343a3e	0.010613577650045444
155	0x3fe620c46d103ed2	0.6914999132295299
156	0xbfa218aed89c4e3e	-0.035344566289634546
157	0x3fa7c944daa17421	0.04645743531066438
158	0x3f92963798d81d6e	0.018151158050412723
159	0xbf8cb602c33d1925	-0.014019033034526071
160	0xbfab3435afd85d82	-0.0531327035097844
161	0x3fa81e152f041abb	0.04710451315809424
162	0xbf885ab276d41e1e	-0.011891741038666356
163	0xbfa2afa6607e070f	-0.03649635246166671
164	0xbf89a77fe0274001	-0.01252651121913573
165	0x3fbc53a56b783f9b	0.11065133928081965
166	0xbf8cd98f8e6d2311	-0.014086839231497035
167	0xbf7307fa31c19e18	-0.004646279641839189
168	0x3f8ed73610ca4c12	0.015058920276066732
169	0x3f90dd709dea703c	0.016469726217664724
170	0xbfa50a26e292a475	-0.04109307781011121
171	0xbfb16f51112f89fb	-0.0681048075635217
172	0x3fab03381d719317	0.05275893554133953
173	0x3f903d795a2711f1	0.01585950482128057
174	0x3f8c29480d406231	0.01375061312141765
175	0x3f871494ee6d11eb	0.011269725347696066
176	0x3fa37bf5444300fe	0.038055100043040455
177	0x3f8936f0eb971d93	0.01231182307209514
178	0x3fb2b6a880b9cc05	0.073099643161001
179	0xbfa40e91482d7d89	-0.03917364126277351
180	0x3f9e03d81e62942a	0.02931153951125879
181	0x3fb73a2e98ffc132	0.09073153720215002
182	0x3fb1106d25fe75f1	0.066656896377445
183	0x3f8a2f7bbf93cbe7	0.012785879882789742
184	0x3f92acd4023b7d2e	0.018237412105802146
185	0xbfa259e510f003f9	-0.0358420928168996
186	0x3fe32c66c3ce02d4	0.5991700958548685
187	0xbf98da6e4e95c504	-0.024270747705888787
188	0x3fb26fd0058ce27d	0.0720186246443379
189	0x3fb8c2e47ab97c64	0.09672382351117076
190	0x3fb779dba935b231	0.09170315629098337
191	0xbf776df6cfea2d29	-0.005720104322459543
192	0x3fb9d76ee1fe9349	0.10094349877779253
193	0x3fa2850616b036c3	0.036171140927860466
194	0x3fb125b6545071c5	0.06698169287159945
195	0xbf8eca9c044740dd	-0.015034884338917138
196	0xbfb050d7c0d815d8	-0.06373356302363875
197	0x3fa96a242f32c80a	0.04963791919853129
198	0x3fa11bf4602feee1	0.0334164016166747
199	0x3fa27861577b3bc7	0.036074678353194715
200	0xbf90237fb5d754b4	-0.01576041743631569
201	0xbfb1be0599c287ba	-0.06930575374511153
202	0xbf80617106876e4e	-0.007998354923009956
203	0xbfa2b1c334f6661b	-0.03651247045054281
204	0xbfacd604ef0d7200	-0.05632033746835319
205	0x3fbcbeb2de8c625e	0.11228483136472664
206	0xbf9ea2e617170ab6	-0.029918284568121144
207	0x3fa0c57a1bae6b33	0.0327566298285177
208	0xbf87a1a380e39e55	-0.011538770075687635
209	0xbfbf49fc3c66ba4e	-0.12222267603531486
210	0x3fa01ed2ccbabedf	0.03148516415728663
211	0x3fb87b7003ccf75f	0.09563350765981003
212	0xbf9430b40251295a	-0.01971703781263421
213	0xbf9186e0e0c85da5	-0.017116082877775125
214	0xbf9b3536adc8796b	-0.026570181233290507
215	0x3fa7ba4f9fc3a8ac	0.04634331536529265
216	0xbf9988a7c5753425	-0.024935361315602606
217	0x3fe5a9cbd1fe424a	0.6769770718984287
218	0x3f83e3a2485c33e6	0.009711520989663169
219	0xbfb82e9e9d57046c	-0.09446135846430231
220	0x3fb24f0d0a9bc3db	0.07151872166629351
221	0xbfab32c7087cada1	-0.053121776376737324
222	0x3f63420b13d6b231	0.0023508278233832715
223	0x3fa3e486f1475932	0.038852898552863016
224	0xbfa78eef2c5830ae	-0.04601237694086656
225	0x3fab1481ae9e8b18	0.05289082771857617
226	0xbf8e296910b9f3d2	-0.01472742159170962
227	0x3f89fd2449ce160f	0.01268986082301196
228	0x3f94e94e7d41894d	0.020421244044322596
229	0xbfa7324a1168c21e	-0.045305552125118206
230	0xbf9d547ed9e3fb10	-0.028642637299522156
231	0xbfa55c2afdfa4b75	-0.04171881056131258
232	0xbf9243e37a0ea09e	-0.017837099385048398
233	0xbfb09c92a8487873	-0.06488911255334688
234	0xbfa06d30305a34fd	-0.032083040144337695
235	0x3fa69c2519c6d118	0.04416004123359779
236	0xbf9cfe55cc6d0201	-0.028313961603318564
237	0x3fb097f0ba070323	0.06481842557606092
238	0xbfacea53e479af87	-0.056475278511100284
239	0xbf3c94312a6da69e	-0.0004360790284666324
240	0xbfa38161bff95b0b	-0.03809648006852314
241	0xbfa85a0230a57930	-0.04756171077564131
242	0xbf9d286bb327c0d9	-0.0284745052430829
243	0xbfaa496d710fb7cb	-0.05134145741600057
244	0x3faf3823a268c965	0.06097518308196718
245	0x3f94dd0dc9db0943	0.02037450356034155
246	0x3fb232fc4e726bf3	0.07109047808846451
247	0x3f8566b26e3cd60d	0.010449785222230746
248	0x3fe381b553fd7a65	0.6095835342819781
249	0xbf4a494a1f921a9a	-0.00080219382574927
250	0x3fb30c8f22baf9f7	0.07441038701924883
251	0xbf71cd8f63fb7eff	-0.004346428031311466
252	0xbfba7e30b69db198	-0.10348801096342297
253	0xbf995b771cbc8603	-0.024762974862033726
254	0xbf71e0016cc18234	-0.004364018979771834
255	0x3f9a4b5255b078a8	0.02567795417791588
