port_results/Expected/Adam/10_2000/2/2_trained_linear.pth (torch, 29815 bytes, 4 tensors)

linear_mean.weight f8 [10, 30]
0.05388251843078153 0.06659198289265668 0.1323917570020255 -0.0068892310220950975 0.07123109706835558 0.03734735728678645 -0.02891761469418274 0.07374254567890443
-0.03924599069787377 -0.039544744055603556 -0.0479766697449683 -0.021628271996233746 -0.03819804669408149 -0.018328256774300535 -0.131439027259801 -0.018562112824217457
0.10702763237664042 -0.011188935783405542 -0.09253295004392567 -0.04198845916454941 -0.046500808693130426 -0.050450122986468844 -0.07135819547758868 -0.05258551121861495
-0.08159736439761801 -0.06835607272980605 -0.01397952250899196 0.03401885073852996 -0.01760523263844008 -0.042095160080809844 0.07041448935547344 -0.10282291372654095
0.026816974632015846 0.029879013694533094 -0.018005157719578474 0.0965090486039376 -0.07901228022970434 -0.09003014558270558 -0.011729645920225018 0.15734764049438013
0.11970257957952028 -0.21582093225552 0.028600127456727565 -0.03310959748744725 -0.1462732976818527 0.050740899253903717 0.19865416222430765 -0.050124713616872846
0.21094106065302748 0.11968859877327964 -0.017081475066899474 0.0016034874689094159 -0.010013874052705056 -0.027168448717149442 -0.05308831492264208 -0.06870130098111212
0.04897480411468557 0.09293063245050487 -0.06364209561019926 0.04219058850881879 -0.19226620330709943 -0.11610555287330603 0.0412678867181672 0.0788167506126728
0.14901219096509058 0.0938902610492985 0.010070590624408396 -0.004598523401689443 0.07144049502039532 0.13577129463700735 0.07030937956701282 -0.0017026376143244506
-0.07302387304979426 0.04624212304149715 -0.03341288423195018 -0.18986119440034815 -0.05091385875081566 0.14192697822176117 -0.03042496718492269 -0.010703835347112889
0.04209349086805469 0.06143290813041537 0.0353427219639177 -0.03243569778070471 0.0552121535355081 -0.015794069098543664 -0.027433652978205082 -0.08625787536890578
-0.018047711019729316 -0.0017803736172089415 0.010340809029907947 -0.01296146419595575 0.03819369905698847 -0.015404481122978637 0.03777679924373156 -0.012197468531516074
0.0012732743510297639 0.13097304105691815 0.049254483711999 0.03806075344385321 0.04009004466557517 -0.051244770262722415 -0.02308310377571368 0.118783534666086
0.041360639140651516 -0.03905256621014454 0.012792190157656277 0.0535334751653111 -0.11380654487453608 -0.06120143781230364 -0.1064695397735296 -0.08933752665559454
-0.09865137318826182 -0.058453641801910046 -0.09993965620043631 -0.058913678858308005 -0.08803974486989892 -0.07310776128831506 -0.04563071803741058 -0.09885593588908125
0.0037325827527253273 -0.037943496615058726 0.11335017029190557 -0.02389137231780478 -0.03367682468949056 0.06267906676626432 -0.028455696250306597 -0.03679778141483892
-0.07324874355521964 0.0591510092677817 0.06371223114450966 -0.19190509277968482 -0.121116559286349 -0.08027549869059905 -0.03512065982870331 0.015730510012670264
-0.043790418151907644 -0.021242633792332544 0.06317748851041807 -0.08128419210247333 -0.06692586451748797 -0.08692571174807837 -0.04975412991776133 -0.09212176151313832
-0.07765971685518878 -0.12389470360963024 -0.002537897345911089 -0.027438138158409724 -0.13453498435310185 -0.05912689733761147 -0.04151512801300802 -0.03439887044147465
0.001772262113276053 0.1463195297707137 -0.013339838242921377 -0.20908210988155104 0.03913461792512763 0.06889997715096778 -0.08367545763730852 0.051387911552106744
-0.2667510023295771 0.0551126713432193 -0.07261604693700408 -0.005842064852344554 -0.11106795121063372 0.0461370957425757 0.005600466252780222 -0.06747745966102148
0.052738951794199525 -0.12789480260568356 0.03127945081693706 0.0006811807758866544 -0.012324901886636241 0.033898517706907286 -0.047308192667366064 0.05068877995727815
0.09896913315259244 0.040290000095825354 0.09053287357388969 -0.04909418871914245 0.021095323377638545 0.048407494458422136 -0.04383864435839322 -0.1519096433913882
0.03726326579374194 -0.2169111065437272 0.009542230474967038 0.13652707205362316 0.14625906531148267 0.19329489430385607 0.03206809900731021 -0.05264486184538515
-0.12820891355294028 0.07972993391888572 -0.07616235591656152 0.011089742539592804 0.12822020660438713 -0.042555615823478894 -0.04932845588534956 -0.2042700644222856
-0.019056986579228264 -0.016837844665945966 -0.041064540598791076 0.019085582041426935 -0.07303394833771784 0.06890188867129265 0.0840660637725482 -0.01036491411870012
0.12819912057784644 -0.033688710619904735 0.04848881481184514 -0.05345457380837562 0.18711261821286532 0.0940051242418546 -0.07681278691322938 0.0770655644281504
-0.05224981737454589 0.035801338828377445 -0.21666879731790506 -0.08978804460261593 0.12335477790992522 -0.04788098737692541 -0.050066782100182027 0.04645333721962536
0.10790000041905197 -0.07185614018804026 0.055956876955660054 0.045306818723944695 0.042957081909117824 -0.038803992078514704 -0.019057642802294977 -0.007399206676221696
0.0033943006304269045 0.012493402956950356 0.04061957624569377 -0.05627548501029351 -0.028914989291124207 0.15962320091909038 -0.10284239417939715 0.1185485156249427
-0.03749445155324998 0.05342819064483183 -0.08096603688042063 -0.05059898961723888 0.04131912460359427 -0.06656321096848639 -0.020561609666418453 0.17071053034350764
0.16009808233967854 0.006566506016194427 -0.12709043945451662 -0.0717576334859985 0.041604864593594776 -0.19326714154475455 0.016652717678797058 -0.004863041561734551
00000000: 73ff f84c 7d96 ab3f f122 b314 2c0c b13f
00000010: fab5 4a8d 36f2 c03f bea8 f3de e137 7cbf
00000020: dde5 5d80 333c b23f 880d 475c 311f a33f
00000030: 3e33 8f45 949c 9dbf 1cc2 039e cae0 b23f
00000040: 48cd 17ed 0c18 a4bf ba1f e56c 353f a4bf
00000050: 931f 0de7 6590 a8bf 823e 92c3 b825 96bf
00000060: 47f2 a4c2 b18e a3bf aad4 c07d a4c4 92bf
00000070: e2db bf79 fed2 c0bf b644 194e f201 93bf
00000080: 8473 d3b4 2966 bb3f ce58 228a 39ea 86bf
00000090: 46b6 3d4a 3db0 b7bf c0a3 d7e5 827f a5bf
000000a0: 1d2b 2639 f4ce a7bf 19b4 9c38 99d4 a9bf
000000b0: b6b8 e0db 8744 b2bf 2ad3 daf5 7cec aabf
000000c0: 710e 879b 90e3 b4bf 1186 db98 c87f b1bf
000000d0: d424 ebbf 4ba1 8cbf 022e bd36 eb6a a13f
000000e0: 69aa ae29 1b07 92bf 93e2 bb2f 7f8d a5bf
000000f0: 9f40 f218 af06 b23f e823 bc3b 9a52 babf
00000100: a7b3 16b4 e875 9b3f 4c78 9eaa 9a98 9e3f
00000110: 2878 42ae f16f 92bf e7a0 8527 d1b4 b83f
00000120: dba7 9117 263a b4bf 068d ee32 370c b7bf
00000130: a0dc f76c b605 88bf 2958 03ad f723 c43f
00000140: eb76 8a08 d4a4 be3f 4733 ea32 05a0 cbbf
00000150: bd30 5a10 5a49 9d3f d1dc c8bc bdf3 a0bf
00000160: 2c2b e95a 15b9 c2bf 95f4 ba0d b6fa a93f
00000170: f0dc fbe4 7f6d c93f 2c63 694b f2a9 a9bf
00000180: feb3 71de 1d00 cb3f f06f 6f79 e9a3 be3f
00000190: b97c 1e63 ce7d 91bf d2c6 438f 8345 5a3f
000001a0: c944 806c 2782 84bf 2a91 e4ba 0bd2 9bbf
000001b0: 4df5 c840 642e abbf 4d12 e890 6896 b1bf
000001c0: 1f4c 00bc 3913 a93f 64e8 2b4b 4dca b73f
000001d0: 2e72 4b2f d94a b0bf 4751 b03b 019a a53f
000001e0: 0840 aacf 2d9c c8bf a78f 79f0 17b9 bdbf
000001f0: 35bc a87f 1021 a53f a927 42a6 552d b43f
00000200: 593f 73db d412 c33f b5a0 9e30 3109 b83f
00000210: 3bdf 10cb e39f 843f 151f ecb9 e6d5 72bf
00000220: 82ff b89d ec49 b23f a1cb 192b f460 c13f
00000230: 9ba5 d7a5 cbff b13f 58aa b537 61e5 5bbf
00000240: bd7c 934a b1b1 b2bf 6659 522c 0cad a73f
00000250: 0b20 155a 7e1b a1bf aa4f 5d22 5f4d c8bf
00000260: efee 7e9c 6111 aabf 01f8 f0c8 a92a c23f
00000270: 591a 2afc b827 9fbf 609a 0f76 e4eb 85bf
00000280: cf37 4e2d 478d a53f 12f9 a256 2274 af3f
00000290: da29 f9f5 7018 a23f 78d3 616a 699b a0bf
000002a0: 9db0 8d73 c444 ac3f 47fc fe08 522c 90bf
000002b0: faa1 6749 9117 9cbf 6c5d bb01 ff14 b6bf
000002c0: d6bb 6362 197b 92bf ce09 7a9d 6d2b 5dbf
000002d0: 72f5 c7e4 8f2d 853f 2ca5 a346 8a8b 8abf
000002e0: 44df b9e0 1f8e a33f 3791 1475 628c 8fbf
000002f0: f048 990a 7b57 a33f 92ab 7e83 fcfa 88bf
00000300: 3898 93ec 7fdc 543f eaa1 ff7f b9c3 c03f
00000310: 9ce4 7239 e237 a93f 34dd 9af6 b27c a33f
00000320: dcb7 77ad ae86 a43f 6b25 bd28 c13c aabf
00000330: a83a 3adf 18a3 97bf f5b1 b104 9968 be3f
00000340: 77c9 e6c0 382d a53f 9217 65ad b2fe a3bf
00000350: ab84 f8b2 ca32 8a3f d908 275a bd68 ab3f
00000360: 4590 4efc 6c22 bdbf a879 be7b cb55 afbf
00000370: 82f4 5877 9641 bbbf 1593 4afb d2de b6bf
00000380: 3b90 8c65 3741 b9bf 511b bebf a2ed adbf
00000390: c750 f432 a595 b9bf a08a f707 ef29 aebf
000003a0: e5e2 f6d0 c589 b6bf ae2c d1b3 30b7 b2bf
000003b0: 4fcd 53d3 e85c a7bf 3fb9 a863 9f4e b9bf
000003c0: a63e 481b cb93 6e3f 0579 1d7a 546d a3bf
000003d0: 0357 664a 8404 bd3f d9ce 0bdb fa76 98bf
000003e0: 6756 59b9 163e a1bf e7a7 e73d bc0b b03f
000003f0: 34b2 1e73 7d23 9dbf 31f3 7ba7 28d7 a2bf
00000400: 43f2 0afe 6dc0 b2bf 4d39 a984 0a49 ae3f
00000410: caf0 1edd 714f b03f 0859 b698 5890 c8bf
00000420: df8f 23ad 7e01 bfbf aad4 8b61 ef8c b4bf
00000430: 46a6 c1ca 55fb a1bf 6a1c 37a8 a81b 903f
00000440: 2f64 ae9b b26b a6bf 3007 ad05 a1c0 95bf
00000450: aae3 fe5e 662c b03f 2b0c c372 0acf b4bf
00000460: 72f0 5baf 0d22 b1bf 8eb7 2371 c340 b6bf
00000470: a6e9 ac91 5f79 a9bf 37e7 f2b0 4a95 b7bf
00000480: 6712 1cd8 81e1 b3bf 4da6 2634 90b7 bfbf
00000490: 81cb 3d43 5bca 64bf 8ec8 3648 be18 9cbf
000004a0: e872 fb3e 7138 c1bf 130b c274 e145 aebf
000004b0: abd2 358a 7841 a5bf e685 218f ba9c a1bf
000004c0: 85e3 40f4 6709 5d3f e3ce 902d 99ba c23f
000004d0: b4f1 e5c7 ea51 8bbf 335a 0fdc 33c3 cabf
000004e0: 717f 42e0 7309 a43f 63fd 8ecc 6da3 b13f
000004f0: e6b2 073a c16b b5bf fe54 0d2f 844f aa3f
00000500: 7791 cbcb 7212 d1bf 6255 0762 ba37 ac3f
00000510: 205d c21a f796 b2bf 35fd b557 d9ed 77bf
00000520: 6759 1502 f36e bcbf 9a8d b10a 489f a73f
00000530: 0c62 5eb6 83f0 763f 4014 76ea 3346 b1bf
00000540: 71e1 5c92 9900 ab3f 5d88 425d db5e c0bf
00000550: f056 9734 dc03 a03f a838 da93 2852 463f
00000560: 7370 3c54 cc3d 89bf fa3a de81 255b a13f
00000570: 2eac ad88 c738 a8bf de9c 6138 e1f3 a93f
00000580: c52f 3486 0a56 b93f 8ae9 8811 e4a0 a43f
00000590: 5d77 3693 292d b73f 58da f19d df22 a9bf
000005a0: 44a2 0530 039a 953f 2913 29fb ddc8 a83f
000005b0: edfa a3cf 0472 a6bf 8711 2873 c671 c3bf
000005c0: fe40 dab7 2b14 a33f 1e4b 5f3e bec3 cbbf
000005d0: 7928 917e e08a 833f d195 be16 b879 c13f
000005e0: f3cf 20f7 9db8 c23f 4d69 c218 e3bd c83f
000005f0: 4e6b f6d8 3a6b a03f fa52 db6f 44f4 aabf
00000600: 30fe 6151 2669 c0bf 80a0 b152 2e69 b43f
00000610: d912 d94b 607f b3bf 7298 3a0c 38b6 863f
00000620: afae 060d 8569 c03f b12a 7284 d9c9 a5bf
00000630: c75a 9451 9441 a9bf 856d 1f7f 8525 cabf
00000640: 3dee 78b8 ac83 93bf 2393 b3a0 f03d 91bf
00000650: 034d cb55 6906 a5bf d8af c5ba 2b8b 933f
00000660: 62b6 9b53 5ab2 b2bf 50d0 79de 8da3 b13f
00000670: 8746 9b82 5a85 b53f 8748 5339 333a 85bf
00000680: f4ff 202b d468 c03f 6ebb b68c a53f a1bf
00000690: d866 ada3 86d3 a83f 243d a8dc 655e abbf
000006a0: 1154 f267 4ef3 c73f 5972 4646 b810 b83f
000006b0: d2f9 b4b7 00aa b3bf 31df dd9e 91ba b33f
000006c0: abf8 b0f1 7cc0 aabf b17f d796 8d54 a23f
000006d0: 96a3 459b cdbb cbbf a9d8 236b 59fc b6bf
000006e0: 58b0 edc0 2d94 bf3f 96a6 c455 db83 a8bf
000006f0: 73f4 786f 5aa2 a9bf 98f4 4b58 bbc8 a73f
00000700: 6dc8 099d 559f bb3f 44da 1ffc 2965 b2bf
00000710: ea8e 0539 61a6 ac3f 7e08 6991 7432 a73f
00000720: 5dcd dc7b 78fe a53f d0e8 dce9 1dde a3bf
00000730: eb7f 4cc2 d883 93bf 512d 0d6b a14e 7ebf
00000740: 184c 6a46 5dce 6b3f 8a43 ed28 2496 893f
00000750: bdf2 1acf 16cc a43f 791a 5fef 23d0 acbf
00000760: 3770 7a15 e49b 9dbf aaae d075 886e c43f
00000770: eb91 a40f e153 babf 9635 990d 3259 be3f
00000780: b7c3 6706 7932 a3bf 0e0d 0297 f05a ab3f
00000790: 83f6 7cb0 30ba b4bf 14be 3b5b 1ce8 a9bf
000007a0: c85a bec1 c727 a53f 30f5 395e 490a b1bf
000007b0: ef12 4844 1a0e 95bf 463f 74b8 d7d9 c53f
000007c0: da8e e60d 187e c43f 57ab 6a09 7be5 7a3f
000007d0: 8db3 8be0 7f44 c0bf 388b 0f51 b55e b2bf
000007e0: 2c68 9199 3b4d a53f 6cbe 294a fabc c8bf
000007f0: 20a2 47f7 680d 913f f5c2 77c7 44eb 73bf

linear_mean.bias f8 [10]
-0.03746786127584611 0.03705373593873043 0.06556259259788645 -0.08116791468437205 -0.04995385234908242 0.04799045592016639 -0.0038530291678646996 0.060233975562214166
0.09744181949937081 -0.014372098889967733
00000000: bf61 a9cd fc2e a3bf e459 1a10 b5f8 a23f
00000010: 5184 0cc7 b5c8 b03f 23cc 0da3 6bc7 b4bf
00000020: 0c0b 4c24 8d93 a9bf 32fd 647d 3492 a83f
00000030: 3a46 8748 6390 6fbf e9a8 4bd6 fcd6 ae3f
00000040: 5835 0374 f2f1 b83f 4d87 a875 1e6f 8dbf

linear_cov.weight f8 [100, 30]
-0.09902392274503936 -0.09726071858545125 -0.1066474942826274 0.07747348864981839 -0.017134765487670817 0.024552277153562396 -0.05921672576140939 -0.020354820951481157
-0.049214246245944095 -0.002503870554126529 -0.08797730043499583 -0.0012014552061506397 0.0733853857757736 -0.020406333862933494 -0.016928966876811797 -0.042612427027264664
-0.12358275363379197 -0.01681707397562728 0.09146517849496169 0.047006949495868075 0.014072800211158103 0.042671278731438 0.029504014409229198 0.04075480176041491
0.03797258452282258 0.025576499482472752 0.01666809650804605 0.014191870166265053 0.018672024981228278 0.016622232423802293 -0.013819133511864205 0.02031079412437069
-0.01189580727819983 -0.03481278278543641 -0.00470443586816599 -0.028455026158683543 0.01824066962007718 -0.0036524490580423065 -0.016455449705232314 0.03523195201120361
-0.03205361510454674 -0.02108464962641437 -0.01121711713365938 -0.051061725314398475 0.008854156808170418 0.010854950795904213 -0.013843769424824067 -0.026781019618287185
-0.06257166290196266 -0.023080961459195408 0.07988550982226333 0.07239549886463596 0.07782206950133785 0.07560193651282884 0.06869893735241495 0.0867493317065319
0.08396504210776845 0.08045105148209468 0.08114174501787302 0.07825499601696176 -0.017625327115261553 -0.0005412073176146617 -0.02127371879289373 -0.044249150604147205
0.002456684840901556 -0.052458426663153486 -0.02635181751880034 -0.01977575071112007 0.03440397863955818 0.00671103661870554 -0.005432084657878834 -0.01731112976845069
0.009372884876514869 -0.046775133299474005 0.014060848790579604 0.011128121223737882 -0.014152755519931006 -0.008558574060866719 0.014489668264137303 -0.023837504181418
0.06838380149787646 0.0614745435475332 0.06483276275563961 0.0632284147995739 0.05752199303978814 0.07281456392266707 0.07092347901174774 0.06928710675293405
0.06802096203134061 0.06838172249678337 -0.07021185858101565 0.002134069408752018 -0.05110467651742243 0.002186028233505014 0.0027252815940762803 -0.04575544180772467
-0.028957058704318212 0.016738261182059108 -0.035315820703816406 -0.02791374665169813 -0.07186718269095144 0.011674047750493471 0.03292993860782042 -0.07170192693508068
0.014805868443552157 -0.022427306979790444 -0.04699074594760789 -0.004874057790987786 0.00962436647970604 0.006248868598791956 0.058202266368014115 0.05576668633991197
0.05542068420521334 0.055431753698343335 0.054521159075057724 0.06002648618880349 0.0585440471626772 0.05548217335267491 0.05952472990939551 0.05250115795876088
0.020279689281952513 0.005707591114598229 -0.0628240633796164 0.006660836140794579 -0.05197304495792132 0.040845545906732866 -0.03335131965834781 -0.004061059637486743
0.007966073243941524 0.014200467778807966 0.011791754218835583 0.04231168176906005 -0.02190146824603805 -0.0034001751101149567 0.014359899237003582 -0.002763612899390775
0.0170494776719258 -0.002581692914933382 0.029257246868217734 0.03125917324658099 0.021156344890683555 0.027506265684608112 0.02292905024428129 0.031150006034915766
0.019325958574587312 0.02982949696743601 0.025193702632493594 0.0316549222286483 0.023436329069005724 0.03128769134733017 -0.03867817628181822 0.01722026075662907
-0.043047618206838494 -0.0006348309900407623 -0.0036309364874919465 0.05212485243066175 0.015640899996004085 -0.009070757462324707 0.02901930190052962 -0.023555354312655048
-0.04288398226695433 0.02070201653349169 0.044934256647682136 -0.017638604866862553 0.029161047988916947 -0.034188726381381776 -0.07262214317057379 -0.04244369928414144
0.056933368773886585 0.03657262253384595 0.03563895970193909 0.04355297811065343 0.03821925573438312 0.04211628761771787 0.04132723231108731 0.036567123432603786
0.036223733969824194 0.034552431132852515 0.032954825477097764 0.03601226712069295 -0.09832299190857116 -0.018823820921052514 -0.0786868725221635 0.07286037760869736
-4.837488182834401e-07 0.04363913221531573 -0.018102145832973825 0.0005919988544449642 -0.05261799630290113 -0.026176728345547205 -0.09235398903474443 0.008784795138400168
0.0747531403757486 -0.054320728883350114 0.05051457260837999 -0.0544845166262641 -0.09083729872408805 0.01279287617467594 0.0583699046108223 0.06365685392602274
0.012198173519712757 0.026429480415251713 0.016907149608064605 0.019587798909365964 0.026365347362708628 0.009723564944164174 0.008680210178657912 0.009816761690567225
0.013685453003392443 0.007403312442842317 -0.009747486658860466 -0.029163453858819754 -0.08616924885558962 0.01622581919419291 -0.06481910584330924 -0.001888799311607754
-0.028374267669027578 -0.04690142872479325 0.02175293168245093 0.006314508877282319 -0.007952490564225681 0.05749112492541125 0.0005938642660493467 -0.01567021904230853
0.0019340265026746525 0.007397530137968684 -0.009207339347171009 -0.02335262804778709 0.03540274408068019 0.035297385261824424 0.08283964602022142 0.08521101992552468
0.08826814880367352 0.09001530839488817 0.07484539650332485 0.09523575567583499 0.08684713208421968 0.08783894765542384 0.08520069606351068 0.08885260233492978
0.015641692563588265 0.0171824708197235 -0.05827357173633295 0.03120341840365872 -0.036376692870345416 8.774675456109038e-07 0.021754366100115 -0.05505250417053871
0.015508999026203212 0.07711705206079038 -0.0047415385459217176 0.00859253356678202 0.002286548593250164 -0.020649368257086326 0.03251161246336666 0.03137115750828767
00000000: c129 b6bd a159 b9bf 8f8d 8215 14e6 b8bf
00000010: 5eec 240c 404d bbbf e7d8 0e74 4dd5 b33f
00000020: c8a2 93a5 c68b 91bf 30e2 aa6d 3b24 993f
00000030: 06fc 0a99 a751 aebf edce 35e9 e4d7 94bf
00000040: 354b 3f14 9c32 a9bf 63a8 9644 ff82 64bf
00000050: d69e 282c ae85 b6bf 7489 5ab4 44af 53bf
00000060: 614a e977 62c9 b23f 4e4c 4ae2 65e5 94bf
00000070: 4528 5dbc d355 91bf b377 f8c8 4bd1 a5bf
00000080: 55ee 348d 1ea3 bfbf 457c f5ba 7e38 91bf
00000090: 56d1 5b0e 436a b73f e6f8 897d 4b11 a83f
000000a0: 894b 5c45 33d2 8c3f d892 4285 02d9 a53f
000000b0: 9712 f4e3 4c36 9e3f 6190 6e39 d0dd a43f
000000c0: ce19 5781 2471 a33f 7e24 4bd3 b930 9a3f
000000d0: eaf4 8d05 7111 913f e090 dd91 a010 8d3f
000000e0: 11f0 9362 c21e 933f 7243 9622 6b05 913f
000000f0: 62ab f0b3 344d 8cbf ad70 1452 5acc 943f
00000100: ff4d c139 d45c 88bf aea7 1727 fbd2 a1bf
00000110: c0cc 3263 f544 73bf 3b92 087b 5023 9dbf
00000120: fbc7 e69d aead 923f 1aaa 25a8 bdeb 6dbf
00000130: 8cbe 4c89 b2d9 90bf f920 5323 ec09 a23f
00000140: 4069 2fd9 5469 a0bf 4e4d 5fe2 3697 95bf
00000150: ccab f4f9 fff8 86bf 73f8 9a30 c324 aabf
00000160: 1ee2 65cf 2022 823f a443 58d5 1e3b 863f
00000170: 5ec0 7647 1f5a 8cbf 0704 a8cd 7b6c 9bbf
00000180: f5fc d14d b204 b0bf 4e8a 821a 89a2 97bf
00000190: 7464 1c74 6073 b43f bb4f 00ec 8288 b23f
000001a0: 2050 6aab 25ec b33f fe3c d604 a65a b33f
000001b0: d0d5 32e9 4096 b13f 0a21 a146 3435 b63f
000001c0: 6031 dca5 bb7e b53f 635e 0bab 7098 b43f
000001d0: cc2f 3195 b4c5 b43f ca36 a4f8 8408 b43f
000001e0: c257 2aae 5f0c 92bf 9c9c 60dd f9bb 41bf
000001f0: 3b4b eb19 c7c8 95bf 4af1 701d d3a7 a6bf
00000200: fd45 8ba1 0a20 643f 91f1 d5b5 d4db aabf
00000210: 21cf bb89 f8fb 9abf 0b81 3b2a 1840 94bf
00000220: 17e7 37f6 659d a13f 0628 cb2c 087d 7b3f
00000230: 1b6c 461f f43f 76bf 3567 d940 02ba 91bf
00000240: 7645 1c50 1732 833f 8d16 9307 e9f2 a7bf
00000250: 9923 ad2d efcb 8c3f d167 c625 57ca 863f
00000260: 81e1 d9b0 1efc 8cbf 13d7 885d 2887 81bf
00000270: 6e49 985a c2ac 8d3f 3083 82d3 db68 98bf
00000280: e670 02cf 9981 b13f 3b78 2564 9779 af3f
00000290: 25ab be43 e198 b03f c3f9 bdc5 bc2f b03f
000002a0: c431 d0cd 8573 ad3f 4969 b8aa f9a3 b23f
000002b0: 65be df86 0a28 b23f d9ce 89c1 ccbc b13f
000002c0: 04f8 5d5f d269 b13f a490 c4ed 7681 b13f
000002d0: 4197 6584 67f9 b1bf baec 2cca 777b 613f
000002e0: 2d46 a164 642a aabf 2155 acf8 6ee8 613f
000002f0: 37d3 346a 5453 663f 283e 5bdc 416d a7bf
00000300: 455c 7e50 eba6 9dbf dcb3 79b1 d523 913f
00000310: da98 e84d ea14 a2bf 8857 e9d3 6b95 9cbf
00000320: 0434 503f e365 b2bf e309 672a 90e8 873f
00000330: 2b7f c262 31dc a03f fe10 3fb7 0e5b b2bf
00000340: 0a0f 0806 8a52 8e3f feec 0f18 2ff7 96bf
00000350: 9186 1eca 2b0f a8bf db4a faec d1f6 73bf
00000360: 9b50 339a f0b5 833f a60e 4de4 6998 793f
00000370: 5718 35fd afcc ad3f 5c8a 127c 738d ac3f
00000380: 17de 5d94 1960 ac3f 05b0 9602 8d61 ac3f
00000390: b0b3 5586 32ea ab3f f43f 26a6 cabb ae3f
000003a0: 39dc e03f 7cf9 ad3f 8019 1fd0 2868 ac3f
000003b0: 6136 8780 067a ae3f 62b9 de88 6ee1 aa3f
000003c0: b2c3 f4e8 32c4 943f bd77 d1d2 d760 773f
000003d0: 4d06 9ee1 3c15 b0bf 663a 3896 6448 7b3f
000003e0: 9051 bc00 369c aabf 549f b617 b5e9 a43f
000003f0: 300e 6c96 6c13 a1bf a822 4865 54a2 70bf
00000400: 906e 7b40 8450 803f 2543 9585 2215 8d3f
00000410: 34e4 db75 4626 883f bbad df72 e0a9 a53f
00000420: ee8a 67a7 566d 96bf 4f78 c11c afda 6bbf
00000430: 9a37 c60c b968 8d3f 2ea9 b160 b7a3 66bf
00000440: a828 0f14 6b75 913f 0f1e 6ad4 3326 65bf
00000450: 0046 e199 9cf5 9d3f 7e8f 96cd 3301 a03f
00000460: 0a2f a245 02aa 953f bdb0 333e 9a2a 9c3f
00000470: 26ca b583 b67a 973f d6ba c284 c9e5 9f3f
00000480: 44b4 2a20 2fca 933f 8a9e b9a7 9f8b 9e3f
00000490: 4fa1 7cc3 60cc 993f d07c 75ef 1235 a03f
000004a0: a006 8f6b b1ff 973f e84f 35b6 f004 a03f
000004b0: dd0e 663c a0cd a3bf 5dfe 1c23 30a2 913f
000004c0: 27f6 bc60 560a a6bf 9076 9c2b 59cd 44bf
000004d0: 56d5 f62e a0be 6dbf cb3d ffd0 1bb0 aa3f
000004e0: ccf3 d907 2b04 903f d97e 3475 b093 82bf
000004f0: 484c 7662 3cb7 9d3f 5297 ac11 e51e 98bf
00000500: 4fb6 b7aa e3f4 a5bf c1f0 e3cf e832 953f
00000510: f031 8b75 9f01 a73f 6772 33bc da0f 92bf
00000520: e1ca b7cd 64dc 9d3f da5c 664b 2f81 a1bf
00000530: 2f0f e261 5d97 b2bf 997b b138 2ebb a5bf
00000540: d5b1 ded9 5e26 ad3f ce73 6c93 a5b9 a23f
00000550: a03e c40c 453f a23f c5df 4171 934c a63f
00000560: 30cc e96a 7991 a33f dbe0 e41b 4490 a53f
00000570: 57ae 6bce d728 a53f abef 800e edb8 a23f
00000580: 8792 7ad1 ea8b a23f 6a00 6d33 dbb0 a13f
00000590: a7cb 5673 74df a03f f18d 132b 3370 a23f
000005a0: 1633 b112 b22b b9bf 437b f73c 8d46 93bf
000005b0: 5472 1ba8 d224 b4bf b1e9 004b faa6 b23f
000005c0: 1864 b8e6 5e3b a0be 7796 614b de57 a63f
000005d0: d334 5c71 5e89 92bf cfd0 0bdc 0b66 433f
000005e0: f5a0 9afa bef0 aabf 4640 a480 12ce 9abf
000005f0: de32 8fd2 82a4 b7bf 9268 923e c3fd 813f
00000600: 3ce8 2f95 0523 b33f aa05 1934 edcf abbf
00000610: 0019 a6ca 0bdd a93f 13aa 1802 65e5 abbf
00000620: 96e5 46fb 1c41 b7bf bb09 56c6 2633 8a3f
00000630: d78c bffe a8e2 ad3f e24c c7c9 d04b b03f
00000640: 836d b422 5bfb 883f dc96 2268 5410 9b3f
00000650: 3f76 8a9a 1b50 913f 318b ddee d20e 943f
00000660: 119b ae82 84ff 9a3f 4c59 7ccb f2e9 833f
00000670: aeca b716 eec6 813f c213 4f73 cf1a 843f
00000680: 52e5 a468 1e07 8c3f 046c 2f8d ef52 7e3f
00000690: 7011 5883 7df6 83bf 5386 3f42 06dd 9dbf
000006a0: cf71 c119 300f b6bf 0fd3 284b 809d 903f
000006b0: 04c3 c023 fc97 b0bf 5279 69d1 32f2 5ebf
000006c0: d4e5 bede 240e 9dbf 586f 04cd 7603 a8bf
000006d0: 7749 ac88 6646 963f 5744 e411 3edd 793f
000006e0: 1529 2937 6549 80bf 18d3 ba0a 7a6f ad3f
000006f0: edc3 ebcc b175 433f b042 3b99 da0b 90bf
00000700: ea88 0725 e5af 5f3f c751 3860 df4c 7e3f
00000710: 88c0 082b 4cdb 82bf efad f656 c0e9 97bf
00000720: 8bc5 07f8 4e20 a23f 2aee aab6 7f12 a23f
00000730: d014 78a2 fa34 b53f 4ec4 d6af 63d0 b53f
00000740: b9e6 63cc bd98 b63f aa05 b245 3e0b b73f
00000750: 2de9 3c62 1129 b33f 619d 09d8 5e61 b83f
00000760: 0099 0d18 9d3b b63f f5be 7eff 9c7c b63f
00000770: 5970 307b b6cf b53f 8a69 314d 0bbf b63f
00000780: fe0c 0f38 6004 903f cbd4 f018 4898 913f
00000790: 1e46 a899 08d6 adbf c6ba 44f6 c9f3 9f3f
000007a0: 53f6 6d44 f79f a2bf d02c ee89 6371 ad3e
000007b0: d1e3 c7cb c646 963f 5a63 f381 d72f acbf
000007c0: 16d1 e39c 2ec3 8f3f 6ba5 9070 f1bd b33f
000007d0: e49f cc0f dd6b 73bf fedb 4555 f698 813f
000007e0: f11b b86d 3dbb 623f 8894 63a5 1b25 95bf
000007f0: 0270 8ab0 5ca5 a03f 304f 125f e10f a03f

linear_cov.bias f8 [100]
0.40849483767010014 0.04781185706481278 0.07541541990925847 0.06724276013898407 0.03906587570099061 0.08702088593666522 0.012411070272533629 0.09245290448089287
0.13317241447407646 0.10407907547954957 0.028407231347485833 0.5933258746953949 0.20626671881817343 0.1386217484227386 0.07001342041800745 0.058325034637183484
0.02810943263988404 0.029097852528528013 0.084280421497511 0.07067535451579683 0.12036150620923183 0.21615485991276595 0.5026806853920864 0.14512671280997028
0.11396546329748772 -0.041974794819929086 0.08699580728947218 0.0681585625548757 0.0664612740014729 0.156978286482952 0.09154561867980589 0.07838676239266201
0.09007556852073886 0.39931187511190275 -0.0005495123854603732 0.0674363504953069 0.014206762501229884 0.027826011044430953 0.07280156870165563 0.10156877632171837
0.09429124107740458 0.09191945159561893 0.07197909140804526 0.0860932806037758 0.20447349770019546 0.023483514476560222 -0.10436008613726314 0.023590884247803392
0.06267253910293384 0.08250442470902677 0.18284677595643073 0.14832361866063729 0.053454626898796376 0.05638755553278819 0.005596519979598642 0.5960274247041171
-0.04419078399521481 0.052147367594381176 0.0036857126594012 0.15980201095079832 0.10067226928179963 0.09389087577105557 0.11204397203463676 0.06088812183423197
-0.08430411260536248 -0.039144202592325726 0.5599123739181431 -0.004987428276155184 0.005026300575879106 0.11057049521504185 0.1412081281270322 0.1753001645491149
0.08352280047805749 0.12864870556197025 0.11778076873119972 0.05695627665676827 0.07794465505425842 0.6344027080093059 0.021910910040768283 0.09625442208296608
0.1263183021897662 0.10537110699575439 0.04105981365613112 0.12961800077446908 0.0017139854800498086 0.05235941713523654 -0.03192043212078424 0.03943815151504654
0.6225410341670559 0.04821689953151473 0.10465158231161328 0.033865173596514836 0.1144652201103266 0.06322800662820975 0.041375410826149685 0.10741970513511837
0.05736329927128564 -0.006023141693287095 0.02647093525361068 0.4753664488416271
00000000: a92f 1888 c724 da3f c8a6 e8b4 cb7a a83f
00000010: dfd6 1fca 6c4e b33f c590 b04f d236 b13f
00000020: 6efb 0c45 7100 a43f 7fbb 2a33 0047 b63f
00000030: bf5d 6ea7 f96a 893f d367 2a59 feaa b73f
00000040: 40a0 722e cb0b c13f d3f0 6121 eda4 ba3f
00000050: 2bef 6d06 c916 9d3f 7cfe 758b 86fc e23f
00000060: 66e4 c9a5 f266 ca3f 62b8 fe81 5bbe c13f
00000070: 04f8 f946 66ec b13f da0a 9c68 c7dc ad3f
00000080: 74f4 9617 b8c8 9c3f 1ab6 f9d3 d3cb 9d3f
00000090: 2e60 06d6 6693 b53f 454f 47b0 c717 b23f
000000a0: 02af ddfc 02d0 be3f 7430 1963 f6aa cb3f
000000b0: 44e0 02ce f515 e03f 39bc a51a 8393 c23f
000000c0: 7a77 bc31 d72c bd3f 350c 0466 b87d a5bf
000000d0: e688 3273 5b45 b63f 6e95 1ded d672 b13f
000000e0: 1d6d 4926 9b03 b13f cd2d 504f dd17 c43f
000000f0: f564 529e 886f b73f 4472 eaa4 2711 b43f
00000100: 1216 f744 310f b73f cda4 2065 538e d93f
00000110: 79d6 b5dc a401 42bf 255e f037 8243 b13f
00000120: 053c 9962 6f18 8d3f a3e6 a7fd 6b7e 9c3f
00000130: becd aba4 1fa3 b23f 82b5 984c 6900 ba3f
00000140: 4e09 ba84 7823 b83f 1c2d 787e 0888 b73f
00000150: b8e5 97c3 386d b23f c43b 9990 350a b63f
00000160: 72b2 c204 302c ca3f 9118 b0fa 0f0c 983f
00000170: 32a0 f7b4 57b7 babf f7e8 4f71 3528 983f
00000180: fbeb cdb9 4e0b b03f 628b e68d 021f b53f
00000190: 70b9 74ed 8567 c73f 8d97 afb1 44fc c23f
000001a0: 084f b3a4 675e ab3f c154 d465 d4de ac3f
000001b0: fb63 8a64 60ec 763f f4f1 131b a812 e33f
000001c0: 708d 16a8 2ca0 a6bf ebdc c74c 0fb3 aa3f
000001d0: eee3 b4ea 7f31 6e3f fa31 6f6d 6474 c43f
000001e0: 71ef 2d68 a8c5 b93f f658 d480 3b09 b83f
000001f0: c64a 9aeb e9ae bc3f 0f5c fc57 ba2c af3f
00000200: edee 8e4e f494 b5bf 2b90 ec7b b50a a4bf
00000210: 2e55 d35a cdea e13f 904d 6595 b26d 74bf
00000220: 4005 7e49 7596 743f 9be3 d914 594e bc3f
00000230: dc13 1ea2 1b13 c23f 2466 dc5c 3c70 c63f
00000240: 000a 8610 c061 b53f cfdb 878f 8f77 c03f
00000250: 9a59 cc65 e126 be3f 0fe3 1583 5f29 ad3f
00000260: 8125 5b50 2ef4 b33f 0f9a 6ce8 064d e43f
00000270: 20ea 3348 d06f 963f 8814 f13a 21a4 b83f
00000280: 0649 65b8 322b c03f 0276 7dd2 99f9 ba3f
00000290: c476 aab9 ca05 a53f bd4d 2699 5297 c03f
000002a0: 09db 49e5 f914 5c3f 7588 7780 dace aa3f
000002b0: a4df 10f8 df57 a0bf 1892 f1c5 3c31 a43f
000002c0: f84b c52c dbeb e33f 4c6a 34ad e2af a83f
000002d0: a6c6 8033 72ca ba3f ac0a 24aa c656 a13f
000002e0: 4b3e e7b8 974d bd3f 8bd0 a8ec b52f b03f
000002f0: 9db8 b668 282f a53f fa54 8098 db7f bb3f
00000300: 08bf b8ec b85e ad3f 762f 78c9 b8ab 78bf
00000310: 65cd d564 321b 9b3f 0ffd d865 676c de3f
