port_results/Delage_3/10_2000/20/6_trained_linear.pth (torch, 17023 bytes, 17 tensors)

radius f8 []
000000 29 26 87 9a 39 84 d1 3f
       0.2736953743993547

shared.weight f8 [10, 30]
000000 81 f2 51 50 27 c3 79 3f 7a 28 49 72 b6 aa 7f bf
       0.006289628571832241 -0.007731163674700276
000010 0e f5 7f a7 dc 8d 8b bf 78 e3 bd 95 89 12 54 3f
       -0.013454173909844627 0.0012251227953738713
000020 8c b5 07 96 5c e5 8a bf 58 25 e6 82 b6 00 54 3f
       -0.013132785156779979 0.0012208731019163945
000030 ef 54 74 1f 0e b4 76 bf 6d 12 d9 e1 45 eb 94 bf
       -0.005542807738739371 -0.02042874518362441
000040 fa 2c dc d8 42 e6 4f bf f8 b6 9b ee af f9 89 3f
       -0.0009734941865827955 0.012683271855589137
000050 e1 b7 f4 f6 34 f3 62 3f 0f 25 ca 0a 57 07 68 3f
       0.0023132357088320042 0.0029331874887402807
000060 28 9b a7 c3 54 49 93 3f f8 7c 59 1a c3 b0 72 bf
       0.018834423486533997 -0.004563104744732309
000070 29 41 35 7d ac 0d 89 bf 8d ca 5b ad 26 6c 95 3f
       -0.01223311192612238 0.02092037613960911
000080 38 d0 af 9a 03 de 8f bf 8d de d1 63 76 9e 96 bf
       -0.01556017700020372 -0.022088861315266817
000090 da ca 67 fe 44 87 92 3f 96 5d 2a 80 1f d7 85 bf
       0.018094137218166086 -0.010664220904159898
0000a0 de bb 1b d5 50 a7 66 3f c8 a2 2b c7 47 7b 82 3f
       0.0027653292425990758 0.009024201169681403
0000b0 ae 96 6e ef 77 e4 79 3f 27 0f 61 42 15 da 70 3f
       0.006321400162880115 0.004114230198016411
0000c0 ac 48 22 a9 66 22 6d 3f a2 db e2 9f 12 88 79 3f
       0.003556442746295371 0.006233284713906525
0000d0 07 11 94 28 6b 97 75 3f 10 35 d4 36 f3 f2 7d 3f
       0.005271357143332495 0.007311773352978848
0000e0 06 b9 c5 08 f5 6b 82 3f 60 ec c0 cf 7e 11 78 3f
       0.008994974451266301 0.005876059873169387
0000f0 6d ac 43 f9 5a 61 9a 3f 67 94 ab 0b 1e 4a 91 3f
       0.02576200624836782 0.016884297811789042
000100 5a 4c de e4 25 85 8d bf a1 ea d9 c6 b8 60 a9 3f
       -0.014414115950591878 0.04956605365165002
000110 7b ee c4 d7 ea 82 99 bf f4 9b 5f 61 23 3a b2 3f
       -0.02491347257567476 0.07119961859972063
000120 a4 df 0d c6 42 20 9d 3f 27 7e 80 31 6f f5 a8 3f
       0.028443377817410145 0.048747515480723806
000130 d0 a4 4b 28 1c 48 55 3f 44 74 b8 e2 d3 b6 59 3f
       0.001298930642571517 0.00156946842151419
000140 dd fd 1f d6 a4 36 97 3f 89 5a 53 6d 71 41 a0 3f
       0.022669387406493036 0.03174929103413599
000150 ab 6e 18 7b c1 7e a2 bf a7 85 83 17 aa 5f 94 bf
       -0.03612331988935343 -0.01989618080631819
000160 10 7e fe dd a6 44 a5 3f fa 97 ce 52 a8 a3 9a bf
       0.04153939685715724 -0.026014928869379596
000170 28 32 e8 a4 e8 6b 83 bf b7 77 1d ce 44 b8 a3 3f
       -0.009483163387835239 0.03851523414662899
000180 80 de f3 7b 65 73 71 bf b0 be ec 26 54 a4 56 bf
       -0.004260441229454792 -0.0013819524571764656
000190 88 ec ce dd 77 f7 57 3f c1 46 21 d6 fa d1 57 3f
       0.0014628096171083477 0.001453871686426231
0001a0 e3 0a a5 28 53 bd 44 3f 1a 6d ad 66 6d 77 91 3f
       0.000632920842044218 0.017057141677793465
0001b0 9e 80 d0 eb 59 23 45 3f 6e c0 e4 1d 4d 0f 83 3f
       0.0006450833385578563 0.009306528544215289
0001c0 e1 1d 4a b5 2c 51 60 bf 7e 88 96 b1 30 83 74 3f
       -0.001991832085255871 0.0050079252336293605
0001d0 bc 0b aa 70 0b 5b 64 3f d2 d4 14 b6 f5 98 75 3f
       0.002484819740233372 0.005272826966849569
0001e0 01 95 8c 4e b1 35 ae bf 0b b3 1d 78 fd 1c a6 bf
       -0.05900339206554329 -0.043189927017783424
0001f0 5e 71 65 3f 6e 5d a3 3f 83 b1 f6 dd ca 0d bc bf
       0.037822194327165035 -0.10958545607599572
000200 a6 e8 14 dc 8f f4 b0 3f ef 23 27 b1 d8 87 c2 bf
       0.06623171923721091 -0.14477070474666173
000210 1d 4c f2 97 f1 7c a9 bf 68 be 58 6d 0e 61 b9 bf
       -0.049781369970468094 -0.0991372124633415
000220 9c ee d3 79 5c 95 8f bf 8f 1a ad ec df 16 67 bf
       -0.015421602695361351 -0.0028185246968946485
000230 31 7b 37 aa 42 3d a7 bf e1 09 50 67 e3 f5 b5 bf
       -0.045389254835518485 -0.08578320762902748
000240 f7 87 59 11 03 e8 b5 3f 47 68 f8 cf e9 8f a2 3f
       0.08557147191598334 0.03625422157001928
000250 fa 11 88 85 79 9e b8 bf 78 55 ca 7a d0 c1 aa 3f
       -0.09616813192412357 0.05225993632226794
000260 a1 78 aa 88 ee 42 84 3f c2 58 10 02 25 dd b1 bf
       0.009893287225448967 -0.06978064823519772
000270 1e 0a 4c 53 aa 92 79 3f e9 9c be de 96 59 75 3f
       0.006243386586677361 0.005212392174065197
000280 6d 2d 0f 37 a2 ac 53 bf 42 b1 7a a1 9b 87 50 bf
       -0.0012008270389170753 -0.0010088939506359283
000290 04 09 54 9f d6 1b 60 3f 0b 62 cc 4c 23 08 a0 bf
       0.001966399368599105 -0.03131208717804065
0002a0 b7 51 cc 8a 79 5d 65 3f 0b 37 af b7 95 fa 90 bf
       0.0026080488081651992 -0.01658090528126536
0002b0 50 53 7e 06 93 c5 7a 3f 74 f0 69 6c b0 d2 88 bf
       0.006536077802498166 -0.012120607670333274
0002c0 d4 e3 db 3c f0 39 70 bf 95 d9 b8 2d cc ba 86 bf
       -0.0039615043913209975 -0.011098475594832272
0002d0 44 14 f1 32 f4 c8 87 bf 63 ce 1e 49 e3 ce 78 bf
       -0.0116137579008272 -0.00605667861411838
0002e0 72 75 b1 34 97 85 5d bf df 49 a5 c4 6b 41 98 bf
       -0.0018018700236760135 -0.023687061192797173
0002f0 26 f6 47 be 77 95 79 3f 24 03 91 b6 db d0 98 bf
       0.00624605917664448 -0.02423423101231771
000300 ee c5 fa 5f 3b 84 81 bf 04 73 f0 fb c1 72 94 bf
       -0.00855299364715997 -0.01996901607718639
000310 9b e5 56 24 ef 5c 67 bf b7 09 cb 2e 8e b9 41 3f
       -0.002851931642649586 0.0005409187557108762
000320 d5 d9 aa 22 33 7f 8b bf 5c ca 22 a6 0a be 96 bf
       -0.013426208014931365 -0.022209326162462836
000330 0c c8 2c 50 2e 78 89 3f 86 57 81 fa b6 09 4d 3f
       0.012436258146042455 0.0008861678552516273
000340 c5 fe 31 7b 88 e7 90 bf 25 90 d1 46 24 f9 7e 3f
       -0.01650822879719162 0.007561818795782248
000350 31 04 67 c6 77 3a 62 bf c3 d2 fe c7 15 e5 93 bf
       -0.0022251452785160488 -0.019428577739477825
000360 e0 c2 81 51 fe ad 82 3f b8 d0 d0 3e d4 b8 62 bf
       0.009120928633110592 -0.002285398999925272
000370 8a e7 57 65 3d e3 47 bf 9c df 02 55 d8 6d 42 3f
       -0.0007289933952840816 0.0005624109562836102
000380 d8 66 f5 ec 61 00 3a bf 7a 9d 51 ad fa be 79 bf
       -0.00039675131571002614 -0.006285647589812421
000390 24 7d 31 41 c6 60 33 3f 2a d2 42 9a 76 e4 71 bf
       0.0002956851978463562 -0.00436827019818912
0003a0 4c 3b 81 e5 4d 5b 60 3f f3 e8 f8 d7 d1 7c 63 bf
       0.0019966622749402526 -0.0023788546093587103
0003b0 e9 77 f8 0e 1a 02 56 bf 9e 13 4c e4 0f a8 64 bf
       -0.0013432745435077947 -0.0025215444933359274
0003c0 4f 22 16 66 bd 0a a1 bf 41 09 c7 22 9f 90 9b bf
       -0.03328506346867199 -0.026918875215195873
0003d0 d8 a6 9d 64 f3 cc 97 3f 21 9b c4 43 47 92 ab bf
       0.02324276258096955 -0.053850390455684634
0003e0 64 2a b9 18 3c db a2 3f b8 c9 b4 2e 46 84 b7 bf
       0.036828878419858296 -0.09186209335601958
0003f0 b3 91 b3 9e 55 09 a5 bf 3c 85 1a f2 d3 aa ae bf
       -0.04108684122346364 -0.05989706354490429
000400 08 3b d4 23 84 70 73 bf 01 8d 8b f4 6f 0f 6c bf
       -0.004745975658137842 -0.0034253298402845416
000410 9f 63 2e c2 4e 1f 96 bf fb bf 0d 79 3e 4b a8 bf
       -0.021603804208641383 -0.04744906642633847
000420 de 49 66 5b 80 57 b0 3f ba 92 bf 5f e0 e1 85 3f
       0.06383516532358821 0.010684731409079763
000430 26 66 00 3a 95 b6 ac bf f4 a7 c5 0a fc 0b a5 3f
       -0.056080497102993385 0.04110705977912224
000440 80 d2 35 22 b6 9f 1c 3f 5c fa c2 29 cc 9c aa bf
       0.00010919140964011677 -0.051977520082336
000450 58 92 c1 12 af 55 89 3f e4 45 6d d4 f9 ec 80 3f
       0.012370460281269022 0.008264495654347344
000460 cc 7b e9 0e 9a 96 25 3f 4f e6 43 d3 1d 5a 6c 3f
       0.00016470556825517871 0.0034609396481044895
000470 28 51 f2 90 01 0d 6d 3f d6 29 b3 03 73 e2 91 bf
       0.00354624086282675 -0.01746539793092857
000480 af ee 2c 87 9e c2 6c 3f b6 23 f5 08 93 b2 7d bf
       0.003510770440156317 -0.007250379901344075
000490 4d c3 ab 9b 4d 44 78 3f 40 92 c9 4f 8a c3 72 bf
       0.005924513966179057 -0.004581012992819711
0004a0 33 ab a1 3a 0a 2a 6e 3f 98 7b 96 37 e3 cf 74 bf
       0.0036821555886964673 -0.005081069533303138
0004b0 87 65 dd 61 c1 c1 a8 bf e0 22 9b 5f c2 23 a3 bf
       -0.048353236385717806 -0.037382196589140326
0004c0 b1 a7 b9 d9 92 2d 9c 3f bb 24 8f 76 08 df b9 bf
       0.027517599619762915 -0.10105946440229989
0004d0 6a ad 5e 87 75 f0 aa 3f 6c 1d 0d ea a1 1a c2 bf
       0.0526158073183421 -0.14143775871546482
0004e0 80 29 6d 59 42 80 a6 bf 38 e4 f9 88 62 e3 b9 bf
       -0.04394728986388241 -0.101125868264618
0004f0 bc f9 16 74 43 53 74 bf 32 d6 fd d9 24 cd 71 bf
       -0.00496221875203989 -0.004346031142508576
000500 2d b9 47 2d 78 b4 a7 bf 2d 38 8f 1c b6 42 b5 bf
       -0.046298747565617006 -0.08304918477298946
000510 c7 ea 74 72 ab 2b b5 3f e6 13 42 7f bb 72 a4 3f
       0.08269759697297295 0.03993783882564354
000520 3a d3 0a 51 e1 38 b8 bf 27 3e 0c 2b a3 d1 aa 3f
       -0.09461792210170197 0.052380656247006656
000530 94 3d 71 c7 86 45 71 bf f2 b8 34 bc 64 df b1 bf
       -0.004216696244000135 -0.06981496424552683
000540 79 9e a4 1f c4 cb 8e 3f e2 f1 69 55 1d 08 6d 3f
       0.015037090507191696 0.0035439083979424838
000550 92 09 34 8c 34 d6 60 bf 9e 9c 28 26 51 81 3f 3f
       -0.002055266029516286 0.00048073035410074207
000560 06 d3 96 b1 8d 79 62 3f 44 c4 78 d3 d2 98 9d bf
       0.002255226846239802 -0.02890328803750132
000570 cd b7 5a d2 f5 09 66 3f 6f cd 93 f7 c9 6b 8f bf
       0.0026902962880148485 -0.015342309825860238
000580 f3 15 c8 fc 4d 93 7a 3f 2c 72 51 5f d3 a1 87 bf
       0.006488136900320895 -0.011539126726511993
000590 05 92 47 de 34 25 70 bf 61 af 3c 98 d5 75 86 bf
       -0.0039417328993960376 -0.01096693869438753
0005a0 51 78 0c 52 6d d1 b0 3f 28 0d 0e cd f8 37 a7 3f
       0.06569560292379718 0.045348906546701706
0005b0 81 9d 07 72 fb 4a a0 bf 27 6c c4 fb 65 91 bc 3f
       -0.031822068853041514 0.11159360310232157
0005c0 7a de 9a fa fa c7 ae bf 00 b9 57 92 77 ae c2 3f
       -0.06011947926657242 0.14594931264532107
0005d0 fd a4 6c c5 38 dc aa 3f 5a 98 c1 55 85 69 ba 3f
       0.0524614087101529 0.10317262023599608
0005e0 20 64 d9 bc 79 51 8d 3f 0d 1e 68 fa 50 c0 6a bf
       0.014315558505744674 -0.003265531692935536
0005f0 89 3b d7 8f fc b7 a5 3f b8 48 0b 39 c5 84 b7 3f
       0.04241933112972791 0.09186966555288023
000600 e5 34 9b 3f 32 e3 b7 bf c1 cf d0 37 2a 3e a2 bf
       -0.09331049015891642 -0.03563053065627698
000610 bc 76 a5 3b db 27 ba 3f d6 d0 43 bd 9a 19 ad bf
       0.10217066007813974 -0.05683597145426382
000620 40 28 94 9c ff be 26 3f ab 40 95 7b 43 47 b3 3f
       0.00017353887805199482 0.07530614630855108
000630 06 69 e3 65 44 ff 94 bf e6 9d ba 06 0d 5c 6d bf
       -0.020505017012376413 -0.0035839323444013414
000640 4c 4f 86 60 23 41 45 3f ad fa b6 7e f7 20 68 bf
       0.0006486342181681675 -0.002945407284385601
000650 0a 2e 92 4c 4b 72 71 bf a8 cf 9a 83 d2 ef 9d 3f
       -0.004259390008097616 0.029235162050738644
000660 fe d9 1d 55 13 0e 6e bf 3b b9 b6 ae a3 0a 8d 3f
       -0.003668821104777508 0.014180449265805186
000670 b3 95 fd 6a 69 5e 82 bf 54 55 2b b8 5b 66 80 3f
       -0.00896913869628233 0.008007732923412426
000680 0e 05 ad b5 36 38 38 bf d8 41 c4 fc ca 27 81 3f
       -0.0003695615356954098 0.008376680220437402
000690 46 42 60 32 1b 7c 93 3f 9c 74 0e 5e d6 86 93 3f
       0.019028115224559515 0.01906905125689616
0006a0 54 3c e9 39 62 87 8f bf 2f fd 72 a0 22 2e 91 3f
       -0.015394942657762346 0.016777554553070558
0006b0 e7 0f b1 15 78 a2 9e bf 10 d8 0a 6f df d3 a4 3f
       -0.029916645358994656 0.040678961091018206
0006c0 93 90 71 4f 2e 3b 94 3f 94 ca 75 ca 34 08 a5 3f
       0.019757007216313637 0.04107823344647446
0006d0 20 e9 99 2e f9 90 5e bf 09 db 71 e2 f9 ba 5d 3f
       -0.0018656190317459312 0.0018145981100851658
0006e0 45 a3 c7 8a 6e 08 82 3f 04 95 d4 6f 5c ae 96 3f
       0.008805144891952952 0.022149509740434517
0006f0 6d b0 5a 17 21 6c a2 bf 52 16 9e c3 30 ac 75 bf
       -0.03598121080480685 -0.005291166767965887
000700 b8 e0 73 02 47 a3 9f 3f df 94 98 e2 84 ad 97 bf
       0.030896291279504523 -0.023122860269855102
000710 c6 ad 11 a7 fa 12 83 bf 0e 2a 73 27 c8 ce 98 3f
       -0.00931354353288939 0.02422631016524162
000720 b3 d5 3c 9b bf ed 86 bf c6 a9 d8 15 11 bd 7d bf
       -0.011195656704880408 -0.007260386218641951
000730 a6 9e 55 fe 48 ea 6a 3f 60 6e 12 c3 ed 9c 5b 3f
       0.0032855439809969687 0.0016853639502078174
000740 7b 8f 6a e6 ad 16 5a 3f 23 01 ac cb 2c b2 8c 3f
       0.0015923212282950838 0.014011716809819113
000750 f0 ce fb 9e 2b 51 68 3f fa 1d ac ae 96 7b 80 3f
       0.002968392560313997 0.008048226552559424
000760 17 54 4d 25 d6 65 53 3f 50 3a aa 21 bf 2b 74 3f
       0.0011839476839743451 0.004924532515942007
000770 ca 27 0a d5 e7 c1 5c 3f d2 d3 f4 cb 77 18 7a 3f
       0.001755215071315141 0.006370990711094886
000780 a9 65 44 dd 79 20 93 bf d1 b0 9e 49 83 d1 8d bf
       -0.01867857373244922 -0.014559770282936675
000790 f2 9c af 2c 6d 94 94 3f 88 a8 ce 3f e4 f2 8d bf
       0.020097452022949498 -0.014623435208552374
0007a0 ab df ac cf 89 21 94 3f 83 36 fd f0 33 a5 9f bf
       0.01965918855714192 -0.030903636535461586
0007b0 76 25 3c 55 27 30 94 bf 7b 90 19 df dc db 8c bf
       -0.01971494157536343 -0.014091229971377786
0007c0 66 06 46 8c 00 e7 44 bf 1f 07 f1 01 ba 88 70 bf
       -0.0006378891635423045 -0.004036642639279524
0007d0 03 b6 77 27 2f 2a 7e bf 08 5f f5 ad 91 23 7b bf
       -0.007364448734262566 -0.006625718174596569
0007e0 eb 44 12 59 a6 ee 92 3f c0 67 f9 8b 2e f3 50 3f
       0.018488501726612688 0.0010345415647834283
0007f0 7c 5a 9d 39 07 98 88 bf 5c 21 86 40 6d b0 86 3f
       -0.012008720823059031 0.011078694850554065

shared.bias f8 [10]
000000 21 75 e5 98 99 94 61 3f d3 86 81 76 83 3a 83 3f
       0.0021460533090890276 0.009388949445738792
000010 02 58 4d e1 46 14 90 bf bf f8 80 c5 d6 49 6d bf
       -0.015702350140905715 -0.0035752482181400087
000020 f3 7e 2a db de 86 7f bf 2b cb ce 2f ad fb 8f bf
       -0.007696981937129743 -0.01561675359866895
000030 e6 2e 39 de b5 f1 8d 3f 35 fc 00 b4 4b fb 7f 3f
       0.014621182293147194 0.007808013644591096
000040 d1 aa cd 95 7e 2a 6b bf 00 a9 b3 1b 53 a8 88 3f
       -0.0033161613813964337 0.012039803774730462

mean_hidden.weight f8 [10, 10]
000000 1f 80 2c 06 18 e3 99 3f f0 d4 1a 24 2c ed 96 bf
       0.02528035676652973 -0.02238911600462229
000010 7d 8b 1d 22 a3 4b 9a 3f 4e 0f 99 a8 a1 a7 83 3f
       0.02567915816997467 0.009597075422000192
000020 d0 fa 82 79 3f e9 a3 3f d8 e5 d0 55 45 49 a0 3f
       0.038888915617908304 0.03180901215132409
000030 d1 2a c9 66 1c ce 9b bf 39 d8 cf 45 4e af 91 bf
       -0.02715343835215373 -0.017270300875644493
000040 69 b3 43 0e 3c de 78 3f 60 16 eb 47 db 00 9b 3f
       0.0060713144232352545 0.026370455040498064
000050 d8 69 0a d8 29 46 96 bf 9f 26 9d 9c f5 ee 92 bf
       -0.0217520273314252 -0.018489682849838315
000060 af 96 9b 91 6e 44 af 3f 88 d8 c4 5e ce d4 7a 3f
       0.06106896903456282 0.006550603993949029
000070 eb 3e c4 7b c6 65 96 3f a4 02 0c 6c 43 e7 a7 3f
       0.021872617057907922 0.04668627447063514
000080 76 86 d8 ac db 73 aa bf 08 87 96 e9 1d db 89 bf
       -0.05166517720159629 -0.012624963465728736
000090 e5 f6 26 bc bb 9c 8f 3f 5f da f5 ca c1 08 ac bf
       0.015435663871240244 -0.05475431063216684
0000a0 bb 36 2a 1e 24 e3 62 3f a4 f5 43 80 6a 0b 58 3f
       0.002305574934615998 0.0014675655411900768
0000b0 ae e1 91 67 8f a8 86 bf 83 05 d7 4b a5 36 61 bf
       -0.01106369051761721 -0.0021012524073006924
0000c0 37 d7 7d 2c 49 b7 69 bf 1a 14 7e 9a 81 2a 7f bf
       -0.003139155309265808 -0.0076088965068992435
0000d0 d5 84 0d 82 f2 33 85 3f 5a cd 4d 9e 9c e0 71 3f
       0.01035298785581277 0.004364597120786707
0000e0 d6 80 4a 2a 9f 74 6d bf f6 ec fa 98 20 82 81 3f
       -0.00359564864113802 0.008548979443153897
0000f0 b2 9d a8 71 40 3e 5e 3f 48 52 9c 42 bd d3 70 3f
       0.001845896657536855 0.004108180329940377
000100 74 38 5c 74 89 d2 90 bf 0c e6 ab 86 d0 12 5b bf
       -0.01642813465792199 -0.0016524349582013346
000110 3a b7 59 2a 76 d7 7a bf 81 60 c2 0a 3a 4c 89 bf
       -0.006553136428562751 -0.012352422192904779
000120 6b 32 85 3e 66 8f 90 3f f3 27 29 ac 67 2a 72 3f
       0.016172025266586603 0.004434971781458674
000130 b6 20 5c 4c f9 64 73 bf 2b 84 73 3a db d9 81 3f
       -0.004734968015107357 0.008716309281625886
000140 29 38 f9 be 2d fc 78 3f c7 aa 10 fd 7f 6a 69 bf
       0.0060998713448281805 -0.0031025409484944674
000150 2c 76 b9 50 c2 3e 80 3f 98 23 21 d4 2d 24 70 3f
       0.007932203377261159 0.00394075300034382
000160 f4 1f 91 3f 93 ff 84 3f b3 4f ab ad bb 8d 7c 3f
       0.010253095986755036 0.0069711047351183495
000170 7f ed b4 9c e1 75 82 bf b7 a1 a9 f2 ce 13 4a bf
       -0.009013903231440022 -0.0007958183753773916
000180 0f 2d 27 ff 33 65 38 3f 94 8a 79 b2 70 fa 7b 3f
       0.0003722431130454709 0.006830635283764725
000190 a2 cd 33 83 2e c3 6f 3f 98 40 84 09 43 c2 71 bf
       0.0038772495696492585 -0.0043356531753177205
0001a0 fe 1a bf ea 14 fc 82 3f d7 6e f2 e2 8d 31 70 3f
       0.009269870199103188 0.00395350860994955
0001b0 d8 7a fe 11 a2 04 81 3f ff 7a e9 0d cc 27 82 3f
       0.00830961816228408 0.00886496942001491
0001c0 00 a6 24 6e a5 09 83 bf cb 07 a4 7d a4 73 54 3f
       -0.0092957424390816 0.0012482744555772803
0001d0 c1 05 59 a4 72 18 45 3f f3 ca dc cd 14 a5 76 3f
       0.0006437835479077768 0.005528527513706238
0001e0 e2 41 66 0b 96 69 3f bf 69 95 71 de 1d 92 a2 bf
       -0.0004793158836031969 -0.036271031764765045
0001f0 a2 2b 9c 8d 7f 98 b9 3f 83 e8 54 e7 23 9a 8b 3f
       0.09998318869854342 0.013477592942411803
000200 b1 5c 08 bd 8a 9a ab 3f 70 8e 99 93 d4 50 b5 3f
       0.05391343648460046 0.08326462367545573
000210 66 69 6e cf 4e 7c b8 bf 6b b3 57 c3 98 d4 9e bf
       -0.09564678730240458 -0.030107867167248708
000220 db c8 fe 8f 24 d2 99 3f 21 64 ed 83 68 57 a3 bf
       0.025215693749211048 -0.037776247124107216
000230 00 19 80 2c 9c 0e 0b bf b6 3e 3e 8f 55 0b b1 3f
       -5.160726647095333e-05 0.06657919642588692
000240 d1 a7 fe 5c 3c 47 c3 bf 6e 17 66 76 3c 21 93 bf
       -0.1506114439083022 -0.01868147347115417
000250 71 1b a4 11 b2 74 b4 bf ee f8 b0 dc 09 8a c0 bf
       -0.07990563326539558 -0.12921260143225005
000260 7e 2d 75 1f 00 a5 c2 3f 95 ca 5a 18 20 49 a3 3f
       0.1456604150392699 0.0376672773103525
000270 a5 55 ad 26 e2 f8 a2 bf 21 e6 aa 1d 35 ad a3 3f
       -0.037055079671215276 0.03843084323075297
000280 e8 2e 1e 84 f9 02 82 3f cc 36 71 37 6e 38 a3 3f
       0.008794736236971315 0.037539905803539136
000290 6e 7b dc e2 a0 4e ba bf 70 60 e6 c6 64 f7 8d bf
       -0.10276227511029187 -0.01463202220911361
0002a0 df 29 e2 5c 94 61 a8 bf 45 ef d7 99 f5 91 b4 bf
       -0.047619472826301516 -0.08035216337151237
0002b0 66 33 78 bc 0b 2b b7 3f 00 cc 39 b6 3f c7 94 3f
       0.090500577462263 0.02029132413595036
0002c0 79 8e d1 45 29 cd 9a bf 2b 40 34 13 87 29 a6 3f
       -0.026173252951038315 0.04328558072495555
0002d0 0f 19 b7 24 c4 3f 57 bf 00 e6 a6 91 2f 12 1a bf
       -0.0014190116370272376 -9.945311868522072e-05
0002e0 9f 63 28 8f e4 ec 80 bf ab 26 dc 58 05 f2 62 bf
       -0.008264337176159318 -0.0023126701770522415
0002f0 b6 c9 8c ca 17 3e 67 bf 97 9e c3 00 11 3c 70 bf
       -0.002837225405891898 -0.0039635338000391295
000300 74 8c 25 05 bf e0 81 3f dc 64 cb 84 60 c4 37 bf
       0.008729450554431951 -0.00036265713133116855
000310 00 3f f6 69 d0 f0 56 bf a5 22 71 c0 b5 c2 74 bf
       -0.0014001879970670372 -0.005068502395325557

mean_hidden.bias f8 [10]
000000 a0 95 0d e4 7a ee 9e 3f fc 40 54 5d b5 77 a1 bf
       0.03020660416531984 -0.034116428034510066
000010 0f 17 18 1a ee f0 6f 3f db 5a 0b 63 dd 0f 7a 3f
       0.003899064104873846 0.006362786095187113
000020 38 52 9b e0 f1 56 40 3f f4 8c 2f 79 24 a5 6b bf
       0.000498645881828858 -0.0033746445055712285
000030 66 86 5a 91 15 b1 93 bf d2 5a 98 e1 aa eb a8 3f
       -0.01923021030109453 0.048673000372379996
000040 2b 51 89 bc 36 24 9b 3f 2d 18 e2 0f c2 cf 92 3f
       0.026505332238529505 0.018370659083778818

mean_linear.weight f8 [10, 10]
000000 14 79 c5 f5 b1 84 87 bf ca d6 cb 2e 82 91 b5 bf
       -0.011483564675185444 -0.08425153391348342
000010 1c 7c 45 22 1e 06 7a 3f ca 11 d2 94 d3 8f 90 3f
       0.006353490553322263 0.016173654516494364
000020 bc de 22 8c c8 28 80 bf b3 e7 5e ca 76 18 95 bf
       -0.007890288139932415 -0.020601135350922294
000030 41 03 e3 45 0c 04 be bf d2 44 61 74 1f f4 c7 3f
       -0.11724926668376857 0.18713753874411637
000040 16 ce fe fb 6c 71 bd 3f 51 18 fa 69 91 04 98 3f
       0.11501198913793362 0.02345492562610502
000050 7a 61 ab bc 7a 29 2e 3f ab 07 e2 b0 37 2e 2a 3f
       0.00023011801962159376 0.00019974164792207807
000060 36 e7 0c a8 7f ad 4b bf 71 3c f8 0c c8 09 4c bf
       -0.0008446572611326756 -0.000855658226955115
000070 a4 20 6a 29 2e 57 e0 be d4 60 7d bc 7e 79 43 bf
       -7.791780530355952e-06 -0.0005943173245937191
000080 8c 1d b4 05 b7 9c 5e 3f dd 48 6b eb 4e 5a 55 3f
       0.0018684184386204864 0.0013032694529795865
000090 7c 4c 43 fa 4b e7 01 3f d8 2b 9d a5 7c 94 2f 3f
       3.4148222114582246e-05 0.0002409364849945406
0000a0 d5 74 c8 18 83 e2 a5 bf 32 20 55 ab 97 ff 96 3f
       -0.04274377515342002 0.02245938285094002
0000b0 26 09 33 66 a1 4f 61 3f d8 7f 7b 8f 80 6c 51 3f
       0.0021131660774652726 0.0010634665940685208
0000c0 ed 4e c5 5c e2 a8 7a bf 11 81 74 a9 97 ca 65 bf
       -0.006508716800755582 -0.0026600801608226495
0000d0 21 22 ba f4 90 5c 9a bf 98 0d d2 fa 19 04 a7 3f
       -0.025743737160640493 0.04495316683553624
0000e0 b2 1f ec 51 fa ee 65 3f a8 58 f7 fd 7d f4 44 bf
       0.0026774300635032606 -0.0006394972987731245
0000f0 14 7e 13 83 4e c0 8e bf 78 0b 4e b4 2e 2f 82 3f
       -0.01501523339760439 0.008879055860011795
000100 1b 3d 04 e9 9b 65 66 bf fc 55 ea f4 87 51 6f bf
       -0.0027339978333952414 -0.0038230567364034834
000110 67 96 12 71 91 ef 83 3f ec 04 c3 dc ab 6c 84 3f
       0.009734283698274738 0.009972899126639644
000120 bb ca 8c 6e 4a a3 87 3f 57 04 29 d7 8a 43 9c 3f
       0.011541921137540148 0.027601403601014898
000130 bc 42 cd 7e aa 55 a1 bf d7 ca 5e 37 1e c0 9c bf
       -0.03385670469163446 -0.02807662213281045
000140 09 f0 09 58 ac e3 af 3f 9c e1 05 48 e3 dd 7b 3f
       0.06228388380711187 0.006803405587895741
000150 da 2b 74 7a 1a 53 6a 3f 0a a2 e9 02 28 a4 74 bf
       0.003213454928873355 -0.00503936414188689
000160 b7 07 ff 3a dc 8e 8c 3f 66 5b 18 a1 fb c7 84 3f
       0.013944359350606434 0.010147062162145292
000170 15 12 de 04 b2 6f aa 3f 0e e1 13 cb c0 a8 b8 bf
       0.05163341817300108 -0.09632496793699749
000180 fc b8 0a 63 87 91 99 bf 6b 9c e7 d4 8c 6e 94 3f
       -0.02496921102527326 0.01995296525447225
000190 f4 1e 9b bd f1 c6 ac bf c5 85 18 2e c6 d4 a8 bf
       -0.05620532454991958 -0.04849833786671413
0001a0 99 f0 eb b7 8e fe 7b 3f ec 0d 9d 6c 93 e6 8d 3f
       0.006834561819001683 0.014599944831963328
0001b0 90 3b 7a 1a 30 86 91 bf d2 6c b7 95 7c dc 8e bf
       -0.01711344873052273 -0.015068982428536524
0001c0 eb e0 57 4c 1b d2 b5 bf 04 99 32 43 0e 6e bf 3f
       -0.08523722280358796 0.12277306690757334
0001d0 d6 05 d3 d1 74 78 b7 3f 5c 46 01 1c ab 78 8d 3f
       0.09168176767982258 0.01439031295027176
0001e0 11 05 b4 da 91 9e 79 3f e8 f7 d0 ab 23 49 97 3f
       0.006254739516635925 0.022739941942056335
0001f0 8a 1c 38 e3 6c 42 79 bf f4 c7 ec ef 30 a9 7d bf
       -0.006166863767709372 -0.007241431389774167
000200 c3 8b a8 ce 5d 6e 6c bf bc cb bf ab b4 de 79 bf
       -0.0034705955670388546 -0.006315904374775746
000210 90 da a1 a1 2c b1 a8 3f 72 25 a2 01 34 ec b3 bf
       0.04822673295068569 -0.07782292404058014
000220 7c 61 1b e1 8a 4b 9c bf 94 49 9f c2 8f 6b 79 3f
       -0.027631921758116004 0.006206094325494144
000230 18 7f 3b ad 11 a6 a2 3f 5f 59 cc f9 de da 9c bf
       0.036423256298574624 -0.02817867660186246
000240 c6 52 52 b2 fd 51 82 3f 1d fa 88 d3 94 71 81 3f
       0.008945447925989735 0.008517420487916866
000250 7f 07 a4 e9 b0 59 82 3f 46 8d 27 6b eb b5 85 3f
       0.008960134630345838 0.010600890357585723
000260 41 ce 9a d1 8f 8e 97 bf 03 96 e4 4d 72 05 a3 3f
       -0.023004767578369337 0.0371509285053371
000270 13 a6 ed 10 df 69 8c 3f ce 0b 63 a4 6f 1b 70 3f
       0.013873808578597246 0.003932415105910315
000280 ec 01 a1 0b 6b 4d 95 3f 73 1b de 10 7c c5 80 bf
       0.020803139290594005 -0.008189172043570036
000290 76 07 c8 7b 6e 58 61 3f 3d 9c 01 48 fc 18 63 3f
       0.002117362774016247 0.002331249939789197
0002a0 f9 00 3f 09 46 bc 74 3f 0a 7e 29 9b b1 b2 75 3f
       0.005062364176353856 0.005297368787608567
0002b0 23 ce 97 f1 c5 f3 6c bf 87 b1 34 9f 33 ac 90 bf
       -0.003534208878358107 -0.01628189715590758
0002c0 f1 7b 27 da c7 f8 8f bf 12 86 0e 12 cf e4 77 bf
       -0.015611230225600155 -0.005833443516992458
0002d0 3d ce d2 f0 be d4 ac 3f 99 92 f2 b2 59 ad b4 3f
       0.0563106221174192 0.08077011698567062
0002e0 94 db d0 fa 3f 0f 83 bf d9 30 9f 2c 3f 2d 91 bf
       -0.009306430665771782 -0.016774165247441217
0002f0 4c 17 d7 f6 09 b9 87 3f 12 b0 f8 cf dd 3f 7f 3f
       0.011583402486290993 0.0076292671724722694
000300 75 fe 15 76 d4 59 c2 3f d7 d7 44 51 5c d9 c9 bf
       0.14336639181054847 -0.20194581955155286
000310 a0 95 fa 8f 5e c1 ba bf 00 bb f6 70 f6 60 23 3f
       -0.10451308264835868 0.00014784820858212283

mean_linear.bias f8 [10]
000000 eb b5 ec 6f 13 af aa bf 39 9d b3 5a 73 37 a4 bf
       -0.052116973316838365 -0.03948555452535136
000010 2e 6e 43 17 1f b3 a9 3f 2c ed 6d b0 89 ec 8b 3f
       0.05019471320130396 0.01363475389165688
000020 60 86 74 56 b3 4e b6 bf da e1 c0 b8 20 1b 52 3f
       -0.08713837490770393 0.0011051005885872518
000030 ba 5e 56 eb ae e9 85 3f 9a e4 11 d2 19 a8 b6 3f
       0.01069962173168847 0.08850251558932812
000040 3a 76 36 08 8e 69 a4 3f a3 f2 0f c5 4b cf a5 3f
       0.03986781931164925 0.04259716778321845

cho_hidden.weight f8 [10, 10]
000000 36 94 0a 13 e3 4d 81 be 11 b9 3f 61 d6 cb 82 be
       -1.2892668046108292e-07 -1.4004290049781327e-07
000010 42 5c 34 ac a8 84 89 3e 9c c3 ba 29 bb 21 8f 3e
       1.9012539640629666e-07 2.319497028800065e-07
000020 88 e5 7b 69 32 74 92 3e 28 b2 9f bb 21 f8 6c be
       2.7498445252757897e-07 -5.395946041362312e-08
000030 77 4f 5a 99 a5 ed 90 3e b0 54 46 03 7f 09 25 be
       2.522514475991278e-07 -2.4490401045652153e-09
000040 18 83 f1 da de 95 58 3e 02 40 7b 26 b4 02 71 3e
       2.2896967596575478e-08 6.336927926430157e-08
000050 fb 05 8b e3 34 15 64 3e f9 c2 ac 2d 78 c3 78 3e
       3.7407201285761805e-08 9.22514219847348e-08
000060 df 77 6c fd 9a 8b 67 3e 68 1e ac 91 fe 05 72 be
       4.3856601619618917e-08 -6.714245552260389e-08
000070 fc 5c 69 69 8f 4a 4e 3e 48 01 86 12 94 46 8a 3e
       1.4105462836965651e-08 1.957691975300411e-07
000080 fb 81 33 cf d9 c7 81 3e 25 db c9 d0 76 e2 7b 3e
       1.324762944681988e-07 1.0387832478386819e-07
000090 1c 68 45 e7 26 21 68 be 10 98 d6 22 38 b3 90 3e
       -4.4944695884021594e-08 2.4885051427348674e-07
0000a0 12 ea de 14 c4 c8 86 3e d0 22 f3 d1 53 32 51 3e
       1.6975583111234333e-07 1.6015573864311402e-08
0000b0 b4 8a 65 3a c4 69 75 3e 00 1b 39 5f 7d f1 14 be
       7.9770201643436e-08 -1.2190616267250134e-09
0000c0 4b 82 5f b9 f7 1b 70 3e 38 7d 50 7f 8f 77 9b 3e
       6.001162797210788e-08 4.092906913960898e-07
0000d0 37 e0 62 6c 81 0d 7c be 78 c4 ad 74 21 88 88 be
       -1.0450466012251386e-07 -1.827758587497193e-07
0000e0 b0 55 67 28 c2 d0 4d be 78 9e e0 78 fc 9a 8c 3e
       -1.3883906702195948e-08 2.131269493676671e-07
0000f0 d4 94 14 7a aa 38 70 be b9 d6 c7 6e bf 6a 89 be
       -6.042924251667879e-08 -1.8937128433399238e-07
000100 6e a9 f1 04 58 d2 42 be 40 0f cc e5 52 78 1b be
       -8.764516361114736e-09 -1.5989653136160981e-09
000110 e2 53 1c 71 e5 49 84 be 2f 79 f7 11 e4 7a 82 be
       -1.5116227607887776e-07 -1.3768704663816538e-07
000120 db 60 96 44 2d 0b 8a 3e 75 42 b2 a7 33 74 89 be
       1.9404038402167218e-07 -1.8964643175692977e-07
000130 9e 09 02 c3 01 b4 56 3e f4 0c 9c e3 ad b6 83 3e
       2.1143957862788068e-08 1.4687769738655938e-07
000140 20 c2 85 89 3f c8 90 3e 11 cd df d5 42 ea 68 3e
       2.5007455797031973e-07 4.640795724089295e-08
000150 38 c5 82 92 a1 6f 64 be 2e 3d 27 81 19 1a 60 3e
       -3.806512644098057e-08 2.9992222167294056e-08
000160 9a 01 ea c7 06 d6 8b be a7 3f 25 40 18 7c 89 3e
       -2.073946667353996e-07 1.8987614687016153e-07
000170 4e b5 44 68 4f 63 63 3e 00 76 59 59 c7 ec 0e be
       3.611283453035424e-08 -9.000335361536729e-10
000180 8c 95 38 1e 50 09 6a be 03 84 3f c0 b9 58 82 be
       -4.849653459049551e-08 -1.366927052651104e-07
000190 79 3e a1 fa d9 78 96 be 37 c7 08 31 fd 87 94 3e
       -3.3486002826586825e-07 3.0593882719135637e-07
0001a0 84 26 68 77 9d 7a 61 3e 30 86 e5 d5 4a a8 85 be
       3.255710983105927e-08 -1.6136014386728572e-07
0001b0 88 1f 04 21 fd 9c 75 3e a1 cc 47 46 2b 97 8e 3e
       8.051558375934545e-08 2.2791701605150034e-07
0001c0 b3 ff 7f e6 10 77 7c be 24 f7 d3 d7 0e 6c 8e be
       -1.0604076694509144e-07 -2.2666231905965165e-07
0001d0 1a 9b 99 a1 21 d3 80 3e d7 d5 2a 16 51 96 98 be
       1.2535402120762336e-07 -3.6637745474561484e-07
0001e0 a4 a2 06 d4 c5 51 7e 3e ce 1f c4 79 82 e7 5d 3e
       1.1294865932008218e-07 2.7850581938777003e-08
0001f0 24 0f 2e dc 28 da 84 3e 16 b9 4d 47 38 ca 73 be
       1.5536089223107942e-07 -7.372320161094358e-08
000200 40 e1 cf 98 2d fa 57 3e ce 94 2b b5 5c 83 86 be
       2.233056188916287e-08 -1.6773591456697515e-07
000210 fc 67 bd fe 44 5c 77 3e 0e 51 66 ed ba 42 9a be
       8.702437498172964e-08 -3.913143990172279e-07
000220 95 1a d8 92 12 95 77 3e e8 97 e0 38 72 b1 67 be
       8.78509680211427e-08 -4.4131929319548336e-08
000230 6b 86 45 3d 78 27 5c 3e db 04 cf 3c b8 8f 72 be
       2.622062196653187e-08 -6.914662194127793e-08
000240 ff 8a 47 60 60 e8 75 be 04 fa 2c bc a6 f6 70 3e
       -8.161261894722764e-08 6.319389371249649e-08
000250 58 06 28 c1 ed 01 74 3e 8a bf 2c 96 98 d1 60 be
       7.453387266406137e-08 -3.132733430164488e-08
000260 34 c6 e3 e3 62 3d 73 be ec ad d1 94 5d ab 5d 3e
       -7.167380375644308e-08 2.7631778910467424e-08
000270 5c 53 44 41 6d 87 5f 3e c8 df 22 9b 9d d2 62 3e
       2.936367955824176e-08 3.506004321709745e-08
000280 8c 48 0f 99 93 4e 7a be 9e 22 66 69 b0 bf 60 3e
       -9.80009871164757e-08 3.119704421449995e-08
000290 9c 0c f5 46 d6 0a 4a 3e fa bc cb 97 91 00 56 3e
       1.2126905894949792e-08 2.0491165641836745e-08
0002a0 d8 95 ca 27 69 b8 6e 3e dd c1 b5 33 08 4f 69 3e
       5.722111937515583e-08 4.714116249693194e-08
0002b0 bb 19 7a be 5b 12 8a 3e b4 a1 32 29 d2 70 5d be
       1.942493945592339e-07 -2.741879485666953e-08
0002c0 66 e3 91 4d ad b0 4f be f0 08 d2 d4 41 78 53 be
       -1.4756873433493414e-08 -1.8132621894009708e-08
0002d0 7a 14 03 29 41 60 73 be c6 5e cc 42 d4 3c 6c 3e
       -7.21812034614258e-08 5.259665445382046e-08
0002e0 b0 f7 33 1f 65 86 1a be d9 f5 45 4f 33 ce 53 be
       -1.5439570705370823e-09 -1.8445281706096638e-08
0002f0 83 14 d3 03 d5 ff 67 be 7e 7c ca 11 88 eb 7f 3e
       -4.470226187264578e-08 1.1891143398633777e-07
000300 1c 84 97 86 d1 13 70 be 86 c5 71 b9 75 37 4a 3e
       -5.989304132466779e-08 1.220807436931371e-08
000310 30 94 b9 81 85 32 35 be 38 fa f2 f7 d3 0e 70 be
       -4.935392563034066e-09 -5.982042060573412e-08

cho_hidden.bias f8 [10]
000000 c9 4c 80 06 fc cd b4 3e c7 b1 b7 cb 57 91 a9 3e
       1.240052393218504e-06 7.619782062518901e-07
000010 b5 15 41 63 75 b5 ac be f6 fd 9d ad 85 6e b3 be
       -8.555895818571412e-07 -1.1582212011417297e-06
000020 de 02 2b 05 1b 38 9e 3e 9f 85 dc b5 cb 79 cb be
       4.50300608505938e-07 -3.2753663806873156e-06
000030 a6 90 3c 41 28 37 b1 be ea 31 ba 7f 55 2d 8b be
       -1.0261212581375722e-06 -2.0248506859102916e-07
000040 b8 e5 e9 ca 27 0f 99 3e 77 60 42 bd 20 29 6f 3e
       3.734111925567709e-07 5.804124439504448e-08

cho_elements_module.weight f8 [45, 10]
000000 e9 24 c3 96 08 7a 5b be a8 50 89 24 5f 06 55 be
       -2.5589664984908664e-08 -1.9580953999142446e-08
000010 7e 48 ea d7 29 2f 66 be 42 a8 31 79 3f 7e 57 3e
       -4.132135255243348e-08 2.187970655731362e-08
000020 78 94 8f 86 e2 50 40 be 49 32 d6 7d 2e 5d 63 3e
       -7.597709310604417e-09 3.606824326282174e-08
000030 70 b6 f2 73 cc 27 67 be 4a 28 cd 5b f4 db 34 3e
       -4.313041168081358e-08 4.8566603489035855e-09
000040 a4 e3 f7 29 be 71 15 be c8 d9 70 b6 21 a0 54 3e
       -1.2482230040144942e-09 1.9209007187149967e-08
000050 5a 93 75 16 20 fc 60 3e 34 3a 63 ff 07 99 73 3e
       3.163677569465225e-08 7.300741331208879e-08
000060 e1 f1 c9 85 4d 92 80 3e 9a e7 31 b0 55 52 6c be
       1.234672620981523e-07 -5.2753128109699366e-08
000070 22 85 86 ea 63 e5 62 3e 4c c2 43 cd c0 cb 7b 3e
       3.519664676659639e-08 1.0354783636416698e-07
000080 15 2d 1d 6c de ac 61 3e 33 ea d0 d4 15 87 52 3e
       3.292275386912115e-08 1.725524372365026e-08
000090 56 62 5d cc 41 1f 7a 3e 47 72 cb 48 ae be 5d be
       9.731239733241231e-08 -2.770204736683504e-08
0000a0 04 de a2 6b 51 9e 72 3e e9 bd 8e de 72 e5 5f be
       6.935905619536169e-08 -2.9705729351769144e-08
0000b0 62 c2 43 76 d6 d1 52 be f0 11 14 64 df dc 51 be
       -1.7527191601678638e-08 -1.6636013682091927e-08
0000c0 c9 80 3c 05 c1 df 67 3e b0 31 e9 9d 97 84 44 be
       4.446886295154552e-08 -9.554409649862162e-09
0000d0 16 3a 5d a3 71 27 42 3e 3e ac 93 e7 fc 9d 62 be
       8.45365120583551e-09 -3.467712601255523e-08
0000e0 ec e6 7c 6e fa ad 50 3e 00 a7 cc 5a 98 1d 61 3e
       1.553409037446377e-08 3.188030048833204e-08
0000f0 98 16 fd 98 9e e2 54 be 80 7a 46 9b 81 00 f0 bd
       -1.9450888510332054e-08 -2.3285942208776485e-10
000100 90 96 a8 84 05 fa 36 be 56 50 59 66 33 e0 81 be
       -5.34966744040393e-09 -1.331849716507714e-07
000110 09 8f b2 6a 93 98 66 be b4 1c 1b 5a 29 c4 61 3e
       -4.208832867752477e-08 3.30922305231581e-08
000120 24 84 e6 0f 55 7e 7e be 07 19 14 95 06 b5 63 3e
       -1.135970854938448e-07 3.670739324485105e-08
000130 c6 9b 4b 11 5d 4d 77 be c2 92 f8 05 af 18 53 3e
       -8.680746461550052e-08 1.7784927640095946e-08
000140 da d1 44 b9 35 42 82 be 8c 2c 80 22 00 1e 56 be
       -1.360374112330596e-07 -2.059823792092573e-08
000150 8a fd e3 34 2a f2 70 3e f6 a1 76 89 7b ee 72 be
       6.312860742831715e-08 -7.052560346019395e-08
000160 a2 d6 9d 93 87 ab 7c 3e 60 f4 28 0e 05 eb 7f 3e
       1.0680421249999046e-07 1.1890398669222676e-07
000170 fb 24 4c 84 de f6 75 be f9 6e 05 fc 94 9b 53 3e
       -8.182351602879818e-08 1.8261132829279467e-08
000180 c2 67 e4 9f 03 40 93 be aa f7 61 0c 0d 80 60 be
       -2.8684817711540253e-07 -3.073401581928762e-08
000190 fb 3d 30 1d ea 9f 9f 3e 7c 58 e0 11 f3 6b 91 be
       4.7124424645912e-07 -2.596032276936723e-07
0001a0 62 50 62 83 bd 3d a5 3e c0 b2 79 7b b3 1f 86 3e
       6.330362854072985e-07 1.6483539665452074e-07
0001b0 c6 24 9f 7a 9b a4 70 be 82 f2 31 9a 3f e4 b8 3e
       -6.199999683024312e-08 1.4836547073397335e-06
0001c0 c0 00 1c cb 4a 11 a2 3e 5d ed 48 96 f7 cf 8d 3e
       5.384548755482869e-07 2.2211947760414214e-07
0001d0 03 6d a5 88 78 cc 90 be 0e c7 71 e6 c9 eb 61 3e
       -2.5032034813516425e-07 3.33805559243276e-08
0001e0 f4 29 da 9d 59 2c 9f 3e 87 38 64 b3 f6 5b 89 3e
       4.6451751054750426e-07 1.8894101012256194e-07
0001f0 6d d3 52 83 e8 0d 96 be 13 06 c0 c1 a2 af 93 be
       -3.2863511318795933e-07 -2.933454099630352e-07
000200 c8 cf e9 44 ed 7d 58 be a0 c3 30 f8 9c cd 9a be
       -2.2809860939683554e-08 -3.993984522581018e-07
000210 ef 89 8a 16 be 43 7e be c1 68 fc 24 f5 f1 79 3e
       -1.1274449252888612e-07 9.665320388174102e-08
000220 98 5f bc 7c 06 ae 66 3e 79 98 e4 88 38 9f 4b 3e
       4.2244394286665004e-08 1.2862475775947445e-08
000230 72 19 1e be 5f 2c 59 3e 4e ea 7e 76 6c c5 49 be
       2.3444496017742442e-08 -1.2000643770264738e-08
000240 2d fc 8e fa d6 85 5a be 90 db cb b8 5e 6f 0d 3e
       -2.4701293153047443e-08 8.566723871886155e-10
000250 b0 a2 07 22 77 4e 4c be f0 23 a9 68 3e 43 5c be
       -1.3181243708466244e-08 -2.6321663552137087e-08
000260 a3 21 15 6e 69 ad 53 3e 53 bd 99 6b 3d d1 41 3e
       1.832599750187483e-08 8.296847087156531e-09
000270 44 da 8d ed 17 c8 5b be 50 10 6c d2 e4 ab 61 be
       -2.5873645312596933e-08 -3.291565980025045e-08
000280 b4 47 8f 0d c8 03 76 be cf e2 ea 8f fb 94 8c 3e
       -8.20114140064749e-08 2.1295222292995112e-07
000290 cd 1f e7 34 f3 dc 90 be 83 b6 3b 33 08 5a 77 be
       -2.512795632928091e-07 -8.69918153585955e-08
0002a0 76 ab 0e 9d 5e 29 83 3e cc 9f c4 05 d6 6d 8d be
       1.427650447004786e-07 -2.192634863753821e-07
0002b0 91 76 33 cc 6a d2 92 be 8e 5c a0 db ac eb 58 be
       -2.8046879325762924e-07 -2.3209123269164038e-08
0002c0 d3 cd e8 30 75 3e 35 3e df ae 06 64 e3 0b 56 3e
       4.946248534495748e-09 2.0532345825003174e-08
0002d0 0e 22 d9 c6 d0 19 67 3e c9 d9 34 55 ff 42 8a 3e
       4.302867116481045e-08 1.956649763130472e-07
0002e0 5c e1 64 f9 b4 f1 62 3e d7 d3 aa e3 2e a6 a1 be
       3.528626206717608e-08 -5.259857468105887e-07
0002f0 18 d0 e4 60 80 f2 52 3e 70 5f b1 a0 16 d6 8d be
       1.7646021582484753e-08 -2.2229762950092824e-07
000300 23 78 bd db b4 f8 71 be 99 7e 46 aa 89 a0 5e be
       -6.694909065798935e-08 -2.8523710186876784e-08
000310 24 b4 dd d7 eb bb 6a 3e 7e 4a cf bd fb 80 5b 3e
       4.9796081021517e-08 2.5614948263015825e-08
000320 b8 ff 79 64 9d 12 80 3e 16 2c 27 18 10 4d 6a be
       1.197510519530801e-07 -4.898948004517139e-08
000330 47 b0 33 40 b0 2d 8c be 12 dd d1 2b b2 90 83 3e
       -2.0994596647923404e-07 1.457722386443281e-07
000340 85 a1 ad b7 e3 c2 6e 3e 46 ae 2c ce 09 4d 7c be
       5.729736237450276e-08 -1.0542918320023058e-07
000350 8c 64 e2 34 71 ee 9e 3e 6a 38 79 1e 73 96 42 3e
       4.609139993088955e-07 8.655569552027316e-09
000360 42 18 37 78 8d 1a 3d 3e 2f f4 ec ef 9d 17 71 be
       6.776238129158256e-09 -6.36736068150514e-08
000370 fb ff ef 66 aa f9 4a be 56 92 99 f4 8d 5c 53 3e
       -1.2561332611224488e-08 1.803184027648281e-08
000380 b4 58 8c 1b 2c 7f 43 be f1 fd 16 0a d0 0d 5b 3e
       -9.078889516518043e-09 2.5195959656987973e-08
000390 55 e8 98 bb c3 ff 4e be 01 e2 60 15 ba cf 63 be
       -1.4435071682342013e-08 -3.690166987296279e-08
0003a0 8e e6 9d 0d 94 e7 54 3e 7e fc cf 2e e4 5e 49 3e
       1.9468928559129808e-08 1.1814138523370723e-08
0003b0 58 24 8b a7 39 70 3c be 53 ae e6 61 b6 ce 2f 3e
       -6.621326258720074e-09 3.70287690718769e-09
0003c0 82 f5 9a fd 8f 78 96 3e 16 ba f5 43 73 1c 8f be
       3.348432052566152e-07 -2.3179600992401048e-07
0003d0 b9 08 57 04 d3 20 87 be 13 f8 22 8f dd ab 64 be
       -1.7231866615395968e-07 -3.850338882578328e-08
0003e0 3f 7f f3 5e 48 79 71 be a9 fc 1d 82 db f1 93 be
       -6.50948306260358e-08 -2.972000193654059e-07
0003f0 00 d7 29 f3 0d b1 69 be e0 a4 43 38 2b 10 6f 3e
       -4.7854369707271626e-08 5.7859643328076975e-08
000400 76 67 d7 75 51 0d 80 3e 7e 13 ed 1b 60 8c 54 3e
       1.1959690031267842e-07 1.9137134317563846e-08
000410 41 1c b0 46 00 f1 92 3e 73 bd d2 b7 17 75 80 be
       2.822490105528984e-07 -1.2261713414538778e-07
000420 e9 15 b7 b5 0f 15 99 be e1 06 c1 5c 1a b7 94 3e
       -3.7375496272600557e-07 3.086812199217903e-07
000430 e5 ef 53 0c 2e c2 6e 3e be 44 e3 04 c4 28 95 3e
       5.729219902138363e-08 3.152972610889361e-07
000440 90 c7 dc b1 9a c7 46 3e f3 a4 03 c4 99 c0 7c 3e
       1.060762638456281e-08 1.0711083664776925e-07
000450 50 bd 77 eb f6 51 39 3e c0 db 1b fb 34 6c 4e be
       5.895312397526559e-09 -1.4166665926707619e-08
000460 fe 18 a0 d2 dc 16 44 be a1 f1 f8 72 72 9c 6b be
       -9.354812553080165e-09 -5.142972125642819e-08
000470 ce c7 e7 a2 e8 f7 77 3e d0 6f 75 5c e1 cd 89 be
       8.928922377146987e-08 -1.922564207651411e-07
000480 3e 18 df 28 ac f0 8c 3e fc e3 4e d2 31 c7 87 be
       2.156207483101474e-07 -1.771606800407738e-07
000490 b2 ed 1a a7 b8 7a 82 3e 6b 48 e1 fe 92 27 6f 3e
       1.3768211064810274e-07 5.802993984005536e-08
0004a0 8e 97 7f 36 b9 63 91 be 52 b6 dd 1f a1 6c 3b 3e
       -2.591244112601088e-07 6.385225235578707e-09
0004b0 3e 69 37 1e 5a af 80 be 08 75 32 b9 a9 e6 65 be
       -1.2431270511490383e-07 -4.079384221501428e-08
0004c0 53 a1 fd a6 0b ee 87 be e8 3f 53 ba 9e e2 96 be
       -1.7829139009195266e-07 -3.4101656816182835e-07
0004d0 07 c8 98 49 09 66 7c 3e 69 ee 5c e6 06 b7 a0 be
       1.0579295164276962e-07 -4.981442997884728e-07
0004e0 80 e6 38 95 a8 52 7b be 35 a1 d0 c5 e9 61 62 3e
       -1.0178567793556573e-07 3.4240024794902604e-08
0004f0 58 18 62 8b 51 ca 6d 3e 3a 88 77 e7 7b 02 66 3e
       5.5488770398868676e-08 4.099626676656003e-08
000500 3e 75 d3 2b a2 b8 4b 3e 9c 53 ea 63 8d ed 40 be
       1.29087011032094e-08 -7.882685724029345e-09
000510 1e 07 66 1f fb 29 67 be 92 14 ba 32 08 97 6c 3e
       -4.3146290029499446e-08 5.325296678369855e-08
000520 1a 35 ea 6d ba 65 71 be 30 7a 2f dc 55 46 19 be
       -6.48102757938302e-08 -1.4711839392051527e-09
000530 26 f8 e2 f3 d8 5c 4d 3e 92 05 1f 6d 98 d0 60 be
       1.3673065898572838e-08 -3.13200537861634e-08
000540 20 65 58 da 93 91 6d 3e e0 41 f7 c7 a2 6b 0a be
       5.5075925414237786e-08 -7.689363728487374e-10
000550 a6 53 e2 b7 9a 8f 73 3e fc d7 e4 52 65 9f 68 3e
       7.287023426540726e-08 4.5863240637924536e-08
000560 bc e2 eb 6c 58 a2 52 be 30 19 44 73 e7 70 61 be
       -1.7354415511396295e-08 -3.248645300169099e-08
000570 37 2d 00 8f 6f 84 7e 3e d6 1f f7 6b 7a 1c 62 be
       1.136859031360271e-07 -3.373481893446434e-08
000580 c9 29 12 e4 33 33 82 3e 8c 39 ef 69 df 4d 6f be
       1.3560064541049414e-07 -5.8308598164743746e-08
000590 54 56 b4 c9 b6 99 33 be 54 19 42 43 6e 23 4b 3e
       -4.563584311895772e-09 1.2637302850232429e-08
0005a0 86 6a 59 07 a1 3f ac 3e b8 6f ac 76 d5 d7 7a 3e
       8.418724195090051e-07 9.999834353315411e-08
0005b0 6c 60 ba b7 27 a2 75 3e 86 f9 f4 bc e0 79 8a 3e
       8.059076422384987e-08 1.9726220877066877e-07
0005c0 c2 13 55 19 ee 79 76 3e 2e 95 d8 c9 2c 15 9c 3e
       8.373070266739118e-08 4.1846505802392136e-07
0005d0 5a 6c 09 76 f9 5c 96 3e 04 8e b6 14 c5 e5 40 be
       3.332373719516198e-07 -7.868529514429414e-09
0005e0 48 4d b4 b2 20 95 83 be f0 a3 bb ed ad 48 08 be
       -1.459012194190664e-07 -7.067546231118338e-10
0005f0 96 c4 20 67 fb d7 a5 3e 1c 35 92 21 74 1a 61 be
       6.509923891115926e-07 -3.1857443080332324e-08
000600 e3 ae d3 e8 47 2c 8c be 8b 9d da a1 73 c9 61 be
       -2.0990500041535012e-07 -3.313072148336165e-08
000610 b9 ed b6 52 f6 cd 72 be 5c d1 2a a6 bf 99 88 be
       -7.005236984149229e-08 -1.8328860836514286e-07
000620 54 8c f2 c3 f9 e6 60 be 37 40 6e 61 ca 60 71 be
       -3.1482891399143147e-08 -6.473842294033968e-08
000630 a8 34 e8 3d db 68 5d 3e 14 ab a4 a4 34 a6 72 3e
       2.7389820073500852e-08 6.947383571614628e-08
000640 aa 0c e5 e7 8d 94 7f be b0 40 3b 7a 97 a7 2b 3e
       -1.1764574911914949e-07 3.2194255749591325e-09
000650 23 92 8d 38 2a a1 80 3e 1a 99 89 cc 45 11 8c be
       1.238998062160817e-07 -2.0911895705632783e-07
000660 fc 1b 1b 03 1f d8 6e 3e c0 2c b4 40 d6 d2 22 3e
       5.745184273940837e-08 2.1913533259074735e-09
000670 7c 8e 54 68 f5 99 94 3e 1e e9 10 c0 4f d0 71 be
       3.0698479521111745e-07 -6.636126671867461e-08
000680 50 48 02 f7 88 be 7c 3e ec b1 4d ec aa fb 31 3e
       1.0708077780228551e-07 4.187011352955962e-09
000690 58 28 54 86 c5 09 a5 3e 06 5a 6a 39 25 43 99 3e
       6.269863318819457e-07 3.7643740694853647e-07
0006a0 0e 64 08 09 d2 08 ae 3e 28 60 0b 4b 33 62 b1 be
       8.950965071945957e-07 -1.0361430151009045e-06
0006b0 7b bb 60 09 54 75 65 be 61 59 64 58 03 c5 c2 be
       -3.99692236394534e-08 -2.2375085705447533e-06
0006c0 a0 d6 4a a5 84 ce 73 be 80 df 66 a5 62 5c 8b 3e
       -7.378575024138132e-08 2.038544432822355e-07
0006d0 9b 10 5c f6 d4 48 a2 3e ae 3a 5a 25 05 e4 75 be
       5.449205502110537e-07 -8.15492254507739e-08
0006e0 b0 17 ca eb 6d ec 5e 3e f8 45 23 ce e5 b8 60 be
       2.8799802309044328e-08 -3.1147630046056295e-08
0006f0 01 aa c5 f9 f8 41 70 be e7 d4 74 f2 97 65 82 3e
       -6.056467189366484e-08 1.3706721200551436e-07
000700 6f 41 90 1f 98 5d 53 be 00 d6 8e 81 4b b0 0a 3e
       -1.8035622748796467e-08 7.767420067520418e-10
000710 98 d9 3b 1f e1 79 7f be 99 0a 00 2e b2 2d 58 3e
       -1.1725757769948974e-07 2.251798292275185e-08
000720 d2 87 20 90 63 d9 52 be f4 28 a8 e8 5c f8 59 3e
       -1.7554662619494035e-08 2.4186603423230474e-08
000730 bc 3d 8e 13 2c 1d 84 be 08 3a b3 00 82 d1 72 be
       -1.4986063392702564e-07 -7.01039654549494e-08
000740 fa ff b6 80 29 ae 58 be 8c b7 f3 4d b7 47 71 be
       -2.2985339893357903e-08 -6.437354070954348e-08
000750 58 56 94 16 b3 f9 6e be 80 7b 76 80 eb fd 66 3e
       -5.769615791567012e-08 4.282570392342388e-08
000760 94 54 f5 89 93 2f 76 be 0a d7 0b e4 36 05 5c 3e
       -8.264871319736895e-08 2.609600202853335e-08
000770 0c 74 23 c6 c7 f9 8f be 09 af db b9 56 63 38 3e
       -2.382375639602372e-07 5.678283535844591e-09
000780 b0 e3 6a 10 00 17 a3 3e 0a 66 0f b4 37 6a 6a be
       5.689217069316341e-07 -4.9201608571819515e-08
000790 20 b0 d1 69 7b ce 67 3e 38 31 0c be 71 22 85 be
       4.4343193319373165e-08 -1.5746465378169195e-07
0007a0 4d b4 00 d8 49 cf 85 be 82 34 d1 ea 9f 1f 9a be
       -1.6249508050358904e-07 -3.8927098950232826e-07
0007b0 30 3c 32 f5 57 89 77 3e 14 ce 95 00 82 f2 56 be
       8.768028907285139e-08 -2.1371334956453478e-08
0007c0 7f 48 9a bd c0 bb 8f 3e 78 18 de 7b 0d 31 64 be
       2.3643232687338975e-07 -3.760980814199853e-08
0007d0 80 a2 37 fc df 59 24 3e 88 75 15 f8 09 c0 74 3e
       2.369176828452025e-09 7.730034036952929e-08
0007e0 7f 3c c3 17 f0 ae 9d 3e 63 c1 0d 8d 0a cc b1 be
       4.423163984080974e-07 -1.0607860085575712e-06
0007f0 bc 30 4d 82 ca 0f 86 3e 37 70 11 d4 c5 35 cc be
       1.6437235319589622e-07 -3.3629000033962947e-06

cho_elements_module.bias f8 [45]
000000 1a de e4 2a 8c e4 e3 be c2 9a 52 ba 30 27 80 bf
       -9.485608953071221e-06 -0.007887249647251852
000010 a0 ce 13 ba ce 91 46 3f 6a 7a 83 5c 10 a9 72 bf
       0.0006887683304328159 -0.004555763160367302
000020 38 1e a7 5e 96 c9 4a 3f 67 7f aa a6 0b fc 98 3f
       0.0008174881198152522 0.024398977324949025
000030 4d b1 0f 07 71 83 bb 3f 8c 47 e8 fd 2d 00 18 3f
       0.10747438833613394 9.155541145158661e-05
000040 23 2c 75 fc d8 f5 bb 3f 56 84 20 18 d9 02 bd 3f
       0.10922008670347387 0.11332470740355069
000050 04 5b 75 84 4d f9 90 bf d5 8d 3f af ad 2a 6b bf
       -0.01657601471864735 -0.003316249110854245
000060 50 d1 18 37 34 90 43 3f 20 d9 95 20 90 f5 82 bf
       0.0005970244366780095 -0.009257436747003356
000070 c4 95 03 1f 84 f9 82 3f 00 c4 a1 c5 87 03 ad 3f
       0.00926497668883542 0.05666755950449698
000080 7e d3 9f 7c b0 1e 2c bf 6a 5e dc 8c 9d 69 77 bf
       -0.00021453766231585217 -0.005715957098594163
000090 d8 02 51 e7 e4 ae a0 3f 98 b2 86 41 d0 82 86 bf
       0.032584336506720823 -0.010991694450092113
0000a0 ed 51 f3 eb ab 2b 93 bf 05 5f 28 c7 6b 13 c0 bf
       -0.018721281315110905 -0.12559268211838784
0000b0 ea cd 3c ff 88 51 51 bf 44 40 88 ea 8a 18 a1 3f
       -0.0010570371495760519 0.03339037049238461
0000c0 1b 3f 5a 03 52 17 94 3f 8f 3b 5b 51 c7 21 a8 3f
       0.019620210127469933 0.047132710152815276
0000d0 4c eb b8 ec 8b c6 78 bf d0 51 6b cd b5 b6 a3 bf
       -0.006048723774763353 -0.03850334293898394
0000e0 5a 1c c5 93 08 8b 89 bf 82 ec 9c a9 92 93 16 bf
       -0.012472216615277688 -8.61223474232665e-05
0000f0 32 97 b3 b4 2b 5b 74 bf f6 92 14 a1 4e a8 9a 3f
       -0.004969759679829088 0.026032665807309528
000100 f6 1d 77 60 66 2a c3 3f 00 23 83 2d eb 50 67 bf
       0.14973144254894039 -0.0028462022129115416
000110 c1 12 40 d2 7b 91 ab bf 06 a9 40 e6 38 bd 0c 3f
       -0.053844327369039664 5.4815577442761775e-05
000120 95 c6 8f cc 8b 64 b0 3f 9b 78 a1 d9 4d 5e 01 3f
       0.06403421158008833 3.3127547070619874e-05
000130 dd 05 6d 80 f5 1d b2 bf 5a 6b 5d ae 39 47 53 bf
       -0.07076963792226061 -0.0011766494075888452
000140 1e 38 44 c6 a0 ca a2 3f 64 a7 f3 b4 e0 29 a6 bf
       0.03670217914815076 -0.043288251961554974
000150 56 51 ef 8f 66 a1 a5 bf 95 0c 6e 7a 8d b6 b4 bf
       -0.042247014112634915 -0.08091053236971597
000160 02 35 46 07 e9 6e a0 3f
       0.03209617818638756
