port_results/Expected/Deep/10_1000/3/2_trained_linear.pth (torch, 17023 bytes, 17 tensors)

radius f8 []
1.7291024173726464
00000000: 0acd e04b 67aa fb3f

shared.weight f8 [10, 30]
-0.2621676996633515 0.10970414242398076 -0.1300148275443911 -0.08547307069739504 -0.19510525144118948 0.0045526278089750094 -0.019598588260999514 0.11857685191963724
-0.019147147911162263 0.1642221791289054 0.0807729749547553 -0.2992654517825033 0.010770575345854164 -0.17576969474935905 0.15515311459923448 -0.030500234930090974
-0.2691989952796529 0.15971620266855466 0.18771554982794683 -0.3237540566299916 -0.09044521672381865 -0.10963966895757948 -0.22083050210003757 -0.14598262542036156
0.08615365943798065 -0.17839583512366705 -0.1820909438502055 -0.2508705203094069 -0.09429644136371734 0.07049470336251618 0.11004182437938284 0.04409846414842168
0.030955429257399483 0.03333048613647811 0.1325849932176997 -0.022171643943187047 -0.034317443936578394 0.2058550602196379 -0.008601497406287009 -0.023960293399378742
0.05433941783318499 -0.022487377025836218 -0.035856797616058686 0.10867139416520272 0.09836434808277639 -0.11959081261159475 -0.05939643449656849 -0.05966199014595822
-0.0634995441964237 -0.07286246436075718 -0.07486413107501463 -0.24221951448775375 -0.1155840553880887 -0.2081443570714749 -0.1706584407387797 -0.12403698170722012
-0.24223916892450748 -0.0647792845231855 -0.13489224459865723 -0.19858276854027715 -0.07419018753028507 -0.082206690339792 0.12419354922012713 -0.009017607795464008
0.029099471274440077 0.05227334273587923 -0.16698256211798668 -0.0226990868399444 -0.04732349150510836 0.14107983555113593 -0.08187064489748863 -0.1082608259484527
0.16786192383414938 -0.21864456569576765 0.12409269224391137 -0.002856278878627574 -0.017108283731512727 0.17254110069713677 -0.33215271332875285 -0.10965797925698312
-0.06480628366182152 -0.014702612097146293 0.043847961789755606 -0.01313308487008216 -0.002228264786012167 -0.09055185038138014 -0.12655805543563187 -0.10463597669704633
0.08764183879560516 -0.10095740552171197 -0.15366650652905242 -0.07985927306008757 0.17558830237678405 0.07900452952239818 -0.1086568533768725 -0.14545858677206389
-0.16580540192840937 0.23868867948145026 -0.029260659397620157 0.05138298700134537 0.12854088343258402 0.1259607612383975 -0.09476834318996377 0.07959123614865182
-0.2183061794031489 0.16035019415657278 -0.29901454815093514 -0.09952817593878711 -0.34394015981808057 -0.2388317952835099 0.23283657547217612 0.06886207332106312
0.07432534760772175 0.17181260137142323 0.19131460582214113 0.14828575668862845 0.19605068770826406 0.20027461188781467 0.2901070590157234 0.17883772197561187
-0.15359284928167255 0.07312296496378395 -0.0019503659244537444 0.18022916185022647 -0.0379993036141183 -0.1791591262388896 0.17189428462275835 -0.13829828585574624
-0.05546315245669288 0.1253474539235685 -0.39514197651345184 -0.27294539953772673 0.09384362491291473 -0.13598478635242164 0.31810322613628855 0.0588231171472049
-0.09795088351917426 0.022513538321679818 0.15893433611126337 -0.37693009651275733 0.00928374835866695 0.03521035966620299 -0.05403439560170202 -0.02488713046886552
0.06112715544599812 -0.03319669102660365 -0.01742892721480392 0.05676227464341577 -0.13966833662276007 0.03197844901252274 -0.3986677682839035 -0.03901827174910494
0.01950370168025978 0.018591630511582552 0.0044110954622804625 0.01587890946916732 -0.06618739827090926 0.12893473753712179 0.18754020991954246 0.09680068807734979
0.09289415268915195 -0.035501274835893326 -0.2141706521889118 -0.10724253500177854 0.22501568258854443 0.1749193825532475 -0.25381638672805945 0.020198086966026298
0.2774934641275704 -0.30485432885876995 -0.2493978259830725 0.04020196400101499 -0.05607321359442694 0.06357660199942203 -0.1303851491116127 -0.015954524804002432
-0.1251567564472791 0.05154330439885341 -0.11635882551793285 -0.11060003340943048 -0.2402306686750562 0.18953922638376902 0.081214216961464 -0.28413685260744054
0.10648618093629707 -0.11379757296098113 -0.03305058183508547 0.1303293498684147 -0.0031296355666188976 -0.3487838158356873 -0.09300045610980492 0.10919500972651854
-0.0493447132598841 0.015751692127158472 0.08529555363486586 -0.14288644510442056 0.10371170613987257 -0.26469713407126727 -0.03481795141030349 0.4870768750231163
-0.04372795136451158 -0.028435099048609986 -0.07603441187531357 0.04403258878084108 0.11044605592124361 -0.03191411526171765 0.1120822510465679 -0.01836250977236317
-0.000340484495943892 -0.06376460064099838 -0.06813119359071053 -0.064152302054279 -0.032367739353924924 0.009964137565915446 -0.07521206045777001 -0.0410129714447865
0.04419791223233008 -0.062226879814349934 0.12194038492886254 0.06711405022762347 -0.11088448444699481 0.08938825816281806 0.04582320878341936 -0.14867275727739707
-0.08651614951540558 0.11202452516298282 -0.036486745633994885 0.03532316348419217 0.12314921568836924 -0.01917781442777751 0.19288145678706617 0.17526801027364816
0.25707656879365126 0.2682571005645801 0.19497957233784438 0.1525962856686526 0.21968429544500376 0.04800125066439172 0.22776207281664507 0.20670388485294855
0.013666986688692154 0.04792599261439456 -0.23484093876563522 -0.10235776012665972 -0.1254337653688244 0.008579777305365984 -0.3652842135767018 -0.5137758638163256
-0.0898214673622592 0.13760454427146532 0.14633044974685833 -0.10381071558544211 0.31939781539058165 -0.24295638206181247 0.22923037186313236 0.3710537631453681
00000000: 08c9 0708 5bc7 d0bf 795c f217 9215 bc3f
00000010: b82c 266c 53a4 c0bf 8681 552b 90e1 b5bf
00000020: bfdf 1b79 35f9 c8bf 6978 ceb8 c6a5 723f
00000030: 4cda 83fe a611 94bf ccb6 0e75 0d5b be3f
00000040: 8947 5c58 4f9b 93bf ea78 517c 3b05 c53f
00000050: 26d0 d4a5 89ad b43f 04a0 0e48 2a27 d3bf
00000060: 55d5 f426 e20e 863f 7ac7 4911 9f7f c6bf
00000070: a2c2 89a8 0edc c33f 9323 2e1e 743b 9fbf
00000080: 13e6 356c 8e3a d1bf eb26 8d9d 9471 c43f
00000090: a918 bb29 1007 c83f d314 4bef 62b8 d4bf
000000a0: 178f e8ef 6a27 b7bf b85e 8468 5811 bcbf
000000b0: 464d 3d84 2c44 ccbf 587a fb04 8faf c2bf
000000c0: 6483 b78d 2a0e b63f 1ba4 ccba acd5 c6bf
000000d0: fb00 5e8c c14e c7bf 1d9a 103a 430e d0bf
000000e0: 144e c9c3 cf23 b8bf d8b4 7bdd f00b b23f
000000f0: e2d0 e674 b32b bc3f 6281 a4ea 1294 a63f
00000100: 843b 2db1 c7b2 9f3f 0af8 d487 b110 a13f
00000110: 41bb e788 8bf8 c03f 20c6 89d6 29b4 96bf
00000120: 4ba3 c756 0e92 a1bf a202 ae67 7559 ca3f
00000130: 3bfb 7370 a99d 81bf 772a 3612 0c89 98bf
00000140: b354 f44c 60d2 ab3f f65b 9853 ee06 97bf
00000150: a655 337a d25b a2bf f444 f373 e3d1 bb3f
00000160: 589e 1bea 672e b93f 0fa1 11e5 809d bebf
00000170: 3ed3 529f 3569 aebf f579 fb30 048c aebf
00000180: a271 a291 8141 b0bf 2111 894d 1da7 b2bf
00000190: 3e53 9cb2 4b2a b3bf 72c5 968e 0c01 cfbf
000001a0: 71b5 d4a9 ea96 bdbf ef05 3c6b 79a4 cabf
000001b0: 7134 e1c2 22d8 c5bf d953 ed3b e3c0 bfbf
000001c0: 34a5 2b6e b101 cfbf 9940 7c0c 6095 b0bf
000001d0: 9483 8429 2644 c1bf 0dfe 3600 296b c9bf
000001e0: 316e 20cd 20fe b2bf 1095 8566 7f0b b5bf
000001f0: fe4c 4600 26cb bf3f 7eb0 8ed4 d277 82bf
00000200: b285 d175 40cc 9d3f 7ea3 0153 92c3 aa3f
00000210: fc46 a641 af5f c5bf 08aa 81ee 6d3e 97bf
00000220: 9ba6 b1e0 c83a a8bf 9599 e86f e70e c23f
00000230: 004f 567e 79f5 b4bf 1bf5 e242 fbb6 bbbf
00000240: 8e3f 8ee0 7f7c c53f d943 8e8d 8bfc cbbf
00000250: 8e35 dce6 89c4 bf3f b91a e70b 0d66 67bf
00000260: 5c5b 787c d584 91bf c3e2 5aa8 d315 c63f
00000270: fa93 4174 fd41 d5bf ec78 a79a 8b12 bcbf
00000280: 611f e704 2597 b0bf 7ff0 fb30 671c 8ebf
00000290: 633a c473 3d73 a63f 8fcb 19d0 84e5 8abf
000002a0: 637e 3f8c 0241 62bf c8f5 faf3 672e b7bf
000002b0: 3219 92ea 0d33 c0bf dc19 e661 6cc9 babf
000002c0: 0870 630f b26f b63f 2138 0133 58d8 b9bf
000002d0: 7334 0416 58ab c3bf 114e 1346 a871 b4bf
000002e0: 755c 2270 ad79 c63f 5dd9 880e a439 b43f
000002f0: 5a6c bd7f efd0 bbbf cfdf 8d10 639e c2bf
00000300: fe2d 6485 1c39 c5bf 392d 26c4 598d ce3f
00000310: 494e b09c 81f6 9dbf 42af 7bf1 de4e aa3f
00000320: de5c 4515 0774 c03f 3891 0c73 7b1f c03f
00000330: 826e b2f6 bc42 b8bf 1882 4e5c 1760 b43f
00000340: d08e 86f6 74f1 cbbf 3fa5 e7eb 5a86 c43f
00000350: f388 55ea 0d23 d3bf 2d08 b0b4 ad7a b9bf
00000360: 62c7 8c96 1d03 d6bf 0e6b fe4e 0a92 cebf
00000370: d699 7bc2 96cd cd3f ba45 d9e0 f1a0 b13f
00000380: e42e 3d69 fc06 b33f 4a29 f78f f4fd c53f
00000390: c169 a03b ff7c c83f d95a b815 07fb c23f
000003a0: dc5b 085e 3018 c93f 277d 2336 99a2 c93f
000003b0: eaeb b332 1d91 d23f 1094 968b 27e4 c63f
000003c0: 0a39 4834 eea8 c3bf 3423 1bc7 2fb8 b23f
000003d0: fcb7 1677 6df4 5fbf c652 f7c9 bf11 c73f
000003e0: 313a 960c a574 a3bf 77ec fcad afee c6bf
000003f0: e47a 69c5 a100 c63f e9f0 6b1b c2b3 c1bf
00000400: 627e de93 aa65 acbf 3c8a 9ea7 620b c03f
00000410: 9cbb 9992 014a d9bf 95ec 26fb ef77 d1bf
00000420: 3666 f0c3 2206 b83f b58f 1111 f367 c1bf
00000430: 177a 40a2 cd5b d43f 61c3 ca48 101e ae3f
00000440: c143 5421 4f13 b9bf 2745 3cfb c90d 973f
00000450: b798 e7d7 f557 c43f 6ca0 5969 9f1f d8bf
00000460: f79a ad9c 5b03 833f 9e54 7e9e 1707 a23f
00000470: e6d6 ef73 65aa abbf ebfb d10d 037c 99bf
00000480: f17d 13fb 0e4c af3f 36e0 961c 28ff a0bf
00000490: 9c5a 9181 e3d8 91bf a0e6 7ae2 f10f ad3f
000004a0: ba6d 0aed a6e0 c1bf 7a05 5fb1 7a5f a03f
000004b0: 3cea afd0 c583 d9bf b8ba 37f2 33fa a3bf
000004c0: d17a 7843 c7f8 933f 4833 1b34 af09 933f
000004d0: fa1d 006c 5e11 723f f201 7793 8f42 903f
000004e0: 191b fb46 a8f1 b0bf f327 85f8 ee80 c03f
000004f0: 600b 254e 5101 c83f 82c3 850d eec7 b83f
00000500: 2b1f ca43 e9c7 b73f 58df c51c 392d a2bf
00000510: fa09 75a5 f169 cbbf 53a1 922c 3f74 bbbf
00000520: 7407 e75a 50cd cc3f d558 c021 c263 c63f
00000530: d9e5 0b16 873e d0bf 3ae8 d7ab ceae 943f
00000540: c906 52f2 73c2 d13f 3c84 1fbb bb82 d3bf
00000550: c938 2599 44ec cfbf a718 3d11 5a95 a43f
00000560: edad 23d5 a0b5 acbf f6d9 6062 8e46 b03f
00000570: 4cc3 a8e7 75b0 c0bf ac90 0609 6256 90bf
00000580: 9141 e8f7 2205 c0bf 0813 714d e263 aa3f
00000590: 6f53 3326 b1c9 bdbf 3815 6ea6 4850 bcbf
000005a0: 6250 bae8 e0bf cebf 924f 5045 d242 c83f
000005b0: 3eda d175 74ca b43f 9b63 6256 4c2f d2bf
000005c0: ebea 98a8 ad42 bb3f 5749 3b76 d621 bdbf
000005d0: a0e0 3080 01ec a0bf 7c67 b2d3 a1ae c03f
000005e0: a35c 064d 52a3 69bf f4da 985a 7952 d6bf
000005f0: ba33 81bd e0ce b7bf a96b a943 34f4 bb3f
00000600: c007 5dd3 b543 a9bf 6bd5 2b2a 3621 903f
00000610: 6120 5bed edd5 b53f 9af1 6160 1a4a c2bf
00000620: 0847 15b2 d98c ba3f d695 8b3f ccf0 d0bf
00000630: dbef 3d95 a8d3 a1bf b12d 377c 442c df3f
00000640: 3135 1092 8263 a6bf c5a2 e331 171e 9dbf
00000650: 5004 60c0 fd76 b3bf 453a 8b81 708b a63f
00000660: db67 2756 3146 bc3f 55e2 a802 0c57 a0bf
00000670: 9902 b522 6cb1 bc3f 7774 c72b 9fcd 92bf
00000680: 7e25 5ec6 6150 36bf 4d45 657a e052 b0bf
00000690: 713e 4fc0 0b71 b1bf 2747 4907 496c b0bf
000006a0: 34ed f01b 8192 a0bf 95de d3e7 1368 843f
000006b0: 444f eefb 1841 b3bf 2960 22f6 a6ff a4bf
000006c0: 74bd 2dd7 1ba1 a63f e031 789b 33dc afbf
000006d0: 03c4 542d 7c37 bf3f 1d6a d4ea 622e b13f
000006e0: f66a 55f2 ec62 bcbf 52a9 741d 26e2 b63f
000006f0: fcc0 3ebe 2376 a73f 2d02 287b b507 c3bf
00000700: 6b98 be20 ec25 b6bf e3c8 eca7 a3ad bc3f
00000710: ae90 7806 64ae a2bf 5f67 e9af e015 a23f
00000720: 49db e8fd b486 bf3f d4af 1a57 59a3 93bf
00000730: 6de0 73ee 56b0 c83f 1185 14a2 2e6f c63f
00000740: 1658 e247 f173 d03f d20e 76d4 1f2b d13f
00000750: 3520 4a33 17f5 c83f 4d0e 386c 4688 c33f
00000760: a7c7 3070 9d1e cc3f 0a94 8ab3 9e93 a83f
00000770: f421 02bf 4e27 cd3f e824 b3dc 4575 ca3f
00000780: c203 e7e6 6ffd 8b3f 8f77 d075 c189 a83f
00000790: e252 e193 440f cebf 755e 3c40 1e34 babf
000007a0: de5f 09b0 360e c0bf 0bd4 7737 4692 813f
000007b0: 1ca6 c309 d160 d7bf ad16 9214 da70 e0bf
000007c0: dbb4 cc28 8afe b6bf 91a5 b694 069d c13f
000007d0: 622e 09c8 f4ba c23f daf0 69cc 5693 babf
000007e0: 980c e188 0371 d43f f4ac a7d9 3119 cfbf
000007f0: 1977 33bb 6b57 cd3f f017 7148 58bf d73f

shared.bias f8 [10]
-0.0187230122598913 -0.061338245618003495 -0.046682869306194925 0.19175748048239585 -0.05373673485999893 -0.06424908253179126 -0.0868571242328071 0.21221740771601305
-0.2549735008465748 0.06069653383187678
00000000: ecf8 5a15 202c 93bf 10c0 d8fd b967 afbf
00000010: a137 e829 d1e6 a7bf 39b6 b755 828b c83f
00000020: ca91 a29d 6183 abbf f6a4 45bc a072 b0bf
00000030: ef27 01bc 443c b6bf 481e e4a4 f029 cb3f
00000040: 04e4 de5f 7c51 d0bf 1fb2 93b7 9d13 af3f

mean_hidden.weight f8 [10, 10]
-0.31082484498964524 0.07114913057281673 0.006179965366286457 0.12231487266109706 0.044192541510314626 0.0813633299649101 0.2299743826188715 -0.04692403414345884
-0.559620222604494 -0.12684560270898718 0.21036598439675153 0.11467269647240944 0.07120668739748366 -0.4944233329019269 0.08536828064823575 0.20300274681443617
-0.13353337094353715 -0.26601175739318494 0.34436443736382877 -0.016691396359896124 0.36670817929174787 0.008962484702002855 0.11576130904203846 0.10203171428229844
0.20308885047224445 0.08741963094805859 0.08659616417960557 -0.07057053719537189 0.3139962466274032 0.04888778218492376 -0.2409699337685681 0.10838955122813031
0.09968822195653605 -0.17460037879802942 0.20613664965058143 -0.2191825597871163 -0.03501832115753756 -0.2922237943638213 0.28850969640202623 -0.11706891793113568
0.05514983272748897 -0.10658314614529248 -0.05374964621294573 0.4558563539076142 -0.21701084909627621 -0.009839438517294916 -0.03744833024263392 0.29159098340769285
-0.05018987678001028 0.28210804220282204 -0.13296908544269684 -0.3643261542113477 -0.14960896575496826 0.015659839402752136 0.04846890866577467 0.039362823680465904
-0.0016009170278700054 0.4446204805416029 -0.10597568776085044 -0.05493291826044499 -0.13875054342850016 0.027769950485124945 -0.09019101536837285 -0.22946949569158406
-0.049331508298869384 -0.0009851330428215046 0.12317584918339422 -0.23562809534423562 -0.3749279866257255 -0.33347970775054114 -0.14224719421850704 0.2892888231264361
0.2333838614377178 0.28640244926069514 -0.013263166530722497 0.035440598027792175 -0.10751011029043434 0.15584347810770166 0.0096205194943693 -0.030197049116194006
0.023125091276320318 -0.10125422895211846 -0.15416214711762172 -0.40585720686114485 0.19609915532039682 -0.07074365789558748 -0.18639747937514767 -0.001870460706105984
0.03709863940389319 -0.35623727503232694 0.29560635706699484 0.17109606543667852 -0.1373349072185937 -0.3629053012584386 0.03802744793087172 0.056655329617421195
-0.05167827348900065 0.04700391744030155 0.3025119824675721 -0.3391468210865926
00000000: 6af2 00e4 8de4 d3bf 03f7 f254 d436 b23f
00000010: 42c2 37d2 2950 793f 26d1 e409 0750 bf3f
00000020: 0421 07a1 67a0 a63f 7dfe 4a29 3ad4 b43f
00000030: 2c07 22f2 cc6f cd3f 35c8 1550 6d06 a8bf
00000040: 8287 48ab 68e8 e1bf a564 a309 7a3c c0bf
00000050: ee62 96c7 45ed ca3f 92d7 1799 305b bd3f
00000060: adf1 a0f9 993a b23f b35b 4cc3 a1a4 dfbf
00000070: e7fa 7f15 b2da b53f 4f78 4877 fefb c93f
00000080: c145 901a 9f17 c1bf dabb 962d 5606 d1bf
00000090: 7784 1823 110a d63f 5c18 f6a5 8c17 91bf
000000a0: f3f5 4e95 2578 d73f eaee 7c55 ec5a 823f
000000b0: d44a 7a7c 88a2 bd3f 434e ff1b c01e ba3f
000000c0: 74f2 7ac1 d0fe c93f ef46 f307 2261 b63f
000000d0: 9f46 1c8d 2a2b b63f c9b5 5025 e910 b2bf
000000e0: 6e36 95b6 8318 d43f 1402 51c3 d107 a93f
000000f0: 037a 6d50 1ad8 cebf 6fc0 c0e9 6abf bb3f
00000100: b186 19d5 2a85 b93f 8643 6722 4e59 c6bf
00000110: 08cd 608c af62 ca3f 43d2 1193 2c0e ccbf
00000120: 50d0 43e0 ebed a1bf 08f6 f96d cbb3 d2bf
00000130: b109 a85f f176 d23f 1d70 e485 3af8 bdbf
00000140: 108d e34f 993c ac3f a5b2 ff76 0849 bbbf
00000150: ccf5 4fd9 1285 abbf 913f ed20 c02c dd3f
00000160: 0473 dff1 02c7 cbbf 256c 2415 b326 84bf
00000170: ad24 5d73 6d2c a3bf 68d9 623a 6da9 d23f
00000180: 2d88 b8ce 7cb2 a9bf 06c8 cce3 0e0e d23f
00000190: 297e ad88 2105 c1bf 7d92 5aa5 1e51 d7bf
000001a0: 8390 8df7 6226 c3bf 15b9 6108 2209 903f
000001b0: ad43 2fb3 ead0 a83f 9989 c530 5d27 a43f
000001c0: c1d9 cf91 bb3a 5abf 17b6 c375 a974 dc3f
000001d0: 219d 1a01 3921 bbbf 3f0e cede 2a20 acbf
000001e0: f9ef 29eb 93c2 c1bf 75a2 94d4 b96f 9c3f
000001f0: 2a73 6625 c216 b7bf 4d65 b6a5 415f cdbf
00000200: 96ab 9cbd fa41 a9bf 2a45 df8c f223 50bf
00000210: 2a53 e6d3 7388 bf3f 7ad9 c2b9 0f29 cebf
00000220: 4f68 3af4 d1fe d7bf fcc3 aa45 bb57 d5bf
00000230: 37e1 8ef3 2735 c2bf ac49 9b44 b583 d23f
00000240: 4b04 25ba 85df cd3f 406a 44f0 6a54 d23f
00000250: 5645 ed13 b829 8bbf 0cc9 f522 4525 a23f
00000260: 10d0 af57 c885 bbbf 7a3c e2d8 adf2 c33f
00000270: 1670 ca44 ecb3 833f f91c 8fa9 f9eb 9ebf
00000280: 39c8 fe9a 1aae 973f f958 ee11 cceb b9bf
00000290: a65e 13d2 95bb c3bf 2921 9481 90f9 d9bf
000002a0: 01ea 6ff1 c619 c93f 1a9b 0fa1 411c b2bf
000002b0: 568e fc62 dfdb c7bf 4258 eae3 47a5 5ebf
000002c0: b97f eec5 97fe a23f f251 786d 97cc d6bf
000002d0: 8fea 05ed 36eb d23f fb2c c3d2 79e6 c53f
000002e0: e230 8db3 3094 c1bf 27cd 1c28 d739 d7bf
000002f0: 9a47 6d6a 5578 a33f 57ac b367 ed01 ad3f
00000300: bd16 191d 9375 aabf f444 61c0 e510 a83f
00000310: 8f2a d637 5b5c d33f 6bfe 46de 94b4 d5bf

mean_hidden.bias f8 [10]
0.31136601570509365 -0.17554063382520163 -0.039488773519270305 0.02947560901655873 0.09754322192818912 0.12166910301335025 0.10875186541245693 0.012179916105632693
-0.09505309837264532 -0.2538400309383972
00000000: 3f82 a2b9 6bed d33f 36fd b290 1d78 c6bf
00000010: f519 a65d df37 a4bf 15f1 05a3 da2e 9e3f
00000020: 62c7 20b4 97f8 b83f 2b41 60d2 b425 bf3f
00000030: b653 5389 29d7 bb3f a6d5 bbaa c8f1 883f
00000040: 09dc e45c 6655 b8bf 63f2 d241 ea3e d0bf

mean_linear.weight f8 [10, 10]
-0.3985435458293352 0.30280736402869785 0.1308946674889563 0.1751311051788578 -0.14717041178328338 -0.13695701376144193 -0.23812096331726176 -0.02251125693710341
-0.06458062074590955 0.23402750226059713 0.0812552801642503 -0.031199834783069685 0.02034808553020849 0.05918284261441258 -0.22236486314806778 -0.30816130653664564
0.20835680790566577 -0.12305922414400691 -0.10817169832539626 0.02150878614020101 -0.20006020765599453 0.28144610718806784 -0.003399552642133207 0.2820442015584648
-0.2592454385583931 -0.22385093538444073 -0.025290712605833154 0.00818176473140868 0.18412507883907464 0.21898766794099656 -0.2982697345929166 0.1938393473862531
0.5327960121465405 -0.07162727580023945 0.09622780058067713 -0.025406180100951754 -0.09472456185164331 -0.09178653152032246 0.03498751181515268 0.19745702707587462
0.005831368197724604 0.10867545339626593 0.1921886455503345 -0.12521689417612988 -0.016754409703456336 -0.1802645413141853 -0.020529531075264982 0.16680284528986417
-0.007756739875502645 0.08159114941847784 -0.044842779641348654 0.09241082787272795 0.0200109388424319 0.054585749977123135 -0.06544448941272907 -0.14405883742016581
-0.09606772719802899 0.042890047769402924 -0.0340542102806734 -0.034720870362088 -0.08924384713766786 0.2707305700602937 -0.07884899207007597 -0.010084852319145065
-0.10806523702985167 -0.3479526789688258 0.1695745883019424 -0.15183268382886644 0.12074577624191424 0.4169139836663301 0.3486537943308538 -0.028727657190078727
0.0344801008429732 0.06164106014865298 -0.34221926505533085 0.019439092719631398 0.2612172042927552 -0.0807419349736861 0.23004309820013352 0.1914474147003923
-0.04768991775239172 -0.2695455464133705 0.12433218855055732 -0.1661555235140085 0.1810442192696102 -0.15493982641625464 -0.16948105749707165 0.2956875953694524
-0.16066845971041918 -0.20077742550244132 -0.07799784284710246 0.125562989603936 0.06028819877641854 -0.03802476490578657 -0.0817664736642582 0.005071702681170215
0.12944807844923048 -0.11843368626086186 -0.03633456348480298 0.08786241643642176
00000000: 999b d7c9 bc81 d9bf 3770 5f23 3261 d33f
00000010: 85fd 0a0e 28c1 c03f 39b5 a030 b26a c63f
00000020: ac26 c6e4 7ad6 c2bf 6e17 88b3 ce87 c1bf
00000030: 9d46 f86a bf7a cebf 1acb 58e1 300d 97bf
00000040: 991e 0f06 5b88 b0bf 4973 49fa 9cf4 cd3f
00000050: 2eca ee62 25cd b43f 6bb3 2278 d9f2 9fbf
00000060: 7cc7 8de7 20d6 943f 67c4 06ab 364d ae3f
00000070: 4b0f 80ab 7376 ccbf eaeb 5d33 eab8 d3bf
00000080: f348 ed95 6fab ca3f be6d 2b2f cf80 bfbf
00000090: 050d a9f2 23b1 bbbf 3dfe 3134 6606 963f
000000a0: 0886 8ea8 929b c9bf 8c64 7d88 3603 d23f
000000b0: fe62 68ed 60d9 6bbf 1d15 6e1f 030d d23f
000000c0: e0b5 0f2e 7a97 d0bf 02dd 53bf 25a7 ccbf
000000d0: 206b 23fe cee5 99bf 994a 8fdf 99c1 803f
000000e0: 1e5e fe1b 6991 c73f 7056 04b4 c907 cc3f
000000f0: b0a4 ddf0 d916 d3bf 2dd9 d94c bacf c83f
00000100: bc79 f338 aa0c e13f 2248 1047 2a56 b2bf
00000110: bfc3 7598 62a2 b83f 8278 99e2 1304 9abf
00000120: 65de 476f de3f b8bf a8d2 1777 527f b7bf
00000130: ce6b 0716 e2e9 a13f 9700 d498 4546 c93f
00000140: b0dc 33fb a1e2 773f ef05 378e 27d2 bb3f
00000150: 768e a635 a399 c83f 6b53 b270 1b07 c0bf
00000160: a5e4 f566 1128 91bf b253 c992 e812 c7bf
00000170: 992b 4882 b105 95bf d629 b3ae cb59 c53f
00000180: 94fb 6b01 88c5 7fbf b439 6556 28e3 b43f
00000190: 62eb 0a00 a2f5 a6bf 8a78 826b 3ca8 b73f
000001a0: 86df 8f5f bf7d 943f da70 f5d5 a9f2 ab3f
000001b0: b028 bb55 f8c0 b0bf adae b51d 8570 c2bf
000001c0: dd3e 8402 e597 b8bf 39a7 fc30 aff5 a53f
000001d0: a8a8 e4ae 8d6f a1bf da3c 6315 efc6 a1bf
000001e0: 6854 d34c afd8 b6bf f3ed 1b50 a653 d13f
000001f0: 5577 4392 722f b4bf 196e 2af7 5da7 84bf
00000200: 05b1 e0d2 29aa bbbf 2782 2e50 db44 d6bf
00000210: 29a8 7ebf 9eb4 c53f 4a23 c1dd 406f c3bf
00000220: e4d2 16f8 31e9 be3f c5e2 45fd b7ae da3f
00000230: bbbf 1101 5850 d63f 7a04 7d70 c86a 9dbf
00000240: e779 f732 60a7 a13f 7dc4 dbc2 6a8f af3f
00000250: c452 dea1 ebe6 d5bf 1f9a fa6d d7e7 933f
00000260: 7cc1 655d c8b7 d03f 99b3 20e2 80ab b4bf
00000270: de54 b85f 0d72 cd3f 1d5e 8550 5981 c83f
00000280: 1edf 301a d06a a8bf 202f a8f6 3b40 d1bf
00000290: 032d aafb 3bd4 bf3f 336e c58d 9544 c5bf
000002a0: 3748 72fc 742c c73f 2e22 a777 11d5 c3bf
000002b0: cce6 9e27 8eb1 c5bf 9f75 fca9 8bec d23f
000002c0: 9b3b fab9 c890 c4bf 926e 271e 13b3 c9bf
000002d0: 92d5 2fa8 aaf7 b3bf 1dec f7b2 7212 c03f
000002e0: 9eaf 2844 18de ae3f e4b8 6a63 fb77 a3bf
000002f0: 8b17 4cca a5ee b4bf 201c 69d2 10c6 743f
00000300: 2918 bc2f c191 c03f 3b31 3c89 ab51 bebf
00000310: 8b69 c3a3 719a a2bf c657 24bd 267e b63f

mean_linear.bias f8 [10]
-0.010570345553877604 -0.04789279315808069 -0.409251315746854 0.12371663195135073 -0.31808035003852797 -0.08625113671799595 -0.0260470633151415 0.03160436460560648
0.22231927297733273 -0.29161537062968484
00000000: 47ca b0c3 e7a5 85bf 0ef6 a778 6785 a8bf
00000010: c492 3e6e 2c31 dabf 3fcb 33a8 e4ab bf3f
00000020: fe9a 3aaf 6d5b d4bf 8455 72f3 8d14 b6bf
00000030: bea9 61d4 14ac 9abf 54ac c880 722e a03f
00000040: 5aa4 5a3b f574 cc3f f762 f783 d3a9 d2bf

cho_hidden.weight f8 [10, 10]
0.20028605310455097 0.12045777924919582 0.06388186475813841 -0.1555382793753961 0.08770510214721115 0.3011172486458902 0.11108679166466517 -0.16684342963322374
0.04659703159589444 -0.046271082750541426 0.05811888335103579 0.05437575113258001 -0.006581870282611603 0.3560350436562307 0.14377076492988522 0.21317490019943497
-0.2797532564722759 0.27744340007060286 -0.23024715673359686 0.2913408730568435 0.39433495546186176 0.1561012894078201 0.12238784565114892 -0.056586513509215695
0.04923632842334393 0.10459171416932218 0.36554895310802316 -0.3324122395886663 0.36450721592153507 -0.2416131841415105 0.17715921181747207 -0.12771619761167974
0.1241074087652492 0.24843109923435777 0.08787476607388275 -0.033882506337347885 -0.24358441564828592 0.3309696879126981 -0.0685783931168078 0.2756717127687254
0.1923402162691895 0.10481509985040031 0.22032141806916378 0.08109990835876806 0.23060354611149628 0.1887793715588826 -0.17785453594870024 0.25700123469893527
-0.003551220728998603 0.027922284183774362 -0.12920231812425348 -0.10635249978632089 0.08712666603651248 0.22414980678065935 0.09791390190841144 -0.2698983365637694
-0.15873580069893753 0.13412824717849525 -0.47926311553470574 0.1744188639170262 -0.14573565156593532 -0.12508241974241036 -0.13032822688840054 -0.1658955340725174
-0.009113861703265835 0.006415287086940117 0.09189571496771795 -0.06402922840144866 0.10953607067886 0.041450234549642015 0.10258407224314633 0.05588768518297236
0.1748906412252054 -0.11699584200340842 -0.10858415709061546 0.061293969827849265 0.17551496497735797 -0.04182405351995021 0.3495880614820662 -0.036757996960370506
-0.008203618302310187 0.1397794721454891 -0.14729518788775017 -0.3149303371682245 -0.03214320199223844 -0.3619451279467413 -0.018497292579383626 -0.11762852672574967
0.005665850647399086 0.1906276613393678 -0.10952651642069994 -0.3029137158867046 -0.21923035575828603 0.1972462480626158 0.31343946086637303 -0.08929639834176399
-0.06214538722801762 0.2703642014023758 -0.2130308785685241 0.014154668450800208
00000000: 59e8 f62f f9a2 c93f bc90 6c2e 52d6 be3f
00000010: 4996 f1d7 8f5a b03f 90c2 98a7 ade8 c3bf
00000020: f723 6a71 d773 b63f b084 cc47 8145 d33f
00000030: 20a1 3719 2f70 bc3f d0e0 e920 205b c5bf
00000040: 2e10 97ed 90db a73f f802 54e6 d7b0 a7bf
00000050: 43a4 8b1e c2c1 ad3f c5a6 9e71 23d7 ab3f
00000060: 8eea c359 97f5 7abf bbf0 2e35 47c9 d63f
00000070: 5254 bf96 1467 c23f 30a2 57ac 5049 cb3f
00000080: 02de df33 7ae7 d1bf 8ad5 72f6 a1c1 d13f
00000090: f879 1524 bd78 cdbf 4d1a 7130 54a5 d23f
000000a0: 4736 58ae c83c d93f c45c 6f86 20fb c33f
000000b0: 81e4 7f52 cf54 bf3f 6b5f d551 e8f8 acbf
000000c0: e3ed b408 8135 a93f 8d31 cac7 85c6 ba3f
000000d0: 60e7 ab6f 2765 d73f 36b3 74fc 3d46 d5bf
000000e0: 097f e212 1654 d73f 8ec9 154a 2eed cebf
000000f0: 9078 782e 27ad c63f 8cb0 f41d 0159 c0bf
00000100: 628a d6cd 80c5 bf3f c3ac 421b 97cc cf3f
00000110: 7e54 6eee f57e b63f 4d37 4041 0c59 a1bf
00000120: 0428 832d c62d cfbf f259 637c 9b2e d53f
00000130: b01f a683 5a8e b1bf e888 b1f7 9aa4 d13f
00000140: 5476 4aad 9a9e c83f 8304 fc91 29d5 ba3f
00000150: 4a92 9b02 7e33 cc3f 9308 1cae f6c2 b43f
00000160: 0dfc 71c0 6a84 cd3f 619e 8025 ec29 c83f
00000170: 7726 acfb efc3 c6bf 2911 844e b572 d03f
00000180: fba8 8a1c 7317 6dbf d480 98c5 a897 9c3f
00000190: 829d 7499 b389 c0bf b81a 6edc ea39 bbbf
000001a0: 7480 3ce5 ee4d b63f 118a c3dc f0b0 cc3f
000001b0: 9137 85ae e210 b93f f250 32ac 0346 d1bf
000001c0: 6368 5a68 7451 c4bf 08fc 8c49 1d2b c13f
000001d0: efa3 d933 3fac debf 0420 2a7a 5b53 c63f
000001e0: f620 ab40 77a7 c2bf ba91 0c63 b302 c0bf
000001f0: d19c 1d68 98ae c0bf d66b b29a 103c c5bf
00000200: 2077 a5cf 49aa 82bf 44ca b983 ea46 7a3f
00000210: 7ecb 6d42 7a86 b73f 09eb f831 3864 b0bf
00000220: e34c 4c51 8e0a bc3f 6ebf 9a13 f738 a53f
00000230: def3 5f23 f342 ba3f 3d53 3888 4f9d ac3f
00000240: 3128 3808 d162 c63f f930 2c83 70f3 bdbf
00000250: 3363 91db 2bcc bbbf 0c8b b457 ec61 af3f
00000260: b8a6 443d 4677 c63f 6ed2 1b5c f669 a5bf
00000270: fecc c89a a65f d63f 4e5d 9fb5 f1d1 a2bf
00000280: f8ce 8902 0fcd 80bf ab2d c232 4be4 c13f
00000290: 1704 6b97 91da c2bf 42f8 a992 d127 d4bf
000002a0: 74d6 b0e2 1275 a0bf 1a94 dee5 1b2a d7bf
000002b0: c9a0 c54a f4f0 92bf 2a1f 5d33 e71c bebf
000002c0: 68eb c033 1335 773f af30 95b9 7c66 c83f
000002d0: cc5b 1206 ee09 bcbf 1d91 cf35 f062 d3bf
000002e0: 32da 2284 bd0f ccbf 8704 5874 5d3f c93f
000002f0: bb9a 6c62 640f d43f 7b49 87f6 20dc b6bf
00000300: ebb1 7b2b 85d1 afbf 3612 c2a6 a54d d13f
00000310: f4b6 3e88 9844 cbbf 5ec0 a770 1ffd 8c3f

cho_hidden.bias f8 [10]
-0.15040254346979487 0.014082945095566199 0.023416953804831102 0.23249734255669674 0.23958825998494646 -0.08850645997155385 -0.12486115073262798 -0.3813239982984649
0.13367434211837737 0.2947172592049282
00000000: f80f b8fa 6340 c3bf 8b3f efe4 84d7 8c3f
00000010: 5e05 0e2b 9dfa 973f d00d 5811 79c2 cd3f
00000020: b308 92fe d3aa ce3f ba03 10ff 5ba8 b6bf
00000030: 2b04 f07e e6f6 bfbf a9cc 77c5 9c67 d8bf
00000040: 443b dba7 3d1c c13f e285 76c7 a5dc d23f

cho_elements_module.weight f8 [45, 10]
-0.08258283370219997 0.043089296231986415 -0.1125374406617999 0.08351314791586624 0.0058705287075945444 0.09608417921527489 -0.01865835758683543 -0.10105748565590662
0.010879252061656918 0.10408842127976839 -0.0773152760072476 -0.12386651256090109 0.002830922604491449 0.09295498389464373 -0.16199147317186344 -0.15526407042008
0.10061484791480516 -0.0014463907126477506 0.03929538588164835 -0.013991873597417024 -0.1925570655153616 0.08737595142679153 -0.2728801660373832 0.20531922843877662
0.030846889018044367 0.15334688941696575 -0.0787189547649026 -0.3333977115835763 -0.13880071135690308 0.30467782514383146 -0.14913067561030272 0.38353376874521844
-0.37243361443077133 0.35911787432723585 0.1524129310139549 0.4883159598238686 -0.08610095862151197 -0.09613664797566482 0.27390518832896166 0.277399042793557
-0.11815748967497149 -0.1326770543305557 -0.140758911456777 0.1142229330545475 -0.13907207096018243 0.15342003498939374 0.008333134752071246 -0.08243318193523717
0.07883889276818723 -0.07043283399640994 -0.030475108319487618 -0.04580972058202883 -0.044558334131890094 -0.10726515535972 -0.06754094952904845 -0.04585721183455371
0.016745662981297177 -0.009702443900696541 0.06304921053185689 0.019122016705893075 -0.054702621082877975 0.2077480122919781 -0.015159090144491068 0.199394434906322
0.1253323402843149 -0.06861668673267504 -0.06445224202578423 -0.1021085799799293 -0.1448306567802628 -0.029701155467155762 -0.0005695206168957908 -0.000626333308435252
-0.0009643227835030045 -0.0004100987383345781 0.0009365255392568718 0.0002674651970987153 0.0001623157644775297 -0.0007691882350401154 0.00044283035030896924 0.0007309150912594043
1.4506744040107256e-05 2.907485055514396e-05 4.236155802324894e-05 2.3810618106218394e-05 8.067278284888988e-05 1.5087023328996858e-06 -2.1061927679768948e-05 -3.7673506420513497e-06
-3.386450774122922e-05 1.226242527120878e-05 -0.04371736115969054 -0.05125481175611787 -0.017902780838251628 -0.027456937387679493 -0.030177854432061366 0.034874182828193455
0.03733879772413532 -0.04192819293024126 0.031353050155355305 0.04498241278043016 -0.13915918789960835 0.042720399955926795 -0.13146397570205975 0.16953746546497267
0.057223955142903495 0.030589643757311092 0.02678350564629783 -0.018322791659238585 0.019172256875724953 0.10718749482453395 0.00017228501895252674 -0.00047869632409565865
0.001312749493821062 0.000725372127329064 0.0012345164855947343 -0.00032118476661472024 5.1318069324852146e-05 0.0009206425675040643 0.0005228168678762312 -0.001801288948442518
-0.00015897233698888757 -6.672444981358767e-05 0.00013380064800844505 -0.0007002963827356824 0.00017333289144453405 -0.00045472479886397545 -2.1524755936672355e-05 2.9248132132140094e-05
-2.8732311172248757e-05 -0.00015096145736970973 -0.0051004319130552945 0.016338700213258516 -0.029064702195568514 0.02798798952307804 -0.0326580322795045 0.018156688765585197
0.010002852443051434 -0.017778296659776913 0.02418703647426319 0.0389769889551737 -0.0045157161894178914 0.0011488360791674656 -0.004982168750718012 0.002712945341151528
-0.002326119423830363 0.005409581390074938 0.0005234026053574694 -0.005469366773776147 0.002121242685452916 0.0072210278035939 -0.022215685838675548 -0.12876479417358172
0.07400184909558381 0.007940663344680294 -0.10008457657977514 0.05757184402879435 -0.10092476019022834 0.018681456415988368 -0.028945329492444827 -0.09836451076143182
-0.2117544471727166 -0.16086792427038477 -0.16372908778077258 0.06139446649473194 -0.06511684789009399 0.08395265738294413 0.0943280389946641 -0.13746372200478454
0.11733129525696834 0.1470595572078336 -0.008483945171286682 -0.041197673526027004 0.08472633988014593 0.040058383526517534 0.0233174567975104 -0.015740492675567087
-0.004176637491047206 0.020963664075892844 -0.00013272046076174155 -0.02166300049639977 -0.00030731799624632034 -0.00496359502611255 0.004635600144803854 -0.0020919720713847294
-0.0013370937590982104 0.0009113921245852448 0.0003878810612774495 0.0020229716942133887 0.0033850972542905284 -0.001988307338167046 -0.03643036365616498 0.033659283705685564
-0.04318311449292594 0.03927185512549613 0.01640419120346721 0.03872021172346631 -0.005804461180138694 -0.04203649794954343 0.01690668254544478 0.04288268351952791
-0.15054896730362607 0.08241869963628891 -0.12322831436787397 0.21873651342317715 0.053126818211534706 0.037025920326374376 0.05677399812091027 -0.08855020026884958
-0.0361967100128407 0.32332424514424846 -0.05559504682539348 0.004669957888005938 -0.17448950313028105 -0.050527364496992334 -0.04472251453444821 0.10607365211303514
0.040951354337478096 -0.20347718889939226 -0.021170688443855907 0.20829545856968737 -0.1199735576286191 0.14126181437154808 -0.19361151952185524 0.0962344470024818
0.01918382366125896 0.04829358241662023 -0.10099037216178283 -0.0876904281284168 0.019358349331121356 0.10040194419045104 0.03311253838748034 0.027841546712048793
0.02069498974812932 -0.0002902259032980455 0.0295301352239731 -0.013692441887845262 -0.013063046513230711 0.030934291559329287 -0.028436920787005944 -0.041966427262444456
-0.06445294948299699 -0.057918105167787205 -0.06247677095534673 -0.025659934196855458 -0.05154171383712844 0.05846446702071576 0.05063673298312731 -0.0632119200966446
0.052005096079379816 0.06723623497968202 -0.0004946353174867921 -0.0010672595857608874 -0.0006689954365379928 -0.000276765142127567 0.0004833796018451403 0.00024538712058641527
00000000: b742 f609 2624 b5bf de81 3fdc cc0f a63f
00000010: f5cc 37f3 40cf bcbf 05ac 151f 1e61 b53f
00000020: 9716 f30c b20b 783f ff81 6407 f998 b83f
00000030: 61b6 872e 2d1b 93bf c579 e843 e7de b9bf
00000040: e661 7a7e dc47 863f c2f3 49ed 89a5 ba3f
00000050: f5ad ee15 efca b3bf d0c5 843c b7b5 bfbf
00000060: cf1c 1f00 e030 673f 3fe4 d3d7 e5cb b73f
00000070: 8f83 c0f7 22bc c4bf d65a 596c b1df c3bf
00000080: fa3d 4909 e5c1 b93f 3942 b733 9ab2 57bf
00000090: 6ba2 7d5a 861e a43f 32db 157c c5a7 8cbf
000000a0: 5548 80bd b5a5 c8bf 8ebf d535 455e b63f
000000b0: 18e3 365f de76 d1bf 4137 b185 e647 ca3f
000000c0: ea38 10ae 5396 9f3f fd9d 7ef1 dea0 c33f
000000d0: 2462 4ae8 ec26 b4bf 4903 f45a 6356 d5bf
000000e0: 643f f8c1 38c4 c1bf 52c9 b36b d77f d33f
000000f0: 2dcf 49c7 b616 c3bf 9f07 6b38 d18b d83f
00000100: b351 7acc f3d5 d7bf c03f 6989 c9fb d63f
00000110: e3a1 1855 4482 c33f 43bc 6395 9140 df3f
00000120: 3d03 6f61 b60a b6bf caa6 004f 699c b8bf
00000130: 95f7 84a0 a987 d13f ae5c 2fea e7c0 d13f
00000140: 2d74 eeb9 913f bebf cec1 a3cc 8ffb c0bf
00000150: cce8 a954 6304 c2bf 9427 ecd1 b63d bd3f
00000160: 06ce 4716 1dcd c1bf d151 6a88 44a3 c33f
00000170: 19d0 dd69 f610 813f 275e 844c 571a b5bf
00000180: 689b 1722 c92e b43f fd44 94de e207 b2bf
00000190: fc09 4ce6 dd34 9fbf 7338 7a27 5f74 a7bf
000001a0: c9ae b897 59d0 a6bf 1636 45ae ba75 bbbf
000001b0: 8138 5e19 5d4a b1bf 40f5 3ab2 987a a7bf
000001c0: 7804 6b6b c625 913f 0b48 f5f9 dfde 83bf
000001d0: aadf 4539 fe23 b03f 1da0 8ad1 b894 933f
000001e0: d6e5 1c61 fb01 acbf ce30 4da3 7c97 ca3f
000001f0: defa 42a3 ba0b 8fbf b3a9 76c0 c185 c93f
00000200: c67d 53df e30a c03f 160a 7af9 dc90 b1bf
00000210: 2e95 a72f f17f b0bf c1a0 a7b3 c923 babf
00000220: be2a 2a9b cf89 c2bf f714 8acd fa69 9ebf
00000230: 967d 4436 7ca9 42bf d975 be89 1086 44bf
00000240: 1608 b268 5399 4fbf 77cb 55ab 50e0 3abf
00000250: 9ba1 0f48 25b0 4e3f 9c45 3c46 5287 313f
00000260: 852b d4cc 6946 253f 7703 3028 6b34 49bf
00000270: 1ffd 4bdf 7505 3d3f 9ada e034 5cf3 473f
00000280: bcc5 1ab8 3f6c ee3e cbff 2d84 b87c fe3e
00000290: 362b f00c ac35 063f 58a0 8e37 9df7 f83e
000002a0: e44c 26db db25 153f 0e29 04c2 d34f b93e
000002b0: d04f 32a6 c415 f6be 4ebb 1deb 529a cfbe
000002c0: 1b3e 3ea0 37c1 01bf 1a26 74e5 56b7 e93e
000002d0: 7786 e538 1f62 a6bf aba4 8218 123e aabf
000002e0: 6cbb d448 1b55 92bf 1a7c 83e0 ab1d 9cbf
000002f0: 2988 6587 f1e6 9ebf d391 7165 07db a13f
00000300: c5b9 3126 121e a33f 1adf d4b2 9c77 a5bf
00000310: 541d 18ca 810d a03f 6301 934f ef07 a73f
00000320: 08be 7be0 f7cf c1bf cf90 5dc1 72df a53f
00000330: c209 1fc2 cfd3 c0bf 6a34 cf56 67b3 c53f
00000340: c5e8 c54f 754c ad3f 9dc1 223e e452 9f3f
00000350: 9fd5 4aa3 226d 9b3f 8899 cabb 35c3 92bf
00000360: 9545 1661 e4a1 933f 41c1 cfc0 a370 bb3f
00000370: c983 420b ed94 263f 5a4d 840e 315f 3fbf
00000380: 5e0d 3409 1282 553f ef40 3bc8 dcc4 473f
00000390: b8ec a5fb ef39 543f 24b2 8e11 960c 35bf
000003a0: 8263 806f cbe7 0a3f c485 ffdb e82a 4e3f
000003b0: 3db3 b6ac b421 413f 4401 f347 2783 5dbf
000003c0: df2b 07fa 39d6 24bf 633e b551 cd7d 11bf
000003d0: 7318 94d0 9a89 213f 9b8a da07 83f2 46bf
000003e0: ef14 3d33 16b8 263f c7fe c923 04cd 3dbf
000003f0: 74a3 fff6 0192 f6be d396 eb55 3cab fe3e
00000400: 28d5 a063 c520 febe 04b1 720b 6dc9 23bf
00000410: 6958 31c4 30e4 74bf 53e5 4c9c 17bb 903f
00000420: 337f 9725 23c3 9dbf e7c9 ba2e e2a8 9c3f
00000430: c332 2fb9 8db8 a0bf e4ae cec1 aa97 923f
00000440: 3f80 e020 607c 843f 5ce7 ed4a 7934 92bf
00000450: 1394 938a 7cc4 983f 07d2 b7b9 caf4 a33f
00000460: 5505 a055 127f 72bf 8501 dd58 91d2 523f
00000470: 924e 8fbd 2e68 74bf 17bd 8370 7539 663f
00000480: 641b 43db 390e 63bf dc9b 7c72 5b28 763f
00000490: 2ba5 4c89 9e26 413f d46a c5f6 0b67 76bf
000004a0: 49b0 bf7e 9160 613f 7bb9 28e4 cb93 7d3f
000004b0: cd91 8a70 b5bf 96bf aa04 ed61 5d7b c0bf
000004c0: ef84 b501 c9f1 b23f 5dd8 fdca 3143 803f
000004d0: 1380 3e8f 249f b9bf d254 8c86 0e7a ad3f
000004e0: 10a9 5f80 34d6 b9bf d8ad 6451 3b21 933f
000004f0: b000 2b2e d8a3 9dbf 18b1 cea4 6a2e b9bf
00000500: 1fd7 b10c c51a cbbf 10bd dbf4 5197 c4bf
00000510: f50e b622 13f5 c4bf a51f 8073 186f af3f
00000520: 8947 1b6c 7fab b0bf e23d dfdd eb7d b53f
00000530: eef0 93e2 e125 b83f 69d0 3247 6998 c1bf
00000540: 440e ed7b 6c09 be3f 2ccd 62fa d8d2 c23f
00000550: 36f3 69d8 0760 81bf 525f ee88 dc17 a5bf
00000560: 331f e51a a0b0 b53f 19a2 5a4e 8882 a43f
00000570: de1b 7c09 88e0 973f fdd5 0e95 461e 90bf
00000580: d795 e696 851b 71bf d1ef 70ae 7f77 953f
00000590: a2e0 b313 5c65 21bf 383c a95a d32e 96bf
000005a0: d032 4cbe f023 34bf 8782 ece4 b454 74bf
000005b0: 41e9 4e70 c7fc 723f 810b 2ff4 2e23 61bf
000005c0: 7788 e37d 2de8 55bf 1bf4 38af 4fdd 4d3f
000005d0: 1b93 1179 906b 393f f560 8ea8 7a92 603f
000005e0: 6dd7 0740 10bb 6b3f 4306 bd5f c849 60bf
000005f0: 881f f828 00a7 a2bf 6a06 7225 ca3b a13f
00000600: d71b f9e0 181c a6bf 8fa2 d5ca 701b a43f
00000610: 53e4 f1a2 42cc 903f b3cc 17b6 22d3 a33f
00000620: 2297 082f 6bc6 77bf 8d02 ddcf ce85 a5bf
00000630: 1856 7742 fc4f 913f 1aeb 8f16 b8f4 a53f
00000640: bb00 8245 3045 c3bf f946 8453 6419 b53f
00000650: b9b6 260c e48b bfbf 71fb cbdd 8eff cb3f
00000660: f9a5 8435 7033 ab3f aae9 cfb9 0ff5 a23f
00000670: 178c 6242 7b11 ad3f 5c7e 35d6 39ab b6bf
00000680: 69b5 740b 6088 a2bf f17f b92c 58b1 d43f
00000690: eb8a de37 f476 acbf 7363 7146 ce20 733f
000006a0: e64c b80a ac55 c6bf 7da3 2204 b9de a9bf
000006b0: 9203 a492 dee5 a6bf cbf2 ca92 a427 bb3f
000006c0: f076 366f 93f7 a43f 1807 e75f 8a0b cabf
000006d0: 952b 00da c4ad 95bf 1527 3bf3 6ca9 ca3f
000006e0: 1b52 664a 96b6 bebf 4120 73fc dd14 c23f
000006f0: 76d4 3c24 43c8 c8bf 6cd2 9f1a d2a2 b83f
00000700: ca08 f39c eca4 933f a710 2cba efb9 a83f
00000710: 4e4e a549 81da b9bf 93d9 fb40 e172 b6bf
00000720: 8278 20d5 acd2 933f cab7 c01a f1b3 b93f
00000730: 776d ec6a 20f4 a03f 4daa 6492 7e82 9c3f
00000740: dc17 a340 1131 953f 7ea5 5bc3 2e05 33bf
00000750: 6739 22d4 253d 9e3f 0caa e270 c80a 8cbf
00000760: a5ce 7b6c ccc0 8abf 6afb 492a 3dad 9f3f
00000770: 12d5 1d73 911e 9dbf fc8b 3ea1 9f7c a5bf
00000780: aa03 290e fd7f b0bf 7578 151f 71a7 adbf
00000790: 6c9a 0690 f4fc afbf 6ca3 c508 9946 9abf
000007a0: 0cda 9eee ac63 aabf c501 aafb 0def ad3f
000007b0: ef12 47d0 0eed a93f e34e 8809 a82e b0bf
000007c0: b9c5 c575 69a0 aa3f 310a 58d6 6436 b13f
000007d0: 6eee 8a41 4d35 40bf 4a91 1941 697c 51bf
000007e0: 8988 b3c2 f0eb 45bf a6ad ee3b 5923 32bf
000007f0: 5cc4 db94 c3ad 3f3f fb27 64a8 e914 303f

cho_elements_module.bias f8 [45]
0.11292191551421853 0.08653039279910923 0.27450764500291713 -0.10404521760543797 0.0016698239932707226 0.16337049885905347 0.17128300784517894 -0.007533577437227163
1.4763019039175578e-05 0.08916848833426998 0.11147873044631507 0.002918668702339777 0.006232167267079853 0.1431833025467239 0.00703166155282104 -0.11472423573820138
0.10278782508296769 -0.054108546194085595 -0.014268645735659643 0.038214099739418084 -0.02778444441642181 0.15454413472037803 0.22328617412708093 0.05635551046170372
0.05583167784386361 -0.005687332921537931 -0.006715700120638417 0.00937206593842633 0.18983531410021856 -0.06661268717351027 -0.11461124474537797 0.0836764819616761
0.04773778887442766 0.016185679055370304 0.10404489966566857 -0.013007669298366898 0.08703251905255413 0.1483336362345162 0.004592225083135325 0.02380351096533309
0.01436250123114374 0.029159116919727546 -0.0037796342100701132 0.005096581073702981 0.14351778736109166
00000000: 539f 225e 73e8 bc3f 30a5 2e17 db26 b63f
00000010: 4887 7283 8891 d13f caa9 eb16 b5a2 babf
00000020: 5c31 3cdc bf5b 5b3f 2a8c dd12 53e9 c43f
00000030: 6d1c 8702 9aec c53f 07b7 6f4b 87db 7ebf
00000040: ac63 07e3 d5f5 ee3e 0bbd 3afd bed3 b63f
00000050: 086e 77bd de89 bc3f b326 fb53 e4e8 673f
00000060: 6e63 86a9 e686 793f f6be e298 d453 c23f
00000070: 4798 7e46 3bcd 7c3f 0bde 8d48 915e bdbf
00000080: 5087 288b 4d50 ba3f 65e7 ac88 1db4 abbf
00000090: 31cb 5736 e138 8dbf c8f6 4069 cc90 a33f
000000a0: 619b 6c80 8673 9cbf 72d1 342a 1ac8 c33f
000000b0: cb2b c32f a494 cc3f 5fca c324 a1da ac3f
000000c0: b724 d73c f895 ac3f 2e3a 64ce 994b 77bf
000000d0: 2bc7 3406 ec81 7bbf 45aa 9c65 a931 833f
000000e0: 8bd9 d708 864c c83f 04ae e870 870d b1bf
000000f0: 8f6c ef9b 2957 bdbf 6840 7869 d26b b53f
00000100: 7a7f ff63 1671 a83f 0952 d388 fa92 903f
00000110: 9a30 61c1 afa2 ba3f e78d ded1 c3a3 8abf
00000120: 66eb 045f c347 b63f af12 43ba 98fc c23f
00000130: b259 c408 4ccf 723f e81b 8194 f25f 983f
00000140: 9eb7 9c48 166a 8d3f 6dae 3336 e3db 9d3f
00000150: 15c9 56aa 77f6 6ebf 4508 8710 27e0 743f
00000160: 141a 8e75 ca5e c23f

cho_diag_hidden.weight f8 [10, 10]
0.038123245683965176 0.0611049691413318 0.10258700205870767 0.1148702263573491 0.15766810011925747 0.2634012856398479 -0.09452463779022853 -0.15419167119056446
-0.039944022581128544 0.07001526956402306 0.24846017554775032 0.014693159591060222 -0.010065543254384784 -0.11224609453252235 0.0696638596728925 0.17307794465590456
0.008564671489943922 -0.11465754951581295 0.016060124005773294 -0.11816811908521371 -0.25689056068432053 -0.22214017081624163 -0.13143969409945513 -0.046471337731293215
-0.21428986822938226 -0.2717596834131794 -0.14949579470710647 0.08106060811822297 -0.2560264513073898 -0.07570379754300631 -0.013025090583826148 -0.06109577395070865
-0.061877082868117474 -0.09371103757513183 -0.09949263042905077 -0.08998082465129432 0.027937479295078754 -0.08621535949387843 -0.04581560392707639 -0.1714665916322393
0.05910958282824336 0.1136633455935414 0.2952126915281224 0.159012725801262 -0.0672340160960156 0.14147187334606934 0.06744615976766404 0.20140740496730908
-0.10328454084999247 0.18049680365911377 0.1719327379234123 0.22458126801336198 0.05010094375837415 0.012705435403157874 -0.10244078595697813 0.007879997524399137
-0.04938022832915504 -0.3866054229552451 0.1018175337545727 -0.06234937505425843 -0.17956101268978622 0.05122514483379013 -0.12374293517799406 -0.12783643432718703
-0.3639403317259824 -0.2307006547871812 0.23671403179992065 -0.08380029231612883 0.006378494379849572 -0.1899659692525357 -0.1908990798490081 0.044909737959356426
-0.08396076225390117 0.03001708804264636 -0.07334751777449183 -0.04622917442969953 -0.19679036297238212 0.11623530802291411 0.011303642806422359 0.053032297546818714
-0.021420371969173888 0.1454125485563913 -0.047090083358663715 0.07974380134406785 -0.34345487456497203 -0.11873670953478145 0.21066223195699693 0.1381154668089009
-0.28747505884190777 0.04656725618142246 0.22285842085481117 0.20226750062552012 -0.1041811084202617 0.0010603556964944537 0.11153438710424834 0.14923682746405628
0.3640991559088684 0.03840671568712289 -0.3618599875758599 -0.3187106063694657
00000000: 6e29 dcda e384 a33f 7293 2b88 2649 af3f
00000010: c33a d64a 2443 ba3f 9f2a 7d99 2268 bd3f
00000020: b03c d1e2 772e c43f 420a e310 91db d03f
00000030: c5ab f943 c432 b8bf a11e 8a7c 8dbc c3bf
00000040: 2632 50fd 8a73 a4bf b183 ff4c 85ec b13f
00000050: 4302 2b04 8bcd cf3f 061d 597f 7217 8e3f
00000060: 76a0 c058 3e9d 84bf d2f3 1ef9 28bc bcbf
00000070: d319 029f 7dd5 b13f 795e fa07 6b27 c63f
00000080: 1433 9abf 5a8a 813f 56f0 6879 325a bdbf
00000090: 247d 7fad 1072 903f 8e9c e60e 4440 bebf
000000a0: 9f93 321b e570 d0bf 614d 64d0 166f ccbf
000000b0: f1d5 c611 04d3 c0bf 93b9 8357 17cb a7bf
000000c0: 7565 f4b3 d96d cbbf fb60 28ba 8264 d1bf
000000d0: e709 949e ad22 c3bf 6c94 dc54 63c0 b43f
000000e0: ddac d1c4 bc62 d0bf eb55 a1f6 5261 b3bf
000000f0: 3305 ae10 e6ac 8abf 718e 15fe f147 afbf
00000100: 65b5 945e 5aae afbf a4cf a851 72fd b7bf
00000110: f8c2 e259 5978 b9bf b1f8 24bb fb08 b7bf
00000120: e8c2 9e7f a49b 9c3f 4468 70b5 3512 b6bf
00000130: efcc 0691 2475 a7bf 0f62 b505 9ef2 c5bf
00000140: c848 417a 9c43 ae3f 4f05 1480 0a19 bd3f
00000150: 158e dec5 c3e4 d23f 136c 7b6c 875a c43f
00000160: dda5 4f9c 3f36 b1bf dfa0 a916 c01b c23f
00000170: 6b62 71ca 2644 b13f 7edf c0c4 b7c7 c93f
00000180: 6e12 220d db70 babf 73cc 5fee 841a c73f
00000190: e613 3f57 e401 c63f 54af b438 14bf cc3f
000001a0: 80c4 e1b5 d4a6 a93f dbd4 4dac 4e05 8a3f
000001b0: b735 7631 8f39 babf 3162 475d 6323 803f
000001c0: 9547 7c83 5d48 a9bf 3b23 03ac 24be d8bf
000001d0: c8a0 a2c1 b610 ba3f b272 91dd 41ec afbf
000001e0: b1d3 91f2 dafb c6bf 1d86 96a3 2e3a aa3f
000001f0: 1856 b3f3 9dad bfbf 2315 56bc f15c c0bf
00000200: d457 9d63 cc4a d7bf 7505 bd5b 9987 cdbf
00000210: 13e0 8a38 a54c ce3f 879c e49a ef73 b5bf
00000220: 5693 250c 5620 7a3f 5773 a50c ce50 c8bf
00000230: 9cdc 648c 616f c8bf 075f 9dbf 68fe a63f
00000240: c219 07d8 737e b5bf 6176 dbad ccbc 9e3f
00000250: 848f 1526 e7c6 b2bf 0fe1 97b0 59ab a7bf
00000260: 6632 9136 6d30 c9bf ad51 99de 98c1 bd3f
00000270: 761a 6f41 5d26 873f c1ce 309f 0c27 ab3f
00000280: 3c93 4dd4 38ef 95bf b025 3dde e09c c23f
00000290: 7095 fbff 301c a8bf addc d4fa 166a b43f
000002a0: 3222 7a27 2afb d5bf 895a 496c 8765 bebf
000002b0: 43fb 60e2 faf6 ca3f 620c 8282 c4ad c13f
000002c0: 1d11 09ca fd65 d2bf 1432 bad4 a9d7 a73f
000002d0: c6d4 9aee 9f86 cc3f 7079 1dc6 e6e3 c93f
000002e0: 7dab 86f5 9cab babf 6bf2 7742 745f 513f
000002f0: 98fd fd80 848d bc3f b790 a83e 311a c33f
00000300: 8f4e c88b 664d d73f 675b a587 0baa a33f
00000310: 5ca2 17cb b628 d7bf 1ab1 cf2b c165 d4bf

cho_diag_hidden.bias f8 [10]
-0.19440547674455766 -0.32945566116532143 0.07803897733737447 -0.21277681213694866 0.13376934003460966 -0.21853463178034407 -0.0480544405525798 0.04463802940309093
-0.04691420571163765 0.10403170583653591
00000000: 2cfd 6356 47e2 c8bf a8f9 8b32 cd15 d5bf
00000010: e430 7ac7 5cfa b33f a0d7 bc44 453c cbbf
00000020: cafc 538e 5a1f c13f 111e 455c f1f8 cbbf
00000030: 01aa 3375 979a a8bf 3269 e3b8 cbda a63f
00000040: 44a4 7f86 2305 a8bf c3a4 5066 d2a1 ba3f
