news_results/worst_new/bi/0.3/29/5_trained_linear.pth (torch, 2807 bytes, 4 tensors)

linear_mean.weight f8 [2, 4]
-0.4215412967000966 0.013439797273501067 -0.08191332050971456 -0.00970255627595926 0.03096121353568666 -0.39804329568182517 -0.06525626025497239 -0.13068439315460859
00000000: db61 cf58 88fa dabf 3555 090e 5386 8b3f
00000010: 682c b278 45f8 b4bf b28b 240f efde 83bf
00000020: 332c 52de 4bb4 9f3f a01c 5696 8a79 d9bf
00000030: dc84 a75f a2b4 b0bf d52b 5925 44ba c0bf

linear_mean.bias f8 [2]
5.855977126840154 7.136700992260014
00000000: 2a9c 9744 856c 1740 9c59 4c58 fb8b 1c40

linear_cov.weight f8 [4, 4]
0.0061679579453572265 0.0038608961977148475 0.0013313443118958322 0.004741946641058958 -0.004935567313821145 -0.002713381669529589 0.0014122324882169563 -0.003921009757616276
-0.005828986988628436 -0.0071162765607590515 -0.00569233535740393 -0.007553311972072004 0.006338223300718015 0.007034140639097596 0.00621444198391371 0.007311999477285956
00000000: b2db 889a 9243 793f 81c1 e0dc e2a0 6f3f
00000010: 992f e011 10d0 553f e633 e29b 4a6c 733f
00000020: e97a 3343 5137 74bf c8be 07b1 5f3a 66bf
00000030: 92b9 7a16 5523 573f bdf4 d10a 7a0f 70bf
00000040: 7e6e c2c7 22e0 77bf dc63 90f1 f425 7dbf
00000050: 3da8 2aa3 d850 77bf 9534 58be 38f0 7ebf
00000060: a648 a9dc 1bf6 793f 9997 01c0 d4cf 7c3f
00000070: 5a3d 5791 5074 793f 4b16 f9e9 2ff3 7d3f

linear_cov.bias f8 [4]
1.7964699774013617 -0.17148913379463318 -0.17268478737993487 1.6631266232435615
00000000: 90f4 924d 57be fc3f 7937 a21e 5bf3 c5bf
00000010: e021 28fd 881a c6bf 1702 7fa9 2a9c fa3f
