inv_results/2025-05-01/04-36-13/3/2_trained_linear.pth (torch, 46829 bytes, 2 tensors)

linear.weight f8 [110, 50]
-0.0013094496228534308 0.0006898243325662255 -0.0014124488817718025 -0.0005103366539024633 0.00033001735805463596 0.0021512313186937662 -0.00035393598220137545 0.0026292921950354198
-0.0006888314493910296 0.0021488707304963693 -0.0012238931451310352 -0.0006401209230769652 0.001830916290276152 -0.0006176651106559272 -0.00033647898805327784 0.0015831399680410572
-0.0007786733445556249 0.001992425264409875 -0.0014857375000251285 0.0013410140892148245 0.0014625972023896282 0.000914016627788482 -0.0007315707082792448 -3.2593403654140194e-05
-0.00035476179602471006 0.0013776107343276044 -0.0013728202523243024 -0.0015886171824397073 0.001885005435512712 0.00020709887118598128 0.0014969354270599421 0.0009836546678936634
-0.00048136870362911496 0.0008514325994321517 -0.0002980367440933637 0.00012233833885370065 -0.0014488418665885765 -0.00028334561547095996 -0.0006717657852338425 5.8986727948240445e-05
0.002724495942530213 0.0033315043690494983 0.003279366912919046 0.0033593337378105036 0.002406846971385451 0.003663954178111437 0.003717797171982404 0.00195360499677543
0.003417332337800033 0.003095199919933147 -0.0003096153255038704 -0.0017456259166249634 -0.0017288195018191957 -0.0005016121858878274 1.7054400240658514e-05 0.0009624403272100797
0.00013459108521226705 0.004690950981806764 -0.0016362539819315632 0.0007734505793431184 -0.0016531118876567255 -0.0021737697964172133 0.0009653119981573396 -0.0005185430250251116
-9.798348846485431e-05 0.0013352675644053482 -0.000262059794291712 0.0007371289545741991 -0.0019103829878560808 0.0019133464166490087 0.0005390135633133654 0.002300469010767385
-0.001267482994154321 0.0008878493903693498 -0.00023256534825075233 0.001496504747875379 -0.0009079965948959167 -0.0017141748891024797 0.00246228730806229 -0.001461654428128013
0.0023836149679628154 -3.120663397373052e-05 0.00032760049712594116 0.0002043164847793535 -0.0007456012837137771 -0.0009328954000072145 -0.002248167304132017 -0.00024487958190769096
-0.00240785598202243 -0.000566164705768812 0.00138599858863549 0.0018346288864963636 0.0017239704774269708 0.0019517308179879277 0.0011040295745626452 0.0022815468664375564
0.0021897137647967704 0.0010914822302725323 0.0019741161955251314 0.0018328211347715027 -0.0010990964015951037 0.0012101839057700671 -0.0017695018541844109 0.0002510578493222131
0.0014898208683348842 0.002396311242571751 -1.6248934303333726e-05 0.0015106021743227498 -0.00033624008177221017 0.0018640896324967236 -0.0020281802859845335 0.0006344866981152847
0.0012924204934299686 0.00031683412604803453 0.0016583893477753865 0.0013761616226984318 0.0005009576325967846 0.002221458053276295 -0.0009161526437487492 -4.721229375884046e-05
0.000781019024561446 0.001184796599093542 -6.897777805586878e-05 0.0012930233146304572 -0.00010517391328044399 0.0023381864840182833 -0.0011665638898124477 -0.0015348956054923562
0.0013964136950071198 4.616126187961737e-05 0.002312364201711392 0.002275918564815507 -0.0016085900816435923 0.0018334687021312492 -2.9118416270076154e-06 0.0007068843442216662
0.00011963959135678832 -0.0004713358279289488 -0.0009159011190200974 -0.00033045850439508115 0.001490924434737372 0.0019070127375350192 0.0019262470053048502 0.0018907612365598385
0.0013888713225656598 0.0020206879176951982 0.002229710170464216 0.0010466561462350217 0.0019638278347377477 0.0016959102461092173 7.19561322016373e-05 -2.822326710416286e-05
0.0010122475929874827 -0.0008926253830244204 0.00010965371856652768 0.00016629759985669146 0.00044179213258734013 -0.0003188414600493349 -7.794517092975784e-05 -3.280759607458291e-05
0.0005082853962347509 -4.510843946155904e-05 -6.892250929830449e-05 0.00032611724556383555 -0.00064213860792957 -0.00012998346848385164 -0.00012806719830588456 7.324649601263967e-06
0.0005722564855635681 0.00041008571409215143 0.0005090993575487645 -0.000582290522876785 -0.0006600832723598511 0.0002510275129908539 -0.0003523505417401885 9.035963834752457e-05
0.00018521910538205917 -7.123561226739567e-05 0.000635834729610333 0.0003330112761304105 -8.061234387364514e-05 -0.00015131557692549163 -0.00019995201930010458 0.00018942976272261284
-0.00028577365239933596 8.219409737662457e-05 0.00038645672087012686 -2.624538902813751e-06 0.0006773396915452819 0.0003391811265108048 0.0006736720668123076 0.0008053175822936316
0.0006543427298529823 0.0007992043843108443 0.0005859647392338652 0.0008531238805377424 0.0008730237781471338 0.0005973866229179326 0.0007801293482564663 0.0007615255069088269
-0.0006896092284906663 0.0013635826346065768 -0.0015937864512659493 0.00028616500088483437 0.0006373568397638935 0.0018441607745218738 -0.0007566026262199432 0.0023968365765387376
-0.0004063623802382668 0.0015704824082217142 -0.001075813936301456 -0.0018726076086370783 0.0035102760319074685 -0.0012847407838646827 0.0002959901253982234 0.0018510249192461323
-0.00042852538093780167 0.000997836376826364 -0.001972466454197415 0.0021341436800410736 -0.00015433597998775982 0.0023678221339009983 -0.001358914276809743 -0.0008170500864339869
-0.0008151783893214682 -0.00025239800151973137 -0.0016781976520900668 -0.0032469898629426982 0.0030416611811018364 -0.00023862168842048214 0.001417693513341897 0.00034909001859540384
-0.0007538385690735372 -0.00012314975157583002 -0.0006224821886398025 -4.2507548283310183e-05 -0.001484396805790821 0.0005507157498328644 -0.0001864618296484913 0.00031260126676920663
0.002990610263640951 0.0038900274809595932 0.003756096186276629 0.0036807323602108056 0.0025616627355414994 0.00444988689520692 0.004247540069105348 0.0023704919944649077
0.004002796896164509 0.00356857035288511 -0.0012952471961784116 -0.001354385857104779 -0.0005215123152181118 6.714777530790017e-05 -0.0004993753501380397 -0.00044506930955051535
00000000: 971c 94d3 3a74 55bf d6c2 6379 aa9a 463f
00000010: 746d 4970 3d24 57bf 1ee5 859e 03b9 40bf
00000020: 778a 8cc2 c5a0 353f f911 1e85 759f 613f
00000030: 0032 eb77 0f32 37bf 5763 a87f 068a 653f
00000040: 2874 1746 5692 46bf a195 5830 829a 613f
00000050: bd85 0e42 610d 54bf d48b 0d37 b9f9 44bf
00000060: ff28 a965 6bff 5d3f 526e 9eb9 593d 44bf
00000070: e6eb dd3f 2e0d 36bf 2d84 d098 2bf0 593f
00000080: 6700 4a46 fc83 49bf c02f 362b 6b52 603f
00000090: 2a6e 467e a257 58bf e099 06ea 9ef8 553f
000000a0: 3dec b1c9 93f6 573f 29f5 1dc3 53f3 4d3f
000000b0: 9d8c 2522 dcf8 47bf cfc2 73d2 9c16 01bf
000000c0: c1e2 d14f ea3f 37bf 944d 3c43 1e92 563f
000000d0: 98b9 9185 067e 56bf 5557 0bb6 2407 5abf
000000e0: a319 b12c 49e2 5e3f 24c1 efc1 1525 2b3f
000000f0: 6643 052d 9a86 583f 9b2c 4428 bf1d 503f
00000100: 6a3e e3d6 068c 3fbf d9ed ab95 55e6 4b3f
00000110: 6b99 a211 3a88 33bf db54 2f54 fe08 203f
00000120: 59dc c71b e2bc 57bf 44c1 e326 c091 32bf
00000130: 0edb 000a 2e03 46bf 10c0 1b8a 10ed 0e3f
00000140: fe7e 149f ae51 663f 0035 f8c9 ab4a 6b3f
00000150: b3f2 8fb4 54dd 6a3f 0ab1 4991 0885 6b3f
00000160: a61a ea20 86b7 633f 7b1a cf6b de03 6e3f
00000170: 14d6 8928 c974 6e3f ee25 41b2 0101 603f
00000180: c05a 2c54 aafe 6b3f 3840 c8cd 1a5b 693f
00000190: cf76 87b2 7b4a 34bf dde1 448e af99 5cbf
000001a0: 1bdf 24ce 3153 5cbf 5b47 82f7 d36f 40bf
000001b0: 63db e875 01e2 f13e 3a6d 67dd 8889 4f3f
000001c0: 692b 5f9e 20a4 213f 342e dd90 d136 733f
000001d0: ea39 c855 f2ce 5abf 4cb9 bf78 2c58 493f
000001e0: 4492 9f5f a715 5bbf 9a9b e8c5 b9ce 61bf
000001f0: 4fed 33bb 9fa1 4f3f 4d35 c2aa dafd 40bf
00000200: deb1 9683 8faf 19bf 585f 50a1 84e0 553f
00000210: 170f ff3e a22c 31bf eec2 5c60 7c27 483f
00000220: 52ce 291d ba4c 5fbf 996c 4412 2859 5f3f
00000230: ba2d 32d0 92a9 413f bdaa 55e5 6ed8 623f
00000240: 5d2f 8580 35c4 54bf 3564 360c d217 4d3f
00000250: 172c 3d21 997b 2ebf f1e6 d3bc cb84 583f
00000260: 70d7 08d7 d3c0 4dbf 2807 a745 c515 5cbf
00000270: dd78 c46e ca2b 643f 0517 e17d 9ff2 57bf
00000280: 2550 ad8a cd86 633f 45ca 57c7 7b5c 00bf
00000290: 72ec da6b 3978 353f 46be 853d b9c7 2a3f
000002a0: a462 9090 8e6e 48bf 2141 e79d b191 4ebf
000002b0: f886 82a1 bf6a 62bf eb61 b6cb 650c 30bf
000002c0: 12cc 47d6 a3b9 63bf fc55 9d72 558d 42bf
000002d0: 4e4b 12a7 4cb5 563f afd0 56c4 fd0e 5e3f
000002e0: 5ee7 7734 db3e 5c3f c7a7 2a02 27fa 5f3f
000002f0: 58f9 a8ba a216 523f 01d9 9e25 c0b0 623f
00000300: 90a5 3ca0 29f0 613f 9483 ec1e 02e2 513f
00000310: 16f2 f18f 052c 603f d626 54b5 6807 5e3f
00000320: d96f 66c6 f101 52bf 620f 0913 e1d3 533f
00000330: 4201 0326 d4fd 5cbf 50ff 9240 0d74 303f
00000340: 1867 02fa c268 583f bc4b 5fcd 6da1 633f
00000350: 54a9 4943 ca09 f1be fd23 e7bb ecbf 583f
00000360: 9d05 a227 2c09 36bf cc65 8900 8f8a 5e3f
00000370: 4350 f5ff 669d 60bf 439c 1fcf 75ca 443f
00000380: cc24 20f0 cd2c 553f f682 aa35 98c3 343f
00000390: b991 d000 ca2b 5b3f f0c8 764a 0a8c 563f
000003a0: 481a 0853 566a 403f 9f34 0636 bc32 623f
000003b0: e54a 4fd2 3e05 4ebf 66cf b10f bac0 08bf
000003c0: 9281 8295 a997 493f 072e 50a9 6569 533f
000003d0: 5950 1f34 0515 12bf 5dfc 5a36 552f 553f
000003e0: e2b9 5c12 1a92 1bbf f1c6 624f 8827 633f
000003f0: dd1c 5970 ec1c 53bf f34f 6a9b d125 59bf
00000400: 7d24 b6c9 fbe0 563f 93ff 83e1 a833 083f
00000410: 99e8 ed13 61f1 623f 6c59 bc79 f2a4 623f
00000420: d5e7 c572 ea5a 5abf 0b07 4a07 200a 5e3f
00000430: c1d3 12dd 216d c8be de75 fb91 c629 473f
00000440: 2e4c 5b87 e05c 1f3f d932 65f7 b3e3 3ebf
00000450: 0cb9 20ad 2203 4ebf 9571 1478 2ca8 35bf
00000460: 2f43 08ec 636d 583f 0226 cf55 973e 5f3f
00000470: d449 13f9 438f 5f3f de85 3c6b 6dfa 5e3f
00000480: 1851 293a 59c1 563f 5198 b390 b08d 603f
00000490: b2dd 5f88 0a44 623f 5564 c47a fe25 513f
000004a0: 75d1 670a 7216 603f 1cbd d0c2 29c9 5b3f
000004b0: 3894 2ef0 e4dc 123f 607c ad25 2098 fdbe
000004c0: 6f64 ab93 ac95 503f cf11 f169 e23f 4dbf
000004d0: 3600 5f8a bcbe 1c3f 8366 6d81 05cc 253f
000004e0: fdf8 d6c2 0af4 3c3f 31c7 bda4 45e5 34bf
000004f0: 92a5 10d7 cf6e 14bf e834 e86a 5c33 01bf
00000500: 83c5 b193 cea7 403f c22b 972d 5aa6 07bf
00000510: 2752 8eb1 4f11 12bf 1e06 84e7 565f 353f
00000520: 90fe 0729 a60a 45bf 5d86 087e 8509 21bf
00000530: 7c18 59db 38c9 20bf c77c fb59 c8b8 de3e
00000540: 7b43 f971 6fc0 423f 0876 07bb 18e0 3a3f
00000550: 66b9 a88b a2ae 403f 15ca 5260 9b14 43bf
00000560: 964a a108 2ea1 45bf a2d5 6cf5 8a73 303f
00000570: 7c4e b20d 7617 37bf a5cf 2dc4 eeaf 173f
00000580: 3a91 1b00 ec46 283f f2bc ff7f 8aac 12bf
00000590: 8772 46af c4d5 443f 7131 498a 00d3 353f
000005a0: e0b3 b985 cd21 15bf dd1f 96e8 4ed5 23bf
000005b0: bc7d 6fc4 4635 2abf 1a4e 8545 35d4 283f
000005c0: 489f b97d 7cba 32bf ec5a 33d7 f38b 153f
000005d0: 6f98 3afa aa53 393f ddd9 4585 2704 c6be
000005e0: a074 67e9 ef31 463f a652 85d8 833a 363f
000005f0: 904e 62bf 2b13 463f 1064 e456 7e63 4a3f
00000600: e013 0350 0671 453f 7b79 c258 3630 4a3f
00000610: 158f 20b2 6d33 433f 30d5 4a95 85f4 4b3f
00000620: 1de8 b249 749b 4c3f 908a 1601 3e93 433f
00000630: e0e4 c904 3390 493f c4dd d892 23f4 483f
00000640: 8f6e ac8a dc98 46bf 3cbc 8bb4 4757 563f
00000650: e6f5 d62b d31c 5abf af76 ef51 0dc1 323f
00000660: a975 2e64 89e2 443f fccf c48d f836 5e3f
00000670: 663d 91c4 d7ca 48bf ab0f b9d6 87a2 633f
00000680: 24a7 2922 a1a1 3abf edac 43a5 14bb 593f
00000690: e55c 126b 4aa0 51bf 6854 fd1b 49ae 5ebf
000006a0: 1e24 3918 95c1 6c3f a862 a2e9 970c 55bf
000006b0: 910c 95e8 e365 333f 89e9 80df c253 5e3f
000006c0: 8964 237f 7615 3cbf c10f bca6 3a59 503f
000006d0: 9038 39dd 8f28 60bf 2898 f1a9 9f7b 613f
000006e0: 8957 29f9 a73a 24bf 4c58 17d4 ae65 633f
000006f0: 3933 2018 b343 56bf 1439 41b3 e9c5 4abf
00000700: 2aa5 e242 36b6 4abf 1f95 7f29 898a 30bf
00000710: 777b 0b02 df7e 5bbf 0771 b268 6e99 6abf
00000720: 110b 8c69 d3ea 683f 10a0 1db2 d046 2fbf
00000730: 8cb0 a2d1 3c3a 573f 5310 9636 c2e0 363f
00000740: b8c8 1400 a8b3 48bf ac75 a14f 3824 20bf
00000750: e217 3f52 c265 44bf 1693 d83c 4449 06bf
00000760: fcd5 0cef 0252 58bf d032 4511 bd0b 423f
00000770: 8678 abeb 9e70 28bf 8195 ab37 947c 343f
00000780: 899f e0a8 c37f 683f 3add f599 fadd 6f3f
00000790: 5666 fbc8 1ac5 6e3f d20f 9923 0e27 6e3f
000007a0: 2a63 8535 32fc 643f bd16 f96a 0b3a 723f
000007b0: 19d0 f65a de65 713f ced9 ee32 486b 633f
000007c0: 4356 2f9c 3c65 703f 9015 b19e d53b 6d3f
000007d0: 19b7 4216 a938 55bf cf73 98bd b430 56bf
000007e0: 4e2b 4e2b c316 41bf b0da ebfe 359a 113f
000007f0: 7efd 0c66 105d 40bf eb5b 0421 062b 3dbf

linear.bias f8 [110]
0.7388452937455308 0.03816462616333546 0.19904822775741093 0.02942524719828921 -0.016048046496633734 -0.1081288998905745 0.050161363719410774 0.06592120897242207
-0.07741706769986709 0.05495412723622487 0.036036180122062354 0.7701117247804541 -0.011771176330819595 0.16462247543071512 0.1460961206528287 -0.008861572007143333
0.06639757436745387 0.03305063651594415 -0.06484893638014043 0.0858043215422261 0.19926053652065714 -0.013381608915250356 0.609844732828671 -0.05158131639162472
-0.005784413235424658 0.03959567188522267 0.1393287429179035 0.05025631100717867 -0.017194563361381886 0.030592979131984614 0.02691783924019682 0.1650467026597897
-0.05144090830294593 0.6245992297011891 0.053883633389270075 -0.06983175648293884 0.0359571720024772 0.13885043763486368 0.06420022574133466 0.07630163977956238
-0.017766278669142568 0.14625606195686497 -0.0048885000047970625 0.05314317219111723 0.7005665679667964 -0.07557719174244336 0.1293712104590732 -0.0841717847085151
-0.015825246505141735 0.12243112003940976 -0.11117068768669851 -0.00912471302425109 0.04010636613597978 -0.06921213069715575 -0.07434655165810193 0.8138297425682667
-0.045505540737626686 0.05468135490555953 -0.017379415784396616 -0.05160843585348891 0.0501566769419862 0.06839147883566937 0.1416383659241156 0.038553295405043014
0.13008779317233718 -0.0437623672360423 0.7832290446295256 -0.11644702508124122 0.023592819439961745 -0.07080341423774894 0.06459930058110484 0.03227829391375598
0.050249656314561644 0.13702103272732655 -0.08327440207413764 0.05425186538557431 -0.11830371070990801 0.7019491677808025 -0.03185125798158473 0.04251407286213216
-0.07835883412342054 -0.06409180905596025 -0.017176172482879393 0.06288938518368976 -0.014673531328131784 -0.017036998232478416 0.02192016440348034 -0.03135233170088255
0.6605916903704869 -0.14546998003989386 0.05505290200836379 0.08740005191571373 0.03310685649609726 0.0775236591336248 0.12255176702235013 -0.05033694418573862
-0.07070369255936503 0.04428461443537897 -0.14624724053251761 0.6645539929446346 0.1478875389156079 0.1549095830642723 0.1473389950805675 0.1595599056935
0.10113127060235949 0.11058344010141702 0.1164763972859145 0.15164418712797634 0.08629292488799951 0.09654867487349558
00000000: 2219 aee2 9ea4 e73f 7c9f 785a 508a a33f
00000010: 4cbd 458e 697a c93f 01cf 92e9 a621 9e3f
00000020: 058e 782b e66e 90bf 5050 c8e8 55ae bbbf
00000030: c92f 6511 c0ae a93f ca3a a65c 36e0 b03f
00000040: 5e53 ecdd 9ad1 b3bf a505 8586 f222 ac3f
00000050: 03ad 318e 5573 a23f ae57 0658 c1a4 e83f
00000060: c4b3 028b 7c1b 88bf 8aab 146a 5912 c53f
00000070: 1360 2316 47b3 c23f c4d3 b10f 0426 82bf
00000080: 2123 7172 6eff b03f 795b e555 03ec a03f
00000090: d7de ee9c f099 b0bf bb1b e1a2 45f7 b53f
000000a0: 65ac de87 5e81 c93f 9b59 4525 d167 8bbf
000000b0: 4d62 e419 d983 e33f 182b f9c5 dd68 aabf
000000c0: 745f c39a 65b1 77bf a8cf 9e47 e245 a43f
000000d0: efd2 1c35 86d5 c13f 340a 63f8 31bb a93f
000000e0: 767b 399d 739b 91bf d1b3 6f13 c453 9f3f
000000f0: 54ce dc9c 5990 9b3f 7043 1e17 4020 c53f
00000100: 65e5 ac75 7656 aabf 7c8c 1586 b7fc e33f
00000110: a4a4 64b6 a296 ab3f 6903 5176 7ee0 b1bf
00000120: a554 9d7b fa68 a23f d3a8 56e4 d9c5 c13f
00000130: 0871 f40d 6d6f b03f 2f01 7c17 8188 b33f
00000140: b71f 6cc7 5231 92bf 6a26 79c5 84b8 c23f
00000150: b884 5aba f605 74bf 3512 22f5 9435 ab3f
00000160: c7d3 4294 0a6b e63f 0779 dbde 0659 b3bf
00000170: 819a fb5e 3c8f c03f a3ab 9136 488c b5bf
00000180: a44c c350 7e34 90bf 64f8 9458 a557 bf3f
00000190: 1361 e3a3 ae75 bcbf f643 3240 faaf 82bf
000001a0: e7b3 d455 d288 a43f cbac d4dd e2b7 b1bf
000001b0: d321 f127 6008 b3bf 41f8 1aac e40a ea3f
000001c0: 8f82 8292 804c a7bf f86a 0ace 31ff ab3f
000001d0: 6197 abd9 e8cb 91bf 5a7c 60c0 6b6c aabf
000001e0: eda2 48ce 22ae a93f 5c9d ec9c 1a82 b13f
000001f0: e860 c0ba 3421 c23f 0cdb d5ed 41bd a33f
00000200: 1f5a a480 b7a6 c03f 5d10 2660 0568 a6bf
00000210: a2c1 7e5b 3610 e93f 8cbf 70e4 78cf bdbf
00000220: c707 a94f b728 983f 50a5 982c 2c20 b2bf
00000230: 271f 576b 9489 b03f 59e4 75d1 c786 a03f
00000240: 6a37 03ad 52ba a93f 23c9 36bb e789 c13f
00000250: b29b 80a1 7851 b5bf 59f4 2787 e6c6 ab3f
00000260: 8b97 7ee8 2649 bebf b855 e219 5e76 e63f
00000270: 5117 bcde ce4e a0bf 900f 2091 67c4 a53f
00000280: f4ab e915 530f b4bf 393a d61f 5268 b0bf
00000290: c072 566c a196 91bf 8d26 a1cc 8419 b03f
000002a0: cd87 5e09 280d 8ebf 6609 ec98 2572 91bf
000002b0: 848d f154 3d72 963f 5b05 9eae 690d a0bf
000002c0: b6d1 442f 9123 e53f 5c1a 69a3 c29e c2bf
000002d0: 7304 5adb e42f ac3f a68d a58c d95f b63f
000002e0: 0324 d9c3 61f3 a03f e029 a52c 97d8 b33f
000002f0: be91 6d77 8d5f bf3f bddc 1d92 c3c5 a9bf
00000300: a7b8 3f1f a319 b2bf 5a8d 6e15 79ac a63f
00000310: 0dd4 9bc5 3ab8 c2bf 0ff3 43bc 0644 e53f
00000320: 7c71 9097 faed c23f bd8c 8cc4 13d4 c33f
00000330: 19f5 a512 01dc c23f 316c 5a80 756c c43f
00000340: 300e d72b bde3 b93f 94fa b642 324f bc3f
00000350: e651 19ad 65d1 bd3f c0ec 2ba4 1369 c33f
00000360: 0d28 450a 4b17 b63f dec5 0df9 69b7 b83f
