port_results/Expected/Deep/10_1000/39/3_trained_linear.pth (torch, 17023 bytes, 17 tensors)

radius f8 []
00000000: 5d5f 7346 6ba9 f93f
1.6038620712260674

shared.weight f8 [10, 30]
00000000: 54a5 ca4d 2f4d bdbf c707 dde3 c3d4 a2bf
00000010: 542a 8eb5 9151 b03f 2a5d b2b3 fb4c a0bf
00000020: 716b 8f1b fa7e a43f 6942 d57d d955 aebf
00000030: 8f69 8d35 7615 91bf 2c87 0882 5355 a53f
00000040: a21b a9f8 cb7f 80bf 7769 ca09 f11a c3bf
00000050: 316c 5833 13ba b13f 2592 1f4f 6a5f 903f
00000060: a95d 9bf2 e710 a7bf 86be 7d25 5467 b63f
00000070: 46f9 826d f0c5 b2bf 471c 43e0 2633 59bf
00000080: 69a1 7f6a 9508 b23f 877d b197 bc93 943f
00000090: 0191 e48c 4ce0 bd3f 9def b792 02c6 c2bf
000000a0: 8de7 1cb5 52d9 b8bf 4852 5238 2889 c6bf
000000b0: 0ce8 fa14 08ac cebf 5313 c529 b0c2 c6bf
000000c0: 934e 2f2f 4ec5 acbf a697 4bef 5b03 c7bf
000000d0: a524 65bd 25fe c9bf e381 7fd2 51d9 cbbf
000000e0: 93fc efd9 baa8 c0bf dc15 9dda ff08 acbf
000000f0: d9e7 3d2b ff27 a93f 6089 286d ae66 a5bf
00000100: b2b6 3332 3f3f a2bf 9bc2 6758 d30e c1bf
00000110: 30a5 76da 39ef d73f 64d8 c5e4 406e d2bf
00000120: b3aa 0ceb ec8f c5bf 9933 7e61 60be 983f
00000130: 4300 797c 1152 c4bf af24 7f6c 9d00 c4bf
00000140: e2be 782c 12fa c23f fb2e a118 dbc2 923f
00000150: ac01 ee0f f4fd bbbf a773 5815 01e3 d93f
00000160: 8488 9376 d9d6 c9bf a863 f1f8 e0df b2bf
00000170: a58b 64f3 e1c8 b3bf 7a44 cd66 bc31 b1bf
00000180: 01d9 3d7f 944a 9c3f 7e58 15da c143 cebf
00000190: 5783 62b0 4fd3 823f 0ccd 3432 bb76 cbbf
000001a0: 4c81 8195 1d53 a1bf 4357 a52a 0fd1 c0bf
000001b0: 87a4 8e9e 58e2 c5bf ba34 07dc 69e1 8b3f
000001c0: 9393 0e61 b973 c1bf 0c57 3bad 12db b23f
000001d0: 1c4a a5ec 2a3c acbf 9f02 3fa3 c4ef b6bf
000001e0: e823 0d2b 15f6 b23f 4257 5317 5112 c73f
000001f0: 8d51 1eb8 4b5f a8bf e0c9 7692 2e48 c8bf
00000200: 52a2 a941 6f30 cdbf f73b 510e 01c5 d03f
00000210: 549d 9878 39ed c2bf 284f 9c91 d840 8cbf
00000220: 549c b9da 138e cf3f 0d1f 5bf0 a6fe 513f
00000230: 1270 fc00 56ec c13f 5a80 c28d 2eb8 9fbf
00000240: 4171 31e6 336d bdbf b43d 47c7 346d b8bf
00000250: 510b f948 83b2 b23f 2976 549e 0c17 babf
00000260: 7bd0 d29f 577e c83f eea8 6322 3837 953f
00000270: b35e 9d2e 85ee a3bf e45f 3db2 e43d ba3f
00000280: 5179 7af6 3123 a8bf b31b 93b7 ebdd ad3f
00000290: a318 281a 1642 7f3f 8ce9 1043 12aa a03f
000002a0: 43bc 650a f45c 90bf f174 2287 499b b5bf
000002b0: 57c2 222a 0855 abbf 83a5 8e71 9ac1 9dbf
000002c0: 6e20 1289 e4b0 bb3f 20ad 0776 aac7 a1bf
000002d0: 48c3 bba9 2896 d33f 077a 72d1 d72d c33f
000002e0: a27a 7c39 766a 76bf 37ea c4f9 f60f cc3f
000002f0: fab8 254d 8896 cdbf 032d 584b 7579 cd3f
00000300: 13d5 e377 09fe be3f 3485 0e7c 8919 b83f
00000310: d35b d308 c05f bd3f b39e 3440 738b c23f
00000320: c4e0 d5b1 26fe c1bf 8c75 c53b faf2 9bbf
00000330: dbc2 01c9 5642 c53f 506d 6ab3 d308 d6bf
00000340: aec8 6c56 572f b93f ec1e f958 bada a53f
00000350: 2d04 3cd6 9ba9 ccbf 3a62 a71b 8670 acbf
00000360: 04f6 ae98 1754 c2bf 6290 533c 6914 983f
00000370: 3178 8d68 6d89 cc3f 21b4 0500 808f a63f
00000380: 985e 55ec e4cf aa3f f9de c7aa 6110 b73f
00000390: e43f 6127 c01b c63f f4bf 8afe 6c8b a53f
000003a0: 3224 252e 7559 c73f 2754 c6e0 5a6d bc3f
000003b0: 05e7 86b7 f49f ca3f ef77 20c8 4477 bc3f
000003c0: 6e19 3fe4 3868 d6bf eca2 6f0f a9c0 b93f
000003d0: bc87 9a33 603a bd3f db0b 0829 664a c73f
000003e0: 2e15 7fa5 9ca8 c13f a6b4 d566 c7df d0bf
000003f0: 68bc fb9d ba0e c53f 986f 09cd 2255 63bf
00000400: e842 7dbd 1975 a33f 98fc 77cc aaa4 9b3f
00000410: 44dd 22c3 6a7f b6bf 2afe cc82 30eb b3bf
00000420: 5321 f455 7d17 a9bf f3f8 fcfb 2a7d cdbf
00000430: 2555 9d7a cc9f d13f 821a 8de3 821a d63f
00000440: feae bc64 e0e4 b43f 934d dd1e e6f4 aa3f
00000450: a430 9453 4708 b93f 205f f53b 610f d1bf
00000460: ea26 7547 7796 c4bf dfad 4ce8 d2d1 c0bf
00000470: 8da9 4f6f e648 d0bf 31cd 4418 7503 cbbf
00000480: 23b9 cc18 e9aa c0bf acfa 2878 7a30 c7bf
00000490: dde7 8304 7144 c6bf e0d7 24bc c02f c2bf
000004a0: 50e1 d734 629e d0bf b178 b4c0 ca17 c2bf
000004b0: fe41 4bfa 8ce6 d1bf 8b14 b8ca fe19 adbf
000004c0: 2483 62f1 99c5 cd3f 7bfc 9939 1827 babf
000004d0: 4c99 b57f b5c0 d43f c6a7 bfdf 4998 cebf
000004e0: 1c49 4830 d9f2 ce3f 3858 4d8a db6f 2bbf
000004f0: 35dd faeb dd5a 9fbf 2c08 c4d1 08c5 bebf
00000500: d228 a272 d1db ba3f ee87 cd24 6ed7 92bf
00000510: dc24 608a bd93 b6bf 473f 32a2 5047 c03f
00000520: 96d0 4fc2 f589 b3bf cc45 2e21 c316 cb3f
00000530: 9590 7c7a b527 a3bf 56e9 a676 fb8b 953f
00000540: b33f 392b 2d19 ba3f 5e9d b2bc 5f43 d2bf
00000550: e049 70df 3bfb c6bf 49e1 2570 75e9 683f
00000560: 7a57 3e04 e503 a8bf ecf3 890b 6ec5 80bf
00000570: 9260 aaae 33a6 c8bf 8ee0 c658 ea9d 8a3f
00000580: ab46 e056 766f c2bf fd3a 214b 36bc a53f
00000590: 5bf4 3c7d 0b48 c4bf c135 a147 62ab c0bf
000005a0: 57c6 5c66 1c8e c3bf e651 5d83 8925 923f
000005b0: 0567 fa44 536b a03f a56a 3dda 7e5a b63f
000005c0: 47e2 4946 2e19 b13f b41c 993d f553 ba3f
000005d0: 83cd c13e 1e48 b5bf 4997 1bbd 924a c23f
000005e0: 3a13 dddd 57d4 c43f 62e8 0884 fbea b93f
000005f0: 0c33 65b4 efd1 953f 3da3 7d12 d643 a2bf
00000600: eed3 a30a f1c2 9dbf 2dca 2001 8dd7 d3bf
00000610: 4995 46c8 b749 ce3f 1dcb f7ef 5c4e 9cbf
00000620: 70b3 c832 824a a1bf 874e 44a5 f32d c1bf
00000630: e992 f147 4471 bbbf b620 3411 c047 c13f
00000640: 2940 dc0a f776 c3bf 495a aefe f42e b5bf
00000650: 9ee9 76c7 552d bbbf 734a e79d 7bd7 a3bf
00000660: 4ab5 0cd4 e513 933f e073 eed0 3cc4 b9bf
00000670: f58d bbde eb92 993f 83a5 b814 2dfa c2bf
00000680: 6db4 be59 6acf a3bf 20e5 c8ff 3d73 c5bf
00000690: 55c9 ec43 39d1 bf3f 472b a73e ec24 90bf
000006a0: 35b6 03c7 5c43 a5bf 4930 e886 f5de 9b3f
000006b0: 4e25 e5db 5561 c1bf 494a abb1 9453 ca3f
000006c0: 06fe 09d0 c619 c03f 39d4 8fc7 63ee c93f
000006d0: e8fd c837 59a2 c83f dccc 34fb d82b d13f
000006e0: f889 ed0c fd72 afbf 0511 317d 9111 b9bf
000006f0: 1c96 2588 20a2 a63f 41c2 bf83 e3d6 d1bf
00000700: 92e7 a546 5aac c53f 6cf4 15f7 d4db c43f
00000710: ae96 8a6d d227 c53f ad88 37fe 8960 a13f
00000720: 57d8 e2f0 2e7e 71bf 9a54 e91a 796a b83f
00000730: cdd4 3fd7 43ab be3f 8963 e1f0 da57 bc3f
00000740: df71 a3a6 c9dc ca3f def4 de18 042f cb3f
00000750: 3cc0 f801 a3ad c13f dddc 7e0c eca5 af3f
00000760: efcf 5099 2a69 c43f c866 17c3 a9fc 9ebf
00000770: cafc 2d05 75a7 c23f 071a 2868 64f4 c33f
00000780: e393 ac7c 8c26 d93f 616f 2fe6 b2d0 b83f
00000790: 7e3a f807 b12c cbbf c60c a3e9 e887 36bf
000007a0: b412 7cbc a8ca d5bf 8eb2 2fd8 9753 c93f
000007b0: 7f38 8b2e 6159 bcbf 8d5f cbf0 abbc cebf
000007c0: 816b ef5a 53f3 c73f 1afd 6ac9 c95b b73f
000007d0: eaa9 5afc 13f1 9d3f 4102 839f 598b ba3f
000007e0: 7cd2 6a2d 2e66 c13f 9d13 6e79 109d bcbf
000007f0: 4443 084e 8bfd c43f f174 22e5 2f86 aabf
-0.1144589962883818 -0.036779519620281635 0.06374464685920006 -0.03183733528674744 0.04003125749996784 -0.05924873028800876 -0.01668343259675847 0.04166661226578436
-0.008056252981203663 -0.14925969102916856 0.06924552920865847 0.01598898036890452 -0.04505085789213165 0.08751417079269616 -0.07333281205771866 -0.0015380744599029648
0.07044347620069903 0.020094820746064748 0.11670378150717299 -0.14666778720845466 -0.09706608697606907 -0.1760607028014809 -0.2396249868814383 -0.17781641044180194
-0.05619282079683532 -0.17979001221027352 -0.20306846378142498 -0.2175695684263835 -0.1301492275378889 -0.054756160198433185 0.04913327601293788 -0.04179902155398696
-0.03563878524606191 -0.13326494042077716 0.373976195662709 -0.28797933903786643 -0.16845475651765227 0.02416372866678138 -0.15875452592627157 -0.1562687663811508
0.1482565610071936 0.018321441057465453 -0.10934377087506303 0.4044802387668888 -0.20186918535097587 -0.07372861936290909 -0.07728397552686646 -0.06716516027269562
0.027628250375948408 -0.2364427866802465 0.009192106790864392 -0.21456088973500476 -0.03383724641821803 -0.1313799818259956 -0.1709700369076794 0.013613535907007413
-0.1363441203986012 0.07365528802196425 -0.05514654291859619 -0.08959607110501587 0.07406742383058396 0.18024648322050935 -0.04760204908885433 -0.18970281745494244
-0.22804060655768638 0.2620241775338736 -0.14786451710208814 -0.013795558875734651 0.24652336292203592 0.0010983114492990082 0.140024900895583 -0.030976035501794598
-0.11494755144071168 -0.09541635384743224 0.0730363896519013 -0.10191420426823385 0.19135566047555472 0.020718457316356735 -0.03892914003398342 0.10250691749149571
-0.047143517816254595 0.05833374610806832 0.007631384216898382 0.03254754131963286 -0.01597958863697736 -0.08440074490723128 -0.053383116858985495 -0.029058850460989227
0.10816791864829309 -0.0347264546470234 0.3060399682572563 0.1498365185443193 -0.005472623648329263 0.21923720546495115 -0.23115638510666497 0.23026910952498988
0.12106379677773686 0.0941396644471027 0.11474228110760913 0.1448806823257108 -0.14056857760784258 -0.027294073007728722 0.16608700575627364 -0.34428875466411046
0.0983786188124067 0.04268438659761195 -0.2239260479036899 -0.055545988918030934 -0.14319128947492754 0.02351536207869776 0.22294395070179143 0.044063568117828085
0.05236735711031065 0.09009371203853424 0.1727218811306549 0.04207935912324948 0.18241753342798145 0.11104362476028538 0.20800646744992704 0.11119489560994088
-0.35011122026153074 0.10059601427895942 0.11417199382643067 0.1819579792355331 0.13795812683944447 -0.2636583809133505 0.1645119925883336 -0.002359931917721835
0.038002781277674036 0.026995342950610096 -0.08788172973696812 -0.07780745690706029 -0.049007336370837117 -0.23038232139692347 0.27537834142761347 0.34536812040133935
0.08161737880135075 0.05264968039287079 0.0977825717020005 -0.26656370978661137 -0.1608418558992562 -0.13140331595182794 -0.25444947118980893 -0.2110430115222726
-0.13021577559397554 -0.18116694323722038 -0.1739636680647995 -0.14208230196680827 -0.25966696892239316 -0.14135107430860708 -0.2796966976430041 -0.05683895325277274
0.23259281431548928 -0.10215903669630848 0.324262022701437 -0.23902247834422335 0.24178614480531102 -0.00020932726797679032 -0.030620067146370295 -0.12019400712236522
0.1049166588656221 -0.018399926182048824 -0.08819183948812132 0.1271763603185667 -0.07632385248126847 0.21163214798120433 -0.037412329866385687 0.021041802517836793
0.10194666199936257 -0.2853621809722052 -0.1795420495041773 0.003041009303327656 -0.046904713409431545 -0.008189067580355279 -0.19257207897749545 0.012996512254958039
-0.14402655832286845 0.04245156924354452 -0.1584486352457216 -0.1302302217249416 -0.15277438162006504 0.017721317904333754 0.03206882683771365 0.08731835201380507
0.06679047790556424 0.1028435969720814 -0.08313168556360577 0.14290079339769537 0.16273020108396868 0.10124179814821013 0.02130865610643 -0.0356737992831939
-0.029063955568705717 -0.3100311766640143 0.23662469176376025 -0.02764268126152124 -0.03377158040925721 -0.1342148358313475 -0.10719706303059308 0.1350021442415305
-0.15206802397051547 -0.08274775712775652 -0.10616050834406685 -0.03875337889225685 0.01863059145687388 -0.10065059758058181 0.024974523038407487 -0.1482597685983756
-0.038691829161827986 -0.16757941236009177 0.12428625019382385 -0.015765849422489066 -0.04152955941559037 0.027217708930081384 -0.13578294026437238 0.20567568469285138
0.12578663976817966 0.20258757824163512 0.19245448325999281 0.2683012440858883 -0.06142416746913065 -0.0979243212360111 0.044205681437954975 -0.2787407671558278
0.16932228517162834 0.16295873703703323 0.16527777050685216 0.03393965938791275 -0.004270728457575221 0.09537465006845239 0.11980079655753002 0.11071556454534294
0.20986290585177778 0.21237231459045963 0.13811147304795834 0.061812759900414106 0.1594594238864597 -0.03026070836299402 0.14573538544570958 0.15589575849317347
0.3929778306504074 0.09693449134596001 -0.21230137719290448 -0.00034379421562054054 -0.34049433142380825 0.19786356025669644 -0.1107388247139358 -0.24013280160465592
0.1871132082004259 0.09124432723455236 0.029239952352023403 0.10368881363229666 0.13593079774513572 -0.11177161182975089 0.16398755369348283 -0.05180501625111756

shared.bias f8 [10]
00000000: 9f2c 1bba 71b6 b8bf 4ede 5dd2 3986 b43f
00000010: f0d4 2e46 db70 4f3f 0ce2 cd4d e4ba c03f
00000020: c742 e21d 9785 ccbf ce88 b007 70a5 b2bf
00000030: 388a 909e 45d9 c5bf be11 3f6d 6f07 c23f
00000040: feb7 bc15 8ee1 b1bf ddc3 1220 6aba c0bf
-0.09653387826544922 0.08017312417893516 0.000959498469788626 0.1307034854796857 -0.2228268524090906 -0.07283687770589894 -0.17069311373150398 0.14085190614981785
-0.0698479464597028 -0.13068892065123708

mean_hidden.weight f8 [10, 10]
00000000: d016 758e 496c 84bf 21a5 73d8 b8a0 d93f
00000010: f6c4 aa01 f040 9c3f 983c b580 fcac 80bf
00000020: 8541 3caf d4b3 b3bf 15e6 092a 0a1b c13f
00000030: 586c 9f2a 03b6 a73f a510 1213 0ada c7bf
00000040: 3a86 2fa0 4e18 c6bf ffd2 7f7d c9a5 b4bf
00000050: 8f61 fbd1 88a3 cb3f b2dd 0c14 1c19 b53f
00000060: e253 e0c4 d6b0 b73f ee95 b106 56c5 d4bf
00000070: 89f9 0d1f 5ddc cd3f f655 e40b e7c4 d23f
00000080: 0839 4681 ccf0 b83f 477c 5188 69bb d0bf
00000090: da73 2ef2 5e61 bbbf f534 7f83 943c cb3f
000000a0: 1ddf 71c3 5050 c73f a576 b0ea fdd6 cb3f
000000b0: 8e6b fe6c dd97 b23f 1eba 01eb 84bf 91bf
000000c0: 57ad 3330 2847 b4bf f199 47b8 6d6e a43f
000000d0: 3838 0d25 04d3 c7bf 08fb 1bcf 5427 acbf
000000e0: 9a9b f440 f104 b2bf c3ff 1087 2134 a93f
000000f0: 0228 5ce9 0ea6 b7bf 5387 842a b7ae b33f
00000100: 7374 1e5e 8587 ba3f 7cc3 b8f2 94c7 b7bf
00000110: 6ef9 1af0 acb7 d53f 9ed5 0742 b918 a0bf
00000120: 6717 748c 5736 c33f e4ae b1ea 9fce d1bf
00000130: 8971 0dd3 adda be3f cc42 6485 5933 983f
00000140: 1db6 4e80 04e6 c5bf 58c1 3df3 005c d6bf
00000150: 5a98 961d 779f b9bf dc8c e515 d621 da3f
00000160: 6e54 2c43 54f3 c5bf 7f6c b8ff 9f5e c9bf
00000170: 1092 3a90 0818 ca3f 01da bc6d 470e d03f
00000180: 0b09 a3c3 d658 693f 7948 29ac 05c3 c03f
00000190: 6155 58b4 3b38 c3bf 0c11 ddb0 6c42 bbbf
000001a0: 2f26 e1e6 3646 b13f 63c8 90d7 d78e a6bf
000001b0: 0d30 2162 a478 babf e18b e0ba 80f5 6f3f
000001c0: e1c4 590e 2192 b3bf 2e81 79a7 4434 d13f
000001d0: 9cdb a603 8859 ae3f ad4d 3b93 7c10 d3bf
000001e0: d9b9 e598 851e b93f 3d02 8d97 124f d23f
000001f0: 7fb6 d2ee 8ba7 a2bf 1682 f6b6 b68c b5bf
00000200: a584 8b94 5eea d2bf b856 d58b 1574 cf3f
00000210: 9c21 15b4 0ed2 c6bf 2a79 7b1c 2873 d2bf
00000220: 9ffa be8b afee b5bf 8829 21c5 6c4a adbf
00000230: 0a7b 0830 3200 b5bf 9206 9df1 096e d93f
00000240: aa4c c0cc 103c c93f 210f 9708 c659 cf3f
00000250: a6f0 3695 cfc0 c3bf da4f 1675 4409 b7bf
00000260: 1cb6 5f9a 59af debf 3369 81b2 d121 d13f
00000270: dd26 2791 b976 cb3f 982d 1115 0cd9 d7bf
00000280: 6b97 040f 62ce b73f bb2f 4b75 ce1f c23f
00000290: f75d 81ce ba45 d2bf a541 a860 5f54 c4bf
000002a0: 6d21 d552 4d9e d03f 39a3 7d42 0fa4 c03f
000002b0: a386 fa78 7fd0 d3bf 97c0 ea2f 6751 743f
000002c0: b526 2966 446d d9bf 4d4e 361e 7036 71bf
000002d0: 6df4 ab9f afb3 c63f d7eb 552f 4dd6 d13f
000002e0: 7e91 a448 9a63 ccbf 98f3 b5be 2184 d5bf
000002f0: 3bad d8d5 8f2e bd3f 3010 b864 f47f c63f
00000300: 801d c6d1 ef0e c13f d995 2fa1 9265 983f
00000310: b0a6 2a7c 077f c9bf a786 1b7b aa67 b2bf
-0.009972166690782741 0.400434695604945 0.027591467000722646 -0.0081424452570487 -0.07696275022704498 0.1336376862780503 0.046310519173595466 -0.18634153300457004
-0.17261679479183717 -0.08065470994899825 0.2159281754782225 0.08241439332493064 0.09254209810781291 -0.32454443601304106 0.23328746811234805 0.29326797639200153
0.09742429882155446 -0.2614387351258682 -0.1069545117629355 0.2127862588953701 0.1821385340042462 0.21749853095473273 0.07262977515203614 -0.017332150310204957
-0.07921076943209947 0.03990500330455749 -0.18612720307504715 -0.054987573892495034 -0.07038791499927158 0.04922585271606252 -0.09237759778275748 0.07688469684629
0.10363038585497168 -0.09288912702392155 0.33933566520490543 -0.031438626585365656 0.1500958858306902 -0.2782363693174672 0.12052427675866374 0.023633383528308724
-0.17108207955372814 -0.3493654609110499 -0.1000894973027199 0.4083152021250507 -0.17148831634463896 -0.1982002256998818 0.203858442711081 0.2508715221078149
0.003094119511929288 0.13095160394965769 -0.15015360170279293 -0.10648230855901292 0.06747763764101287 -0.044058556617884624 -0.10340335269683028 0.003901244569548976
-0.07644850349767608 0.26881519656128006 0.05927681965425011 -0.29788126352397165 0.09812197668882251 0.2860762100208694 -0.036434529212198356 -0.08417837111347412
-0.29555477625224064 0.24573010757256042 -0.178285444193773 -0.2882786062381394 -0.08567330514686454 -0.05720844179502921 -0.08203424141582275 0.39734123797470844
0.19714555738082612 0.24492717189252125 -0.15432162080640416 -0.08998515947888511 -0.47945251536916245 0.26768915588549475 0.21456069552942028 -0.37262250954946685
0.09299290529869857 0.14159565665465643 -0.28550596396004785 -0.15882484645454756 0.25966199006190643 0.13000670191402167 -0.30960070432966286 0.004960444521813787
-0.3972941396392387 -0.004202306710243753 0.177358582462975 0.2787049257528315 -0.22178963229192655 -0.33618968605133537 0.11399172755107127 0.1757798663894632
0.1332683347975312 0.023824969375615488 -0.19918912470648342 -0.07189431672625322

mean_hidden.bias f8 [10]
00000000: 1a1d e76e 7b22 ca3f bd04 b8d0 c73b c1bf
00000010: 404c 71d2 a60c 9b3f 70f6 e383 bf06 a93f
00000020: 2e8f c040 19e0 a8bf 2410 fe11 fceb 80bf
00000030: ab4c a581 e3a6 c03f b090 ecf9 2d95 be3f
00000040: 9138 0172 774c ab3f f4dd 4a0c 1690 cbbf
0.20417731204199968 -0.13463685695027108 0.02641544970931542 0.04887960896483612 -0.04858473697120612 -0.008262604998670105 0.1300930388484621 0.11946379996931245
0.053317768732641053 -0.21533465957848785

mean_linear.weight f8 [10, 10]
00000000: d326 5e47 70ec 80bf 3485 38ce b120 d33f
00000010: c640 b2c1 17bd c13f 4b3e 82c2 2ac2 d03f
00000020: 5ac0 b4ed 5724 dabf 1b10 d09b 1ae8 c3bf
00000030: a712 199e 3c0c c8bf 6b06 2f38 3e5f b8bf
00000040: 77e0 80c8 5b00 aa3f b0f3 e76f 55df d13f
00000050: a6c7 602c b808 b0bf 6fb9 4b41 8a24 babf
00000060: a0b5 6e4b 3956 ad3f 5514 b455 37b2 9e3f
00000070: 03c4 588d 1abb b4bf 4baa 1bf5 0424 d1bf
00000080: d5bf 873b 0e0d 903f 22c4 9272 b7cd b1bf
00000090: d4a7 4e1c 9545 c2bf f916 4242 47fe 92bf
000000a0: f0c4 e0c6 731f ac3f b740 543f ec19 c13f
000000b0: 8a50 634b 6082 a93f dcad 122c a3e4 b13f
000000c0: e74c 93b5 d459 c1bf 9417 cd88 1d7c b0bf
000000d0: aa63 7b29 bc1f ae3f 5e29 e88b 7cfd aebf
000000e0: a59d fc5d da63 b33f 5159 16a2 ab7e b73f
000000f0: a8d9 4030 aa9e b1bf dbd1 c851 5bbf c23f
00000100: 6775 c92b 29cb b53f d755 c881 8e11 95bf
00000110: e688 ca98 82b4 5c3f c433 266e b63f 733f
00000120: 0bf4 4fc2 ae7b bdbf 55fa 767e 938a c7bf
00000130: d599 50ab 9ee8 89bf 58cf 9329 b2b9 c83f
00000140: 1e80 b648 ee09 7c3f 04d9 1e2b 1f67 a43f
00000150: fe27 fc58 ea5a 943f 8653 0dbb fff1 a33f
00000160: a282 b48b e8a9 833f 0303 2c73 3bda 8dbf
00000170: fb10 3eeb 355a 39bf 9f8d 4eee 67dd 87bf
00000180: 5e68 906b 663d a4bf 4cfb 83f5 420d 57bf
00000190: e5bb 6751 d7b9 633f 2624 16ba 1178 c73f
000001a0: 0982 1dc3 a3ff 883f d3ac c33f 12ee b73f
000001b0: 7a3f a9aa bafb b9bf 9fd8 9b65 148d bbbf
000001c0: f16e ba89 976e 8dbf 3f84 6e2a e391 58bf
000001d0: 69c0 6bfa 5853 ab3f ed3d 86d4 7cdc b03f
000001e0: 879c 4ca9 35e4 a4bf 112f 04f5 8a78 c53f
000001f0: 011b 6e2c e8bb c3bf da72 658a 36e2 973f
00000200: ecd4 f6e5 ffd3 c33f f180 26ba 32ab c5bf
00000210: 3c09 8b8b 6108 cbbf 430a d52e a3d6 d9bf
00000220: 5111 1b89 9a6d c73f 75f9 6a65 3e00 bd3f
00000230: 845e 323c 223f d83f b619 cf55 0fe9 a03f
00000240: 74e8 c546 be32 c53f d7ed ded5 c34b c8bf
00000250: 59df 1a5a 768c d7bf 1a2a 51db d659 c8bf
00000260: 7390 0544 78f8 d93f dfe2 38ab bfc5 d03f
00000270: 54a1 e0d1 ef80 db3f bc42 9d3d 73a9 d23f
00000280: 595b f277 c561 a53f 3ec1 50c9 3ba4 dabf
00000290: 9479 b974 cb69 91bf a449 1a72 30e5 bbbf
000002a0: 800c 5a00 42e3 c83f 4d40 d0b5 2f00 a53f
000002b0: 2906 8eec 3024 bebf 878f cdf7 7cf9 d83f
000002c0: 7762 b795 aa6f bebf 7267 6e65 e4e4 c6bf
000002d0: 6e6d 8f41 9255 abbf 5635 fa04 b887 a13f
000002e0: f61b 3940 fcbc 97bf 239f 01da c89f a2bf
000002f0: c290 2648 555e 9d3f 5dee 0008 26b3 bc3f
00000300: 6f65 126a 4bad a53f f4cf 9e92 25ec a6bf
00000310: 1643 af49 0a91 bdbf c6b9 85ed 69be a1bf
-0.008263470819446372 0.2988705171465711 0.13858315427615348 0.2618510150432242 -0.4084682294224017 -0.15552075012249209 -0.1878734371149637 -0.09520329353019867
0.050783985353008036 0.2792562096436155 -0.06263304789970778 -0.10212005705009174 0.057298460443557575 0.02997671566574341 -0.08097997618530432 -0.2678234475739926
0.01567480314582766 -0.0695452360839828 -0.14274848825635778 -0.0185481199446462 0.054927461649990295 0.13360360233537502 0.04982281608832391 0.06989497972488529
-0.13555392137514063 -0.0643938502299462 0.058835868896216795 -0.060527698591686926 0.07574238581275113 0.09177658755502206 -0.06882728269633864 0.1464647435510774
0.0851312381650665 -0.020574785872744385 0.001752021347023952 0.004699432962650133 -0.11516849750474038 -0.18391650843655563 -0.012650718310465084 0.19316699056764253
0.006845408246050537 0.039849256528599525 0.019878064805233457 0.03895568044996538 0.009601418269597876 -0.014576401188152404 -0.00038684669856815763 -0.01165276714329516
-0.03953094542539824 -0.0014069703957486244 0.002407951872775526 0.18335172258619642 0.01220634402460609 0.09347642952677697 -0.10149733225375526 -0.10762145500834429
-0.014371093645699303 -0.0014996260085598093 0.05337026650329408 0.0658643740518909 -0.040803601185239784 0.16774117435158378 -0.15417196435392813 0.023323871800459674
0.15490721443862954 -0.16928705300688976 -0.2111932689059105 -0.4037254292817673 0.18303233809104794 0.11328496910116377 0.378853377138036 0.033028105950097794
0.16561106162754735 -0.1898121637621972 -0.3679481391841271 -0.19024167736854808 0.4057903923296699 0.2620696231929695 0.42974467750402323 0.29159241692563476
0.04176156129067605 -0.41627401981078893 -0.017005137442873755 -0.10896590028486358 0.19443535821128322 0.04101704687502714 -0.11773973250640125 0.3902275485945598
-0.11889139323410257 -0.17886023476313145 -0.05338723230644403 0.034238577468480955 -0.023181859416833782 -0.03637530957422388 0.028680164841390583 0.11210859008218095
0.042337757776475075 -0.04477040686415981 -0.11549438761654715 -0.03465586685603088

mean_linear.bias f8 [10]
00000000: 211b 97f9 2d23 a03f b489 f379 0393 a93f
00000010: d755 b4ff 32cb c4bf aa73 b87f e33f 9dbf
00000020: 456a 963a 66d2 c2bf 71b0 8408 4e34 c9bf
00000030: 0030 1667 3c73 c53f a837 3b3a fd3f c33f
00000040: 0c92 cca8 e26f d53f 89a4 9d2b 1b05 d0bf
0.03151839896923137 0.04994974960006307 -0.16245114789550882 -0.0285640284256378 -0.14704587803574234 -0.19690871635373555 0.16757922204521947 0.15039029448820185
0.3349539421490426 -0.2503116537032573

cho_hidden.weight f8 [10, 10]
00000000: 7dc0 2f48 2d1c a33f 89e7 b1b7 507f dd3f
00000010: ef5c 49f3 afb0 bdbf dd26 2ded 3a8d d4bf
00000020: 95bd 0e1d 3562 cebf d478 0a7f d51e d13f
00000030: c6cf 5eda bfe5 c4bf 40f5 5415 fab6 d1bf
00000040: 190e c4d4 9632 cabf 0ee1 2dcf 296f 8f3f
00000050: 3a16 a80f 1b09 b93f aabf b659 493b b13f
00000060: 7988 ab1e 7f84 b13f b910 79fd 5c3f b13f
00000070: cedb b6dc dd2b d63f 4ef1 e91f da3b c93f
00000080: 78d3 03c8 8761 a53f 61bf 519b 948a 693f
00000090: 40c9 ff26 f39b c6bf 96d6 dbc5 a97b c63f
000000a0: 0eb2 2669 d203 d23f f8da 450e 75e3 cf3f
000000b0: bb7c 73cb 625f bfbf ba52 87be 72ce ccbf
000000c0: 80d8 d585 15ba acbf 05b7 537a 5224 913f
000000d0: ec2c d192 9d9c 9d3f 9593 a1b4 7dc2 d2bf
000000e0: a5de 7460 846e ba3f f557 7c82 601f cabf
000000f0: ce34 086f bc8b c23f fdca 2caa 3fc3 b9bf
00000100: d2f3 905f 54cb c73f af99 34f3 cb76 b53f
00000110: 3e4c 605b 1c51 bdbf 3e91 abdf 4d7c c6bf
00000120: 880c eb7f cb4e b6bf 8660 aae5 5ad0 d13f
00000130: ab45 650d 2841 c03f 13a5 e6d5 cab1 b23f
00000140: 50f5 46e5 5c39 d33f e2fc f712 a4ac 733f
00000150: eb97 54f5 1078 c73f 0466 89e9 5f48 c5bf
00000160: a4c4 cd62 5d92 d83f 861c 2740 e049 d13f
00000170: 4747 85b1 2b54 b9bf 2f6b 1522 a256 b33f
00000180: 6972 dcc4 64e0 aabf 9b29 870e 8782 a13f
00000190: 7454 b670 2201 bc3f 9fba 82e3 d7c6 bcbf
000001a0: 43c1 631c 8723 bf3f df39 5057 70b7 bb3f
000001b0: 65f6 a08c 9576 c33f 4c97 4c6b f415 b6bf
000001c0: a6b7 b47b 051b b13f e53e bc09 7fba b03f
000001d0: d3fc 851e e307 bebf 11e5 fa3c 1bf1 9e3f
000001e0: 0b27 1a4e ee2f a1bf c408 b893 e06b abbf
000001f0: 612e adb8 0817 c9bf d177 b619 bf31 c5bf
00000200: 1939 be25 c993 90bf 70fb f904 5734 bd3f
00000210: 5416 aebb fa8d b43f 5b59 1f8a 6352 c3bf
00000220: 771c e5e9 da06 b63f 8398 823b 6a15 c13f
00000230: 67e8 66ce 69f2 cdbf f36a 33e8 aebb c93f
00000240: ac55 c658 6729 9b3f 8b40 f4c4 44e6 86bf
00000250: 5a7b 706b 621f e1bf a660 279f 8b68 b4bf
00000260: b6c3 688c 5fa2 b8bf b617 7390 8300 c93f
00000270: ad6a 2c9b 2d41 cc3f 45cf 384e 68f1 ac3f
00000280: 1ca4 576a d7e1 963f 1593 eac6 c717 b13f
00000290: 7f5a fbc5 013f 78bf 95dc 4c02 336a c4bf
000002a0: d18e f404 7869 b03f 249e e76a 1019 c2bf
000002b0: 44d2 8ccc 871a b33f 5f3b 9a28 529b bdbf
000002c0: 73aa c394 cee8 b63f 3070 0822 6be4 c63f
000002d0: 5c56 7d2a b879 af3f f1e5 5bc8 eb05 d9bf
000002e0: cce2 5a8c fedc b4bf a3f2 deaa 7349 cb3f
000002f0: 645a 53eb ae68 d73f 1f7d 3513 8446 95bf
00000300: a6f6 4110 349d d93f 3154 8bac db54 b53f
00000310: a78b 6b7b 6554 b13f d787 9ffd e835 b5bf
0.03732434755500067 0.46089570940932184 -0.11597728433240538 -0.3211200061965494 -0.23737205427958644 0.26750695616091247 -0.16326139605155116 -0.2767930229491249
-0.20466885937649762 0.015348745951755418 0.09779519207230516 0.06731089058189235 0.06842798708706423 0.06737309635451795 0.3464274077809336 0.19713903959553608
0.04175972286785784 0.0031178381419109534 -0.17663421062713702 0.17564890061446609 0.28148327130000517 0.2491289443675766 -0.12254922358578117 -0.22505029967455475
-0.05610720881206621 0.016740120617149596 0.028917753301624424 -0.293120790860763 0.10324885706801952 -0.20408254977581888 0.14488940640914055 -0.1006355085817567
0.18589262644118648 0.08384394347795053 -0.11451890211928714 -0.17566846295734168 -0.08713981507303192 0.2783419840648168 0.12698841718751672 0.07302539560500447
0.30037615194654155 0.004803315081061773 0.18335163096452275 -0.16627119925651368 0.38393339775854884 0.27013403191490004 -0.09894059261321529 0.07554066974755068
-0.0524932375248895 0.03419897129386414 0.10939231158984503 -0.11240910820445514 0.12163586085421678 0.10826780444788352 0.15205640188826233 -0.08627250308617568
0.06681856413044204 0.06534570682219572 -0.11730784888458183 0.030216622921874384 -0.03356880858798491 -0.053557413131799986 -0.19601544396788298 -0.1655806422758688
-0.016188757828382003 0.1140798937940255 0.08029143411666811 -0.15095180744419676 0.08604210100485142 0.13346603303688562 -0.23396036699506625 0.20104013765270387
0.02652513007486383 -0.011181390057146487 -0.535081109850448 -0.07972023616400978 -0.09622761896095153 0.19532818368150878 0.22073907925444783 0.05652929262978871
0.022345891824361627 0.06676910978655955 -0.0059194630882389845 -0.1594909440261502 0.06410932656268221 -0.14138989658316448 0.07462357276819725 -0.11565125933905794
0.08948985225621602 0.17884577905431476 0.06147552031204093 -0.3909863907461775 -0.08149710585247333 0.21317907183938187 0.3657643602468055 -0.02077680937997883
0.4002199324384982 0.08332608187204539 0.06769403708635356 -0.08285385314914549

cho_hidden.bias f8 [10]
00000000: 4670 b7cf ce95 c1bf 2444 b395 3fa1 d0bf
00000010: b0d6 f302 2306 b93f 0de9 a02d 8a05 c93f
00000020: e78a 7a05 efe0 a3bf 593a cb03 166d c2bf
00000030: 3fdc c645 714a c8bf a334 ec1b 54f5 abbf
00000040: ceea 12ff 455d bb3f c65d 9e80 02c3 b53f
-0.13738427297983175 -0.25984181994596356 0.09774988958437336 0.19548156002003517 -0.038825482767853185 -0.1439540403866484 -0.1897718039233229 -0.05460608330586438
0.10689198949232123 0.08500686302283275

cho_elements_module.weight f8 [45, 10]
00000000: a7fa 8828 bb8e 8e3f cfd7 c5ea a5f9 a73f
00000010: 8fb4 c6d2 4450 7c3f 1f83 473c aab2 7bbf
00000020: b86d 0c4e 4502 b43f 614a 5a9f 183e 733f
00000030: 4898 f1fb 24f5 b8bf a3c0 66c2 1dc6 743f
00000040: e6f5 3cd4 0f46 93bf 05bf 26ec de4f 8fbf
00000050: 30fd d54b ede5 743f fd5f 4146 4b35 723f
00000060: 39d5 430b 6ce9 683f 5663 001a 26b1 883f
00000070: 5fb3 a859 d076 5fbf 4f77 2d3f c1c5 513f
00000080: d894 623e 182d 673f 67ae a847 46c5 42bf
00000090: dc4d 6a1c 591e 4f3f 27ff 71fc 8797 5cbf
000000a0: 78a9 7436 3936 bcbf d16b 458c 5a39 b8bf
000000b0: 317d f4c8 2258 b3bf 7986 4e01 13c6 b43f
000000c0: 271a 79df f7a9 b7bf 4b01 a4c6 89fd 93bf
000000d0: de54 501b 8e66 b0bf 0228 61a3 7352 b53f
000000e0: 9f61 33ea c7df 99bf 28ce 8629 5d97 993f
000000f0: f2a3 841b bcc1 8ebf 9103 6b55 3965 913f
00000100: b033 f588 58f9 6bbf b4da d811 9bfb a43f
00000110: f670 4e35 2e2a 7d3f e028 f9e5 b91b 9f3f
00000120: 2de4 446a e4bc 0a3f 0415 7dc9 95e7 4f3f
00000130: b426 b0eb ed25 2a3f dae7 4e22 7976 aa3f
00000140: face 5394 6db1 c6bf 8c66 f5b9 db5b bcbf
00000150: bb12 ca4e aa9c bcbf 3d63 9bbb 5e63 c73f
00000160: 6729 78b6 90c0 b4bf 015d c1c9 4e99 b23f
00000170: b943 fe91 995b 9fbf fdf5 4d74 1e86 b3bf
00000180: 173f ca86 aa9f a6bf d21e d995 c67d a63f
00000190: 5fc0 8dd4 15de 9bbf d773 e531 9941 81bf
000001a0: 9db8 8eb8 b634 4abf 534f a4ac 86b1 93bf
000001b0: 706a f197 0209 88bf c72a e3c1 dc0b 33bf
000001c0: 4e40 efd7 4a48 4abf b3b4 c0df 7e5b 9cbf
000001d0: 32ed 297b 246c 873f 94f7 d665 8baf 783f
000001e0: 37ca b646 87e4 623f 8ce2 9f51 5a5d 553f
000001f0: 99b5 fbea da36 40bf 998c 6828 4553 45bf
00000200: 5aa8 cfdc bfda 293f ecd3 bf55 9f80 413f
00000210: c229 42bd fb53 223f abda ff49 c956 13bf
00000220: cdbb c3ad 84e2 5c3f 7d44 e59a 2c46 56bf
00000230: bbfa b311 e55e 77bf 9037 1ae1 607a 833f
00000240: 440b 6faa 77a6 84bf afd5 46e6 a345 63bf
00000250: 7c41 c1cf f114 6c3f 2693 7eaf 00b2 653f
00000260: 0885 01e4 a5f7 483f 7d35 3009 d63a 8bbf
00000270: cebf c85f 3c1b 64bf f5db 6e59 5122 8a3f
00000280: 67e8 2012 b7fb 31bf 8982 2452 13c0 2fbf
00000290: a12c 16de b15c 263f 6133 a0fc f023 0e3f
000002a0: f973 76a7 bed8 193f a590 d135 4646 00bf
000002b0: 60f9 9c22 1747 2cbf 7564 5123 c310 09bf
000002c0: afac 4d9e 59fc 36bf 2b3c 481d a5e4 333f
000002d0: ad29 7f63 56a8 9abf bae2 5fb2 5bd9 97bf
000002e0: 7785 29a8 39f6 99bf a23c 5410 1d07 963f
000002f0: 70aa 5bcd 4836 8fbf e3b1 6731 11e6 91bf
00000300: 4890 f6ae e4f9 96bf b22d 1ae8 f33b 86bf
00000310: 9c98 4da9 0c6c 99bf 9860 ae45 2593 993f
00000320: 0c3a 9388 6562 b6bf 5d9a 881c 27db a53f
00000330: 49ed 5bce bf61 a2bf 3ab8 5602 cd4e bf3f
00000340: 727d 7efb 0f7b a13f a55f 14fe b086 7b3f
00000350: 12bd b01a 61f3 a23f 1f23 5ece e2b3 893f
00000360: 491a dcb4 e05c 6ebf 47f5 b1d6 7389 7ebf
00000370: 4a3c d6e6 dc8d a8bf 80ab 6c6e 8bfd b0bf
00000380: 8d6a b879 f8d7 97bf 4e4c 03c4 520d b13f
00000390: e770 465c f7e7 a3bf 3373 8425 1d70 83bf
000003a0: 02d1 ae56 96c2 a3bf 4298 38b5 453d a73f
000003b0: 0778 68b4 93f4 91bf b416 2cda 47e0 773f
000003c0: ce7a ee47 ed27 9abf 8fcb 24ef 00a6 873f
000003d0: d29e e315 0424 cb3e e6ca 6179 3cb2 633f
000003e0: df6f 3bab 5994 713f b81c d3d0 a22b 51bf
000003f0: 44d4 6c42 8de7 61bf fde5 d6b5 1eb1 70bf
00000400: d415 3c44 6fa9 513f 9470 a2c5 b801 14bf
00000410: 8469 3e64 09eb 513f 8e79 1ee4 e8c3 6b3f
00000420: 34aa 9656 f7ac 50bf 2199 8e8a 3748 43bf
00000430: 11d3 f3ad 3f25 683f e914 83ce 3309 543f
00000440: 32fc 599e 5cc6 4d3f de90 1c46 fb52 60bf
00000450: 8953 83f5 8264 153f facb 82e1 f200 6b3f
00000460: fd9c 6e7d d7fa 943f 1961 d3fb 0d8a b0bf
00000470: 40b0 0b78 44e6 933f 6bf2 5f9a 700f 8a3f
00000480: 98aa 875c 27b6 aabf ef10 a262 26b7 a1bf
00000490: 336e b892 e73f 8ebf c8e4 e5b3 365a a83f
000004a0: d02d 5839 91b3 89bf 06d1 7a18 86ce a3bf
000004b0: 2214 2c9b 20f6 bcbf ec94 3238 d271 cfbf
000004c0: 1838 1f9d 4f87 c03f 3a7f ee07 8826 ce3f
000004d0: f673 35d2 5ba3 c3bf 9452 3c45 fc4d c93f
000004e0: 3b09 3413 6c2d cfbf 2298 152a f7d6 91bf
000004f0: 38f5 0355 6583 a53f 8261 ad56 a03d c9bf
00000500: 2849 1bb8 f6b6 bfbf 28e8 f3e2 7b5f 753f
00000510: 5b97 8e24 5ed1 c2bf e7f0 8620 4d86 bf3f
00000520: 464f a35e 6921 a33f e40b 8354 0ce3 b1bf
00000530: e0d0 6742 271a b6bf 8c32 2adc 6226 acbf
00000540: d679 8c5b aa48 bfbf 5c98 e4cd 81a0 b13f
00000550: dc73 ac7f 689b b1bf aca4 df60 7226 abbf
00000560: 8d86 5a7e 4491 c43f cee4 9fd1 93d9 cf3f
00000570: 5c00 d637 ab2e cd3f d4bf 1ca3 5ac9 843f
00000580: 4b27 96f9 1f6a cebf 3f45 a25a 64ac b63f
00000590: 4089 4689 63f9 bfbf 6c2d 30bc 8cc3 79bf
000005a0: 1751 b5ab b9ac 8d3f 2099 e92e c2ff 993f
000005b0: f298 5dad d8c7 a6bf 4a23 5591 58e1 913f
000005c0: 6211 be0a 6f62 a13f cc58 e2fc ee76 a8bf
000005d0: ffc3 7d8b 7d73 a6bf a4e0 6c19 83ef 94bf
000005e0: 74ec adc4 3f99 acbf 6a73 c406 8ff3 943f
000005f0: 6b5d 4386 f36b 953f 40f5 e7c4 99b2 c2bf
00000600: 210f f224 0932 77bf 2ad7 0d9f e6fc b23f
00000610: 60b9 505b 9bd0 b1bf 27cb 707f 5a17 a9bf
00000620: 06af f067 3a92 92bf 6791 a707 86cb ab3f
00000630: 4ef6 28e0 6bbd 7abf 6e73 934a e7bc 78bf
00000640: 84b1 2517 aaf1 3a3f c86a ffe4 250b 33bf
00000650: 4979 48a0 55fe 3d3f 4e36 f3e7 1c5a 103f
00000660: fa13 80a0 bfdc f43e fb0b a410 07b4 2ebf
00000670: c45b 7499 25a3 00bf 9435 1d7c 6df8 3d3f
00000680: 0ee4 25b9 811b 13bf c0c3 b379 5178 31bf
00000690: 9bfa 8cf3 f8e4 b3bf 5188 f289 25e3 b93f
000006a0: 9d54 80cc 8509 bfbf 3ff0 694f 9748 a13f
000006b0: 4268 ecaf be28 953f 69df b218 0699 b1bf
000006c0: 4520 4d91 98ef 94bf 96c6 edf4 59e5 c7bf
000006d0: 35f2 d0df 2c38 cdbf 1002 ca13 2a9f d23f
000006e0: d0e3 5f2b 8a4b d8bf 3bc0 0f0a 56f9 acbf
000006f0: c312 495d fcd1 cebf ed65 9ffa 8a5f a83f
00000700: db9a f051 d413 bebf bf1e d482 32a0 c93f
00000710: cd10 c0fc f272 bebf ce44 b8a8 edf2 bfbf
00000720: 216a ad8e a123 9cbf c80d cf3d ebe0 d33f
00000730: fd8a dfd0 bcc3 92bf a354 92e4 27a7 37bf
00000740: bdf9 ddde 1837 873f 26d2 a015 01e7 9fbf
00000750: b2a8 4d6f 7497 b43f b351 5e46 a330 b63f
00000760: 6392 68c3 c8d3 9b3f 6301 96d2 5aee a03f
00000770: f991 413e 22e9 b13f 195d 5f04 9f9f 963f
00000780: 9799 14b0 4d4e b1bf b40e 376c 5a61 59bf
00000790: 2231 4169 9515 a5bf d658 f5fc cb21 a23f
000007a0: ed13 b655 cfa3 a63f 5ef4 389e bd31 a53f
000007b0: a5e8 12b1 4f77 90bf a2c8 f1ad 341b afbf
000007c0: 4b3c 85de 9701 803f 5985 1f80 e282 b43f
000007d0: 440c 6174 4b72 bc3f dee2 69a9 a79c c5bf
000007e0: a478 9e92 fb84 ac3f 5a7a 4cd5 3331 933f
000007f0: 3fbd fd54 7643 bebf 03a4 8638 9a62 c1bf
0.01492067544415694 0.04682653895262911 0.006912487832250082 -0.006762185079850962 0.07815964847070844 0.004697891408471295 -0.0974906077477452 0.00507175087697945
-0.018821952179896594 -0.015289060193793622 0.005102087915815276 0.004445356407892118 0.003040991805500906 0.012056634586814201 -0.001920417277356999 0.0010847460914286849
0.0028291200170139467 -0.0005728333629284155 0.0009496626961031335 -0.0017451122273825588 -0.11020238475308541 -0.09462514805402057 -0.07556359678391257 0.0811473730268747
-0.09243725973019733 -0.019521858929693974 -0.06406486670342157 0.08328936327703221 -0.025267718953587367 0.024991470012265676 -0.015017957296167925 0.016987701261999503
-0.0034147957991650033 0.040982099464988236 0.007120304585353168 0.030379204427199435 5.09984213600895e-05 0.0009736520177986712 0.00019949464135065253 0.0516851286296995
-0.17728967421100333 -0.11077664651875291 -0.1117655222279365 0.182720033268902 -0.08106331305331126 0.07265179086367725 -0.03062286332675843 -0.07626524295297794
-0.04418690581689882 0.04392834262085689 -0.027214375589608483 -0.008425900302137563 -0.0007997410003690756 -0.019231895720693015 -0.011735935460980701 -0.00029062404236117025
-0.0008020749518156207 -0.027692778021606922 0.011436734207782882 0.006026787302685483 0.002306236468677693 0.0013039953250865459 -0.0004948204932283983 -0.000650795715788982
0.00019725410530152776 0.0005341318133092999 0.0001398320006312359 -7.377246447491197e-05 0.0017629905406086777 -0.0013595042797372163 -0.0057057331098337395 0.009510762090282815
-0.010083136452413329 -0.002352542988058835 0.0034279559022609134 0.002648354853550211 0.0007619438183718305 -0.013295814662366063 -0.002454393308902048 0.01276076845338812
-0.0002744028043967284 -0.0002422355256124396 0.00017060919985243276 5.748824294480346e-05 9.859717999068087e-05 -3.10411621533846e-05 -0.00021574170505718037 -4.7808604371987156e-05
-0.00035073459576180193 0.0003035452948844687 -0.026032781431959574 -0.02329009319507478 -0.025353337181859694 0.021511510965009813 -0.015240257994681289 -0.017479199066586914
-0.022437642268087893 -0.010856538315485807 -0.024826238473359838 0.024975378396988462 -0.0874389131961168 0.042687628014665725 -0.03590201753646711 0.12229615504358629
0.034142016839946346 0.0067202485818355405 0.037013086803535114 0.012550136492579576 -0.00370639694199618 -0.007455303663957586 -0.04795732801277859 -0.0663687843886418
-0.023284799985143812 0.06660954747648981 -0.03887913705259099 -0.009491183955611859 -0.03859395797863564 0.04538934552356057 -0.017534549604640428 0.005829125092309862
-0.02554293395553025 0.011547095583045478 3.235422055703496e-06 0.0024043255935394135 0.004291868466420794 -0.0010480012891081313 -0.002185607812317277 -0.004075164758825076
0.0010779940211603683 -7.631960162019148e-05 0.0010936347689268497 0.0033893154768087136 -0.0010178008472886526 -0.0005884429166272167 0.002947449087168493 0.0012228971409496364
0.0009086563338341956 -0.0019926936810340376 8.16063815166202e-05 0.0032963508384340453 0.02048813536717108 -0.06460654638374698 0.019433088137631893 0.012724761687416838
-0.052170972867164156 -0.03460044816987017 -0.01477032581811164 0.04756327577610758 -0.012549528658403114 -0.03868502663445565 -0.11313060558684687 -0.24566104644797038
0.12912936374635886 0.2355508841255814 -0.15342281116582485 0.19769242649694674 -0.24357367456111398 -0.017421590751290357 0.0420180956152571 -0.19719318611420183
-0.12388555521764444 0.005218013698362646 -0.14701439652452106 0.12314302486533145 0.037364285280686846 -0.06987073004988492 -0.08633656855801375 -0.054980363250341474
-0.1222025369174625 0.06885539318736406 -0.06877759091408059 -0.05302770073451177 0.16068321389780174 0.24882743583274308 0.22798671938290027 0.01014967737464182
-0.23761367499201422 0.08856799328556962 -0.12489912129834568 -0.006290006395839636 0.014489603569622518 0.025389703858672452 -0.04449345699576836 0.01746118914641962
0.03395411497243363 -0.04778239094700751 -0.043849871900313524 -0.02044491617854817 -0.05585669780608607 0.02046035269551131 0.02091961390473555 -0.14607545961909274
-0.0056629521560614135 0.07417146094470853 -0.06958933810594692 -0.04900629811927209 -0.0181359411182447 0.05428713649215205 -0.006528302563820155 -0.00603952739876666
0.00041113283727758237 -0.00029058146628606037 0.00045766439896679064 6.237794331128666e-05 1.9895838732981293e-05 -0.0002342470764419012 -3.173311704978519e-05 0.0004573123261380704
-7.28891302851505e-05 -0.0002665709414051941 -0.07771259256422029 0.10112223260742438 -0.12123905413348486 0.0337569508019162 0.020663241851345278 -0.06874120810505037
-0.020445236080633106 -0.18668674907126065 -0.22827683380627808 0.2909646218541022 -0.3796105788783821 -0.05658978340932249 -0.24078325800851105 0.047603934377274594
-0.1174900722549909 0.2002013338862891 -0.11894148512516552 -0.12480054253707637 -0.02747967179616684 0.3106029609300234 -0.018324804543122564 -0.0003609154123947555
0.011335558225025072 -0.031154648728447885 0.08043601720206331 0.0866796538160262 0.027175080229556402 0.03306850262288454 0.06996358890462052 0.022093281404378027
-0.06760106610145154 -0.0015490897211386913 -0.041180295084446664 0.03541409933920796 0.04421852036742977 0.04139511639048331 -0.016080136473399027 -0.06075443862290909
0.007815538862500434 0.08012214305883471 0.11111899939810238 -0.1688432290282184 0.05570207752974568 0.018742380040857355 -0.11821689200381956 -0.13582160720878286

cho_elements_module.bias f8 [45]
00000000: ef12 d936 bb2b 9d3f d1b4 8112 5744 b03f
00000010: 9fba 6ec5 06b8 bb3f abf7 369c 9d8e b3bf
00000020: e0e0 3ff8 3f4a b53f 2c8f b1b5 d5f3 c03f
00000030: 64fd d1c5 26ab 70bf 1949 4904 2c7b 763f
00000040: 88b4 aba6 79c5 36bf b1ec 5b2c d94d 9c3f
00000050: a646 d3b2 5429 b13f 2648 c809 4989 b53f
00000060: 6265 52f2 b80b bd3f 7210 3c55 a7fe b13f
00000070: f23c 666a c959 bb3f f309 ba3b 2890 7c3f
00000080: 4283 73b1 3b43 a53f f681 b083 2811 ac3f
00000090: 32e2 e520 7dec 9dbf 39fd 7b0e 74c0 b73f
000000a0: 0cb5 c37c c6cb 80bf 4a09 2bf5 863a 95bf
000000b0: 83bf 5fcc 3017 cd3f 6324 5c20 ed54 a43f
000000c0: fc59 3941 8925 863f 5f8a d942 4182 793f
000000d0: b042 774f facc a83f e4f4 6de7 5e4c 93bf
000000e0: 3614 5053 e283 c5bf 130e b63a 5f0c 7fbf
000000f0: b15f 0b5c f28f a9bf 5783 685c 018d 94bf
00000100: 503d 078f 317d cd3f c59c 0844 d7e7 c43f
00000110: dbf0 3126 a657 be3f f2eb 29af 20e7 58bf
00000120: 66c8 4162 02ce 273f c7fd 8ec1 2eb1 c73f
00000130: 8623 777e d2a6 ad3f 801a 8408 501b 07bf
00000140: 1a73 8017 e4da a73f bbd7 d410 7bfe a53f
00000150: 8187 73bc a64d a7bf dca2 ffc5 2fe2 953f
00000160: f3ea 1f89 7a58 b53f
0.028487134192135718 0.06354278756926425 0.10827677078371288 -0.07639489234767775 0.08316421328334256 0.13244124767072074 -0.004069472747800649 0.0054885596660645625
-0.000347463798489774 0.0276407178234705 0.06703690877773258 0.08412605751826216 0.11346012035428069 0.07029195624278531 0.10683878753319556 0.006973416482312522
0.04152857342865569 0.05481840713060031 -0.029222445614751354 0.09278035501119043 -0.00820117061854344 -0.020731075967668468 0.22727022151184081 0.039710436058222574
0.010813782027224932 0.006227736402794364 0.048438856316015744 -0.01884601867231063 -0.16808728282936308 -0.0075801582237349395 -0.04992635129536838 -0.02006914259448264
0.23038310512354565 0.16332522222476178 0.1185249179124556 -0.0015199488813368825 0.000181615630143353 0.18509468508817248 0.0579133777023975 -4.407251350540143e-05
0.04659188067328142 0.04295715885602599 -0.04551430750303976 0.021370645961641496 0.08338132713098982

cho_diag_hidden.weight f8 [10, 10]
00000000: b696 1816 c7d7 b7bf 9485 bb18 87fb 553f
00000010: 93db d4a4 4251 b7bf 73ce 94c4 72eb b23f
00000020: 3e14 ece8 44bd cb3f c188 43ed f929 c83f
00000030: 42ab fdfa 756d 9fbf cf82 f845 bd6f b9bf
00000040: 093f e2d7 e537 c8bf 2ebb b8d2 d1e4 c43f
00000050: 1e3e 8607 41d9 b13f 6f15 bcc3 0917 98bf
00000060: 87ac 585b 32b0 c4bf b748 3476 faaa 91bf
00000070: 057e 53d5 416c c53f 4450 db6e 53e8 cb3f
00000080: 28fd c9ab 30cc b4bf 66de eafb 2558 a23f
00000090: ef4a d613 72ef cabf 0103 0b34 ed6d 9f3f
000000a0: f09a 369f 266d d0bf 8e86 5c7b 5b1d c1bf
000000b0: a2b4 1b38 f06a 96bf d032 9278 9b99 bc3f
000000c0: 83e0 94d4 316f b1bf ccd6 0d38 0851 c6bf
000000d0: ae33 c451 a72d a9bf eaa0 ea0c a45e c83f
000000e0: 78bb 3d9d 1ff5 b9bf 2f51 6dec 3da6 c3bf
000000f0: 0fb7 1457 dc41 ce3f abee 3153 de32 c4bf
00000100: 0c13 1993 7ec2 bd3f 9d40 e6f1 665d b0bf
00000110: 9f0b 1ece 7d97 913f 2ef0 2dbf 2d50 a53f
00000120: 3d08 ffcc 9e50 9d3f afe8 f705 6768 b0bf
00000130: bd97 56ba a0ba 5a3f 7c45 42a5 ffdc 7bbf
00000140: 5ed1 9352 eedd a03f b432 2011 f6ff 963f
00000150: d047 7a16 9551 bb3f 2c9b fbdf 662c 99bf
00000160: cb0c e170 3bf5 bbbf 1669 522b 3247 7cbf
00000170: b2fa f92e d6f5 c43f 050e b169 6268 b53f
00000180: 02d2 45e2 eefd 913f d9aa 65fa 6aec b03f
00000190: 1db2 7cc8 72b6 d03f 65f5 1412 d51b a93f
000001a0: 4860 a516 2da0 65bf f96f 40c3 14fb 903f
000001b0: e853 894a bf30 b43f b47f f40e cfd2 ba3f
000001c0: 2a3e 6146 d2cf 933f 77a9 adb2 2300 d4bf
000001d0: 29f3 a783 7fed b33f 3c3f 121e 9fda cc3f
000001e0: 7fc1 bfe4 6eb7 ccbf 008a de67 633f af3f
000001f0: c248 1b2b c663 b03f 64e4 18c5 c088 a0bf
00000200: 435b 6d5d dcbb d5bf e3c6 476b 9f86 d0bf
00000210: 9951 d86d 7a40 9fbf 3299 c585 8dac a03f
00000220: b535 bd55 5011 c03f cf39 ada2 ef58 d5bf
00000230: 694b d506 500a d6bf db23 43ea 06df 853f
00000240: ed63 8c86 e9ec bebf 573d ea33 7a82 c43f
00000250: 93be 7d58 849e a73f ff17 eddf 2996 8cbf
00000260: 739c 66d8 4d72 7bbf 7520 7aa4 21d3 c93f
00000270: 89ad 51d4 0ac7 99bf a1dd 1e12 e330 b2bf
00000280: eb1f 1de1 0dc9 cf3f 59f6 8317 5a27 c73f
00000290: 0d92 9920 62bf b23f 21dd 05db 837a 8abf
000002a0: dc4e df01 9dd7 d6bf 74c1 856e 6efb bfbf
000002b0: d1a8 c643 f8cb 953f cec2 db0c e07b c03f
000002c0: 8b16 a0ba 2dbe b53f 14c8 fccc d0f8 b43f
000002d0: 7b6f cf2a a9a3 62bf 43ad aa03 9ade b63f
000002e0: b70f 8e3b 14ae d0bf b4dd 9f89 a690 ae3f
000002f0: 1a17 e908 077a 893f 6131 bc06 1e92 c33f
00000300: 0744 8abd 8f0f 9f3f 26f5 d6ed bfdd ab3f
00000310: cd00 f2c9 77b9 ccbf 55ce 145e e8e1 a9bf
-0.09313625611738527 0.0013417071631284016 -0.0910836841984362 0.07390515612933672 0.21671353696015844 0.18878101430079222 -0.03069099754740568 -0.09936125715513387
-0.1892058662528984 0.1632330206789105 0.06972128328038038 -0.023525383540819286 -0.16162709675095163 -0.017253793205846715 0.16736624637904654 0.21802752411770332
-0.08124069398944711 0.03582876873173006 -0.21043230026824442 0.030692774106458213 -0.2566620402161979 -0.13370841525561555 -0.021892312454771308 0.11171886151914667
-0.06810294570903079 -0.17434790360464658 -0.049176434260608345 0.19038820868195866 -0.10139653767485679 -0.1535107998303231 0.23638490917203867 -0.15780238210924344
0.11624899951227635 -0.06392520337817804 0.017179456429868286 0.04162733992322419 0.02862785459706906 -0.06409305473053693 0.001631409607719444 -0.00680255757846859
0.03294319875741068 0.022460789485239288 0.10671359823962168 -0.02458344213564627 -0.1092106962760681 -0.006903835271396616 0.16375233930371774 0.08362402992593594
0.017570240555373935 0.06610745061122304 0.261135764873673 0.04904046865201898 -0.0026398544916155543 0.016582798402040997 0.0788688237165186 0.10477918734659292
0.019347463174481806 -0.3125085110574654 0.07784268345126279 0.2254218003113183 -0.22434793633830094 0.06103048937736233 0.06402243187338555 -0.03229334264728648
-0.3395911133169884 -0.2582167194042155 -0.030519402460485876 0.032566473559926826 0.1255283754966691 -0.3335532272948542 -0.3443794314127247 0.010679296516530037
-0.12080249342797318 0.16023185286438021 0.04613126354422294 -0.013958289285834978 -0.006700805743469751 0.20175571948152862 -0.025173348626066825 -0.07105845634838782
0.2483231877506563 0.1808884253331822 0.07323277755637765 -0.012928991433666827 -0.35690999205438145 -0.12493028829863367 0.021285895477981157 0.12878037097791267
0.08493314558298885 0.08192162518096807 -0.00227530518030322 0.08933413114089199 -0.26062494102393025 0.0596973460196141 0.01243978019659724 0.1528966458212251
0.030332799857720995 0.05442619112316498 -0.22441003189670142 -0.05055166386082691

cho_diag_hidden.bias f8 [10]
00000000: 415c 9fe7 3a98 bebf ab0d c3bc 5280 c4bf
00000010: d085 7468 c84b ca3f 50e2 70d2 054d d2bf
00000020: 78a5 abc3 4222 b1bf b465 571a 4cc9 cbbf
00000030: 6d02 513c 1526 ad3f 3e6c 5813 bc4e c03f
00000040: 3d72 e9b1 84b6 c1bf 0e66 a77c b8f3 c83f
-0.11951034693571307 -0.16016611306086523 0.2054377088580126 -0.2859510951125559 -0.06692902829276715 -0.21708060537529905 0.056931174862715796 0.12740279144859018
-0.1383825176916548 0.19493776404014834
