port_results/worst/delage/10_2000/30/6_trained_linear.pth (torch, 17023 bytes, 17 tensors)

radius f8 []
000000 53 32 40 04 9f db d5 3f
       0.34152961173166324

shared.weight f8 [10, 30]
000000 27 f7 bf 3d 75 a7 56 be f0 e8 ed 01 bc 8c 03 be
       -2.1098305200132616e-08 -5.689724280772822e-10
000010 b8 0b 6b 17 38 a3 d6 bd 11 57 03 3c c7 cb 56 be
       -8.235501677706585e-11 -2.1230437630861814e-08
000020 71 17 16 86 14 78 4a be 0b e3 a1 00 ca 27 4a 3e
       -1.232561802861618e-08 1.2179569370617556e-08
000030 1c 3e fe de a4 45 4f 3e 60 b5 5d 1d ba b7 03 be
       1.4562181654774054e-08 -5.738601215160025e-10
000040 83 c4 80 66 a1 ea 04 3e 66 1f 99 30 23 a8 3a 3e
       6.08751005338676e-10 6.2065168643118306e-09
000050 58 97 ac 5f df 0d 0d be 5a 9e ff 0c c1 65 3d 3e
       -8.455882099977086e-10 6.844633484971857e-09
000060 94 a3 5e e5 d9 bd 2c be d6 66 e0 43 51 91 3b be
       -3.345963321477765e-09 -6.418592822196161e-09
000070 31 f3 c6 b8 b0 2d 21 3e f4 6b 90 e1 78 e2 25 be
       1.999838022800545e-09 -2.547709387652386e-09
000080 ba f0 bd d0 10 24 17 3e 74 ee 4e bd 99 7a 4f be
       1.3469765883995595e-09 -1.4658508998519782e-08
000090 5d 53 87 d8 8f 19 2f 3e ec b4 f9 ab d2 74 16 3e
       3.620499181904267e-09 1.3071310005754209e-09
0000a0 c7 df d0 a9 34 ed 2c 3e a7 5f 6e a0 bc 18 30 be
       3.36749768220453e-09 -3.747788307905495e-09
0000b0 e8 54 3e 69 9f cb 52 be 09 7b 57 30 b0 48 30 3e
       -1.7504581409004853e-08 3.791399865473182e-09
0000c0 24 14 fa e0 29 13 01 3e 5f 8b 89 ee 22 c7 38 be
       4.969437656114451e-10 -5.769048995980559e-09
0000d0 0d 7a 15 6b ac f7 14 be 39 22 64 5c a4 6e 31 be
       -1.2204676543139031e-09 -4.058749286538865e-09
0000e0 95 74 89 00 52 87 33 3e 94 79 1e ba e8 7b 42 3e
       4.546855344136002e-09 8.607292493163572e-09
0000f0 11 e1 20 1a 8f ca 44 3e a8 96 38 c5 d7 ab 3d 3e
       9.681678406992917e-09 6.908378830398199e-09
000100 17 04 75 e8 36 39 46 3e 76 3e ce e1 b4 6c 3c be
       1.0348620861830128e-08 -6.618126072244776e-09
000110 54 e1 69 f2 98 af 0a be c8 60 cc 25 7a b9 07 3e
       -7.766627105568096e-10 6.90474409936664e-10
000120 78 71 46 52 b5 b1 32 3e 4e 36 08 bd 05 0b 24 3e
       4.35257633095666e-09 2.3333188508561824e-09
000130 c0 1c 39 cb 00 b0 04 be 44 46 92 02 7f 34 3c be
       -6.020858451095521e-10 -6.56700297712288e-09
000140 8c 78 bc 41 4a b3 45 be 21 b5 bf 18 54 99 5a 3e
       -1.0105013762868165e-08 2.4772192783121125e-08
000150 2c 04 a9 1d 56 73 4f be 6c 95 a7 80 f6 65 27 3e
       -1.464529557793692e-08 2.7239197609623105e-09
000160 db 01 af 6d 3c 55 28 be 18 35 6b 17 dc 95 fd bd
       -2.8327285911651655e-09 -4.3052408115853537e-10
000170 12 e5 dc 9a 3d 72 4f 3e 1b 1a 0a c7 88 d5 56 3e
       1.4643302427921066e-08 2.126592985260194e-08
000180 60 b7 5d 4d 7d 45 5b 3e 96 6a 27 1e 47 37 50 be
       2.5398510703826778e-08 -1.5102260672804075e-08
000190 78 18 ae 79 91 11 4d be 72 2a f8 29 fc 38 3a 3e
       -1.35361338160517e-08 6.105424304589347e-09
0001a0 5e 1d c5 4f b4 69 4b be 0e a6 50 60 b5 cd 58 3e
       -1.2765129835667337e-08 2.3100104957487144e-08
0001b0 8e fc c1 89 4d 65 49 3e 50 db bd 99 58 bc 29 3e
       1.182580105390407e-08 2.996032933838736e-09
0001c0 dc 26 71 cf c1 45 12 3e 9d e0 8d fd 28 a4 4b 3e
       1.0635988181920103e-09 1.2871460274127793e-08
0001d0 c6 50 52 a9 78 4a 23 be 4e ff 16 92 06 d4 30 3e
       -2.2457567564023243e-09 3.918126518923553e-09
0001e0 ff e8 f4 e4 8f 56 26 3e f5 88 75 81 46 cc 5b 3e
       2.600500960102949e-09 2.588885913751954e-08
0001f0 8f 9c 53 a2 8a eb 4d be 0a d0 37 b7 5b 96 54 3e
       -1.3932624896201497e-08 1.9173451671795526e-08
000200 ea ce 71 0c 15 40 2f be 0d 65 ca 4f d2 2c 54 3e
       -3.6380161969368462e-09 1.8789511268580106e-08
000210 4f a7 b9 b2 c2 68 2c be a1 c0 da 87 82 62 56 be
       -3.307268589028475e-09 -2.0847473517188285e-08
000220 f4 a0 88 bd 36 b7 52 3e 4a a5 08 53 2a 8e 45 3e
       1.7430334372165232e-08 1.0037484261365196e-08
000230 89 c5 9d c2 db 73 35 be 91 a0 f3 f6 1d 08 4d 3e
       -4.994816152574458e-09 1.3518942158831893e-08
000240 66 bf 34 d1 2b 81 32 be 98 d7 46 41 40 31 42 3e
       -4.308432072303657e-09 8.471490211457078e-09
000250 f0 a8 72 cb 6f 23 09 be d4 69 14 05 70 65 48 3e
       -7.316244475667239e-10 1.1360384773999027e-08
000260 42 80 94 e2 ca 5a 47 3e d3 cc 1a 22 30 09 45 be
       1.0875360239583966e-08 -9.795599945202845e-09
000270 51 81 b7 90 06 7f 15 be 1e c6 59 25 4d f0 49 3e
       -1.2512431671219437e-09 1.2078637794140625e-08
000280 52 7e 67 f8 17 0c 27 3e 24 38 a3 30 30 92 39 3e
       2.683051950088328e-09 5.953723523044121e-09
000290 20 0b 91 66 df 68 32 be 88 c1 63 8f c6 01 36 3e
       -4.286332713301588e-09 5.123889082326746e-09
0002a0 66 47 38 86 85 ab 3a 3e c0 cf c7 35 fd a3 de bd
       6.209594702597513e-09 -1.114697895143808e-10
0002b0 6d da 88 93 c4 c3 26 3e dd ef 4b 01 22 94 3b 3e
       2.650162003282767e-09 6.4211534047762916e-09
0002c0 9f 11 af 9e 39 13 2a be 2b 0f 9a be 05 46 55 3e
       -3.035540920597481e-09 1.9812514218220053e-08
0002d0 c2 7d bf 90 1d 18 1a be 57 85 ee 39 4c 9d 4f 3e
       -1.5188824113305128e-09 1.4721622863304088e-08
0002e0 90 1c 29 dc 7b 5f 4f 3e 98 5c 52 36 cb 37 54 3e
       1.460918397812572e-08 1.8829428145668313e-08
0002f0 6a bd 78 19 0a c9 35 3e 5a 29 02 5d 17 a5 48 3e
       5.072287832414427e-09 1.1476170153302919e-08
000300 24 40 07 49 2f 3d 46 be c7 25 8c fd 9a 27 4d 3e
       -1.0355842656415494e-08 1.3576219191831258e-08
000310 c1 d7 c6 0d 4c a9 35 be 50 b1 5f f9 cc 83 d2 3d
       -5.043418318761007e-09 6.735661884451647e-11
000320 40 bc 51 be 50 69 42 be f0 4e d3 eb fb 1e 58 be
       -8.573470775521361e-09 -2.2464461170458485e-08
000330 24 0d 79 5c a7 c5 30 be 82 24 2c 91 00 c1 42 3e
       -3.905055341214225e-09 8.732972155768072e-09
000340 0d e4 23 9c c0 15 40 3e 78 dd 3c fe 01 3e 59 be
       7.490147950212037e-09 -2.3508647375311794e-08
000350 04 03 18 8d 1e 9d 03 be 86 d9 5b 40 7a 0a 20 3e
       -5.708351796352498e-10 1.8674097848530295e-09
000360 f4 f3 9a 80 c6 f1 28 3e 2c f1 60 14 b5 64 40 be
       2.9039144464427023e-09 -7.633766185252133e-09
000370 68 a6 bf f7 e7 a7 32 3e ad 16 c6 c3 95 b0 34 be
       4.3436613160284924e-09 -4.817216011834595e-09
000380 06 09 01 c9 d9 cc 26 be 2b ba 48 34 cb 6d 55 3e
       -2.6542924039532896e-09 1.9957201462755297e-08
000390 b5 5c c2 d4 83 82 31 3e 57 1e 22 db f7 58 4a be
       4.076823611465595e-09 -1.226902566024078e-08
0003a0 22 b6 88 25 0e bb 2b be da 02 01 43 c0 00 19 be
       -3.2282765733834063e-09 -1.4553622855599169e-09
0003b0 38 1c f5 6e 2c 7a 40 be 38 ed 8e 7c 69 c1 4f be
       -7.672813022648379e-09 -1.4787314388484329e-08
0003c0 c7 c9 80 f8 39 76 45 be 01 68 77 ee dc 72 43 3e
       -9.993939689786315e-09 9.056499063642995e-09
0003d0 61 1d a8 8d 38 dd 46 be c8 d4 74 28 fc ba 4a 3e
       -1.0646946814649124e-08 1.2447317189644752e-08
0003e0 9c 91 f5 b5 90 f6 4e be 8c bd fa c3 9d 07 39 be
       -1.441833824442776e-08 -5.827693050068011e-09
0003f0 cc cf 0f b7 c0 7d 2b be a7 d6 b5 00 73 51 41 3e
       -3.2003994389473744e-09 8.064397169779874e-09
000400 e6 cc e2 ac 99 a5 59 3e 8a e1 29 3e e9 9c 46 be
       2.3885514726426027e-08 -1.0529967957684175e-08
000410 be 04 80 de 8d d5 3a be 5a 7b 7a 79 dc 23 11 be
       -6.247823126915746e-09 -9.976841348848127e-10
000420 e1 49 4b 7f 4c c5 18 3e c3 85 36 cf 75 4d 51 3e
       1.4418444191855453e-09 1.6114282309241864e-08
000430 6b e4 35 24 66 5c 3a 3e 55 c0 a6 8b 9c 55 54 3e
       6.137633126880824e-09 1.8937904336456382e-08
000440 23 55 a3 75 af 84 2a 3e ea f9 1e e1 f8 42 45 3e
       3.0871366965419383e-09 9.900708728444199e-09
000450 1b 24 da 1b 32 7e 16 3e d4 d5 6e fb 94 36 20 3e
       1.3092621287545452e-09 1.887466151657623e-09
000460 4b 29 6e 52 d3 7b 54 3e c8 28 fb 97 46 bd 49 3e
       1.9076925951728584e-08 1.1985822778201344e-08
000470 7a 76 fb a9 31 e4 22 be 83 18 3b 73 bd c8 26 3e
       -2.1992464098610537e-09 2.652423081387098e-09
000480 90 bb 18 75 a3 3e 4c be 3a 1f 77 19 29 83 17 3e
       -1.31524548223797e-08 1.3685986561585991e-09
000490 2a b9 e7 07 67 00 46 be f2 69 16 20 c0 53 56 be
       -1.0245280399200616e-08 -2.0793779147851526e-08
0004a0 c6 75 d9 04 19 36 45 be d0 6b 16 35 72 d9 22 be
       -9.87729023153731e-09 -2.194358841075984e-09
0004b0 58 69 af b1 9e a7 58 be b9 1d 47 17 9b cb 3a 3e
       -2.2961539430110876e-08 6.23877515312506e-09
0004c0 5f 7b a3 e0 fa 4f 40 3e 50 62 50 e2 e7 33 03 be
       7.596063351617034e-09 -5.588737846014271e-10
0004d0 00 2f 9a d4 c2 2e c8 3d c7 62 14 d8 5b de 44 3e
       4.398800297560498e-11 9.717693985046078e-09
0004e0 e0 2c f2 e5 c3 80 00 be 8b 74 b0 8a 7b be 32 be
       -4.803001988247465e-10 -4.364194487589378e-09
0004f0 28 2f de b8 90 bd 53 3e d4 ec 16 3e 4b 9c 25 3e
       1.838476353754376e-08 2.515796002699683e-09
000500 fe f5 78 cb a1 56 2c be 51 12 1d af b6 15 53 3e
       -3.2990246886556686e-09 1.7774122568956537e-08
000510 a2 4a 06 9d 3d 8c 3f 3e 24 a3 35 52 0a b9 34 3e
       7.345298106206326e-09 4.824906060928455e-09
000520 9d 6a d0 37 28 9c 52 be 1d da 05 ff f9 70 2f 3e
       -1.733190256947996e-08 3.6602507623638383e-09
000530 c7 63 df d9 29 e4 53 3e 79 9d c6 8f 9d a6 48 3e
       1.8525182825114074e-08 1.1478942679050706e-08
000540 e4 94 0c ef da 88 55 be ae a3 12 42 db fd 10 3e
       -2.005565042091078e-08 9.8904285481264e-10
000550 81 17 d1 b3 e0 bb 4b 3e 7c 04 71 4e 94 24 51 be
       1.2914602382417953e-08 -1.596555856639285e-08
000560 86 fa 1d d1 d8 30 20 3e 0a 49 dc 98 8f 2a 35 be
       1.8848581661922155e-09 -4.928152453627231e-09
000570 7d 16 80 e0 0d f8 24 be 18 f1 6a 0c 6c 32 30 3e
       -2.441108429981514e-09 3.77114889895865e-09
000580 d5 d0 d5 fa ec c2 52 3e 70 c7 89 98 34 cc 20 3e
       1.74729419175189e-08 1.9555070378138266e-09
000590 da 40 38 57 75 f0 33 3e 23 64 aa 0f ae f1 56 be
       4.642477835766484e-09 -2.1368323092385037e-08
0005a0 54 51 f6 7e 35 9d 36 be 1a 1e f1 07 95 c1 4b be
       -5.26525488434263e-09 -1.2924978641300643e-08
0005b0 5f 8f a4 94 be b1 43 be df 78 ea 73 01 e8 44 3e
       -9.170879740139433e-09 9.735241610517499e-09
0005c0 e8 1b c3 22 87 b0 30 3e 00 55 3d 6a be 16 a8 bd
       3.8858414647422535e-09 -1.0954337541213225e-11
0005d0 0a 93 30 bc 3c 7a 24 be 47 72 df 21 e0 f0 4d 3e
       -2.383893500585874e-09 1.3942327344663649e-08
0005e0 62 31 0a 86 89 5c 47 3e 80 04 33 dd b2 d7 dc bd
       1.0878533797104462e-08 -1.0492866931220515e-10
0005f0 15 d7 72 5c 5b 9b 1d 3e 0b e2 89 34 9e 1f 23 3e
       1.7233462311659425e-09 2.2262693115296758e-09
000600 d5 2a 1e ef 98 91 3c 3e ae 2f e6 26 47 96 59 be
       6.651678084971261e-09 -2.3829772316472932e-08
000610 d3 93 a8 04 01 92 1b 3e 5b 37 13 51 61 f3 14 3e
       1.6048043056191897e-09 1.219491455994396e-09
000620 e0 6e 54 ed 40 56 49 be 04 7c 78 ee d2 14 1e 3e
       -1.1798426605974988e-08 1.750964645742267e-09
000630 23 9b a1 dc c6 67 41 be a8 40 5d 02 1c 9b 3c 3e
       -8.105010791161589e-09 6.660329209876967e-09
000640 28 e2 39 0b a5 cf 3b be 89 7d 84 21 53 75 52 be
       -6.475279135472011e-09 -1.7190631225046966e-08
000650 81 e3 f9 32 b7 22 41 3e 17 64 bf 8f e1 32 4b be
       7.979389232030334e-09 -1.2665406938439677e-08
000660 50 61 6c 62 3f 07 38 be 0d 17 b7 e2 48 6c 30 3e
       -5.59452709746555e-09 3.8237746679436396e-09
000670 82 d1 fe 0d 1e 39 1c be ba 4f cb 65 24 b6 41 3e
       -1.6428014989861862e-09 8.247556576417994e-09
000680 0d c9 0b 0a fe eb 59 be 34 65 24 e6 56 4f 15 3e
       -2.414159949981823e-08 1.2404005813529727e-09
000690 0b 3b 96 a3 19 60 49 be 06 2c 66 bf a7 2b 47 3e
       -1.1816337341564687e-08 1.0789618071191644e-08
0006a0 90 d0 85 00 3d 6f 3b 3e 4c 81 0d d2 1f 68 32 3e
       6.387598013339791e-09 4.285652083945631e-09
0006b0 e8 a3 30 a1 c8 08 f7 3d 0f 8c ff bc 9b 22 34 3e
       3.351933463343485e-10 4.68808898643523e-09
0006c0 82 b3 63 dd 2c 01 43 3e 54 1a 75 b6 61 de 39 3e
       8.849702231846163e-09 6.023021060472713e-09
0006d0 b0 c8 4c 9c 9f 56 51 3e 72 f6 95 27 aa 22 52 3e
       1.6147618148162193e-08 1.6889915665274186e-08
0006e0 f5 7c c3 39 30 4a 3a be bd 66 5e 2c 3d 91 4e 3e
       -6.121070674819726e-09 1.423402674529548e-08
0006f0 13 6b 8b 67 a0 bc 4a be 56 4d 41 f0 fb 91 fd 3d
       -1.2450303220185104e-08 4.3030377894136126e-10
000700 cc 12 6a 7b e5 5a 48 be a6 fb 35 0b ce 9f 30 3e
       -1.1341210510006064e-08 3.870631970643733e-09
000710 c0 5b 5d ae ec 76 ed bd ba 87 5f 96 28 cf 32 be
       -2.1438280940611466e-10 -4.379361184430674e-09
000720 58 05 a8 6b b7 ba 4b 3e 4f 15 2c 06 c0 3c 46 3e
       1.291249006763838e-08 1.0355052098348642e-08
000730 df ab 77 dd e7 d8 57 be a5 59 fd 12 e6 7a 4e be
       -2.2209517639841042e-08 -1.4193390101825662e-08
000740 0c 5e 9b 62 99 bf 15 be ff c0 51 df 30 2d 37 3e
       -1.2659254846021088e-09 5.396205695053934e-09
000750 ca c7 f2 78 50 b7 54 3e c8 e6 a9 1d 83 23 48 be
       1.929334519636733e-08 -1.1240467158826142e-08
000760 58 85 b7 28 0f 4a 35 be 6e 64 da 10 34 d5 34 be
       -4.95679998042784e-09 -4.850520219549999e-09
000770 4b 66 d6 ff 51 eb 10 be f9 f4 14 7b d6 de 4a 3e
       -9.848282184112627e-10 1.2512533095250882e-08
000780 77 6a b1 52 0a b0 50 3e db f8 47 d6 3a c8 3f be
       1.5541592162828287e-08 -7.39985792476612e-09
000790 00 e7 47 39 e0 2e ef bd 94 0b e0 b4 b9 f5 3d be
       -2.2688697851085323e-10 -6.975574630074486e-09
0007a0 39 48 b0 d6 35 eb 34 3e 50 e1 0b b6 a3 2e 50 3e
       4.870535401221871e-09 1.507083469389807e-08
0007b0 86 cd f7 06 e0 b6 40 be 4a c2 f0 58 32 44 36 3e
       -7.783228477497567e-09 5.1842986700865264e-09
0007c0 78 52 5a 06 0b 76 35 3e e2 53 1c 65 ed 54 30 3e
       4.996803059554035e-09 3.80253124974493e-09
0007d0 4d d7 eb 76 4c df 44 3e a6 38 00 29 a4 8d 5d be
       9.719403696352546e-09 -2.7523642531827285e-08
0007e0 58 31 b2 12 fd c1 0d 3e 3c db 3d d4 d0 bc 33 be
       8.66065029928145e-10 -4.5955091432462805e-09
0007f0 22 90 f9 75 22 65 31 be 95 bd 9e e5 52 2f 2f 3e
       -4.0501023364899405e-09 3.6303953566968492e-09

shared.bias f8 [10]
000000 90 1f 05 e5 3c c5 38 3e e6 89 42 35 76 53 3d 3e
       5.767322245054008e-09 6.827996685553293e-09
000010 b0 d9 e5 87 f6 6c f3 3d a6 88 9b 19 a2 ea 52 3e
       2.826802194213469e-10 1.761739696390673e-08
000020 55 15 1d 75 80 64 3d be 5f 4b fa 96 6d b2 2a be
       -6.8434945087681824e-09 -3.10793806647192e-09
000030 4c b8 d8 a1 96 11 2a 3e 8e 95 b4 64 0f a2 29 3e
       3.0347966490274086e-09 2.9840794606537034e-09
000040 72 4f 3f 50 2c 7b 56 3e 9e 46 97 fb d2 39 12 3e
       2.0937197767040616e-08 1.0608855862921696e-09

mean_hidden.weight f8 [10, 10]
000000 1c be 50 ff bd 3c 5c be 84 1f dd 8a 51 69 65 3e
       -2.6298010842051902e-08 3.988184125877782e-08
000010 82 98 bf 48 e1 33 25 3e 20 17 31 ac 82 5c 04 be
       2.4683140583432797e-09 -5.925938285074302e-10
000020 98 8f 04 2c 94 9a 0f be 24 bf 50 8a 4b a8 2a 3e
       -9.197923187296704e-10 3.103330108968187e-09
000030 f0 90 52 ca 86 d5 07 3e 5c 8f 48 0a e3 10 2d be
       6.936632558673315e-10 -3.3837235949535186e-09
000040 e4 62 7c f0 e5 66 0c be cd 2c cf f9 bd b6 66 be
       -8.266054238417127e-10 -4.230781700634593e-08
000050 c2 85 b9 39 33 d1 42 be fb ac b8 b0 c4 12 4d 3e
       -8.762435935857827e-09 1.3538316709954242e-08
000060 e4 4e 2b bd 1d 87 2c be ec 3f 0e ed 16 e8 41 be
       -3.321072730497008e-09 -8.33841032487245e-09
000070 83 65 2c 16 3d 4a 61 be d1 db 79 b3 72 53 60 3e
       -3.220512458639568e-08 3.040948687038751e-08
000080 9c 2d d7 38 a4 bf 42 be 44 8f 53 53 ae 82 4b be
       -8.73049701534511e-09 -1.2810562036902473e-08
000090 45 6e 47 bc 3a 88 33 3e 72 54 ff 37 5e c0 58 3e
       4.547682179154388e-09 2.305157265055548e-08
0000a0 fd 42 06 ab a8 82 6a be 9e a4 3c 09 c8 83 6a 3e
       -4.9379442204562325e-08 4.938760969484944e-08
0000b0 ae b8 9a c5 e3 e2 19 be e7 bb 5a 4b 8c d6 13 be
       -1.5067802755660431e-09 -1.1547281303176867e-09
0000c0 94 46 31 41 10 33 26 be 9e 2c 84 d8 df bc 5b be
       -2.58435806916093e-09 -2.5832830570022048e-08
0000d0 0d e3 79 1d a6 9e 52 be 34 a8 1f 5c 8a 00 3e 3e
       -1.7340967632735225e-08 6.9854108625763734e-09
0000e0 a0 4a 75 e8 d2 0f e3 3d 3d 3d 69 4b 25 37 54 3e
       1.3869293580711942e-10 1.8827070314480536e-08
0000f0 45 1e 41 0a 4f 17 32 be 35 2a 51 74 58 e4 2e be
       -4.212150770599001e-09 -3.5962991773236966e-09
000100 c0 c4 1e 03 89 e2 5a 3e 70 9a a6 15 71 78 41 3e
       2.5038517210706472e-08 8.13532412687873e-09
000110 42 b4 63 21 58 b6 49 be e0 8d cd 8c dc d3 3c be
       -1.1973214458490235e-08 -6.711944955425182e-09
000120 e9 4e 48 e6 4d a2 22 3e 24 26 05 b7 fc 30 46 be
       2.1692832411105844e-09 -1.0333655459663172e-08
000130 10 ef 4b a4 96 f8 41 3e b6 52 22 20 6e ab 50 be
       8.368421630561744e-09 -1.5524820547678484e-08
000140 70 b8 ba a4 ae 21 5a be 7d 93 3b 60 59 3b 2b 3e
       -2.433692207367426e-08 3.170202546536877e-09
000150 f0 aa b9 2a 68 33 14 be da 60 48 97 f5 f1 09 3e
       -1.1758417945056407e-09 7.551033535993648e-10
000160 7c f1 67 6c a2 a1 66 3e 3c fb 63 92 5a 41 1b be
       4.21542388113792e-08 -1.5864665775194585e-09
000170 ae 31 5f 1d b9 0a 20 3e 31 02 51 f4 e4 aa 65 be
       1.867521452563274e-09 -4.0358968202585076e-08
000180 8a 2e 9c 51 58 86 5a 3e 73 0d 3d 82 62 be 41 3e
       2.4703131185637446e-08 8.262549817630484e-09
000190 c0 d4 a1 e1 31 5c 46 3e 24 c9 39 f3 13 98 50 be
       1.0412249774387277e-08 -1.5454417480505212e-08
0001a0 ef f0 17 08 bb 3e 52 3e dd 43 7a 5f 05 77 51 3e
       1.699201890823066e-08 1.6265479600852007e-08
0001b0 08 10 49 71 19 2e 23 be c4 0f 51 09 9d 8c 56 be
       -2.2328546878489013e-09 -2.1000645295901444e-08
0001c0 5a 59 4a 33 62 b4 62 3e 5f c0 4d e5 2e 7d 40 be
       3.48400760786156e-08 -7.678287486482155e-09
0001d0 c0 df e6 cd 19 5b 0d 3e 5a f0 b0 f3 86 63 3e be
       8.543680448909665e-10 -7.075438730618881e-09
0001e0 94 63 a3 ad 86 95 5b be a1 82 6f 82 c4 99 5f 3e
       -2.5689682250264922e-08 2.943040313871864e-08
0001f0 ce d2 4e b9 2a bc 62 be 3c 0f 6e c5 f2 4d 37 3e
       -3.489670700272997e-08 5.425998392676323e-09
000200 98 36 e2 f8 f8 b2 3f be b0 70 cb e8 ae 67 1e be
       -7.380524537132304e-09 -1.7698046666885244e-09
000210 44 72 0b a5 b7 aa 6f 3e f0 f4 de 23 a6 eb 22 3e
       5.8984131917040584e-08 2.2026365444830286e-09
000220 2d 74 31 8d 50 09 58 be ce 1a 4d 8c cb 5d 49 be
       -2.2385628306208436e-08 -1.1812144493117134e-08
000230 60 8a 21 7b 94 8f 43 be 1d 30 63 8d 81 9a 23 be
       -9.1087349643753e-09 -2.2821523378530946e-09
000240 1a 7e dd 8c bb 88 1b be 8a eb ba 92 f1 74 62 be
       -1.602696242612741e-09 -3.437848969169505e-08
000250 05 15 cb 9d 12 17 5e 3e c1 a0 5a bc 18 3c 52 3e
       2.8023615305699494e-08 1.6982436587765515e-08
000260 4d 8a a6 ad 47 08 52 3e 2f 1a e1 39 f6 7b 2c 3e
       1.6793928783761947e-08 3.3160003207140644e-09
000270 12 72 51 c8 a3 94 48 3e 0e a5 f1 7a f9 da 62 be
       1.144624507171529e-08 -3.512086210121499e-08
000280 ba 96 4e f7 89 41 37 be f0 02 5c 34 e7 b8 42 be
       -5.414712113502132e-09 -8.718240028777186e-09
000290 f2 cb 8c a8 02 b2 16 be c6 d8 c2 48 08 a3 62 be
       -1.3210434154572562e-09 -3.471382922905166e-08
0002a0 ab 91 fc 35 de 15 5b 3e a2 3f 78 3e 3b 92 59 be
       2.522526487617181e-08 -2.3815051179416677e-08
0002b0 44 7d fc fa 9d 5a 59 3e cc 1e 7d d5 0f 82 18 3e
       2.3612727494753205e-08 1.4265565030950305e-09
0002c0 8b b2 9a 85 a3 af 41 be 22 99 03 86 68 bf 3f be
       -8.235726922775267e-09 -7.391834783349807e-09
0002d0 ad 06 04 ff 1d 3a 42 be 60 15 23 58 d3 90 2b 3e
       -8.487617692446627e-09 3.209072730721608e-09
0002e0 51 a5 a2 19 3a 8c 62 3e 45 2f 72 46 78 53 3a be
       3.454789805738379e-08 -6.129512098524328e-09
0002f0 3b 7b be 25 7e 8c 4d 3e 00 09 fe 59 e0 d1 3f be
       1.3759732179876245e-08 -7.40863140269894e-09
000300 15 68 09 45 fd dc 5e 3e a3 05 07 6f 69 b8 39 be
       2.8743631754576638e-08 -5.988487692224345e-09
000310 6b 69 5e 90 68 49 20 3e e8 ba 5f ee e5 24 15 3e
       1.8960274487167254e-09 1.2307505513826426e-09

mean_hidden.bias f8 [10]
000000 7a 15 e8 4b a9 a7 75 3e 9d 3a b0 d5 6e d1 59 be
       8.0670889503271e-08 -2.404497699217658e-08
000010 b9 a6 f6 b3 35 98 6a be 92 d0 0f 9c da 17 4b 3e
       -4.953624576792065e-08 1.2616244828338904e-08
000020 84 07 9c 8c 96 85 33 3e 24 c8 02 12 5b 0f 3f 3e
       4.545279883159804e-09 7.2317159206923054e-09
000030 62 72 9a 3e d5 22 6b be a0 fe b2 19 1f 69 39 3e
       -5.054486236259013e-08 5.9163735258049545e-09
000040 e9 73 ae 71 9f ca 6d be 6b 59 f1 12 e4 f8 26 3e
       -5.549098443873925e-08 2.674319564013668e-09

mean_linear.weight f8 [10, 10]
000000 5c 24 b0 89 1c 58 63 be 0a 13 01 80 4e f0 22 3e
       -3.603135319974524e-08 2.204754601138592e-09
000010 14 aa 62 87 da 5d 3b 3e 7b 81 72 6e 53 cd 55 be
       6.371786756351301e-09 -2.030474535437633e-08
000020 12 87 91 a5 0d e6 64 3e b0 c9 29 61 fd ef 55 be
       3.8926761099896374e-08 -2.0430851741705878e-08
000030 84 e9 45 9c 6a bd 46 be 52 fa eb 08 e9 1e 47 be
       -1.0589094830790025e-08 -1.076643510238807e-08
000040 0f 6b ee e5 8c d0 60 be ae bb e7 bb fa 26 31 be
       -3.13197261382704e-08 -3.993572526911453e-09
000050 ab 1a c9 90 0f 19 65 3e 5a 50 e8 89 54 c9 08 3e
       3.9297889474272726e-08 7.213805280686174e-10
000060 e5 a4 82 21 28 f4 59 3e d4 4e 10 73 64 83 43 3e
       2.4171301488702867e-08 9.086565807106617e-09
000070 fe b9 14 b8 af 0d 61 3e 72 ae ac d9 44 0e 43 3e
       3.176454922215333e-08 8.873519521239071e-09
000080 73 3d 34 4f 13 15 70 3e d2 b1 64 a9 8e b8 63 be
       5.991133260697948e-08 -3.6733088725575494e-08
000090 52 73 ce 4d 38 0f 53 be 12 d5 19 cd 3d ae 3f 3e
       -1.7750498726789973e-08 7.3762215932597276e-09
0000a0 ad b8 40 09 21 1e 53 be 95 0d 8a 33 c7 af 68 be
       -1.780473775374702e-08 -4.598243780621011e-08
0000b0 30 d8 7d bf b4 03 0d 3e 30 1a 61 eb 50 ba 56 3e
       8.444324120011546e-10 2.1166910634213045e-08
0000c0 8e b5 e1 df 5b 2f 54 3e 9e 7b e2 20 8b 24 52 be
       1.879874211195157e-08 -1.6896750714406813e-08
0000d0 3c 6c 58 50 07 7b 53 3e 24 6f 81 bb fa 63 4b be
       1.8142704247015114e-08 -1.2754716269425318e-08
0000e0 39 b7 e5 c5 11 cf 48 be ca fe b6 ad 29 e6 43 3e
       -1.1552527986939038e-08 9.266228165739223e-09
0000f0 12 f6 1b 1f ac 62 3b be a8 8b 15 15 e1 31 1b 3e
       -6.376169357908183e-09 1.5829480680551533e-09
000100 d2 00 6a e5 d7 36 41 3e 9d c1 49 b1 69 3f 49 be
       8.016001346424634e-09 -1.1756879505722977e-08
000110 22 8e 8f e2 16 0d 49 be 08 53 bb 8a ab 27 6b be
       -1.166534165266582e-08 -5.0580056890818315e-08
000120 bc 3c 1c 42 2a 8e 5b be fd 56 d1 64 7c 6b 43 3e
       -2.566290303098194e-08 9.043080196273023e-09
000130 80 f9 24 bb 19 3a ef 3d be 9e 29 dc 84 bf 53 be
       2.2720600190517112e-10 -1.8391870924149204e-08
000140 7d da 78 9f e0 45 6a 3e 37 45 d1 6d c8 ba 47 3e
       4.893719912325388e-08 1.1049965770655934e-08
000150 3b b7 b1 19 1d 76 58 be dd 52 fd 30 ac 8b 4d be
       -2.2781436831109787e-08 -1.3758240352255858e-08
000160 06 74 b4 08 ba 0a 47 3e 6d 36 9f d5 e0 14 68 3e
       1.0729721353211357e-08 4.485539291353693e-08
000170 82 6d 22 9b eb 4f 48 be 28 32 73 c7 ef 54 25 3e
       -1.1321245139541787e-08 2.4833464690869894e-09
000180 b4 11 d4 34 24 99 51 3e e7 59 6e bc 21 95 63 be
       1.6389609049282945e-08 -3.6475334356362776e-08
000190 2f cd cc e9 dc e0 53 3e 93 a6 22 cb 91 3e 51 3e
       1.8513175537027463e-08 1.6060110304713894e-08
0001a0 84 85 5a ed aa 9e 12 3e 6e ec 9f 87 4f 5e 40 be
       1.0838147509795163e-09 -7.622130693960044e-09
0001b0 79 fa 6e 06 8e 7d 52 be 00 9d fc 8a d1 15 9b bd
       -1.722057199246615e-08 -6.15846798181591e-12
0001c0 5c c6 6f cf ec 74 60 3e b9 8e 08 fc 72 9e 4d be
       3.0653064024457385e-08 -1.3792394671736313e-08
0001d0 7d b4 0f a6 ee 7f 61 3e a4 de f6 63 36 58 54 3e
       3.259579695728518e-08 1.8947366562623565e-08
0001e0 40 e8 dc 68 18 04 10 be ac 1d 23 6f cc 41 15 be
       -9.322537494156584e-10 -1.2373217420687654e-09
0001f0 46 df 44 5d 8f ce 25 be db b4 9a 6a 81 55 6a 3e
       -2.5386543788601937e-09 4.905090851318429e-08
000200 23 6c 7c cf a4 62 5b 3e 8d ce 8e c2 98 0f 5e 3e
       2.5504573535674315e-08 2.7996417770617078e-08
000210 39 c9 23 49 0b b3 6c be 08 e1 cb 2e 56 20 0f be
       -5.345678135035716e-08 -9.058949958167016e-10
000220 2b f5 9e 53 08 08 6a be d5 ee fa 22 c3 65 55 3e
       -4.8487218198381806e-08 1.9927982984902325e-08
000230 66 4d 0e cb 56 1c 6c be 18 12 6b bb 57 34 50 be
       -5.2360257802405e-08 -1.509158283997918e-08
000240 9f d1 4f 57 e6 8f 45 be ac 31 42 49 4a 98 65 be
       -1.0040639189850884e-08 -4.022360503103899e-08
000250 f6 52 d5 5a 7e 57 4d 3e 03 5a cf 6e c3 26 50 be
       1.3663327215010433e-08 -1.5042181656375454e-08
000260 f6 49 75 ee 13 b0 63 be 91 99 76 58 1a 40 57 3e
       -3.6671392862137587e-08 2.1653624252731026e-08
000270 58 3c cb 27 eb 13 4c 3e d6 c1 5d 25 78 e5 59 3e
       1.3074747723215416e-08 2.411786888901973e-08
000280 1c 68 02 7e f4 b9 47 be 96 7d 49 d3 3e 3f 23 3e
       -1.1048459869472701e-08 2.240651798040231e-09
000290 6f 0e 4c 39 71 5d 6c be 2e 84 14 ff 13 0b 53 be
       -5.283394625100693e-08 -1.7735430850604023e-08
0002a0 ee e5 b2 74 64 fb 34 3e 8c 94 a9 91 7d 9a 10 be
       4.885252934111752e-09 -9.66449648304248e-10
0002b0 b6 92 e0 15 38 a2 54 be 26 01 12 b6 a8 de 53 be
       -1.921660108135318e-08 -1.850515774339423e-08
0002c0 75 2b 60 dc b2 fc 58 be 5b 7f 19 cc 60 31 5a be
       -2.3271054215604664e-08 -2.439402347340633e-08
0002d0 21 6e 8e 06 26 b0 6d 3e ee 9b d1 a3 77 ed 49 be
       5.5298358620655456e-08 -1.2073482764074093e-08
0002e0 ff c1 4e 50 36 06 5f 3e e8 e4 de 6e 5c 21 61 be
       2.889359953004698e-08 -3.1907701244580126e-08
0002f0 40 75 e8 4e 34 47 0e be 26 58 ac ec 13 09 6b 3e
       -8.812099087027859e-10 5.035746893624849e-08
000300 38 a6 37 e7 36 d3 60 be 11 27 50 1e 6a 9b 59 3e
       -3.133910988688316e-08 2.3848459113800852e-08
000310 88 62 d8 a1 fd 8b 71 3e 64 25 08 34 9a 49 08 be
       6.536706861243268e-08 -7.068595501144243e-10

mean_linear.bias f8 [10]
000000 4b 79 26 36 eb 13 a7 bf 2c 95 a1 96 95 19 93 bf
       -0.045073843345778096 -0.0186522839725473
000010 d6 ea 38 73 d5 d2 b0 bf 85 97 c8 2c 5a 00 88 bf
       -0.06571706831975219 -0.011719421855626919
000020 0a 8e 14 f7 68 59 9d bf a7 3b cc d1 91 2e 92 bf
       -0.02866138465937066 -0.0177557739544302
000030 86 80 fe 8c 87 78 98 3f 62 c6 46 0c 49 ca 98 3f
       0.023897283535575763 0.02420915734700769
000040 d3 08 a0 a2 3d b4 a0 3f 99 75 c9 d3 6f 56 bb 3f
       0.032625127889348036 0.1067876712854371

cho_hidden.weight f8 [10, 10]
000000 91 8c 69 a5 e8 91 5b 3e bf 14 a1 c4 50 f0 48 be
       2.5676522542167408e-08 -1.1613002243982618e-08
000010 4f 02 e0 8c b1 4b 27 3e e0 f0 7d f0 a7 9d e2 3d
       2.7119738460134825e-09 1.354480904571471e-10
000020 04 a6 3c f7 80 f6 40 be 5a 3a f5 d5 1d d2 67 3e
       -7.898968347100582e-09 4.43696375149651e-08
000030 de e6 88 5c 2f e9 62 be d9 57 75 f5 da bc 64 be
       -3.522425690402872e-08 -3.862700620009504e-08
000040 9a 03 56 38 82 fd 3d 3e 3e 61 a8 3f 2e 84 56 3e
       6.982653460107963e-09 2.096996707710762e-08
000050 52 20 a5 83 aa 82 30 be b0 58 0a 8a 16 01 20 be
       -3.844130397959506e-09 -1.8631399342801097e-09
000060 58 a0 db c5 c2 0b 3d 3e 0a f2 33 0d b8 c3 56 3e
       6.762785079965575e-09 2.1201118039099852e-08
000070 f0 8b 2b 6b f9 e2 44 3e 12 d9 55 8d eb 9e 17 be
       9.726089577336117e-09 -1.3749104540138872e-09
000080 7a 44 49 a8 e0 54 4c be 1e c9 05 cf 83 89 37 3e
       -1.3192907441123034e-08 5.4801738566895305e-09
000090 a8 3a 72 d2 50 3c 07 3e 23 b3 71 c2 d9 22 6d 3e
       6.762452029709368e-10 5.4270280985162473e-08
0000a0 18 ac 78 2d ac 0a fa bd 6e 85 36 7a f6 4c 59 be
       -3.78956461238325e-10 -2.3563053409168726e-08
0000b0 ad 62 b2 32 b0 64 3c be a0 ff 60 22 77 51 61 3e
       -6.6108334736527965e-09 3.225770610392204e-08
0000c0 41 98 2a 00 cc 8e 5a 3e 94 e6 1b 5f 9a 8c 49 be
       2.4733878954207628e-08 -1.1897287574807655e-08
0000d0 87 76 b0 92 14 b5 27 3e a8 76 b2 8a 38 8f 48 be
       2.759898217528288e-09 -1.1436388133643312e-08
0000e0 c0 01 61 7b c2 f7 1a be c2 39 13 70 28 2a f3 3d
       -1.5697332162547156e-09 2.788827919249747e-10
0000f0 ea 7c fd 1f 1c ab 44 be 9c 9d 93 94 29 29 1c 3e
       -9.624472774033202e-09 1.6391737570641818e-09
000100 a2 5c 2d fc e2 eb 40 3e 43 a6 c4 e3 08 92 3f 3e
       7.879655932663119e-09 7.350567762356457e-09
000110 a2 3f 0e f4 ce 5b 1c be af 38 bc 89 59 fe 5c 3e
       -1.65068932153504e-09 2.700235111814608e-08
000120 f8 01 4a 2c da 06 20 be 5a 93 9e d6 55 4d 59 3e
       -1.8657611864445793e-09 2.356440856995578e-08
000130 dc 53 bf fd 0a 7c 35 3e 9b 3e 69 34 09 be 6b be
       5.002259908340097e-09 -5.167411259011784e-08
000140 a1 f2 eb ff 26 5a 54 be c2 99 ae cd f3 42 50 3e
       -1.8954423803933583e-08 1.514473245045798e-08
000150 4d c2 9c 6f ed 3d 65 3e f3 7e 05 8c d9 76 6b 3e
       3.956612988490924e-08 5.115616508416169e-08
000160 f4 e3 92 29 ea e2 66 be fa 65 91 9c bd 66 31 be
       -4.26292149995112e-08 -4.051563037398874e-09
000170 ba 6b 67 41 65 37 21 be 4c c9 39 d7 3c 0f 50 be
       -2.004251441228757e-09 -1.495659547466487e-08
000180 52 f9 d3 7f 11 87 33 be ac f4 43 54 61 5d 37 3e
       -4.546626184265588e-09 5.440033593948792e-09
000190 2b 86 f0 66 96 fb 3b be 07 49 5f 36 05 74 3c 3e
       -6.515244884424499e-09 6.624777925848369e-09
0001a0 35 3d b3 d5 a0 05 48 be 14 30 1e 1b bc b8 3a 3e
       -1.1186108642151435e-08 6.221612046635199e-09
0001b0 20 52 71 b1 eb f4 ee 3d b1 83 19 f5 e2 40 4c be
       2.2523979272108676e-10 -1.3156543995908757e-08
0001c0 7c 7b 51 c0 8c 2a 13 be d8 96 8b 9e d2 82 58 be
       -1.1156202639413612e-09 -2.2827672116214084e-08
0001d0 20 8d ea 8a 95 ed 07 be e5 c3 ff af 21 53 56 be
       -6.963982913183868e-10 -2.0791527610646447e-08
0001e0 0a ee eb 3d 92 c8 41 3e 38 05 be 84 d8 cb 59 3e
       8.281078876004625e-09 2.402465097652113e-08
0001f0 a4 47 bd a6 82 45 24 be 52 b5 91 c6 14 3a 52 be
       -2.359916087125813e-09 -1.6975104353787628e-08
000200 19 e8 9d 71 e6 c2 27 be 43 60 ea 48 cf 2a 62 be
       -2.7661827385396158e-09 -3.38390942950552e-08
000210 a2 a4 86 52 17 8a 2f 3e a2 9d e3 19 50 51 64 be
       3.671671539903426e-09 -3.784453216239259e-08
000220 12 df b2 5a 1a 7c 45 be ff 97 29 5e e2 bd 62 be
       -1.0004628978008586e-08 -3.4909202435704004e-08
000230 a9 f0 fa 18 cf a2 39 be 67 aa 1b 40 db d1 21 be
       -5.968839991435863e-09 -2.07449213438008e-09
000240 c8 ec e3 09 57 8c 02 be a7 7e 90 5c 52 63 1a 3e
       -5.398237584204805e-10 1.5359823293968364e-09
000250 e6 32 a3 60 76 cc 49 be 26 f0 76 ed 52 09 41 be
       -1.2013447143674344e-08 -7.933202024873517e-09
000260 a5 ff a6 43 94 2d 30 be 9e 2a 17 c7 a1 ea 46 3e
       -3.766744300530954e-09 1.067134134087583e-08
000270 6d 0a df b1 a2 af 36 be 29 9f 32 d7 b8 53 10 be
       -5.282013741270864e-09 -9.503587611236385e-10
000280 3c bd b7 4b 6f 02 6c 3e 11 58 c2 82 34 2d 52 be
       5.21717793097988e-08 -1.692826161243423e-08
000290 18 86 11 d0 99 05 16 be aa be 0b 5d 0b 66 46 be
       -1.281842021654171e-09 -1.0430165982174779e-08
0002a0 46 0b a5 29 b2 a8 51 3e 05 5c c8 8d 9b 58 4a 3e
       1.644619605193927e-08 1.2268369814012861e-08
0002b0 e4 8c fb 5e 86 61 17 be 6d f1 ba 57 96 c9 6b be
       -1.3609507929731402e-09 -5.1758159506115216e-08
0002c0 6f ab ca 99 27 f5 35 be 29 6e 86 88 a0 5f 38 be
       -5.112410408787382e-09 -5.674907773216531e-09
0002d0 10 04 2f 40 a4 ed 2b be 16 0a 68 01 04 fa 29 be
       -3.251280579372571e-09 -3.0240769985812314e-09
0002e0 15 b0 77 2c e4 66 59 be e4 90 77 4a d8 ee 5f be
       -2.3657380747029197e-08 -2.9739912447538075e-08
0002f0 3d 4f 15 79 a3 c3 4b 3e 72 97 3d dc 3c 06 53 be
       1.2928719236394724e-08 -1.771782166762837e-08
000300 0f 81 f6 63 5b ee 61 be dc 69 93 58 23 34 67 3e
       -3.339924292277216e-08 4.322019282197265e-08
000310 01 40 f4 39 42 c4 66 3e 7c 5c 85 c6 bb 39 13 3e
       4.240616324248121e-08 1.1190726349785076e-09

cho_hidden.bias f8 [10]
000000 22 55 41 06 ae 66 45 3e 0d b3 47 46 32 cb 56 3e
       9.965660470601247e-09 2.1228320783443824e-08
000010 68 b3 55 11 0d f1 04 3e 1d ec 64 fd 2f 22 62 be
       6.094809402563419e-10 -3.3776359197793293e-08
000020 40 90 60 b7 bc 81 0b 3e 5a e3 97 86 5e 1a 4d be
       8.00552831278086e-10 -1.3552142702303118e-08
000030 d1 23 84 5f 62 d4 4f be 0c e4 c5 59 6e 37 31 be
       -1.4821824643079004e-08 -4.00853519506876e-09
000040 a8 62 6d a0 53 8b 5a 3e 92 2b 34 a0 f1 8b 3d be
       2.472125440063292e-08 -6.8793668567794485e-09

cho_elements_module.weight f8 [45, 10]
000000 29 76 68 79 48 64 61 3e f4 1a 10 6f a6 73 33 3e
       3.239462314042518e-08 4.5289654119056065e-09
000010 bf 2c 91 2a 1d 00 6a be e3 e6 ca 2c e1 61 51 3e
       -4.84296028354746e-08 1.6188567641549942e-08
000020 8b 28 45 da c4 6c 59 3e 2a 3d af d8 99 ab 41 be
       2.3678763520504347e-08 -8.228382216827397e-09
000030 45 9d ef 2c e9 22 52 3e 26 ea eb 2b ee df 6e be
       1.6890811246117104e-08 -5.7508662268006724e-08
000040 37 fd bc 8f 53 e8 29 be 9e f7 a5 03 b1 4c 53 3e
       -3.016032866081089e-09 1.7974130830839518e-08
000050 b4 e8 1d a8 8c 50 36 3e f7 dd 8e f7 b4 52 6a be
       5.19553344953172e-09 -4.903054579653281e-08
000060 d6 51 b6 dd b2 8d 48 3e 2d c2 2c bf 29 9e 50 3e
       1.143361932110471e-08 1.5476555102746808e-08
000070 a2 67 b0 d2 82 92 0d be 38 f8 93 d4 2b 77 31 be
       -8.606674586372093e-10 -4.066506528427414e-09
000080 29 61 3a 8f 02 34 5b be 88 35 f3 85 9f 9f 50 3e
       -2.533492078504979e-08 1.5481866785795638e-08
000090 c7 d9 f0 13 45 9b 69 be 4b c2 75 48 a2 87 64 3e
       -4.769586547279914e-08 3.823976962413721e-08
0000a0 ba f3 a6 bb 8e 11 25 3e 6e c2 0c 32 13 41 14 3e
       2.4527060081003004e-09 1.1789495562084035e-09
0000b0 0e 9f a2 2c d9 f4 59 be 3e e7 b0 99 8a bf 35 be
       -2.417381742754407e-08 -5.063649412149047e-09
0000c0 f2 33 54 29 f3 02 5c 3e f0 0e 52 db 9a e0 5b be
       2.6087763578759172e-08 -2.5962817413768293e-08
0000d0 81 37 ed 6e e0 89 6a be 65 98 76 29 3e 6e 52 be
       -4.943195885139009e-08 -1.71648673865245e-08
0000e0 b4 b6 fc e7 06 87 60 3e b9 b7 22 3d b5 ac 6a be
       3.0784772951615616e-08 -4.968538970646817e-08
0000f0 ca 5e 9b e7 33 1f 30 3e 30 43 8b 4b 97 c4 fb 3d
       3.7536690368061165e-09 4.0407661552193694e-10
000100 a4 f9 ce 73 8b 7b f3 3d fb 12 e6 04 58 61 3d be
       2.8350909450679313e-10 -6.840622358821423e-09
000110 f0 3d fc 47 33 ed 4e 3e f3 d1 ec b4 56 4f 5f 3e
       1.4401303482661778e-08 2.9159632315704985e-08
000120 9b eb c2 42 12 8b 1f 3e 1c 88 a8 6c 01 37 29 be
       1.8360586480408154e-09 -2.935396680297567e-09
000130 2a 7b 1d e3 dc 34 56 be 00 cd ad 45 5e ce 32 3e
       -2.0681410534970667e-08 4.378642416409802e-09
000140 ad 2d f9 14 80 5c 5b be 88 bd 40 2c 01 52 11 3e
       -2.5482223718528885e-08 1.008175918626772e-09
000150 1c c3 ae aa 28 4f 4a 3e a8 a4 50 c4 4a fc 6a be
       1.2251182587371252e-08 -5.026444020062165e-08
000160 e0 38 29 96 4a a2 ef bd 34 6d f0 90 27 c0 53 be
       -2.301672837397573e-10 -1.8394183117729574e-08
000170 17 ac b3 6c ca c6 48 3e f7 7b 56 76 52 e4 6b be
       1.1537469110696325e-08 -5.1952681083581204e-08
000180 20 52 66 56 5d 29 d6 3d 88 8a b1 0b ea 29 e1 bd
       8.062336007135193e-11 -1.2488255381779698e-10
000190 e6 2a f9 fa 71 93 68 3e ad 8a 48 91 93 6a 42 3e
       4.577628886762839e-08 8.575764578560186e-09
0001a0 87 3c e8 b8 e7 65 11 be 16 4e 77 00 b2 db 63 be
       -1.0127007874892928e-09 -3.698875166891327e-08
0001b0 a7 36 f5 41 2c c1 31 be c5 c2 38 b6 ef 8f 52 be
       -4.133810654309083e-09 -1.7287443822107226e-08
0001c0 0f c8 07 f0 63 bc 53 3e a9 d2 2d 84 cb 3e 4e 3e
       1.8380489132407774e-08 1.4084062032709723e-08
0001d0 4c 60 37 d8 ce 71 60 3e e1 da 04 71 08 2b 6b 3e
       3.0630384475073616e-08 5.060452512794687e-08
0001e0 82 11 30 e9 3e 66 28 be 48 f0 62 51 e1 e8 2c be
       -2.8404637058260736e-09 -3.365530641580842e-09
0001f0 02 b7 06 ab bd c0 4d 3e 1e e4 a3 cc 6a 11 41 be
       1.3854770970107288e-08 -7.947923559298285e-09
000200 27 e1 23 36 b4 07 43 be 5e e4 05 75 da 20 59 be
       -8.861577864287382e-09 -2.3402584149624143e-08
000210 ce 92 65 48 f8 6d 52 3e 34 61 cd 61 6a be e5 3d
       1.71638743438491e-08 1.5820704546866077e-10
000220 c4 3a b9 40 41 ba 4a 3e 42 c9 b1 be cd 36 4b 3e
       1.2445989148278462e-08 1.2672542090543726e-08
000230 06 95 25 92 15 93 2d 3e 52 1d d8 2a 7c 7b 42 3e
       3.4429305111522227e-09 8.60652113033315e-09
000240 da 0c 51 09 04 2e 62 be 4c 89 19 6b eb 5a 50 be
       -3.386242145759803e-08 -1.523192478257447e-08
000250 23 fd de e5 c0 26 65 3e 7e c0 84 c6 b0 c1 29 be
       3.939751701221295e-08 -2.9984633006974334e-09
000260 cc f1 f9 8a df 6c 48 3e af a3 d0 61 df 7f 64 be
       1.1373910118637914e-08 -3.8183298502469666e-08
000270 aa 08 2e 1a 6f 84 3b be 40 3a 6b c2 fb e6 24 3e
       -6.406875393824836e-09 2.433345541861098e-09
000280 7e 21 87 b3 0b a8 66 3e 80 78 ca 23 a1 a4 4d 3e
       4.22008867326634e-08 1.3803636561307597e-08
000290 22 df 74 cf 63 1e 3b be 86 59 cd 2f 7e a4 2d be
       -6.314066817399568e-09 -3.4508470511822824e-09
0002a0 34 ec 70 92 83 d1 48 be 0e ca 6b 45 cd a5 5a be
       -1.1556974556267812e-08 -2.48175705220317e-08
0002b0 2e 1c cd de 7e 09 21 be 1d 0a 8c 2c 4c 89 64 3e
       -1.983378564171601e-09 3.825187417339274e-08
0002c0 1a 71 70 bc d9 71 63 3e cc 21 a3 75 65 58 31 be
       3.621862947769403e-08 -4.038516932497938e-09
0002d0 31 71 ae 7b 5d a1 61 3e df f0 85 8f ad 5d 49 3e
       3.2839053663182256e-08 1.1811931419725326e-08
0002e0 ca ae ab 8e 31 1e 4b 3e c7 ee e0 c9 b6 b3 49 3e
       1.2627776565261479e-08 1.1968430076965227e-08
0002f0 b1 f7 80 16 f7 b9 53 3e fa 19 e9 e6 af fa 5a be
       1.837166632733142e-08 -2.5126381359461137e-08
000300 7b 51 43 99 a2 4c 6b be 21 42 dc 56 f1 3a 50 3e
       -5.0849013140448434e-08 1.5115593602365254e-08
000310 69 c4 ef eb 8d dc 42 3e 2c 15 2d 9a ad 1f 0c 3e
       8.783089254132701e-09 8.185086396441254e-10
000320 fd 65 55 4d 3b 84 62 3e 41 11 58 b8 cc cc 68 be
       3.448972455783877e-08 -4.619359742985699e-08
000330 6f b8 1a 8e fb 3e 66 be 50 e2 a0 e8 9b de 1b 3e
       -4.1436452280982553e-08 1.6222222753591491e-09
000340 e9 d8 c6 10 6d 1c 58 be c4 02 5c 1f f0 9e 41 3e
       -2.2455155111830565e-08 8.205348382956312e-09
000350 e8 bd e1 ca 43 2f 3d be fc 3d 45 ea 71 97 48 3e
       -6.795075764312652e-09 1.1451347710924516e-08
000360 cb 37 60 66 8b 03 57 3e 1e 0c 62 ef de 98 45 be
       2.143331414438406e-08 -1.0056957471887767e-08
000370 e2 87 53 58 4e 0d 4f 3e 2c af a6 8a dc 58 19 3e
       1.4459703443666987e-08 1.475396286570696e-09
000380 fe 58 5e e8 44 74 45 3e f8 55 46 82 78 5c 40 3e
       9.990379422856894e-09 7.618783889183613e-09
000390 6f fe 34 73 a6 c6 53 3e 5c e4 0e 34 78 76 5f be
       1.8417814118654582e-08 -2.930198950469154e-08
0003a0 f8 77 cc 78 6d a0 52 be aa b8 4c ad ea cc 59 be
       -1.7347438641052458e-08 -2.4028547002102482e-08
0003b0 c6 8c 0c 0f 74 5c 4f be dd 49 0e 66 4e b0 57 3e
       -1.4603671578933914e-08 2.206181759810769e-08
0003c0 7c 97 78 68 d4 9d 38 be ac c7 7e 88 15 1c 65 3e
       -5.73148074099835e-09 3.9319886956960454e-08
0003d0 46 d4 0f c4 f8 ee 00 3e 06 00 2a b2 3f 1f 4c be
       4.928292289225908e-10 -1.3095357303096268e-08
0003e0 ac ab f8 e2 ec 0e 3c be 60 58 9a 7b bc ac ff 3d
       -6.532832538421872e-09 4.60928291717593e-10
0003f0 3c 58 7f 53 18 47 37 3e fd 58 67 8a df 8b 34 be
       5.419765351752927e-09 -4.783826812511405e-09
000400 02 f2 05 80 aa a5 3a 3e 99 0c 86 2b e3 be 5a be
       6.204269098797677e-09 -2.490883119341701e-08
000410 12 4b da 55 23 41 50 be 68 98 30 0c 54 c0 eb 3d
       -1.5138131962006306e-08 2.0191715495349105e-10
000420 ef b1 1e 3d 5b 75 20 be 5e ba 0c bb 6a 14 5f be
       -1.916012661861578e-09 -2.8945276123166704e-08
000430 3c 09 13 58 f0 bc 29 3e 80 7e 89 fd ea 3b dd bd
       2.996302484420119e-09 -1.063528704203367e-10
000440 d8 42 19 77 42 7e 63 3e c3 e4 14 f5 cd 02 44 3e
       3.6308917550206954e-08 9.3183271399515e-09
000450 68 ba 1a aa 38 a5 f1 bd 91 64 8a 6d b6 52 69 be
       -2.5677430503419956e-10 -4.7167942167702595e-08
000460 a4 24 67 95 a5 a0 61 be 08 ba 5b 14 00 1b 52 be
       -3.28338269243059e-08 -1.6862032900983168e-08
000470 78 c2 be 49 bb aa 56 3e 6e 21 cc b4 45 d9 40 be
       2.1110214562256305e-08 -7.845796590116447e-09
000480 d5 97 09 66 75 81 5b 3e 28 1c a9 d9 ce fd 47 3e
       2.5616677114952026e-08 1.117188368650562e-08
000490 58 4d 09 d4 71 6a 6f be 0a 49 ed 1c cb 36 1e be
       -5.851648632719102e-08 -1.7586884064574861e-09
0004a0 5a ea 38 25 71 52 12 3e 31 c4 67 ec c0 8a 36 be
       1.0664830311310697e-09 -5.248469831039235e-09
0004b0 a5 7a 52 75 a3 3f 40 3e 04 f7 b5 7d 28 d6 6b 3e
       7.566338370351253e-09 5.1849624783750815e-08
0004c0 a4 04 9d 3d bf 82 e4 bd 0d 3e 97 08 a5 7d 40 be
       -1.4923520648992344e-10 -7.679126906323402e-09
0004d0 21 53 ac a7 2c 70 3f 3e 66 1d 64 ed 6a 50 54 be
       7.3197720062026995e-09 -1.8919009325328505e-08
0004e0 53 ce 7f 0e 1f 70 3a be 76 31 60 c1 57 c5 50 be
       -6.155570476940625e-09 -1.561909009771571e-08
0004f0 1d d7 99 ad 4a 5c 59 be fb 8d 6a d6 32 73 65 be
       -2.3618819655676283e-08 -3.9953728149936135e-08
000500 98 f6 83 0e ad 01 66 be 3e 4f 83 09 41 17 51 3e
       -4.099038780796887e-08 1.591708151465631e-08
000510 e8 34 da 80 97 ae 5b be eb a2 09 9c 84 96 5a 3e
       -2.578087081885726e-08 2.4761968255717758e-08
000520 7a 2d 04 1b fc 05 3a be 3f 8c ae e7 20 6c 66 3e
       -6.059039867283274e-09 4.1764931921964564e-08
000530 87 d3 70 a6 76 8a 36 be 9d 2f 1e 35 b5 2d 3b be
       -5.248205959272995e-09 -6.327998418569264e-09
000540 d4 99 fa 06 b0 dd 4d 3e 6f a2 8c 62 56 39 65 be
       1.3907424739026667e-08 -3.9532732926045704e-08
000550 4b 4f 38 b9 4a bd 6f 3e fc ae 9f ea 91 4b 50 3e
       5.91192793852846e-08 1.5176083202548474e-08
000560 6e 8d 16 f7 06 9a 64 be f4 24 6e 3f 97 d1 59 be
       -3.837359841974925e-08 -2.4045551296217402e-08
000570 26 1a 6f a4 c6 97 54 3e b1 83 9c 3d 0e 60 64 be
       1.9178609169334268e-08 -3.7951799659750535e-08
000580 2d c2 74 ec 88 33 5e 3e ea 6c 9a 31 20 58 3f be
       2.8127159959816955e-08 -7.2978998622467206e-09
000590 d6 0b 79 a4 d3 d9 28 be f4 5a 2b bf 7f 7b 64 3e
       -2.8930238515414767e-09 3.815147655232349e-08
0005a0 42 69 5b d8 b5 7c 41 3e 84 63 c2 69 2d 89 4f 3e
       8.14308865773813e-09 1.46850241344679e-08
0005b0 b6 76 25 36 15 81 33 3e d3 8c 34 60 e2 81 5f be
       4.541182404370939e-09 -2.9343516072825804e-08
0005c0 3e 65 16 fd 4c 13 1f be 44 5a 83 c6 c6 c5 23 be
       -1.8088259677844024e-09 -2.3018294389519085e-09
0005d0 97 53 ae 3b 09 dd 59 be c1 96 d3 93 51 74 52 3e
       -2.408718889240563e-08 1.718697116995344e-08
0005e0 9c 54 2b 23 8c bd 4b be 44 2f 35 82 71 54 5b 3e
       -1.291763949055224e-08 2.545291278897868e-08
0005f0 3c 48 1e ed 53 48 2b 3e 52 0d a3 06 1e a1 44 3e
       3.1761045815473906e-09 9.606296387157987e-09
000600 7d a4 0e cf 66 b5 44 be c0 91 bb 5e 25 c7 42 be
       -9.64319332877876e-09 -8.74414759301758e-09
000610 b4 0d 29 80 e9 a8 5c 3e ec 76 ad da 49 65 29 3e
       2.669153077230287e-08 2.9564437195428162e-09
000620 0a ad 7d 2f 21 6c 45 be fa 5c a3 36 f8 0d 5d be
       -9.975573686286144e-09 -2.705917571333635e-08
000630 90 32 70 0f 61 1c 51 be 9a 33 04 77 9a dc 2c be
       -1.5935726484965303e-08 -3.359947813144723e-09
000640 ec 5e e4 a1 dd 91 31 3e c0 98 2d 57 8a 46 59 be
       4.0907850702997155e-09 -2.353968881919144e-08
000650 97 1d bc 53 5f bc 19 be b5 1e b3 46 db 52 63 be
       -1.498022441283423e-09 -3.599311856335855e-08
000660 4a df ad 2c 6a d6 6c be 0a 3a cd a5 f9 2a 56 be
       -5.371413676948804e-08 -2.0645439458103868e-08
000670 89 e9 c2 fa 17 91 3c be 1e 67 c6 23 1d 04 47 3e
       -6.651219946493203e-09 1.0717692616041578e-08
000680 7a 1a 04 ca 56 60 6c 3e c5 aa 71 1e 11 00 44 be
       5.2855022804724094e-08 -9.313347383410941e-09
000690 5c 1b 11 b1 61 88 5c 3e 96 b2 d4 d4 be 8c 69 3e
       2.6573185489088476e-08 4.7590186550522385e-08
0006a0 30 1b 89 9f ab 3b 2a be bc 18 45 5d f9 5a 31 3e
       -3.0539333252225458e-09 4.04086138536137e-09
0006b0 34 f8 a6 da 40 08 60 be 53 60 28 b9 c5 42 63 3e
       -2.986237331328576e-08 3.587609067131845e-08
0006c0 9a df 42 4e 8b a3 22 be 7e 8e e5 60 09 7f 44 3e
       -2.1698470677263298e-09 9.544304038675164e-09
0006d0 10 e3 0e e9 ec 99 03 be 9a 36 3f 48 a0 1d 23 3e
       -5.704720741943201e-10 2.2253635062955336e-09
0006e0 a9 80 84 f2 a8 76 57 be 23 98 71 56 9a 9d 34 be
       -2.1852101601415497e-08 -4.7999518588099875e-09
0006f0 73 32 09 20 fc 72 33 3e 5c c9 1d d2 16 cf 0e be
       4.528360353860478e-09 -8.966582235667739e-10
000700 22 eb f6 b8 30 d9 42 3e 86 d2 3a bd a3 bb 42 3e
       8.776970066418792e-09 8.723217626842995e-09
000710 7a b7 90 2c ab 1c 55 3e 94 6f 2f f4 9d c0 50 3e
       1.9662070003551004e-08 1.5601897784006463e-08
000720 de 81 b4 7e 6a 36 6b be e8 52 c8 a2 9d 1f c9 3d
       -5.068734750869404e-08 4.569937861101934e-11
000730 6c 17 ee f3 4a 33 51 be ae 9c b7 17 40 fb 66 3e
       -1.601908583171135e-08 4.280628026678662e-08
000740 74 8a a9 56 23 5d 65 be 12 8f 25 f9 fe d3 45 be
       -3.979321657324385e-08 -1.016450549137e-08
000750 55 ae fb c4 1f b7 55 3e 4a 25 47 dd 63 b3 5a be
       2.022397565987926e-08 -2.486700430448034e-08
000760 94 e7 c3 27 f4 f6 68 3e 8a 70 68 93 cb e5 4b 3e
       4.6500308466562984e-08 1.2990849823867534e-08
000770 64 6f 60 82 c1 15 64 3e bc 67 9b 54 b0 6d 48 3e
       3.741119795915845e-08 1.1375393643904597e-08
000780 f4 9e 95 c0 a7 67 62 3e 58 0d f5 1f 3b 1f 1f 3e
       3.4281804127062796e-08 1.8115385856569232e-09
000790 a7 b6 dd c3 90 5d 60 be b8 1b 58 d0 93 79 3a 3e
       -3.0483100917474227e-08 6.164170734182142e-09
0007a0 95 34 a2 80 69 4d 42 be c0 a6 a1 5b 14 31 42 be
       -8.522714995784909e-09 -8.471178304143863e-09
0007b0 92 42 cc 06 b5 3a 54 3e 0c eb ff 03 26 22 64 3e
       1.8840026805183084e-08 3.7501366012513446e-08
0007c0 b0 db ef 5e a1 1f 10 3e a0 7a fd c9 c8 80 d9 bd
       9.38514484658488e-10 -9.277960561071733e-11
0007d0 ba 23 39 23 4d 1e 62 be 3d b7 62 a4 56 40 5b 3e
       -3.374808379676979e-08 2.537977141701167e-08
0007e0 b3 33 a8 57 56 89 58 be cb 66 f3 be 90 e9 6b 3e
       -2.2851371886791697e-08 5.1990831079294613e-08
0007f0 0d 09 a2 93 31 cd 4c be 14 b7 25 5d 33 42 42 3e
       -1.3411761135921646e-08 8.502321434326188e-09

cho_elements_module.bias f8 [45]
000000 1e 62 08 6d d5 6c 7c 3f 5e 90 9a 6c d5 6a 85 3f
       0.006939729399640741 0.010457675339530844
000010 20 66 43 3d 19 bb 33 bf 6c a6 92 8f c5 d7 64 bf
       -0.0003010689372452153 -0.0025442942247380553
000020 af b8 f7 c4 cb 6e 72 bf bf ed b0 7f b2 14 8a 3f
       -0.0045001945249919925 0.012734789392303434
000030 d0 9d a4 8f d0 3a 2d bf 17 9d 1f 05 83 a8 35 bf
       -0.00022300525581296507 -0.000330478656108872
000040 b2 e9 b6 49 fb f3 6d 3f 09 86 14 94 0c 98 69 3f
       0.0036563785522194187 0.0031242604897137078
000050 16 8c 8c 4c e6 90 6c 3f 94 c7 5d 74 93 b6 70 bf
       0.0034870622661329438 -0.004080368036612731
000060 31 8b 2a 95 c3 13 8f 3f ac 2d bf 3f 59 2a 57 bf
       0.015174415578547236 -0.0014139052936908798
000070 ce 1e b4 f3 e6 1c 60 3f ee 20 15 26 4d ef 62 bf
       0.0019669066219910386 -0.002311373406573939
000080 4b 97 c7 83 33 e2 7d bf d2 e2 1d 8d cd 5e 82 3f
       -0.007295800427959363 0.008969884747544486
000090 ba c0 9f 9c e6 9c 65 bf 08 04 71 eb 2a 81 5a 3f
       -0.002638292707153847 0.0016177100312833054
0000a0 94 50 7b 0c c6 8e 7d 3f 36 2d 3c 79 73 86 8c 3f
       0.007216237667041398 0.013928320061970294
0000b0 1c 6a e5 d6 84 dd 61 bf ea 7a b3 d6 34 26 80 3f
       -0.0021808237571978705 0.007885372926862162
0000c0 8e 04 e5 6d 50 69 81 3f 9a 5c 00 73 8d 9b 70 3f
       0.008501652101246895 0.004054596458465865
0000d0 c0 69 4d d0 0c 0d ed be e7 e6 90 bf 72 36 39 bf
       -1.3852585206632138e-05 -0.00038471509430203086
0000e0 3e 81 e3 55 6c df 7e 3f ab 9a f8 f8 33 33 82 bf
       0.007537291703755776 -0.008886724505896856
0000f0 7c 50 30 05 a8 0c 91 3f b0 3a 83 2e f8 81 01 3f
       0.016649842564291792 3.339327469264097e-05
000100 df 60 bb 65 4f d7 20 bf 99 09 88 fa 32 58 70 bf
       -0.00012848705488611217 -0.003990363250070316
000110 2a 3a bc 68 c8 cd 4e bf 40 ab ac 28 6a 23 f5 be
       -0.0009400585708777044 -2.0159090620068586e-05
000120 e7 59 51 da a4 d6 7b 3f a4 4f 56 b1 7a 83 75 bf
       0.006796497303261684 -0.005252341526460844
000130 da 99 a3 a5 ad 6d 7b 3f 1e 66 95 22 60 50 61 bf
       0.006696394261075567 -0.002113521350719307
000140 00 11 0f 08 71 77 e2 3e bc b8 71 8e 9e d0 81 3f
       8.80554603267152e-06 0.00869869110303189
000150 fe 3d c9 b4 ec 52 70 bf 78 f4 d8 87 7f f6 86 bf
       -0.003985333093239783 -0.011212345441089719
000160 7f ce 56 d9 d7 e2 4e 3f
       0.0009425691557027465
