port_results/Expected/Adam/30_500/17/5_trained_linear.pth (torch, 679543 bytes, 4 tensors)

linear_mean.weight f8 [30, 90]
00000000: a5ab 7a4e 8025 a2bf 4597 029c 507c a33f
00000010: 5abb 8a8a e825 a43f eeb7 6694 662e b03f
00000020: 77eb b1b6 bb42 b0bf 5859 8f6b f5c7 86bf
00000030: 3336 17e0 f1bc 803f f95c 1584 1081 bfbf
00000040: ce30 ee0f 4111 b7bf a714 1580 d9e7 a8bf
00000050: cc20 19ea 8e92 a63f 3c2c 5c9c 5bb2 c0bf
00000060: 200a eb40 7874 b13f 9949 309f 32df 903f
00000070: a735 dbcb ef03 b83f 0235 db93 5c14 c0bf
00000080: e1cc 7280 f0d2 9b3f 4f95 cea9 83a5 9cbf
00000090: 0224 9a6f e776 673f d093 23e0 cca8 b23f
000000a0: fff3 165c 0cc1 ab3f 6ee0 75b8 8982 8cbf
000000b0: 1ae1 900f d85b babf d9d8 0057 8b07 bc3f
000000c0: 336c bd00 6f61 92bf f71c abc7 95f4 b5bf
000000d0: 8281 1ab9 326a 79bf d4d8 2097 a6e5 b93f
000000e0: 5408 efdf 9d57 a43f 42f6 0f87 5c4b b9bf
000000f0: 23bf 1b9e 6d4b 8ebf e2d0 9fc0 4646 9e3f
00000100: f913 71ac fcf7 b23f fb22 bb54 d6fa 95bf
00000110: 7053 af74 82f0 a2bf 2867 b609 e4fc a73f
00000120: b617 fc67 f46f b4bf 1804 b897 0d9f afbf
00000130: aa80 5653 f73d c0bf 2727 00d3 c792 b3bf
00000140: bf5a 5a8f 020f b23f a618 01cc 9a97 6a3f
00000150: 15ff 7ca7 72e9 bf3f dd42 ecf4 84f4 ad3f
00000160: 24e3 1417 525a bcbf 4a6e 0fef 31b6 b93f
00000170: 7ca0 db96 436b a73f f51a cbf6 368c c2bf
00000180: b272 9b7e d683 adbf c171 3709 7049 ad3f
00000190: 3288 2eb7 4d42 223f 89a9 8ee5 548e acbf
000001a0: 7d50 987f c8d3 b8bf 5070 0b9f c2cd b73f
000001b0: f7f2 4968 3018 86bf a211 c479 9289 6c3f
000001c0: 08cc 9db0 f235 c03f 6f08 9660 e4d2 ac3f
000001d0: 6b1f dfb4 fbd7 a9bf 7b6c f34d eda1 acbf
000001e0: 2ee6 3180 f1e6 b5bf e77a 8192 8207 b9bf
000001f0: 2acc 4429 5d82 b8bf 15db 886d b297 bdbf
00000200: 2734 ed56 d77a b9bf bf5c f16b 4d1c b7bf
00000210: bcbe 6ba2 1bef b8bf 648f 5662 88dc bcbf
00000220: 93a8 8e82 5987 b9bf 29a2 dfde 1a06 bcbf
00000230: 1935 4fd1 235a c0bf d168 06c4 45c0 b7bf
00000240: cc3d 7e9e 18e9 b6bf 2b51 5b3b 698e b7bf
00000250: cd86 6e52 511d b9bf 5711 b60d bd67 b6bf
00000260: 06b5 a336 addc babf de8e d6b9 f88a b8bf
00000270: d774 3e78 7794 b6bf 5673 024a 8c28 b8bf
00000280: f5fc 2b1b c15a b6bf 8ea4 9722 4e21 b9bf
00000290: f2e0 26de a296 b7bf e63d 94f2 bd2c babf
000002a0: e889 246a d8d5 b7bf 2a01 d74c ed1f bbbf
000002b0: 8394 b135 dd32 b9bf d3dd cd3b 477b b9bf
000002c0: 1a45 767c e98b b9bf 48b5 9227 12e7 b8bf
000002d0: 8388 b001 b936 a6bf 33c9 6d55 622b aebf
000002e0: de7a a525 63d5 bd3f 1a54 d79c 1dca b1bf
000002f0: f3e8 a4eb b8da 8fbf 0c16 21ee 8e54 b4bf
00000300: f2c5 7107 5142 71bf cdc5 40a2 49f5 b0bf
00000310: 6edb 58d5 8bd4 a4bf 9c1b de90 2d1c a03f
00000320: d486 3ed9 2399 65bf c551 90ed 95db a23f
00000330: 3df6 ea28 1aae ad3f 71cc 60e8 0c7e 71bf
00000340: de6d 0e7c db60 b93f 0986 6ba7 8146 b2bf
00000350: 01d9 445f 3240 833f b466 8493 abd6 b03f
00000360: e2c7 85b4 2b41 913f 8c27 aef5 0803 b63f
00000370: e242 75ce 7494 a63f fba1 fd74 3014 8c3f
00000380: 783b aa83 5d79 bebf 5e76 a59f 46e5 b03f
00000390: 0ad4 f950 93b2 b1bf 20c0 3895 e2b1 b0bf
000003a0: 543b fdc4 0a96 b33f 266c 9a12 1125 99bf
000003b0: e8f6 e166 c113 b13f 900c 4b30 c689 bebf
000003c0: 9f1f f5c0 6e89 bcbf 242f 4570 d2d2 79bf
000003d0: 8e07 f807 80d2 70bf dea7 0d19 1654 ae3f
000003e0: 4dd8 5870 29c4 8c3f b36b d209 827e 963f
000003f0: de3b 3364 fbe2 a23f 3aa6 d5b5 b853 9a3f
00000400: 5155 9916 75f0 afbf d47e dea4 5935 413f
00000410: f9a3 7974 97fc a43f 8e50 0e17 785e a73f
00000420: d8f0 5338 de77 b73f 8357 54b5 5416 b13f
00000430: 11a7 149d b7fa a1bf 8c04 10fe 7ad5 953f
00000440: c1bb 2db4 2d5a a23f 1992 cda5 720a 9abf
00000450: 6ca4 e4b4 c261 a8bf b09c ca42 001f a33f
00000460: eefd 953f ec32 b13f 404f d56f 24f5 abbf
00000470: e49c 877a 7c2c abbf 04c2 e3cb 7f0c ba3f
00000480: 3d36 c0d6 75d5 aa3f a7c1 eaa7 7be2 a43f
00000490: 63bc 7e6d 7954 b43f 23f2 7a3a d76a b43f
000004a0: 7d1c 8b7b 1057 833f f484 99b3 a23b b9bf
000004b0: d8aa e6d1 4ee0 a9bf 0d0e 7df5 a427 a5bf
000004c0: 3b86 fa62 f11f a5bf 43fd 50bc ecbf a6bf
000004d0: 566a 706b 8231 aabf 043e 5c36 d310 a6bf
000004e0: 8f55 98d4 22e6 a9bf 424c cc38 7a10 acbf
000004f0: ffea 1609 6de5 a9bf aeac 1593 9952 a9bf
00000500: 3d69 b40a ebbf a7bf 8b31 1480 c14f a5bf
00000510: 3008 89d5 0fdc a7bf aeac 5c15 3fa1 a5bf
00000520: 0e47 9aa7 18a7 adbf 2936 5daa 8b7d a4bf
00000530: 942b 6df4 d20c aebf 0cdb dcc3 1306 a6bf
00000540: 4a5b 36b4 a5c1 a1bf 9335 1e12 07c1 acbf
00000550: 8141 1da9 298e a7bf d866 60fa 9337 aebf
00000560: 226d 4350 52c4 a9bf 769c 98e3 bffb a2bf
00000570: 2f6a c63f 87c5 aabf fdec ae4a 0db8 a7bf
00000580: 306a f18c 6ad8 aabf 4e4d 4c3a 9dc2 a8bf
00000590: 25be 6322 aba9 a7bf 3638 b40f 5475 a5bf
000005a0: a62a 2355 0b83 823f 23c2 1b65 90e1 b23f
000005b0: c3ab 44f2 04db 9b3f ade1 db6a 404f 913f
000005c0: f1a5 7398 9e89 a73f 2811 e9d5 8bf2 c2bf
000005d0: 3b42 b95d 7a30 9e3f 2e11 f3dd be9b b4bf
000005e0: 5b9d 63da 3ac5 40bf 4911 3543 7b36 a0bf
000005f0: 2419 10be bcda 7abf b89c 9253 19ed b8bf
00000600: c6d2 8e93 bc79 aa3f 533f 17f6 ec1e b93f
00000610: aa14 4b61 6feb 9e3f 5f21 3be9 d559 79bf
00000620: ac7a a6c1 9267 5abf a24c 5f43 4895 a03f
00000630: 53a1 ec82 2067 913f fb0d a9be 80ed a0bf
00000640: a68c ca5a 27dd 99bf df6d e71f ab48 b63f
00000650: cdad 8e22 0cc6 b8bf e413 4e06 e15e 983f
00000660: be70 1b34 d0b6 a63f 2531 39fe f411 ad3f
00000670: 2175 823a c975 ba3f 24be bf1f ce80 ba3f
00000680: 07bb 12f7 8e02 cd3f 2154 a1f1 0218 c0bf
00000690: 2bd3 41a9 87ce b8bf c769 7c7e 7001 86bf
000006a0: 88f9 74f9 d705 b13f 87f8 0c56 c31f 83bf
000006b0: b6ad a600 6aaf a3bf 3bd7 4bf8 9469 af3f
000006c0: b743 b9b1 3611 8a3f b5a7 38b1 7bff b8bf
000006d0: f6b1 87d6 c22c acbf 97b7 6cca 1335 ab3f
000006e0: cc1d 352d 65ed a53f aa64 c942 c78e a33f
000006f0: 01ae c497 a0c8 b13f b99a 89ba 69f6 b3bf
00000700: a4b6 b4fd 366c b9bf ab96 18e1 3a2b bebf
00000710: 87e4 fddd 319c b9bf 9eea a301 f8d3 bbbf
00000720: a99d 279c 01b2 a43f c6bb 925c 65b0 92bf
00000730: 0ee9 6526 5107 b2bf 0785 9605 4113 91bf
00000740: ebc1 67fe 8d69 aebf 0946 e96a bcc5 b43f
00000750: 6a84 015b ca51 b4bf a51a 7b34 1547 9fbf
00000760: 7e33 57cd 7349 a1bf 2534 264c b649 c0bf
00000770: 239f b0b5 4faf c6bf caf5 a478 6869 bbbf
00000780: 455f 9040 1f59 903f 28cd 9b86 ccc8 8cbf
00000790: b8e3 9523 38c1 453f 0c7a 7402 eae2 99bf
000007a0: 7a23 c5be c895 86bf ab4f 73e0 0919 54bf
000007b0: cfd9 0ec1 81c4 823f 87ea 5392 0003 a0bf
000007c0: 5471 ede4 adf8 83bf a6cb 6b4d 11b0 80bf
000007d0: 6bd0 4eee 19b8 a0bf 20db 6cf4 127d 953f
000007e0: 2002 34e0 3cbe 94bf b022 81d3 1e9d 7ebf
000007f0: d2ba eb8b 51f0 91bf 478b 4a78 3711 7bbf
-0.035442361431101056 0.038057822269634424 0.039351717864852545 0.06320801852299926 -0.06351826868369224 -0.011123578400582687 0.008172883654789498 -0.12306311821645356
-0.09010702742506568 -0.048643872151424454 0.0440869007839538 -0.13044304976242127 0.06818343720355147 0.016476431814291457 0.09381006934127943 -0.12562138766808323
0.02717185768115094 -0.027975136985010803 0.002864315055209677 0.07288818809645581 0.054207216493047376 -0.013920856420313234 -0.1029639280321856 0.10949011682609767
-0.017949804706727867 -0.08576332211224612 -0.006204794060664988 0.10116044225364657 0.039730962358149796 -0.09880617425366103 -0.01479230536230564 0.029564958102086154
0.07409648141863547 -0.021464680596895196 -0.036991192573316733 0.04685127848206455 -0.0798332933300959 -0.06176035382305417 -0.1268910557673782 -0.07645844365484021
0.07054153442218601 0.003246118867568165 0.12465588177746796 0.05850615968495785 -0.11075318397059825 0.10043632589752707 0.04574023453261675 -0.1449040131612588
-0.057646468119604846 0.05720090973383974 0.00013930510212129124 -0.055773404142502044 -0.09698155512916347 0.09298340208937472 -0.010788324530261557 0.0034835682728291
0.12664636253211392 0.056296479025164874 -0.05047594626336046 -0.05592290474461322 -0.08555516605147126 -0.09777084423829373 -0.09573919541871648 -0.11559596227821729
-0.09953065750342259 -0.0902756107837943 -0.09739849772790427 -0.1127400627215685 -0.09972152173455333 -0.10946815434693548 -0.12775085182367077 -0.09277759586112501
-0.08949426526509469 -0.09201677035463678 -0.09810360205167541 -0.08752042374368806 -0.10492975791904166 -0.0958705381113378 -0.08820292173045928 -0.09436871344446493
-0.08732230103850099 -0.09816444725551518 -0.09214227603559147 -0.10224520847645344 -0.09310677138686396 -0.10595591665242368 -0.09843237458115266 -0.09953732690870902
-0.09979113854048585 -0.09727586237086883 -0.04338625093102257 -0.05892474453766496 0.11653728169538222 -0.06949029044274405 -0.015553898516931208 -0.07941525758459295
-0.0042136349867276535 -0.06624279223685577 -0.04068409900030799 0.031464981016191745 -0.0026364994209452184 0.03683155560443966 0.05796891927228074 -0.004270601673897465
0.09913417605132888 -0.07138834321406064 0.009399789364220814 0.06577560760015438 0.016850169079994155 0.08598381040624598 0.04410138149490252 0.013710383005403939
-0.1190393873641663 0.06599847219100627 -0.06913109518957597 -0.06521431105716191 0.07650821027094185 -0.024555460701417918 0.0667076946428683 -0.11928976706535566
-0.11147205553890992 -0.006304571176155158 -0.004106998559565768 0.05923527770831048 0.014046024075565234 0.021966964578137026 0.036887985211812455 0.0257099972708714
-0.06238141919008434 0.000525158664220949 0.04098962113204858 0.04564261704868598 0.09167279124443739 0.0667469923685911 -0.03511594574440669 0.021322175747631664
0.035844257587875024 -0.025430480356037764 -0.04762085397880686 0.03734589400601729 0.06718327095403939 -0.05460466256286489 -0.05307377811168992 0.10175322273040172
0.05240982290716232 0.04079042839782981 0.0794139759370736 0.07975526025524764 0.009443405885930506 -0.09856621632345136 -0.05053945839184387 -0.04131808754621256
-0.041259330112791 -0.04443301962646242 -0.05115897714150168 -0.0430971149308981 -0.05058392377047049 -0.05481321280799324 -0.050578505858956284 -0.04945831222979656
-0.04638609414742454 -0.04162411392653372 -0.046600813690489296 -0.04224583755270693 -0.05791546865397211 -0.04002033667221056 -0.05869158967705981 -0.043015115412734145
-0.03468053650720167 -0.056160183870001344 -0.046006490606148816 -0.05901777678827863 -0.05032593946244847 -0.03707694676659738 -0.05228827146057246 -0.04632607971822187
-0.05243237467285089 -0.048359788290464154 -0.04621634287638824 -0.04191076938342102 0.009039009605108572 0.07375433414905123 0.027202679907684556 0.016903883478308113
0.04597182856543814 -0.1480269236072982 0.02948180386585107 -0.08050148886383532 -0.0005117928856436625 -0.03166566081430006 -0.006556260371331644 -0.09736784258221831
0.05171002675289098 0.09812813766552368 0.03019498854952888 -0.006189189519951148 -0.001611607853739076 0.03238893339553185 0.01699496077631697 -0.03306200339696016
-0.02525769702573357 0.08704633263499016 -0.0967719635361199 0.023799434671236144 0.044363504753819324 0.05677762606919349 0.10335977247674012 0.10352791094896269
0.2266405779277749 -0.1257327728114044 -0.09690139658216583 -0.010744932994886448 0.06649541702515738 -0.009337926925237617 -0.03844767816493848 0.06135240107498282
0.012728144930550174 -0.09764836384479632 -0.0550289999845041 0.05313932271961546 0.04282680680131143 0.038198687460586925 0.0694675798919704 -0.0779787140287266
-0.09930747694007863 -0.11784713740834245 -0.1000395934078303 -0.1087031368260036 0.0404205802076903 -0.018251022124498716 -0.07042414843991571 -0.016675010648786983
-0.059399068169913104 0.08114221201073958 -0.07937302324127563 -0.03054459698503344 -0.0337635219726513 -0.12724951475357318 -0.17722507831171538 -0.10707714982432673
0.01596497375075436 -0.014054868562630121 0.0006639026752700483 -0.025279671096649678 -0.011027878114548296 -0.0012266727879266341 0.009163869575655873 -0.03127290521839137
-0.00975166182404822 -0.008148322272495023 -0.032654581394496805 0.020984932106524856 -0.020256949600481744 -0.0074740604541793515 -0.017518304982270312 -0.006608215979812488

linear_mean.bias f8 [30]
00000000: 7bc6 9b51 c10e b9bf 56db e3ef 7999 a5bf
00000010: a640 d81f a1b4 85bf b42f 9f1f 2b85 d3bf
00000020: 5f8e cc21 881b b0bf bc8b c38e 4d86 923f
00000030: 1902 90f6 3de0 913f a9cd f81c d07a b43f
00000040: 151c eaf5 21bc b63f 61b9 dc19 e3ad ccbf
00000050: 1d4c ab43 1225 b03f a3b8 e815 1595 b9bf
00000060: c3f3 c4f8 1be5 ac3f 530e a28e 16b4 9d3f
00000070: 0d1b ca7b 0165 d7bf 61bd 4017 88bf d1bf
00000080: 66fb 67de e884 dabf dbfa c9cd d711 a53f
00000090: 0697 7297 3395 ac3f 02d0 05d9 f6ad b23f
000000a0: 8dfe 4a2c fbb3 56bf ccf2 4865 0dfc 9ebf
000000b0: d508 012a 31b1 e2bf 1069 8be8 f31f c4bf
000000c0: e66f f840 c53b c4bf 46cc 6155 dd61 acbf
000000d0: 1360 f150 8a3d c8bf b18d 9289 f8a0 a53f
000000e0: 3b8a 9b7d 4a6c c3bf 467d 7eaa 8ee0 c6bf
-0.09788139574427561 -0.042186556371169345 -0.010598429474186166 -0.3050029572302677 -0.06292010140583092 0.018090450132955502 0.017456978010161082 0.07999897677728164
0.08880817655345681 -0.22405661356738008 0.06306566383436558 -0.09993106636895503 0.05643546497092402 0.029007294135693872 -0.3655399044877619 -0.2773151614264489
-0.41436216086724753 0.041151756163335405 0.05582581733442109 0.07296698377996338 -0.0013856842862622093 -0.030258378321593324 -0.5841298885718752 -0.15722512106624054
-0.15807405159364335 -0.05543414752255464 -0.1893780608395451 0.042243735116496046 -0.15174227841551322 -0.17872794461161784

linear_cov.weight f8 [900, 90]
00000000: cbf1 dcfd e234 7a3f 5fa2 b324 0091 61bf
00000010: d58f 8df7 789a 5b3f e469 bf72 8a14 94bf
00000020: 41f3 3fd6 eafd a83f 63a9 1bce 0606 77bf
00000030: c246 fff5 45a6 65bf d86a b3e8 95a2 883f
00000040: 464a 3546 b613 af3f d820 f27f a1f1 a83f
00000050: 7b7f 5686 cbdf 99bf 51f3 affd 21d3 83bf
00000060: 23da a6e7 d837 77bf c9bd fbbc 6458 793f
00000070: 3020 595e accb 8f3f 6b3e d37a 0db8 a93f
00000080: 8a50 7b5e 0531 83bf 597f 554b e041 8e3f
00000090: 60db be76 82cd 763f c113 6bef ef8e a5bf
000000a0: 338d 301b c044 953f 8906 787e 4658 a23f
000000b0: 42c2 d12a 0c05 66bf fd4c e59e f71a a6bf
000000c0: 3c7c 2bb3 a414 a33f 1958 de91 ad99 913f
000000d0: 1d4c 1b04 2621 8b3f f7d8 295e 9ff0 83bf
000000e0: 32bc 06b3 9567 7f3f 08d5 d3b2 76d9 8ebf
000000f0: 4cd4 fc74 c456 56bf 7c01 bfc7 bdbc 91bf
00000100: 6a12 95b5 170f 71bf d311 31e7 8ad8 76bf
00000110: fb18 247b 5980 76bf 5d52 f654 cb99 7dbf
00000120: 6396 f2e6 50c7 953f a1b5 6f3e bd77 5ebf
00000130: b692 5002 43b0 b23f 86eb 195c 4476 a53f
00000140: dbf7 66ac ad72 a2bf df8a f7fe e03f 4f3f
00000150: 2e03 41bb 6a52 8fbf 1b58 70bf 5caf a7bf
00000160: d216 1e5d 607a a83f ff9e 8174 e4fb a7bf
00000170: 8d83 03da a332 a8bf 065f 955f f892 77bf
00000180: b67d d040 bb4c a13f c673 8d41 078a a3bf
00000190: 80bc 77fd c662 723f 9b99 e79c 2169 973f
000001a0: 9a8a 4243 481a 7fbf dcbb 226b 9383 8ebf
000001b0: f777 8eca 2474 a0bf 326a 30a2 5049 953f
000001c0: 6487 aedf ba2e a8bf 84f0 8c60 b46d b0bf
000001d0: 054a 6493 0b3f 6dbf aa3d 21b0 2fb3 643f
000001e0: e510 aaf2 49ad a93f 6859 12db 332f ab3f
000001f0: 0789 a949 d029 a93f a7ac face 3e85 a23f
00000200: a886 eeed c157 ab3f 8669 47c3 95c1 a83f
00000210: 8bab 44df 3ead ae3f d218 6cfb b3da ae3f
00000220: 5de7 8d16 2c12 ac3f 4653 b4c5 b91e ac3f
00000230: b13d 5a0b 2965 a23f 17f2 935b 2f64 ab3f
00000240: c5ed bf36 c396 a53f f0eb 20d2 6e27 a43f
00000250: 5031 947d a75e ac3f 61c0 75fb 12c6 ad3f
00000260: c680 2ac5 f9f1 ab3f ffd9 301e adc6 ab3f
00000270: 02c3 6e4f d8bc af3f 4443 3654 8648 a73f
00000280: bb99 ec01 e695 a73f c06a 865a 218e ad3f
00000290: 3812 12da 0294 ab3f 6f10 78b6 dcf9 ab3f
000002a0: 5ce7 e838 eea1 aa3f d163 b509 3727 a93f
000002b0: 7296 e4ae fd7c ad3f 1d5b 4230 abe8 ae3f
000002c0: 1dc1 d1b9 1816 a43f ead2 b901 b56d aa3f
000002d0: 8503 432c 1a1c 763f 91fa b813 5f72 73bf
000002e0: 4f7f 7323 a5c8 753f d899 9751 1c0f 80bf
000002f0: 6dc4 69a6 0fe4 9a3f 4f0b 05bb 55e5 3bbf
00000300: ca55 fc81 ad12 823f 6b18 2ee7 097c 993f
00000310: 4e8d 2879 6d1c 903f 49d2 943b 457d 973f
00000320: 2f36 cce9 4bb1 87bf 7feb bf53 c3ae 7e3f
00000330: 26e4 f2a8 1787 7cbf 8634 49b8 e711 673f
00000340: 1149 71b8 508d 82bf a095 1f20 d97e 9b3f
00000350: 69e9 3afd 7027 8abf 53dd 3ca8 50e0 703f
00000360: 7cc5 09f2 ed0c 45bf 5069 135a cd0f 9bbf
00000370: fce1 7392 dc53 80bf dab8 656b 534d 8a3f
00000380: dbdf c1cb dd20 913f a7b9 6e59 4d76 9abf
00000390: 8bd6 5be3 ce68 923f 96a6 a3e5 ce12 8a3f
000003a0: 1cc2 3c23 4621 833f 28c3 6d6b f22e 8ebf
000003b0: c03e efbe 6634 69bf f2c8 50bb bdc2 863f
000003c0: 91da 57f2 aa91 70bf 3496 7370 fc27 78bf
000003d0: 3b2e 04ce 6f7b 653f d6dc aeef 1b26 7f3f
000003e0: 556c a53f 6162 623f 3090 750f c1a0 7abf
000003f0: efbf 3f7f 1187 8d3f caf5 904c 2426 683f
00000400: 28f9 07e7 11c0 a13f 82fc db4f 1bca 943f
00000410: 1b49 fa51 bd45 91bf 35f5 582e 1f8e 7a3f
00000420: a888 e42f cefc 78bf 4c01 9f57 1b31 99bf
00000430: ae6d 2713 23bb 9f3f 6479 f3c7 c9cd 9dbf
00000440: a7d9 8a4e 194b 9cbf abb8 fb96 f147 8b3f
00000450: 4766 9ab7 d8da 823f c7cb edd8 aa90 94bf
00000460: bd0d 80d8 bcf4 5fbf 287a ebbe 4d43 643f
00000470: 1478 c7e2 2855 8c3f 8062 475d 2887 7bbf
00000480: 3c75 30bf 27d7 83bf 7581 7953 5cce 8a3f
00000490: 6aae 44ad 3e18 a2bf 6d10 ae56 6fa8 a1bf
000004a0: 2407 0782 b27f 913f 251c d821 b08c 883f
000004b0: d7eb 54ab 8a50 9a3f 9aa5 a4c6 d90f 983f
000004c0: fa1d cdd6 921a 953f e320 2f2b e003 933f
000004d0: aa6d a758 e2b0 9a3f 22d5 c795 7cd0 973f
000004e0: cd14 7117 fe6e 9c3f 5ab4 d119 8d62 9b3f
000004f0: 3f8f 9849 4214 9c3f 5991 5a86 ddc2 963f
00000500: 3f20 39f4 c9ce 933f 0d86 8040 98f2 993f
00000510: 5d27 9154 4c8a 963f c5c5 5322 2c98 943f
00000520: f4a3 0a6f 0ae4 9b3f e7ed 64cc 4bae 9b3f
00000530: 33b9 10fc 28f8 983f b312 2bce bd40 973f
00000540: 5d6b ee81 9054 9a3f ba91 0f48 bdf5 973f
00000550: bca9 8928 9873 983f 2bbf beca 5df5 9d3f
00000560: 9a8a 0a77 34b4 9b3f 4e6e ba24 d370 973f
00000570: c2fb 2105 57d7 9a3f 4462 2d9b 3e91 953f
00000580: 6fb8 57ac 2563 993f a7bb 4003 00bd 973f
00000590: 417c 4629 3ebc 943f a4aa 9f2f 35f5 993f
000005a0: db9a 3d18 4cf4 72bf 5094 278f f527 5abf
000005b0: 677c add4 98c1 62bf 0f87 5374 582b 723f
000005c0: 906d db03 71db 933f 84c3 0cc8 f844 653f
000005d0: 8f48 1b01 4711 8f3f be7d ebd9 0aaf 853f
000005e0: 01e6 fefd bbe1 883f 143f 1cae c81d 8e3f
000005f0: 20a5 d5f5 6dd1 86bf 21e4 6175 c06d 5abf
00000600: d60d 7e92 c7ed 5a3f d170 e0d9 6318 843f
00000610: 365a 3580 7e51 8bbf f87a 4e6e 2359 933f
00000620: 74f9 5908 fa79 63bf 7133 0fcb 2f64 88bf
00000630: da17 5056 3243 52bf 8c7c 36ca bfa2 79bf
00000640: fdcc 9f8f 4918 5dbf 4e35 bda4 1d57 893f
00000650: 9bf9 72a1 804a 7a3f c85a a4b6 d59b 8fbf
00000660: 63d8 600b b674 8b3f 5e7a d4a2 d9dc 883f
00000670: cc90 7c88 b64d 733f 456b 3204 d646 62bf
00000680: ff37 c495 5aa6 6c3f c160 27c1 9056 713f
00000690: 8b40 aa1b b29e 84bf 3258 1928 dc79 3b3f
000006a0: e122 f409 d569 713f f4cb 7fee 7474 533f
000006b0: 6508 36f0 3924 403f 08c8 1091 2241 7c3f
000006c0: d234 a051 2a72 7a3f fa5e c354 bd1f 6c3f
000006d0: 8cec ec9c 5b39 a23f 1056 87cd 034e 8d3f
000006e0: 4e1a b634 fbe2 7cbf 8c74 2476 bcf9 7d3f
000006f0: 30e6 d63a 4bbe 51bf 5830 8f3f 850e 86bf
00000700: 29df 3490 7734 803f cc3b 4587 bfea 93bf
00000710: 06c8 3c1a 0f64 89bf 82d1 89d0 cad8 753f
00000720: bbde 835a 5688 793f 23c6 cfd3 9dfb 7cbf
00000730: f806 849f 2b58 80bf 91b8 4e21 74ee 4bbf
00000740: 2e11 adcf 245d 7d3f 7c14 4ed8 16b8 3f3f
00000750: 98ae ee1d 9868 83bf 9ce5 9bd9 d285 313f
00000760: cb60 a922 a9ca 85bf 8af8 dd72 54c7 9abf
00000770: 101e 7505 ad61 753f 1b1b 546b 4ff9 793f
00000780: 5aaa fdfa d80e 933f a740 fae0 c2ea 923f
00000790: 1f24 e37c 8548 923f 8f81 a7e4 3c4b 8f3f
000007a0: c850 c5cb 91c2 903f 7c6a 52ab a988 913f
000007b0: 80d3 cdf8 fd05 913f 6045 ecb0 d60b 903f
000007c0: 86ff 5d4e 737d 913f acc7 dc9b 882b 913f
000007d0: 2105 bb0d 0f1d 8f3f 38be 20b9 b04f 903f
000007e0: 0f57 e581 b391 913f 46ad be21 9d27 913f
000007f0: 7bee d54f 063a 923f 6bb8 e80e a097 913f
0.006398092924254371 -0.00214433696747944 0.0016847783392330746 -0.019609606984753017 0.04881223550180503 -0.005620981771907149 -0.0026427618431420228 0.012028857387510625
0.060697265692074384 0.04871849715078874 -0.02526777274545065 -0.009680047563955492 -0.005668494496083673 0.006187814243943498 0.015525194768216094 0.05023233532267287
-0.009370843835690108 0.014774086283693743 0.005567083000577039 -0.04210614965044313 0.02077007451965791 0.03582973760422898 -0.0026879537240847304 -0.04317449392933701
0.03726687132961401 0.017187797573193195 0.013246819496464163 -0.009736294804707486 0.007667145503019989 -0.015063216526395098 -0.0013634604001258209 -0.01732155353215735
-0.004164784063793373 -0.005577604856686641 -0.005493497405274046 -0.0072267477657033926 0.021268142791674893 -0.0018596027455218616 0.07300204092514204 0.04191793083460653
-0.036031176848595435 0.0009536598790272597 -0.01529391654924125 -0.0462597831430431 0.047808657996069606 -0.04684366151997032 -0.047261352885249776 -0.005755396088112047
0.03378853956405285 -0.038162447692890164 0.004488732628927683 0.022861981584264873 -0.007593424106888813 -0.014899398524304823 -0.03213610622991319 0.020787486933935458
-0.04723152142038492 -0.0641739593237976 -0.0035701013649795965 0.002526848927153676 0.050150214073285494 0.05309450196471027 0.049147137634252096 0.03617283131219411
0.053403911871339915 0.04835193642402928 0.059915508989738596 0.06026232189292248 0.054826143029415 0.05492191828140007 0.03592804206447953 0.053498725823349406
0.04216585200625959 0.039363349104370005 0.05540965469308168 0.05815181083278343 0.05458050281345232 0.05425015443363534 0.06198764772068978 0.04547519472101283
0.0460655095433142 0.05772499303858103 0.05386361038202775 0.05464067199139399 0.052016682097429906 0.04912731164467455 0.057594230269654725 0.06036887134648892
0.03923108356764458 0.05161824842517666 0.005397894132500696 -0.004747744936649882 0.0053183031770627906 -0.007841321220394201 0.026260609180500816 -0.00042565672903920477
0.008824687508915203 0.024887232527838792 0.01573344280235505 0.02293880630641557 -0.011568635055961255 0.007490885731381235 -0.006964771672920233 0.0028161550310757425
-0.009058600071658181 0.026851074777274442 -0.01277054093167314 0.004120173518280384 -0.0006424104540895671 -0.026427467940132232 -0.007972453326588351 0.012842799868590427
0.01672693782936095 -0.025841911872413494 0.017977936388851517 0.0127311862783757 0.009340808821066075 -0.014737981704202222 -0.003076744723763486 0.011113626746098924
-0.004045169601787039 -0.005897508707879907 0.002622335785536637 0.007604703069709026 0.0022441768061703207 -0.006500963346614028 0.01441777867873381 0.002947874924329884
0.034668502285045755 0.020302225827432803 -0.016867597702522646 0.006483194161373708 -0.006100469034466517 -0.024601390097587925 0.030987308544224205 -0.02910533221153723
-0.027630229395720154 0.01332081548704552 0.009206479170916227 -0.020083112230576263 -0.0019504398533179833 0.0024734991524007106 0.013834304257155629 -0.006720693276712653
-0.009687719843038615 0.013088914201205818 -0.035341223383821355 -0.03448818142990793 0.017088689028020757 0.01198709109577407 0.025697867114313624 0.023497965573516667
0.020609182701518215 0.018569471965549488 0.026065384541522775 0.023256250993616175 0.02776715295864989 0.026743130398632388 0.027421031705798567 0.022227727246574378
0.019343524485776916 0.025339487969295905 0.022011940633354644 0.02011174163357567 0.027237093951644156 0.027032074308619782 0.024384155640455773 0.02270790644503746
0.025713212900522964 0.023398358844035384 0.023878457521655724 0.029256310939387447 0.02705461479730307 0.02289132987662717 0.02621208161189848 0.021061876508016178
0.024792278903924044 0.02318191547254469 0.020249339360472133 0.025349455863685436 -0.004627511258013607 -0.0015964410819091675 -0.0022895798660296676 0.004435868763921893
0.01939179025690191 0.0025963648808091117 0.015169672700185792 0.010587773108851613 0.012149304093202142 0.01470524579374869 -0.011141642632269966 -0.0016130809285910335
0.0016436051318756604 0.009812145315713757 -0.013339031493768787 0.018894723517969475 -0.0023774989556947738 -0.011909840950375035 -0.0011146537374329053 -0.0062587253372888944
-0.0017758100861982589 0.012373191442430678 0.006418707335966191 -0.015433950077335182 0.013406202528227057 0.012139988214184768 0.004712784786338808 -0.0022310428626729794
0.003497292446019706 0.004232945868771932 -0.010068313092489475 0.000419250725916756 0.004251320059901005 0.001187433424999493 0.0004925997640585876 0.006898055101418173
0.006456532772074657 0.003433103358570719 0.0355938557681493 0.014308957776772352 -0.007052403710423661 0.007318245103559506 -0.0010829672495290647 -0.010769883157898771
0.007912572944959688 -0.019450180655720392 -0.012397878635599834 0.005333702320616475 0.006233537024165232 -0.007075897706259523 -0.007980671697171968 -0.00085240049758341
0.007168906968960704 0.0004839950345785838 -0.009476841367209318 0.00026737592416700164 -0.010640450830735301 -0.02615100813954333 0.0052201040883299715 0.00634127638955453
0.018611326522128692 0.018473668080844743 0.01785477232695964 0.015280223587013335 0.016367223798923886 0.017122889596615995 0.016624420462409528 0.015670160816687484
0.01708011785331067 0.016767630112731233 0.015192144018672029 0.015928994464216667 0.017157368472303477 0.016752677139874515 0.01779947149542103 0.017179966840722132

linear_cov.bias f8 [900]
00000000: 43ef 2838 fdfe b53f 7377 880b a947 a03f
00000010: 4464 72c2 48fe 993f 3cf4 9854 3323 ad3f
00000020: 7589 79e5 9f6c a73f d157 8a89 377e 893f
00000030: 01cf 2e0b 251b 963f adc1 6d37 fba7 8abf
00000040: 3061 b5d2 ac61 8cbf b8ff fda7 8b52 9a3f
00000050: c1bd 0e54 9682 8d3f 714c 3df7 829b a03f
00000060: 09d9 3f63 a05a a03f 8c01 9fbf 7a6a b73f
00000070: 85e1 73ae 3522 a23f 35f6 a09a e6f0 ae3f
00000080: 213e 644e 04c7 9d3f 21be 7b13 327c 843f
00000090: 92e6 6cc7 a325 aa3f b9c2 8c35 74d8 93bf
000000a0: 7584 cc0b c49a 74bf 703f a51e 0e43 a33f
000000b0: f47c 2fcc cdba 8abf 6688 6af3 f7bb af3f
000000c0: eb04 beea 1cee 943f 1504 c40b 8653 8c3f
000000d0: d2ac 9b15 1699 5d3f c062 b923 18f5 ac3f
000000e0: af1e d412 8eea 953f 5cdb 5ba1 c54b 903f
000000f0: 9805 293c 3302 b73f 7f7c 6349 4da6 ce3f
00000100: b359 8b15 0bcb 3b3f 0158 2fe4 26e3 9b3f
00000110: 5904 bd7b 27b7 a33f 8a08 fd15 fb82 823f
00000120: f41c b354 3716 a23f fabb ee9e a23c 99bf
00000130: 4a33 1af1 ba83 723f 6c54 db51 6e3e 9b3f
00000140: 7f2e e9f3 953a 92bf f9c2 4b48 24e6 913f
00000150: 886d dace 7fb1 b53f a4e3 f390 6e59 bc3f
00000160: d52a 7a29 163e 813f 3173 1034 0850 72bf
00000170: 638c 0cdc ce44 883f 94a2 95b4 daec 833f
00000180: e303 e4db 45df ac3f 0d32 6d53 b8c6 723f
00000190: 99db 4f8b d343 4d3f 61d0 967a 0ea3 ad3f
000001a0: 3dcc 298c 7319 a93f ca7d e899 c49b a73f
000001b0: ead2 4c67 33fb a1bf 4cb6 7463 ed06 ad3f
000001c0: 435f 5260 cce0 32bf 811f d490 6fb5 a73f
000001d0: e720 8ae1 ae83 773f 9867 b57b cba1 5f3f
000001e0: c090 536b 0d1a a73f e951 5920 5c9e 5ebf
000001f0: 0ecd 1ffd 2b37 d13f 8212 b024 96b9 ac3f
00000200: a1d4 2cc5 c81e a13f 3cdb 9356 92bc 98bf
00000210: 6f6d 12af 8a23 8abf 6431 31bc b3aa a4bf
00000220: 01f9 74bb 5208 8e3f d0f1 cfcd 1a3f 9a3f
00000230: 92ae f25f 4499 70bf 4ebd 62df e026 373f
00000240: 14f0 c759 ef2f 52bf 515f ecbb db07 a73f
00000250: 2c86 9dcd 8469 a33f 97f1 7ea6 78c2 a23f
00000260: d135 99c8 e4bf 8c3f c985 ef0d a4fd 953f
00000270: c5fc 3658 af6f af3f ff86 3b09 b07d 9abf
00000280: 5e27 d1ec cdf3 693f 8451 6dd9 1b56 b43f
00000290: e5e9 6d66 555b 653f d96b ce5c 4b46 ad3f
000002a0: 4090 90e6 bd18 903f c449 5d84 b69a 95bf
000002b0: 3647 c753 4bfa 913f b198 026a 06ae ac3f
000002c0: bc3e 8b3d 48fe 923f c951 8b29 b470 a03f
000002d0: d304 27ba 20fc be3f ff52 87f4 402a b33f
000002e0: 3dd5 f8b4 0b33 a83f b719 3dbf cbd3 c43f
000002f0: 7e94 017e 7c36 bb3f 20fc 4323 b53b 913f
00000300: 73c6 bc67 dc89 69bf 5c86 a4ec 74be b3bf
00000310: 019a 60aa 4b47 8a3f a5ba c600 565b b03f
00000320: 2a12 6595 b759 963f 9017 94ba 1afa a83f
00000330: 5dfa 542c aac7 a73f a031 4fbc 3f9a c33f
00000340: 3506 9312 b0ab b13f becd 838b 3e6e be3f
00000350: 610c 541c 28db ad3f 5cbb 4b44 1d3f 9b3f
00000360: dc4a 4a7a 1601 b93f 0558 5ad7 62ee a4bf
00000370: 6178 814b fde6 95bf ac0b 0ddf b6a1 b93f
00000380: 09da 8d05 1631 9bbf 0d80 cdd1 9ac6 b53f
00000390: 8f62 e245 d60e b23f 54f7 2696 b951 9d3f
000003a0: d025 ca30 4d5d 913f 7295 bc04 e0a2 ad3f
000003b0: ff0d 1ba8 6329 ab3f b07c 277a 14db 9f3f
000003c0: 6cc8 7130 38ab a63f 2a30 2ff9 ade5 9f3f
000003d0: 57ba 1734 6bf6 983f c4f2 ba7b 34fc a33f
000003e0: 6555 0ecd 7241 c53f 670f d7e1 d768 803f
000003f0: 50cb c5b2 5a8e 5a3f 2e27 c3c2 a53e 87bf
00000400: 6b94 490d f518 a03f ef62 7690 781a 9e3f
00000410: 1fa3 e0ff 0644 903f 04ea f7fc 31a4 993f
00000420: 8157 66c0 f42e 923f 33fd eb9d c91a b23f
00000430: 4f2f 1524 1915 9f3f a164 b747 4af6 a83f
00000440: f17f 1728 bcb1 983f 39d0 f4c7 e5e9 833f
00000450: 1d24 6d56 6264 a23f 7d58 6fb1 2c61 943f
00000460: 28bf 95a4 727c 53bf 66bd 0bad e481 b63f
00000470: 290a 981c eebc 7fbf 324d 2116 479b a73f
00000480: 2bda 9d8a d4d2 993f 2994 45d2 3648 8e3f
00000490: 6146 03ae 6436 733f 7f69 8e2c f3fd a13f
000004a0: b4af a6ac 9f62 9d3f 21df 796b 289b 9a3f
000004b0: 733a 5f9e 1994 a53f 1a50 21a7 3ea9 803f
000004c0: d157 7b14 9f76 903f 4af0 a1a9 3361 b33f
000004d0: 3263 e82f 404c 9f3f 396a 6fa9 df9e d93f
000004e0: 3eb4 62fd 4bcd 61bf e2c8 2fb1 212d a3bf
000004f0: 3dbf 3e98 6d97 883f dbdd 62f2 ea31 a53f
00000500: bfb1 da42 8841 923f 2a3b 7e03 7ffd a23f
00000510: f7f3 1780 6a43 893f 5940 b3e1 8fbc aa3f
00000520: 6992 5bd7 6e0e 953f 4f62 7dad 4168 a63f
00000530: 039d 9883 ed23 a03f 8b85 3b22 1e1c 903f
00000540: 5663 cf17 6124 a23f 6d84 bd64 9f68 a0bf
00000550: 9988 2b16 4bf1 793f eb09 c918 9943 a23f
00000560: 4d14 4f70 c931 8bbf 98ee a110 a96f 883f
00000570: 3aeb 7d60 2f0a a13f 1e36 0b72 37e9 6cbf
00000580: 73bf 40b7 f9ea 96bf a992 0d3e 8a8d a33f
00000590: 0acf 73ff f905 8d3f 771e eded edd3 603f
000005a0: 2e02 9164 9617 ac3f e03d 5050 08f2 a83f
000005b0: d6a9 0dd8 bb83 813f dcd8 5ef8 f634 b33f
000005c0: ce6e 617f fa97 893f 4b3e 9fd5 8c89 66bf
000005d0: db50 e5b0 46f7 cb3f f415 5399 d185 90bf
000005e0: f338 19e6 ea0e 52bf 81fb 05da ab92 833f
000005f0: c319 c305 97a9 9f3f 3096 e76e 6094 993f
00000600: e501 15b2 9f86 9b3f 25b3 fabe 1351 ad3f
00000610: aba8 5a5a 543a 943f cf15 e861 363c 963f
00000620: 4f2d cb41 3f16 933f 876d fef5 3d9c a43f
00000630: f418 4528 da8c a33f ad41 480f 7dba 973f
00000640: 5601 2335 76c4 9a3f 5c5f 06f7 5300 743f
00000650: 4c5e 9707 d5a1 a1bf 38a9 9281 9633 a03f
00000660: 79f5 bb0e 1854 8a3f 17e0 e516 2681 913f
00000670: 47a7 417f 9a5f 703f 466d 606d 2279 a43f
00000680: 3e7b bea4 12dd 993f 2083 4d82 408d 953f
00000690: 32be 3444 6a75 a73f bab3 e67c c8bc b83f
000006a0: f5e8 caee 3767 933f 327a d075 0c1f 9c3f
000006b0: c383 cae9 e016 b03f c8bc 0123 e81a b33f
000006c0: 6f78 159b b7ed 7fbf 59bf 35a5 f12a e13f
000006d0: df29 5b3f 78bd 943f 289c 2192 a56b 96bf
000006e0: c9e4 6442 23d0 a53f ad25 47aa 17f5 78bf
000006f0: eda7 8fe6 ac8d 903f fdb2 5d51 08a4 b73f
00000700: 90a0 64ed c925 a43f 3911 de7e 53b1 b03f
00000710: 2893 296d 0917 993f f073 bb1b 30eb 8a3f
00000720: 6b55 fcb9 afcb 913f 4b8a fa8f 45da a23f
00000730: dd19 e22a 81ac a9bf 4385 9c83 4fbb 5c3f
00000740: 455f 4172 3956 96bf 8239 3e39 b61e 7a3f
00000750: fd7a e4c1 cef7 903f 40e4 8654 7fad a03f
00000760: 3f83 4863 9681 98bf 1697 9c7b f616 963f
00000770: b64a d8f3 682e 50bf 038e e87a e3a9 a0bf
00000780: ad14 8914 6e7f 9cbf e49e 523b 3aca 95bf
00000790: 9af7 10b3 8fcf 853f 7428 c2f3 5404 a53f
000007a0: ff89 e6bc 4267 b13f 5a16 6ed7 7def 95bf
000007b0: 6447 5a82 dca4 9c3f c7bc 67db 8ddf 9fbf
000007c0: 195d 7546 f1cb d63f 6f73 2516 2690 8bbf
000007d0: dd7c c126 fbb1 ad3f 8279 20e3 044e 9a3f
000007e0: 267b 50a7 395f 97bf 747a 2378 8cfb b43f
000007f0: aeba f1e0 3594 a03f 9114 5bd4 3177 973f
0.08592207547274903 0.031796724946828635 0.025384079807370577 0.056909183575478 0.045750614893011944 0.01244777096261976 0.021587923820063363 -0.013015711430598065
-0.013858175449670357 0.02570551121561923 0.014409231605752805 0.03243645923671402 0.03194142543354601 0.09146849802255569 0.035417249246111594 0.06043167722280566
0.02907950142349425 0.01000250932653929 0.05106841859237678 -0.019380393761084778 -0.005030408673321597 0.03762096523371283 -0.01305161265730568 0.061980961288342226
0.020439578845530198 0.013831183656749993 0.0018065181415590115 0.056557421074733494 0.021402568721014145 0.015914047215996305 0.08987732142215632 0.23945013125828393
0.00042408962830844525 0.027233703305533655 0.03850673089483143 0.009038888557942455 0.035325745667757064 -0.02464536757514322 0.00452015899794562 0.026605342622890424
-0.0178016119119051 0.01747948352107451 0.08473967361572055 0.11073962248691643 0.008419201985153371 -0.004470855755269552 0.011849990930903503 0.0097291075096149
0.05639093693935828 0.004584045432079365 0.0008930952959634752 0.0578846478123587 0.04902230344750833 0.04611029032480081 -0.03511963497149913 0.05669347609578476
-0.0002880572286101288 0.04630612032821003 0.005740817192993775 0.001930664743517307 0.04512063918244413 -0.0018688106223595463 0.2689924213329541 0.0561034126076594
0.03343799025462003 -0.02415684369494929 -0.012763102977536104 -0.040364853594470756 0.014664312692385996 0.025631350337777026 -0.004052416886377268 0.0003532694821712549
-0.0011100613984345075 0.04498182934747653 0.03791441926911107 0.03663994820041976 0.014037883159427363 0.02147537550979964 0.06139896346894028 -0.025870085299977138
0.0031680128072694566 0.07943891580845813 0.0026070278140057795 0.057176928595445715 0.015719382474472576 -0.02109799559486604 0.017556359280042254 0.05601520580357667
0.018548134571402683 0.03210986144191314 0.12103466553436996 0.07486349077164432 0.047264448014554074 0.16271349752260075 0.1063001449234253 0.01682932880157406
-0.003117495039895607 -0.07712488915833532 0.012831298005107962 0.06389367598488123 0.02182661866506145 0.0487831452137889 0.04644519606744233 0.15314480490486648
0.06902599767183733 0.11886969476818529 0.058312657793089036 0.026607949536749373 0.09767284856415465 -0.0408812415964093 -0.021388967259888484 0.10012381501751005
-0.026554435814853537 0.08506171819817628 0.0705388947120673 0.028632068433345495 0.016957479575045842 0.0578832631856966 0.05305015017577474 0.0311091613347087
0.04427505103457538 0.03114959557915157 0.024377512983784957 0.03903354654673799 0.1660598279237703 0.008012472705452202 0.0016208539701351894 -0.011349959379362309
0.03144040858459437 0.029397853677070648 0.01588450371505978 0.025040417733160694 0.017757248156690778 0.0707212458182667 0.03035392077190063 0.04875404477542956
0.024115505167969734 0.009723467983896327 0.03592212014206828 0.019901941613931207 -0.001189338642088653 0.08791951393844996 -0.007748537181671491 0.046106549693514146
0.02521831604050299 0.014786175052629318 0.004690545349335191 0.03514060896778214 0.028696532166278835 0.02598250537854974 0.042145538885610366 0.008135308719069246
0.01607750475417175 0.07570193187160715 0.030564310955102765 0.4003218798294799 -0.0021730884719404478 -0.03745370185778697 0.012007576187755492 0.04139646729293719
0.01782811077161894 0.037090272117998715 0.01233561709795515 0.05221986417893793 0.020562869924918212 0.043764164379073926 0.0315241072788073 0.015732260550867443
0.035433801800258166 -0.03204820732822431 0.006333630854643024 0.03567198207430863 -0.013278554668327081 0.011931725330433893 0.03328083088759688 -0.003529175083122351
-0.02238073521601742 0.03818923957331794 0.014171555622375393 0.002054180818422509 0.054867458130051325 0.04872156124485705 0.008552043467450792 0.07502692760212731
0.012496907245967217 -0.00275113589029966 0.2184837688206532 -0.016135478003681272 -0.0011021894391834402 0.009557097044987863 0.03092037174862995 0.024980074662286522
0.026880736583963744 0.057259194434072826 0.019753759398249453 0.02171406719755514 0.01863955344269402 0.040254532125994884 0.038183991828690284 0.02317233472609963
0.026140067094048668 0.004883125293780068 -0.03443780629794144 0.031643584553722126 0.012855709027912653 0.017094226024227135 0.003997424606589756 0.039986682750362365
0.025257388405971463 0.021046646073389685 0.04581768114655595 0.09663060235352719 0.018948434781784724 0.027462191286867284 0.0628490992335307 0.0746293149438656
-0.007795064172880214 0.5364921786076408 0.020254019610357218 -0.02189501480497938 0.04260358987307595 -0.006093113367066233 0.01616544873460406 0.09234668718790924
0.0393508055006474 0.06520578238820897 0.02450194100164818 0.013143897863693937 0.0173785645739221 0.03682153112938077 -0.05014423035122537 0.0017536427025749014
-0.02181329498156905 0.006376945315322737 0.016570311149844297 0.03257367998907812 -0.023931836900490607 0.021571971220644214 -0.000987627499288974 -0.03254614711138617
-0.027829856875787474 -0.02127924906804325 0.010649798061532146 0.041048674350421616 0.06798188316182772 -0.02142140033131166 0.027972646194548104 -0.031126228825027604
0.3561976612158602 -0.013458535719729629 0.05799851272672083 0.02568824421188643 -0.02282419284540107 0.08196332867690065 0.03238075610066936 0.02291562899224126
