inv_results/2025-05-01/04-41-17/22/2_trained_linear.pth (torch, 46829 bytes, 2 tensors)

linear.weight f8 [110, 50]
-0.0002328821133431823 -0.0010608639077022283 0.0001863816597345406 -0.0005325814601912911 0.002205155097947943 0.0013136590447764135 0.0009484965513504856 0.0025517888315529647
-0.0013866347870876347 0.0010753205827224543 -0.0014072154350814768 -0.00044745412181521277 0.0012081825062919527 0.0006475798534793921 0.0001846465443912497 0.0009204675066963645
0.001072837421101876 0.0018781837372338205 0.0011098552725024623 0.0011974548136485916 0.0003227644454427136 0.0015230240536308053 -0.0022379067973118615 0.002643483688358053
-0.0009937351087438713 0.002603782664643355 -0.000896114592457776 -0.0021011639440763853 0.003424059980075087 -0.0007959239055934632 0.0026102859096793123 0.0016420302175888795
-0.002135777322423325 0.001536558549102068 -0.0015400390866697098 0.00039547143179341477 0.0008337469225903637 -0.0014961760949101471 -0.000656398173601795 -0.0002640392739497252
0.0038607380174971837 0.005031733174179933 0.004445971290679182 0.005164799361952114 0.0034936094568455553 0.005441745645434715 0.005584128960504796 0.0033567402996076186
0.004981212230417415 0.004614652866574064 -0.00023374419966999498 -0.0003156279481524983 -0.0002052039073962264 -0.0004400554618552451 0.0022404484957101985 0.0013726669416238054
0.0009210824074034651 0.0011858903911166827 -0.0017847488113434224 0.0011133665016966156 -0.0010051869285013098 0.0001703747015438605 0.000954086566821768 0.0004776775552848528
0.0004186305857207428 0.000577512250362687 0.0007901039285534174 0.0019199507068119721 0.00034491143631726573 0.0010155454128890926 0.0009687233177090206 0.0006804711823288642
-0.0014692544654828726 0.0010640531070785992 -0.0007839195083709407 0.0013267001031445956 -0.0006129571944193233 -0.0018289353181631719 0.0034460654383435974 0.0003667892699531925
0.002410227603637464 0.0009751673226468391 -0.0012421724731348724 0.0009144179604621846 -0.0007752650570283231 0.000505025758613416 -0.0001448973787974845 -0.00012272920146182733
2.446724319226265e-05 -0.00029939344372475324 0.0023563233730681814 0.0029422665688425445 0.002685517175055191 0.0030085180111399045 0.0021856240360390877 0.003158284208806983
0.0033509259100096317 0.001985610692282204 0.002979254020944034 0.002783732716710776 -0.0004960593032705891 0.00031015787093668744 -0.0005861565428468128 -0.00045781723388535104
0.0019101227242350747 0.002268950999307575 0.00032439213226475173 0.0004672969235371635 0.00011643851069084915 0.00010033542064468634 -0.00216687591709831 2.8461925742108284e-05
0.000499275898567217 0.0015180104112798827 0.0026240429363711074 0.0006368644597394138 0.0018184347659448688 0.0011473809008577833 0.0010589656880718196 -0.00021762375112062323
-3.8820515143863166e-05 0.0016794533089424506 -0.0017134344624225577 0.0037849228898330276 -0.0012060654680234515 0.003360489265462817 -0.0008524141158207303 -0.0020941571578329573
0.0014695591048362042 -0.0016502961895345555 0.002868982724762231 0.0030190401246512075 -0.0030746241123913885 0.002943709405956845 -0.0005622239994368464 0.0007270890805646554
0.002398730580876996 -0.0014469490871287965 -7.98025483655337e-05 -0.0003223712112498104 0.0003080738227297651 0.0007699082628635979 0.0003762831629614594 0.0006173101401294014
0.00022168413948016048 0.0007713151943991994 0.0010542454913487866 0.0005621472865544039 0.0007370129998576954 0.0005494954422153827 0.0005426267168456644 -0.0008205821250644052
0.000886182397271238 -0.0013343847912039289 0.002345119647430854 0.0007533304780880356 0.0019734101185507635 0.00043842899454912647 -0.0020056427101824968 0.00040056523924800495
-0.0002752991464589524 0.0005127153986844504 -0.00026917604735822486 0.0012711772845067607 0.0002498393503300347 -0.00016503161175499234 0.0009229076884472699 0.0013039132342002138
0.0007187947830048764 0.0008349595241920229 0.0013698965022786323 -0.00016254499389122532 -0.0011329032651258087 0.0014029008563593735 -0.0005643185355650678 0.0011095267796972974
0.0005284277994378574 -0.0010481566534028567 0.00359974513133154 0.0007889987316233982 0.0022516991080426645 0.00017202124065454296 -0.0007495979268737106 0.0008291924648113054
-0.0006998441995765202 0.0004295183459248629 4.388231540306007e-05 0.0005556067567937071 7.807999027248674e-05 -0.00034752280211934974 0.0007104839093523314 0.000795227820006532
0.0006321843572800195 0.0008793066761947665 0.0006978332022415568 0.0008570893017223445 0.0010772167645823874 0.0006949371404699307 0.0008718944914784934 0.0009082554396107568
5.5467967767705074e-05 -0.00037996563969567454 8.004158569389361e-05 0.00038033505619921486 0.0015852640450109566 2.3803131938802422e-05 0.0006979547596511158 0.0018066744203258176
-0.001048360385326519 0.0008942755214842225 -0.0004227101296740856 -0.00028239623955088106 0.001554138573827156 -0.00024687042864463 -0.00020638000925252806 0.0007755982251785994
0.0003971527517101526 0.0010685744326665028 0.0002187531075161631 0.0010002223550758418 -0.0004851172606268829 0.0010892483479583034 -0.0009460889665026886 0.0005555644807920729
-0.0005187767467069268 0.0005580604891250542 -0.0004639132750478594 -0.0014132955416272465 0.002491794429863635 9.783513747374449e-05 0.0011200010352675166 6.853165566798015e-05
-0.000759250162676011 8.26783367745571e-05 -0.0011692300840045193 0.00026743245941253477 5.0311098024418714e-05 -0.0005081583223953 -0.0007640872094774738 0.00010523803007406524
0.003608860427982248 0.004596349468965139 0.004313288077323461 0.004713367234640032 0.003330173393283904 0.005031479006614712 0.004947584448956323 0.0030082141382907577
0.004565365750112273 0.004232010279887803 -0.0013035729205759612 0.0011496857098525501 -0.0007751698856929064 -0.0009961993026911511 -0.000920802034006542 0.0010616002612976435
00000000: 8033 0b1f 3a86 2ebf 416a 80f2 9561 51bf
00000010: 7e25 2a44 ee6d 283f 77ef 1bfa 9d73 41bf
00000020: 03c9 e7a0 8b10 623f c08b aaa8 e285 553f
00000030: fbc1 8ed5 9014 4f3f 407c 7d32 7de7 643f
00000040: 5b6b f8c3 f7b7 56bf ae92 12af 389e 513f
00000050: cc1b 6a11 4a0e 57bf 2806 d5d1 0853 3dbf
00000060: f62f 8916 7ccb 533f 7233 6825 4b38 453f
00000070: d275 2cbd b533 283f 2c23 4deb 7029 4e3f
00000080: 21be cd68 ce93 513f 3d0e 8c6e acc5 5e3f
00000090: 14f5 5006 122f 523f 37f3 d550 7d9e 533f
000000a0: ff03 ccbc 1627 353f fd5f 16a0 06f4 583f
000000b0: 33bf 3010 3b55 62bf a0f2 a57f c9a7 653f
000000c0: 838f bff2 0648 50bf 2443 7f2c 8754 653f
000000d0: d510 1d6f 275d 4dbf 7605 8ccd 7536 61bf
000000e0: c870 4934 c60c 6c3f ed2f 8392 b114 4abf
000000f0: 6a64 b093 2a62 653f 7d81 5985 2ce7 5a3f
00000100: 1608 0bb8 0c7f 61bf 18c4 df2d cb2c 593f
00000110: d176 c160 643b 59bf fdc7 b5dd e8ea 393f
00000120: 145a 01e2 f951 4b3f ee77 63d9 6a83 58bf
00000130: bfbd 2958 4482 45bf 8ab2 e50b d84d 31bf
00000140: d91e c1f0 8da0 6f3f 8208 ce96 279c 743f
00000150: b0c2 ad54 f035 723f eb8a 9945 af27 753f
00000160: 5eb7 964b a19e 6c3f cde0 4879 154a 763f
00000170: 3236 3134 62df 763f ccf8 da39 987f 6b3f
00000180: 3a39 fcf9 2d67 743f 252b 4f72 d0e6 723f
00000190: bcb9 ec62 27a3 2ebf e474 0bb7 5baf 34bf
000001a0: ae93 7e24 80e5 2abf 221a 2dd1 e7d6 3cbf
000001b0: 7aee 8ea0 8f5a 623f 1343 d8e7 617d 563f
000001c0: 1e3e 8a68 992e 4e3f 603d 931c fc6d 533f
000001d0: b1d0 ae71 c73d 5dbf afde a52d cc3d 523f
000001e0: c570 fe3e 0f78 50bf 4549 da8a d354 263f
000001f0: ae0d 104d 7543 4f3f cd01 5d7a 194e 3f3f
00000200: 471d beac 746f 3b3f 5a7a 3a1d 86ec 423f
00000210: 1649 4c44 dfe3 493f 7960 b95f db74 5f3f
00000220: 2ba4 c856 a79a 363f 8964 8095 81a3 503f
00000230: a59b f57b 3dbe 4f3f 1225 abbc 344c 463f
00000240: 6974 3df8 7f12 58bf 6476 f352 f66e 513f
00000250: a6de 5853 feaf 49bf 99a9 7e63 95bc 553f
00000260: 6fe7 4b8d db15 44bf 9a51 3158 1cf7 5dbf
00000270: 2425 714b ec3a 6c3f 1bcb 41eb b309 383f
00000280: 8827 7917 9dbe 633f 8381 23e1 4bf4 4f3f
00000290: 6590 7a89 0c5a 54bf 1173 169e b1f6 4d3f
000002a0: fad0 6708 6567 49bf 0fff f58e 768c 403f
000002b0: 02ea a401 f3fd 22bf da5e 26d0 1b16 20bf
000002c0: 1775 3b26 e0a7 f93e 7ebf a70c fd9e 33bf
000002d0: 81a4 6f7a 914d 633f e7af 0e56 611a 683f
000002e0: 4017 120e f0ff 653f 33e6 f3ce 51a5 683f
000002f0: 454b 32f8 95e7 613f 80f2 6cec 66df 693f
00000300: 09e3 3ba6 6673 6b3f 03d2 8c9f 2044 603f
00000310: 350b c4d2 f267 683f 6b9b 541f e9cd 663f
00000320: be98 013e 3f41 40bf df87 8ae9 9553 343f
00000330: 794d 4797 0935 43bf bb9d 0d0c e600 3ebf
00000340: ffa3 71a8 a24b 5f3f 05f7 d2ca 5596 623f
00000350: 4e57 6299 6542 353f 9495 0d01 f19f 3e3f
00000360: 8fb8 b361 0e86 1e3f 2bde b466 654d 1a3f
00000370: 1a84 59a6 44c0 61bf d567 d6a4 30d8 fd3e
00000380: 1bb3 f8d3 3a5c 403f 7462 9244 ffde 583f
00000390: 345a 0a53 047f 653f 7d7f 6603 68de 443f
000003a0: 778b 6076 11cb 5d3f 8ccc 7edc 76cc 523f
000003b0: 8dd9 dcbf 9f59 513f deb9 acc9 3d86 2cbf
000003c0: ce1d 60be 665a 04bf 784d 5f42 2384 5b3f
000003d0: fd67 b73e aa12 5cbf 2b6c f300 8f01 6f3f
000003e0: 5bdb 7cef 9ac2 53bf ca91 ccef 7487 6b3f
000003f0: bc3c 0360 91ee 4bbf 87af 2d10 c427 61bf
00000400: ff2c de12 c713 583f 18bb 6a0a d809 5bbf
00000410: 2677 385f b180 673f 82d7 38d3 62bb 683f
00000420: 66ac 5340 f42f 69bf 8b94 14f4 671d 683f
00000430: 40d4 65d8 466c 42bf 1c41 41e9 43d3 473f
00000440: b56f b2ac 80a6 633f 4f45 86c0 f1b4 57bf
00000450: f38e 6a57 75eb 14bf f2b9 3acf 7d20 35bf
00000460: fd05 4efe 9e30 343f b96f ab67 753a 493f
00000470: 5330 03e1 fba8 383f 6816 826e 5f3a 443f
00000480: 9899 1a42 7c0e 2d3f 7d0b 76c4 4246 493f
00000490: af2d 117a d345 513f fe6d 0b1b a26b 423f
000004a0: a132 955d 8326 483f de17 107a 8001 423f
000004b0: 475b 5b00 e2c7 413f 8fd7 06b2 8ae3 4abf
000004c0: 53a8 1035 d609 4d3f 7ccb 76c2 d0dc 55bf
000004d0: a509 1c86 1236 633f eba0 1be2 64af 483f
000004e0: c5f4 767d 8a2a 603f e0fd 7531 9ebb 3c3f
000004f0: 7d50 203b 236e 60bf 386e 3c9a 5e40 3a3f
00000500: 42ff a5d4 c00a 32bf 40f3 4bef f7cc 403f
00000510: 0839 fd51 06a4 31bf f2e9 5137 b4d3 543f
00000520: 4c8d c3d6 9b5f 303f 5984 26c0 8aa1 25bf
00000530: ede3 672b e93d 4e3f 2a4e a72c 025d 553f
00000540: f104 f30a b08d 473f 2125 c9ec 255c 4b3f
00000550: c7b8 462b c371 563f c8ee a3dd 1a4e 25bf
00000560: a4ad 499e bd8f 52bf 4cc7 0b53 31fc 563f
00000570: d4c8 cfd3 d87d 42bf 57c9 e64e b12d 523f
00000580: 5e04 f60e c650 413f 0c6c 09a3 492c 51bf
00000590: f6ba 9d73 367d 6d3f 7137 dcdf 99da 493f
000005a0: d876 f1c0 2772 623f 86f3 a534 138c 263f
000005b0: 1d91 604a 1590 48bf f2b4 5c42 c52b 4b3f
000005c0: c171 88f9 b7ee 46bf 1200 b03f 1f26 3c3f
000005d0: 1eb0 50e0 c801 073f 5a65 c86c c434 423f
000005e0: d910 ce04 dc77 143f 44f7 d811 77c6 36bf
000005f0: 251f d793 f847 473f 8e00 6abd da0e 4a3f
00000600: 051e dd91 25b7 443f 1eb9 6db5 28d0 4c3f
00000610: ae6e 0e64 d9dd 463f ea9f a442 c915 4c3f
00000620: f7c9 92b1 2ca6 513f 6292 4225 8ec5 463f
00000630: 7387 c929 fb91 4c3f d8e1 6bb4 ffc2 4d3f
00000640: 50d1 3cdc c814 0d3f 8330 00ff c3e6 38bf
00000650: 6d4a b4f8 7ffb 143f 88eb bda0 f6ec 383f
00000660: c26c a54e 14f9 593f 62d7 81c5 9af5 f83e
00000670: d5f1 f26e dede 463f a33c 30e3 bd99 5d3f
00000680: 010a 7164 242d 51bf 3457 270f ba4d 4d3f
00000690: 235f c12e e6b3 3bbf d6c2 069d d281 32bf
000006a0: 6048 4696 8776 593f 014c d96a cc2d 30bf
000006b0: f5cc d3c7 f60c 2bbf 777c 8881 306a 493f
000006c0: 2a30 8214 1e07 3a3f 011a 770f ed81 513f
000006d0: c4fd a6e2 22ac 2c3f ce1c 7193 3c63 503f
000006e0: 9ce3 e4c4 eaca 3fbf c66b 0782 a3d8 513f
000006f0: c546 ca95 5e00 4fbf b31b 4ea3 6934 423f
00000700: 5aae 9c94 d0ff 40bf 54ce 65c6 5949 423f
00000710: 42dc 3158 2c67 3ebf 6733 6088 ca27 57bf
00000720: 7d33 b5f2 ab69 643f ce9f 07dd 9aa5 193f
00000730: 6e75 59f4 9f59 523f 8259 1ce1 14f7 113f
00000740: 5f65 204f 0de1 48bf 7f60 9802 73ac 153f
00000750: 8224 3a3e 1b28 53bf 12d1 c4aa c586 313f
00000760: b2af 452a a460 0a3f 84c5 1cb0 bda6 40bf
00000770: 814a bac9 a009 49bf fab0 0097 6796 1b3f
00000780: f6c9 7230 5490 6d3f fa2f 672a 9fd3 723f
00000790: 8b6f af73 cfaa 713f 2771 07e2 524e 733f
000007a0: 10a1 0d3a e147 6b3f 7ef0 8a5c e39b 743f
000007b0: c27f 7016 eb43 743f d481 fcaa aea4 683f
000007c0: a8c7 7409 22b3 723f d1aa f99b 9555 713f
000007d0: acf0 f4c3 945b 55bf 8454 91a1 21d6 523f
000007e0: 3a1b 69a7 9866 49bf 770a 39db 5c52 50bf
000007f0: dc8e a24f 3f2c 4ebf f431 d699 ac64 513f

linear.bias f8 [110]
1.0444736441791784 0.05413073349154951 0.28122295693412275 0.041161726561839085 -0.023258970983011273 -0.15440949366423498 0.07106471549377218 0.09217781593098293
-0.11047802338089327 0.07639942664137025 0.053474374911972565 1.0866779987875355 -0.014584873275951272 0.23424379764058703 0.20742398512272675 -0.013428017595205457
0.0979293576195096 0.04589673675817049 -0.0912728854356375 0.12082520971095037 0.2837509065269589 -0.015168911918133318 0.8598370883644353 -0.0694617241449206
-0.0065058204194379686 0.056614799399968684 0.1998837525504776 0.07135328840706269 -0.024251021575788134 0.04524406906906153 0.0404472491324263 0.23409514376349308
-0.06956583662128187 0.8766878019993025 0.07648400382039484 -0.09774487921899518 0.05494471094709911 0.19528991024850303 0.09023643886389647 0.10811173558010125
-0.024040419914070542 0.2061698333290137 -0.0061969613043740615 0.07669790439586556 0.9770777039639166 -0.10656033216203627 0.1830228159379311 -0.11744316879715304
-0.022138470281661573 0.17041265485269122 -0.15602511193449767 -0.012089393946650618 0.05652960108283988 -0.0972218275101275 -0.1053330918367258 1.1414162938118984
-0.061401396685016166 0.07496300127298806 -0.02449903731304194 -0.074675626128426 0.07053700491128537 0.09689520187907226 0.19963810069260282 0.055273928814602066
0.18283289519862816 -0.06257551354477417 1.1023056748973015 -0.16501174147292777 0.03217832281521537 -0.1008151430246883 0.09262526708741198 0.04746967735524421
0.07190866052509105 0.1946595251603075 -0.11671814675638324 0.07682471256976227 -0.1643472607847062 0.9870278830060312 -0.04494525708701326 0.06055395024868158
-0.1110866594412177 -0.09073187008636706 -0.024487304568663455 0.088741074687506 -0.021986297119454396 -0.024930797873555476 0.03181423300263354 -0.04566214825835459
0.9328350177100645 -0.2071068788769699 0.07597397610479889 0.12106091134898024 0.04518433416779567 0.10760060509161669 0.17053922097918522 -0.07266331761079288
-0.09985993455170573 0.06023133149926669 -0.20670220913213472 0.9315282715443922 0.14896453810925056 0.15404972207976209 0.14724157504027519 0.1574042116102121
0.09771023362978058 0.11280794584656252 0.11493169482885454 0.15085212416276952 0.08932935017361307 0.09982908431630726
00000000: 4489 f4fe 29b6 f03f 4001 1c04 06b7 ab3f
00000010: 81a7 ba92 8eff d13f 1828 dc5a 2613 a53f
00000020: b0b3 d71e 33d1 97bf 5d6a bdb6 b0c3 c3bf
00000030: ebfe f114 4c31 b23f 8e1c d720 f798 b73f
00000040: 3e00 59a9 4948 bcbf 2a9b dbae e98e b33f
00000050: bb88 d746 fe60 ab3f fd33 2178 0863 f13f
00000060: 0762 e48d acde 8dbf ed1d 1465 b3fb cd3f
00000070: 7c09 4180 de8c ca3f e145 5f03 2680 8bbf
00000080: f848 4bfc e511 b93f 4c2a bdee c67f a73f
00000090: 7026 f5e9 a85d b7bf e2a9 3da4 66ee be3f
000000a0: d297 ef8f f928 d23f 8b94 d5e4 e010 8fbf
000000b0: 3638 cd11 c983 eb3f 8ab5 8659 3ec8 b1bf
000000c0: 3350 f6de d8a5 7abf 4bf1 c86f 9dfc ac3f
000000d0: 1b60 1a72 ca95 c93f b19e 2b88 3544 b23f
000000e0: 531a 4082 42d5 98bf d0aa fa09 3b2a a73f
000000f0: 964f 7978 80b5 a43f 71ed 4e65 d4f6 cd3f
00000100: 9d10 3511 11cf b1bf bc73 cc93 d30d ec3f
00000110: 5d63 13a7 7494 b33f 8dd8 98f3 ce05 b9bf
00000120: e540 3691 b621 ac3f bfc7 e080 42ff c83f
00000130: cbf3 d339 bc19 b73f 995d a1f0 35ad bb3f
00000140: 968d 4045 0d9e 98bf fbf1 c8e9 c563 ca3f
00000150: 6898 3022 fc61 79bf 614e 0d4f 79a2 b33f
00000160: 15a0 0576 3844 ef3f edd4 afb5 8947 bbbf
00000170: eb07 70a8 4a6d c73f 4b54 1f69 c110 bebf
00000180: f770 5f97 77ab 96bf 295b b5f5 14d0 c53f
00000190: 1d84 8e80 a1f8 c3bf 6ddb 08fd 52c2 88bf
000001a0: 0f3e d0a7 72f1 ac3f 8e04 9d99 87e3 b8bf
000001b0: c913 a008 1cf7 babf b6b2 50bb 3d43 f23f
000001c0: 5ab9 61fd 0070 afbf 31a3 e076 c630 b33f
000001d0: e407 2c90 4616 99bf 5da8 071c f11d b3bf
000001e0: 7a73 4091 b60e b23f 2dbe 35bb 1fce b83f
000001f0: fd50 c1c4 bd8d c93f 2609 2949 dd4c ac3f
00000200: d66b c17c 1167 c73f a688 34e8 f204 b0bf
00000210: de10 7e46 0ba3 f13f 9186 8ad0 1a1f c5bf
00000220: 6f51 4358 ad79 a03f 988b 3b6e 05cf b9bf
00000230: 9477 ec1c 4ab6 b73f 70bb 950f f24d a83f
00000240: 7922 4121 9b68 b23f 748e 3573 9aea c83f
00000250: e71b 2b8f 3de1 bdbf ad00 03cc c8aa b33f
00000260: a5f5 20bf 5409 c5bf 5708 b87f bb95 ef3f
00000270: 021b 9992 1003 a7bf bd63 ec67 ed00 af3f
00000280: 5469 52e1 2c70 bcbf 6fd2 b92e 343a b7bf
00000290: 258d 2831 3313 99bf 5640 982d bcb7 b63f
000002a0: f54f 5a6c 9383 96bf 66d4 1e86 7587 99bf
000002b0: 5157 9684 f449 a03f c295 de72 0761 a7bf
000002c0: 191b b4d2 c8d9 ed3f e1cf c66b 7a82 cabf
000002d0: 349a b7ce 0773 b33f 015d 110f d9fd be3f
000002e0: 929d 15ab 6622 a73f 4df7 e597 b68b bb3f
000002f0: ca3c 65ac 3ad4 c53f edd8 c12c 109a b2bf
00000300: 018d 14b1 6b90 b9bf c9bf f71d a4d6 ae3f
00000310: 62e2 1dce 3775 cabf 6ea4 b260 14cf ed3f
00000320: 77b3 b81d 4511 c33f 082e 25bb e6b7 c33f
00000330: e26a b4da cfd8 c23f cf2b 8f3a d225 c43f
00000340: 3fa7 ecb1 8903 b93f 21d2 2346 fbe0 bc3f
00000350: 0e54 90de 296c bd3f 45d6 e755 1f4f c33f
00000360: c68f 91cd 49de b63f b302 541c 668e b93f
